mnist_gan/MNIST_GAN_CNN/save_mode_collapse/G--10.ckpt (torch_old, 537904 bytes, 7 tensors)

l1.0.weight f4 [256, 128]
0	0x3dcc3276	0.09970562
1	0x3d963252	0.073338166
2	0xbcafb6fa	-0.021449555
3	0x3e05d384	0.13068968
4	0x3d8731ad	0.06601272
5	0x3dbe7467	0.09299546
6	0x3d081c7a	0.033230282
7	0xbe66f9cc	-0.22556227
8	0xbe0e7a72	-0.13913897
9	0x3d8afd13	0.06786551
10	0xbd85aa0e	-0.06526576
11	0x3e30249e	0.17201468
12	0xbdbe5606	-0.092937514
13	0xbd711fbc	-0.058868155
14	0xbd48ac6b	-0.048992556
15	0xbc3f5787	-0.011678583
16	0x3e075b73	0.13218479
17	0xbd383f09	-0.04498199
18	0xbd5d0fce	-0.05397015
19	0xbdaf557c	-0.08561227
20	0xbdb99059	-0.09060735
21	0xbd034859	-0.032051418
22	0xbd954c80	-0.07289982
23	0x3c59a4bf	0.013283907
24	0xbd7a013a	-0.061036326
25	0xbd217aab	-0.039423626
26	0x3e40618e	0.18787214
27	0xbde9022a	-0.11377366
28	0xbd14a320	-0.03628838
29	0x3cb0a5ef	0.021563498
30	0xbdf4d520	-0.11954713
31	0xbdd1ead0	-0.10249865
32	0xbd32b498	-0.04362926
33	0xbe008324	-0.12550026
34	0x3d39e955	0.04538854
35	0xbd99ae16	-0.075039074
36	0xbc83aca2	-0.016073529
37	0x3d410267	0.04712143
38	0x3d8413f8	0.06449121
39	0xbd47b3a9	-0.04875532
40	0x3d1b15ab	0.03786246
41	0xbde14ee6	-0.11001377
42	0xbd801687	-0.06254297
43	0xbcc75c4d	-0.024336005
44	0xbca8ae1c	-0.020590834
45	0x3e165549	0.14680971
46	0x3d408112	0.04699809
47	0x3d1304db	0.035893302
48	0xbdbf6ea8	-0.09347278
49	0x3d3eeab0	0.046610534
50	0xbbe27ffa	-0.0069122287
51	0x3d2f62fc	0.04281901
52	0x3e22f055	0.15911992
53	0x3c7a26df	0.015268057
54	0x3cc5252e	0.02406558
55	0x3d260308	0.040530235
56	0x3d91f979	0.07127661
57	0x3d715d3e	0.058926813
58	0x3d64b6e5	0.055838484
59	0xbd88911f	-0.06668305
60	0xbdb6ceae	-0.0892614
61	0xbdbc88ae	-0.09205757
62	0xbd8964c2	-0.06708671
63	0x3ae7da41	0.0017688946
64	0x3c7be354	0.0153740235
65	0x3d200d2e	0.03907507
66	0xbde09020	-0.1096499
67	0x3ddb38c5	0.10704187
68	0xbe0bf2fa	-0.13666907
69	0xbd5621e2	-0.052278407
70	0xbd066b9e	-0.032817475
71	0xbd8b813d	-0.068117596
72	0x3e3e8bfc	0.18608087
73	0x3d51c33d	0.051211584
74	0xbd15ecb6	-0.0366027
75	0x3d23a361	0.039950732
76	0xbd314a73	-0.04328389
77	0x3d89774a	0.06712206
78	0xbdcb5bd2	-0.09929623
79	0x3ca52cd4	0.020162977
80	0x3d0aa753	0.03385098
81	0x3be0d5f0	0.006861441
82	0x3e0e93f0	0.13923621
83	0xbd690b8e	-0.056895785
84	0x3c7271bb	0.014797623
85	0xbdc2579a	-0.09489365
86	0x3d857abc	0.0651755
87	0xbdf5c419	-0.12000293
88	0x3e422221	0.18958332
89	0x3badf2ca	0.0053084837
90	0x3de918ca	0.11381681
91	0xbd7b9499	-0.06142101
92	0xbdaa5533	-0.08317032
93	0x3dc1b665	0.09458617
94	0xbde27902	-0.11058237
95	0xbd17222e	-0.03689783
96	0x3e1d288a	0.15347496
97	0x3cd84247	0.026398791
98	0x3dd3bbe0	0.10338569
99	0xbdac366f	-0.0840882
100	0xbce265e7	-0.027636481
101	0xbe60a064	-0.21936184
102	0xbc3112a8	-0.010807671
103	0x3c5f6f39	0.013637357
104	0xbe05034e	-0.12989542
105	0x3d175e3a	0.036955096
106	0xbe28fa8e	-0.16501829
107	0xbb436065	-0.0029812094
108	0x3ac49ef8	0.001500099
109	0xbdf887b0	-0.12135255
110	0x3d4e4dac	0.050367042
111	0x3cf55f0f	0.029952554
112	0xbd1dd48e	-0.038532786
113	0xbdcb5bfa	-0.099296525
114	0x3d0f6915	0.035012323
115	0xbdb20bc4	-0.0869365
116	0x3d2061ea	0.039155878
117	0xbd85fc24	-0.06542233
118	0xbdc02f97	-0.09384077
119	0xbde10735	-0.10987703
120	0xbcfb576b	-0.030681333
121	0xbdf67bd0	-0.12035334
122	0xbd6ef2bf	-0.05833697
123	0x3d8cf4d4	0.06882635
124	0x3c8ef183	0.017449146
125	0x3d91dba3	0.071219705
126	0x3d309833	0.0431139
127	0xbd91e85b	-0.071243964
128	0xbce8cfd4	-0.028419413
129	0xbcd2a50c	-0.025713466
130	0x3dc1898c	0.09450063
131	0xbd7c7c86	-0.061642192
132	0xbd0d2d50	-0.03446704
133	0x3d105af0	0.035242975
134	0x3d8f5262	0.06998135
135	0x3d035a2d	0.03206842
136	0x3d0e85c0	0.034795523
137	0x3be33443	0.0069337203
138	0xbdbd7d9f	-0.09252476
139	0xbb689579	-0.0035489483
140	0xbe0627cc	-0.13101119
141	0xbc2504e8	-0.0100719705
142	0x3ddb4fc1	0.10708571
143	0x3c21702e	0.009853406
144	0x3d06c3af	0.032901462
145	0x3e219e79	0.15783109
146	0x3d9314ab	0.071816765
147	0x3d1fdaac	0.0390269
148	0xbd21ccfd	-0.039502133
149	0xbcaa8571	-0.020815583
150	0xbb79f913	-0.0038142845
151	0x3dd70d6b	0.10500606
152	0xbb912a9e	-0.004430129
153	0x3d928547	0.07154327
154	0x3c5d50e1	0.013508053
155	0x3d9b6bee	0.07588945
156	0xbdde7f80	-0.108641624
157	0xbd94fdf5	-0.07275001
158	0xbdf016d8	-0.11723107
159	0xbdaf5930	-0.08561933
160	0x3b0fb437	0.0021927485
161	0xbda9b1c1	-0.08285857
162	0xbe11b884	-0.14230543
163	0x3dc9e3b5	0.09857885
164	0xbe24b90a	-0.16086212
165	0x3d0163da	0.031589366
166	0xbdd6c574	-0.1048688
167	0xbd032a78	-0.032022923
168	0x3d803174	0.062594324
169	0x3aba610c	0.0014219596
170	0x3d9ba918	0.076006114
171	0xbde0ae6e	-0.1097077
172	0xbc24aea0	-0.0100513995
173	0x3d63b330	0.05559081
174	0xbdb42fad	-0.08798156
175	0xbcf4c6c7	-0.02987994
176	0x3d95ae0d	0.07308588
177	0x3e22bdd8	0.15892732
178	0x3d0841cf	0.033265885
179	0x3d49680e	0.0491715
180	0x3db32976	0.087481424
181	0x3d2fa1f0	0.042879045
182	0xbd04c438	-0.03241369
183	0xbc9be628	-0.019030645
184	0x3dbffab4	0.0937399
185	0xbd3aec23	-0.045635354
186	0x3b216f1d	0.002463288
187	0xbafc612b	-0.0019255033
188	0x3e0b6939	0.13614358
189	0xbd8b79ad	-0.06810317
190	0x3da8e9e0	0.08247733
191	0xba86ce78	-0.0010284921
192	0x3e37ae04	0.17937475
193	0xbda53bed	-0.080680706
194	0x3d96e262	0.07367398
195	0xbd2d2ebe	-0.042280905
196	0x3d1cac87	0.038250472
197	0x3ba65b21	0.0050767814
198	0x3dc7228f	0.097233884
199	0xbd8223c7	-0.0635448
200	0x3d98869a	0.07447548
201	0xbe119a39	-0.14218988
202	0x3d8d1fd0	0.068908334
203	0x3db551e0	0.08853507
204	0x3d052c94	0.032513216
205	0x3d7ec92c	0.06220357
206	0xbde3896a	-0.11110194
207	0x3d42ddf3	0.04757495
208	0x3c9a3954	0.018826164
209	0xbdad1d59	-0.08452863
210	0xbc6530c6	-0.013988679
211	0x3db21517	0.08695429
212	0xbae8d350	-0.0017763171
213	0xbcd9d3d8	-0.026590273
214	0x3cc95f89	0.024581688
215	0xbc93b6ee	-0.018031564
216	0xbcac0621	-0.020999016
217	0xbcb5bfd9	-0.022186207
218	0x3c2ff752	0.010740118
219	0xbe03cacd	-0.12870331
220	0x3de6c686	0.11268334
221	0x3e580b84	0.21098143
222	0x3ccbcd2f	0.024878113
223	0x3c158367	0.009125567
224	0xbdd141f4	-0.10217658
225	0x3d802126	0.062563226
226	0x3d85ba6d	0.065296985
227	0x3c31cda6	0.010852253
228	0x3dbeb432	0.09311713
229	0xbcce02e9	-0.025147872
230	0x3dfcd4c6	0.12345271
231	0x3db694ba	0.08915086
232	0x3ddd4fb8	0.10806221
233	0xbb7b2849	-0.0038323572
234	0x3dbe8f45	0.0930467
235	0x3c295a99	0.010336542
236	0xbe37ff58	-0.179685
237	0xbdc380cd	-0.09546051
238	0xbd02fefa	-0.031981446
239	0xbcbfd07f	-0.023414848
240	0x3d954196	0.072879
241	0xbccd7732	-0.02508125
242	0x3df3fc3b	0.119133435
243	0x3dae7406	0.085182235
244	0xbb9e2a7d	-0.0048268423
245	0x3deb7c0b	0.11498269
246	0x3da5d3fc	0.080970734
247	0xbb669b07	-0.0035187618
248	0xbd597ccd	-0.053097535
249	0xbdf64b92	-0.12026133
250	0x3d8d20ad	0.06890998
251	0xbcf9c790	-0.030490667
252	0x3d3d3e36	0.046201907
253	0x3c543ed6	0.012954434
254	0xbe060663	-0.13088374
255	0x3d95e1cf	0.0731846

l1.0.bias f4 [256]
0	0xbb26f3e3	-0.0025474958
1	0x3eb7f60d	0.3592991
2	0x3e6f4621	0.23366596
3	0xbe63404e	-0.22192499
4	0xbb9068c7	-0.0044070217
5	0x3e1bb4a2	0.15205625
6	0xbda15562	-0.078776136
7	0xbe5072dd	-0.20356317
8	0xbe5d3acd	-0.21604462
9	0xbcbdcdfd	-0.023169512
10	0x3eb1e911	0.34748128
11	0xbe2d9b17	-0.16953693
12	0xb98a2c48	-0.00026354403
13	0x3e9486b0	0.29009008
14	0xbde9f2bb	-0.1142325
15	0x3e9350ab	0.28772482
16	0x3f0ee909	0.55824333
17	0x3d7357f7	0.05941006
18	0x3b093118	0.0020933803
19	0x3e60bdfa	0.2194747
20	0xbcbbe879	-0.022938
21	0xbe83a8e8	-0.25714803
22	0xbeb301d0	-0.3496232
23	0x3eda9b0e	0.42696422
24	0xbe785890	-0.24252534
25	0x3e9b1c69	0.30295113
26	0xbe3f97c9	-0.18710245
27	0x3f18b972	0.5965797
28	0xbea31a02	-0.3185578
29	0xbf0ccec0	-0.55002975
30	0x3e50e0e8	0.20398295
31	0xbebadca9	-0.36496475
32	0x3efb71bd	0.49110213
33	0xbe17f6bb	-0.14840214
34	0x3e5e1293	0.21686773
35	0x3e61c30e	0.22047064
36	0xbed9cc37	-0.42538616
37	0x3d2be5f7	0.04196736
38	0xbf30bef1	-0.69041353
39	0xbda7a7b8	-0.08186287
40	0xbf1bd3d8	-0.6087012
41	0xbe98411e	-0.2973718
42	0xbe1a47ef	-0.15066503
43	0xbf0241a9	-0.5088144
44	0xbee60256	-0.44923657
45	0xbeef1d4e	-0.46702045
46	0xbd56ee04	-0.052473083
47	0xbe93e28c	-0.2888378
48	0x3ef41e08	0.47679162
49	0xbe0ae4ff	-0.13563918
50	0x3e840a30	0.25789022
51	0xbed3a97a	-0.41340238
52	0xbe6bcc76	-0.23027214
53	0x3d467520	0.048451543
54	0xbf32e9ca	-0.69887984
55	0xbd3ac5eb	-0.045598906
56	0x3dfba474	0.12287226
57	0x3f16437c	0.58696723
58	0xbe1682ce	-0.14698336
59	0x3f04ab89	0.5182424
60	0xbe94bfff	-0.2905273
61	0xbef7ca2c	-0.48396432
62	0x3f01f7f3	0.50768965
63	0x3ec4e5e7	0.38456652
64	0xbec6deeb	-0.38841948
65	0x3e0fdc23	0.14048819
66	0x3e568f35	0.20953067
67	0x3ec39c36	0.38205117
68	0x3eb60b98	0.3555572
69	0xbe0706ee	-0.13186237
70	0xbdea91c1	-0.114535816
71	0x3e88851e	0.2666406
72	0x3ec8d1b1	0.39222482
73	0x3f021ca4	0.5082495
74	0xbed76e7c	-0.4207648
75	0x3ec7d108	0.39026666
76	0x3eec76fc	0.46184528
77	0x3d13aa2d	0.036050964
78	0xbea4c652	-0.32182556
79	0x3eaa2e86	0.3323862
80	0xbedf7ffc	-0.43652332
81	0xbdf9c697	-0.12196081
82	0xbeb62f15	-0.35582796
83	0xbef3a291	-0.47584966
84	0xbf382c98	-0.71943045
85	0xbf04778f	-0.5174493
86	0xbea96fc2	-0.33093077
87	0x3ee9b713	0.45647487
88	0xbed8827f	-0.4228706
89	0xbea405e5	-0.32035747
90	0xbdb6bba0	-0.089225054
91	0x3ea4d8de	0.32196707
92	0x3e7dc2b0	0.24781299
93	0xbf029bd9	-0.51019055
94	0x3e453cfe	0.19261548
95	0x3e19dbf7	0.15025316
96	0xbf2a2749	-0.66466194
97	0xbe405605	-0.18782814
98	0xbb42988c	-0.0029692976
99	0x3d9a8356	0.075445816
100	0x3e35d92c	0.17758626
101	0xbed03e28	-0.4067242
102	0xbf10eb51	-0.56609064
103	0xbe37c3f9	-0.17945851
104	0xbe4eef78	-0.20208538
105	0x3ed2f94b	0.4120582
106	0x3d8393d0	0.06424677
107	0x3ef26f1a	0.4735039
108	0x3f1f52b6	0.6223558
109	0x3ebc33df	0.36758325
110	0xbca6bffc	-0.020355217
111	0xbe629b4f	-0.22129558
112	0xbefe493e	-0.49665254
113	0xbe9bf22d	-0.30458203
114	0x3e4d6f95	0.20062096
115	0x3edb3da2	0.4282046
116	0xbed22574	-0.410442
117	0xbf08dce0	-0.5346203
118	0x3e3274bf	0.17427348
119	0xbeb92801	-0.36163333
120	0x3e1ce893	0.15323095
121	0x3eff14ce	0.4982056
122	0x3f098e92	0.5373317
123	0x3f22d9ed	0.6361378
124	0xbea25e5c	-0.31712615
125	0x3ea9fa46	0.33198756
126	0x3e907b4b	0.28219065
127	0xbf11f0b0	-0.57007885
128	0x3e37f050	0.17962766
129	0xbddf5fb9	-0.109069295
130	0x3c8314a1	0.016001048
131	0x3da8710f	0.08224689
132	0x3e901bef	0.28146312
133	0xbe3dc015	-0.18530305
134	0xbde87036	-0.113495275
135	0x3e65611b	0.22400324
136	0xbf0b99ed	-0.5453175
137	0xbd421e73	-0.04739232
138	0xbeaa6cca	-0.33286124
139	0x3ea5e4de	0.32401174
140	0xbf259c89	-0.6469198
141	0x3e8099f1	0.25117448
142	0x3f08f959	0.53505474
143	0xbec04b8c	-0.37557638
144	0x3e8d00c3	0.27539644
145	0x3e1a397b	0.1506099
146	0x3e494eb0	0.19658923
147	0x3e8c0595	0.2734801
148	0xbea7f239	-0.3280199
149	0xbeb1bce0	-0.34714413
150	0xbf1f1eb9	-0.62156254
151	0xbdb79fc3	-0.08966019
152	0xbe67e331	-0.2264526
153	0xbcbdc751	-0.02316633
154	0xbeca9384	-0.3956567
155	0x3ef4e054	0.478274
156	0xbea0a677	-0.31377003
157	0xbf0201ae	-0.50783813
158	0x3da15980	0.07878399
159	0xbcabdf7e	-0.020980593
160	0x3e4e2cb2	0.20134237
161	0x3ebfaf62	0.37438494
162	0xbdfc041a	-0.1230547
163	0xbeea70d2	-0.457892
164	0xbe8478e8	-0.25873494
165	0x3f00e932	0.5035583
166	0x3eb6b09e	0.35681623
167	0xbf0adc05	-0.54241973
168	0xbe05f203	-0.13080601
169	0x3f04bd61	0.5185147
170	0xbdbd03b9	-0.09229226
171	0xbdd5f988	-0.10447985
172	0xbecce4e9	-0.40018395
173	0xbed62539	-0.41825274
174	0xbea83ae5	-0.32857433
175	0xbf28a969	-0.658835
176	0xbee39882	-0.44452292
177	0xbea9b665	-0.33146968
178	0x3aac4427	0.001314287
179	0x3df2d5c9	0.118571825
180	0x3dcbd7a0	0.099532366
181	0x3de37f39	0.1110825
182	0xbeb4ca46	-0.35310572
183	0xbe65573d	-0.2239656
184	0xbeec3253	-0.46132144
185	0xbf230f62	-0.6369535
186	0x3ea17259	0.31532553
187	0x3f11c8cc	0.56947017
188	0x3e4703b6	0.1943501
189	0x3f134947	0.5753369
190	0xbf18868f	-0.5958032
191	0x3ea58f31	0.3233581
192	0x3f0e8457	0.55670685
193	0x3c931cab	0.017958006
194	0xbef3a07d	-0.4758338
195	0x3e5c9a98	0.21543348
196	0x3eb4fff5	0.3535153
197	0xbef540df	-0.47901055
198	0x3e02c07e	0.12768742
199	0x3d8bff97	0.06835859
200	0x3ec7f0db	0.39050946
201	0x3ea6e675	0.325977
202	0xbe983a8a	-0.29732162
203	0x3efbad74	0.49155772
204	0xbd1a6599	-0.037694547
205	0xbd6cc69f	-0.057806607
206	0xbf136a48	-0.5758405
207	0xbda42344	-0.08014539
208	0x3e2457f0	0.1604917
209	0x3f1aa996	0.6041502
210	0xbc82d70e	-0.015971687
211	0x3e03abc8	0.12858498
212	0x3ea03847	0.31292936
213	0x3e2237f1	0.15841652
214	0x3d875069	0.06607134
215	0x3e88a97d	0.2669181
216	0x3ccae741	0.024768474
217	0x3f1bc757	0.60851043
218	0x3e1cf52c	0.153279
219	0xbed4250e	-0.4143452
220	0xbdb3627e	-0.0875902
221	0xbecf2a53	-0.40461978
222	0x3d628442	0.055301912
223	0xbf18ca2b	-0.59683484
224	0x3ef18ecc	0.47179258
225	0x3f1f476f	0.62218374
226	0xbee4941e	-0.44644254
227	0x3e059725	0.13045938
228	0x3eca3f09	0.39501217
229	0xbe89e64e	-0.2693352
230	0xbd498f6c	-0.049209043
231	0xbf151062	-0.58228123
232	0xbe8d3e39	-0.27586535
233	0xbd84bfc8	-0.06481892
234	0x3d8da235	0.06915704
235	0xbf01e205	-0.50735503
236	0x3ec900c7	0.39258406
237	0x3f141e7c	0.57859015
238	0x3d8a3800	0.067489624
239	0x3ed735ae	0.42033142
240	0xbe9bfd2d	-0.30466595
241	0xbea38b22	-0.31942087
242	0x3e8daa37	0.27668926
243	0x3e46c2a9	0.19410194
244	0xbf09ffe8	-0.53906107
245	0x3f1bcd1b	0.6085984
246	0x3d89c48f	0.06726944
247	0x3f2bd7f2	0.6712638
248	0xbf13d1ad	-0.57741815
249	0xbeb3df64	-0.3513137
250	0xbe3d612f	-0.18494104
251	0xbeeb84a1	-0.45999625
252	0x3ecea70b	0.4036182
253	0xbe5e4cb5	-0.21708949
254	0x3eb663cd	0.35623017
255	0x3e430214	0.19043761

l1.1.weight f4 [392, 256]
0	0xbe0e804e	-0.13916132
1	0xbcc53bb8	-0.024076328
2	0x3c90434d	0.017610217
3	0xbdb63b56	-0.08898036
4	0xbcc6147c	-0.02417969
5	0x3db2831f	0.087164156
6	0xbdc7735d	-0.09738801
7	0xbd68b37d	-0.0568118
8	0xbc3bbb48	-0.011458226
9	0xbd73d358	-0.059527725
10	0x3dd27e42	0.10277988
11	0x3d3d65fd	0.04623984
12	0xbcbb2f64	-0.022849746
13	0x3b3b26e2	0.0028557112
14	0x3ce37569	0.027765946
15	0xbcf95ec8	-0.030440703
16	0xbcd98114	-0.026550807
17	0xbd12c24d	-0.03582983
18	0x3bb057e4	0.005381571
19	0x3dfb64a2	0.122750536
20	0x3e03a31f	0.12855195
21	0xbc948874	-0.018131472
22	0xbcaa2aba	-0.020772327
23	0xbd230991	-0.039804045
24	0xbd9be8f6	-0.07612793
25	0x3d086f8d	0.033309508
26	0x3c6279d3	0.0138229905
27	0x3d10b853	0.035332035
28	0xbe0b872d	-0.13625784
29	0x3c7b6580	0.015344024
30	0xbdfd0c9b	-0.1235592
31	0xbc8d64ad	-0.01725992
32	0x3c3be977	0.011469237
33	0x395c4132	0.00021005122
34	0x3e10657b	0.14101212
35	0x3cae34d3	0.021265423
36	0xbdb3c9fb	-0.08778759
37	0x3d8890dd	0.066682555
38	0xbdacf697	-0.08445471
39	0xbc01dab6	-0.00792568
40	0x3cdb9bde	0.026807722
41	0xbc1e60b1	-0.009666608
42	0xba3aec84	-0.00071305805
43	0xbda4bf0f	-0.08044254
44	0xbcddd24b	-0.027077815
45	0x3df868ee	0.12129389
46	0xbca11af1	-0.019666167
47	0x3d91d2d9	0.07120294
48	0xbc46af75	-0.012126793
49	0xbd124f7d	-0.035720337
50	0xbbe0269a	-0.006840539
51	0x3d9f3be3	0.07775094
52	0x3dd9aafa	0.10628314
53	0xbd182257	-0.037142124
54	0xbdc9ec7a	-0.098595574
55	0xbc75208d	-0.014961374
56	0x3d9c2cdd	0.076257445
57	0x3cafb5b6	0.021448951
58	0x3d83c105	0.064333
59	0x3d0f9b49	0.0350602
60	0xbd7b0fa2	-0.061294205
61	0x3d09b289	0.03361753
62	0x3dc4e50e	0.09614001
63	0x3d31ce8a	0.04340986
64	0xbd5af758	-0.05345854
65	0x3df1ac0f	0.11800396
66	0x3ca2d6f1	0.019877883
67	0x3d7ea7ae	0.06217163
68	0xbd2483e5	-0.040164847
69	0x3dabe2fd	0.08392904
70	0xbe2e7bd8	-0.1703943
71	0x3c2c5219	0.0105176205
72	0x3cbdc062	0.023163024
73	0x3d941f38	0.07232517
74	0xbd0e2176	-0.03469988
75	0xbc915a83	-0.017743355
76	0x3cf39a8d	0.029736781
77	0x3db73cec	0.08947167
78	0xbdb83c7d	-0.08995912
79	0x3cfe4ce4	0.031042524
80	0xbd96b0a1	-0.07357908
81	0xbd928a91	-0.07155336
82	0x3c6a10c5	0.014286225
83	0xbcc18835	-0.023624519
84	0xbca6d2d9	-0.020364212
85	0xbcb5d6fc	-0.02219724
86	0x3d0b04e5	0.033940215
87	0xbd4352a2	-0.047686227
88	0xbd397ab7	-0.045283046
89	0x3d2d28a0	0.04227507
90	0xbd7c940c	-0.061664626
91	0x3d94579c	0.07243273
92	0x3cc095b3	0.023508882
93	0xbe063d49	-0.13109316
94	0x3ca86ee3	0.020560687
95	0x3e094dca	0.1340858
96	0xbbaf742a	-0.005354424
97	0xbe1117fc	-0.14169306
98	0x3d408cd3	0.0470093
99	0x3d909bdb	0.07060977
100	0x3d34227f	0.04397821
101	0x3d7cda5a	0.061731674
102	0xbd544d9f	-0.051831838
103	0x3d795c6d	0.06087916
104	0xbd11a154	-0.035554245
105	0x3dafcd18	0.085840404
106	0xbcff524f	-0.031167177
107	0x3e03e40f	0.12879966
108	0xbaf006a1	-0.0018312522
109	0x3d3d2fe3	0.046188246
110	0x3d6871b4	0.05674906
111	0x3da387b1	0.079848655
112	0xbb7f2631	-0.0038932676
113	0xbde78466	-0.1130455
114	0xbcd947af	-0.02652344
115	0x3d832c30	0.064049125
116	0xbe00ed3f	-0.12590502
117	0xbd646a97	-0.055765714
118	0x3cfe7c40	0.031065106
119	0xbd245d42	-0.040128
120	0x3de6dcdd	0.11272595
121	0x3cb0acaf	0.021566717
122	0x3d5a8ed9	0.053358886
123	0x3c347fe2	0.011016818
124	0xbddde307	-0.10834318
125	0x3c857444	0.016290791
126	0x3bbe5d0a	0.005809431
127	0xbc92e03f	-0.017929194
128	0x3d8f43d3	0.06995358
129	0x3e0b62ce	0.1361191
130	0xbcc43533	-0.023951149
131	0xbd2fa54f	-0.04288226
132	0x3d3e184b	0.046409886
133	0xbdd8c24f	-0.105839364
134	0xbd96d7b7	-0.07365363
135	0xbd331fa1	-0.043731336
136	0xbe1e6033	-0.15466385
137	0xbd707f73	-0.058715295
138	0xbc68cb55	-0.014208634
139	0xbc2c44d1	-0.010514454
140	0xbcfe1f9b	-0.03102093
141	0x3d77fdde	0.06054484
142	0x3d78b3ea	0.060718454
143	0x3d2098fc	0.039208397
144	0x3d8c390a	0.06846817
145	0xbe3900c4	-0.18066698
146	0xbd64d058	-0.055862755
147	0xbd270849	-0.040779386
148	0x3ba60de9	0.005067576
149	0xbdc5fda7	-0.09667521
150	0xbdd9d33d	-0.10635994
151	0x3cb1d2db	0.021706989
152	0x3cdac819	0.026706742
153	0x3e2891f0	0.1646192
154	0xbd536cca	-0.05161742
155	0xbb03f31a	-0.0020133913
156	0xbd1067dc	-0.035255298
157	0xbe299f45	-0.16564663
158	0xbd2edc2b	-0.042690437
159	0xbdab0feb	-0.083526455
160	0x3d12c738	0.03583452
161	0x3d522603	0.051305782
162	0x3d1343c8	0.035953313
163	0xbdd2d7f9	-0.102951
164	0xbdf04db2	-0.11733569
165	0x39fcb83e	0.00048202457
166	0x3c8f9bfe	0.017530438
167	0xbdabffb4	-0.08398381
168	0x3e133c81	0.14378549
169	0x3e05dcce	0.13072512
170	0x3dd7e5b5	0.1054186
171	0x3d080bbb	0.033214312
172	0x3c0401e1	0.008057089
173	0xbbd7ae57	-0.006582062
174	0xbcea44b3	-0.028597211
175	0xbd34429a	-0.04400883
176	0x3dcd09f0	0.10011661
177	0xbc712ad2	-0.014719682
178	0x3df7555d	0.12076829
179	0xbd043010	-0.0322724
180	0x3caee48c	0.021349214
181	0x3e1d9379	0.15388288
182	0x3d916776	0.07099812
183	0xbdb42f01	-0.08798028
184	0xb96c6dca	-0.00022547613
185	0xbd13eb3c	-0.03611301
186	0x3d383e4d	0.04498129
187	0x3dca1cd3	0.09868779
188	0x3db32e1e	0.087490305
189	0x3c915b57	0.01774375
190	0xbd37a148	-0.044831544
191	0xbd14b85c	-0.03630863
192	0x3daaac8c	0.08333692
193	0xbba0d345	-0.004907998
194	0x3d990e7d	0.074734665
195	0x3d49d375	0.049273927
196	0x3e15eaae	0.14640304
197	0x3cb8d843	0.02256406
198	0x3ccaa109	0.02473499
199	0xbe19f7f9	-0.15036
200	0x3d560ee8	0.05226031
201	0xbd4c03a7	-0.04980817
202	0xbddece08	-0.10879141
203	0xba3a1ca4	-0.00070996047
204	0xbc897dfa	-0.016783703
205	0x3c604af6	0.013689747
206	0xbe266f82	-0.16253474
207	0xbe1542ea	-0.14576307
208	0x3d576cc1	0.05259395
209	0x3dabd637	0.083904676
210	0x3d16ae32	0.03678722
211	0x3ce08bf0	0.027410477
212	0xbc9c3e2b	-0.019072613
213	0xbc1df2cf	-0.00964041
214	0x3d405ea0	0.04696524
215	0xbe829427	-0.25503656
216	0x3ce16fd7	0.02751915
217	0xbbf50b22	-0.007478134
218	0xbdc443d1	-0.095832475
219	0xbd9817ff	-0.07426452
220	0xbca350e3	-0.01993603
221	0xbc9c2eef	-0.019065348
222	0xbc268c8e	-0.010165347
223	0xbdb3c96a	-0.08778651
224	0x3d18b942	0.03728605
225	0x3dc41f35	0.09576265
226	0xbd7aac82	-0.061199673
227	0xbb4d8ddb	-0.003136507
228	0x3d6d3afd	0.057917584
229	0xbe0586f8	-0.13039768
230	0xbe18525d	-0.14875169
231	0xbe2e3f41	-0.17016317
232	0xbde860b6	-0.11346571
233	0xbdf089e0	-0.117450476
234	0x3d61b008	0.055099517
235	0xbd8f48cc	-0.06996307
236	0x3dd38199	0.10327453
237	0x3b710abd	0.0036780082
238	0x3d86ae09	0.06576163
239	0x3db737a9	0.08946163
240	0xbb0291a0	-0.0019923225
241	0xbd9a030b	-0.07520112
242	0x3d79388c	0.060844943
243	0x3da25e0c	0.07928094
244	0xbd185bf4	-0.03719707
245	0x3dbd3f1e	0.09240554
246	0x3d974ac8	0.0738731
247	0x3e09ff8a	0.13476387
248	0xbc86c862	-0.016452972
249	0xbd9038d0	-0.07042086
250	0x3c647033	0.013942766
251	0xbdd37c2c	-0.10326418
252	0x3d450445	0.048099775
253	0xbd2ed5ac	-0.042684242
254	0x3dd79c37	0.105278425
255	0x3d63a83b	0.05558036

l1.1.bias f4 [392]
0	0x3e14d590	0.14534593
1	0xbe6c39d5	-0.23068936
2	0xbe0802f9	-0.13282384
3	0xbe090b89	-0.13383307
4	0xbc801cbe	-0.015638705
5	0x3ba4af4a	0.005025779
6	0xbee4fe3d	-0.44725218
7	0x3d8851af	0.06656205
8	0xbd86513b	-0.06558462
9	0xbc1ffd21	-0.0097649405
10	0x3df6a5fd	0.120433785
11	0x3da5f768	0.081038296
12	0x3e727f10	0.23681283
13	0x3d1f80b6	0.038941108
14	0xbcd579ba	-0.02605902
15	0xbdbfc284	-0.09363273
16	0x3d4671df	0.04844844
17	0x3cdc8bff	0.026922224
18	0x3e9bd5b0	0.30436468
19	0x3d99fecf	0.07519304
20	0xbd186621	-0.037206773
21	0xbcdf78ca	-0.027279276
22	0xbd7f9e45	-0.062406797
23	0x3c8b0fad	0.016975248
24	0x3d8d9429	0.06913025
25	0x3e951950	0.29120874
26	0x3e8cf2a3	0.27528867
27	0x3d313b5e	0.043269508
28	0x3bd99aa2	0.006640748
29	0x3c63048c	0.0138560645
30	0x3e7065a8	0.23476279
31	0xbdfed960	-0.12443805
32	0x3de97b4d	0.11400471
33	0x3ead29aa	0.3382085
34	0xbe01df5b	-0.1268286
35	0x3e5d16d7	0.21590744
36	0x3d37c64f	0.044866856
37	0x3d8e5755	0.06950251
38	0x3d8e23c3	0.06940415
39	0x3e2e4789	0.17019476
40	0x3e2d1e2a	0.16906038
41	0x3e508a75	0.20365317
42	0x3c3725e2	0.011178466
43	0x3e4d0bc7	0.20024024
44	0xbe3ae272	-0.18250445
45	0x3e573781	0.21017267
46	0x3e281d74	0.16417485
47	0x3e526086	0.20544633
48	0x3da150b7	0.07876723
49	0xbea20d59	-0.31650808
50	0xbdcec370	-0.100958705
51	0xbe333162	-0.17499307
52	0xbde2a11d	-0.11065886
53	0xbc4081e3	-0.011749717
54	0xbea76189	-0.326916
55	0xbda112bc	-0.078649014
56	0xbe8af37e	-0.27138895
57	0x3d319db5	0.04336329
58	0x3b038d93	0.0020073398
59	0x3c5bbc29	0.01341156
60	0xbd3d78ec	-0.0462579
61	0xbdc6b6cb	-0.09702834
62	0xbe3b4d71	-0.1829126
63	0xbd9f4adf	-0.077779524
64	0x3cef91f5	0.029244402
65	0xbdd4b7af	-0.10386597
66	0xbe0a7119	-0.13519706
67	0xbe758592	-0.23976734
68	0xbe360aea	-0.17777601
69	0xbecd80b0	-0.40137243
70	0xbe1c86ea	-0.1528584
71	0x3d6185a9	0.05505911
72	0xbe0663be	-0.13123986
73	0xbe8a064e	-0.26957935
74	0xbda4e36b	-0.08051189
75	0xbe8fcb0a	-0.28084594
76	0xbe45d961	-0.19321205
77	0xbe4e5057	-0.20147835
78	0xbd104820	-0.035225034
79	0xbe0c2374	-0.136854
80	0xbeb8e974	-0.3611561
81	0xbe23ae3e	-0.15984437
82	0xbeaf847a	-0.3428076
83	0xbe825d7c	-0.25461948
84	0x3d27c0b7	0.04095527
85	0xbe1277ed	-0.1430356
86	0xbe1242c0	-0.14283276
87	0xbdc47533	-0.095926665
88	0xbe0283c6	-0.1274558
89	0xbe95b417	-0.2923896
90	0xbda67283	-0.0812731
91	0xbdca9813	-0.09892287
92	0x3dcc9b35	0.09990541
93	0xbeb90d3a	-0.36142904
94	0xbee26eb9	-0.442251
95	0xbf081857	-0.5316214
96	0xbb9afcd0	-0.0047298446
97	0xbe3984c8	-0.18117058
98	0x3ed4a33f	0.41530797
99	0x3ec3e276	0.38258713
100	0x3c3da892	0.011575835
101	0x3d6de845	0.058082838
102	0x3e83f7f3	0.25775108
103	0x3e9021a7	0.28150675
104	0x3e9246f9	0.28569773
105	0x3de4d727	0.111738496
106	0x3dab2bbc	0.08357951
107	0xbe1ac130	-0.15112758
108	0xbeb5e036	-0.35522622
109	0xbe90904e	-0.28235096
110	0x3e2c51c1	0.16828062
111	0x3ddb60c3	0.10711815
112	0x3ec11cb8	0.37717223
113	0xbdea5a3c	-0.11442992
114	0xbe9911f9	-0.29896525
115	0xbea362ad	-0.3191122
116	0xbea4d43e	-0.32193178
117	0x3d4137b8	0.04717228
118	0x3e115d0c	0.14195651
119	0x3e6e7a6d	0.23288889
120	0xbe04d2bc	-0.12971014
121	0xbe9189bb	-0.28425393
122	0xbe9a8d5f	-0.30185983
123	0xbeb2d035	-0.34924474
124	0xbcb8b7f2	-0.02254865
125	0x3e99ccf1	0.3003917
126	0x3e5718cb	0.21005552
127	0xbe3668c0	-0.17813396
128	0xbe493ca7	-0.19652043
129	0xbe6d42ee	-0.23170063
130	0xbeb0a1d8	-0.34498477
131	0x3dc2ba4a	0.09508188
132	0x3ef8f212	0.48622185
133	0x3ee2d4d3	0.44302997
134	0x3d816b96	0.063193485
135	0xbe1fbece	-0.1560013
136	0xbe1d8552	-0.15382889
137	0xbdb4620a	-0.08807762
138	0x3e831830	0.2560439
139	0x3ec06db7	0.37583706
140	0x3f4e9948	0.8070264
141	0x3eecfdb8	0.46287322
142	0x3e103dae	0.14086029
143	0xbd670912	-0.056405134
144	0x3ea3d250	0.31996393
145	0x3f06c184	0.5263903
146	0x3eb25961	0.34833816
147	0x3db20b76	0.08693592
148	0xbce4f7d3	-0.027950203
149	0xbdb3de68	-0.08782655
150	0xbddc2f13	-0.10751166
151	0x3e14988c	0.14511317
152	0x3e05a042	0.13049415
153	0xbe540194	-0.20703727
154	0xbc032d84	-0.008006457
155	0x3b50a0fc	0.0031834235
156	0x3d8ef427	0.06980162
157	0xbd7fa484	-0.062412754
158	0xbd456867	-0.04819527
159	0x3dce2e23	0.10067394
160	0xbe9e6f7b	-0.30944428
161	0xbdd95462	-0.10611798
162	0x3dbfb808	0.09361273
163	0xbc78ef5d	-0.015193787
164	0x3e25fff5	0.16210921
165	0x3df52861	0.11970592
166	0x3e2c356f	0.16817258
167	0xbdbe175e	-0.09281801
168	0x3d0e7e77	0.034788575
169	0x3d732c8c	0.059368655
170	0x3d60b108	0.05485633
171	0xbda61db6	-0.08111136
172	0x3e4f2acc	0.2023117
173	0xbe116cda	-0.1420168
174	0xbd260d3a	-0.040539958
175	0x3cb2b2ee	0.021813836
176	0x3e29fa24	0.16599327
177	0x3dee163c	0.116253346
178	0x3e7ff363	0.24995188
179	0x3e8d3902	0.27582556
180	0xbd9fb182	-0.07797529
181	0x3e0ba835	0.13638385
182	0x3d2a55cc	0.04158573
183	0x3de9666f	0.11396491
184	0x3df7249f	0.12067532
185	0x3ead1318	0.3380363
186	0x3e13c5a5	0.14430864
187	0xbd994f84	-0.074858695
188	0x3dd01557	0.1016032
189	0xbe34e5ac	-0.17665738
190	0xbd8f1063	-0.069855474
191	0x3d61285d	0.054970134
192	0x3e32d077	0.17462336
193	0xbbc4f5e7	-0.006010759
194	0xbe477f3e	-0.19482133
195	0xbe0f4054	-0.13989383
196	0xbf09d957	-0.5384726
197	0xbe5c9394	-0.21540672
198	0xbe120d4f	-0.1426289
199	0xbc0f7c8d	-0.008757723
200	0xbe20cb54	-0.15702564
201	0xbdcd4e91	-0.10024751
202	0xbe4a3266	-0.19745788
203	0xbe84fb0c	-0.25972784
204	0xbdecc742	-0.11561443
205	0x3e5a4c15	0.21318085
206	0x3d9374a5	0.071999826
207	0x3cf0e967	0.02940817
208	0xbe699deb	-0.22814147
209	0xbebaa324	-0.3645259
210	0xbe48677f	-0.1957073
211	0x3e06abae	0.13151428
212	0x3e910bc5	0.28329292
213	0x3e82f5ad	0.2557806
214	0x3e8d0776	0.27544755
215	0x3d6ca974	0.05777879
216	0xbdb55020	-0.08853173
217	0xbe0ce186	-0.13757905
218	0x3e066b98	0.13126981
219	0x3e31d3e3	0.17365985
220	0x3e6bd8bf	0.23031901
221	0x3eaf99c8	0.34297013
222	0xbb87f5ed	-0.0041491897
223	0xbe315854	-0.17318851
224	0xbda9ddf8	-0.0829429
225	0xbcc81af3	-0.024426913
226	0x3e528916	0.20560107
227	0x3e8deace	0.27718204
228	0x3e9bc4de	0.30423635
229	0x3c137acf	0.009001448
230	0x3c4ecbcc	0.012621831
231	0xbd136c99	-0.03599224
232	0x3e39fd9e	0.18163154
233	0x3e70fbb3	0.23533516
234	0x3ea5e149	0.3239844
235	0x3dae8678	0.08521742
236	0xbd9c0ea2	-0.076199785
237	0xbe85a864	-0.26105034
238	0xbecc021f	-0.39845368
239	0xbdc26670	-0.09492195
240	0xbe11f968	-0.14255297
241	0xbe6a6605	-0.2289048
242	0xbe8d9ffe	-0.27661127
243	0xbe47cfb5	-0.19512828
244	0xbe9153de	-0.28384298
245	0xbe3b9370	-0.18317962
246	0xbd9a0eef	-0.075223796
247	0xbddf7485	-0.10910896
248	0x3e2f6696	0.17128977
249	0xbd9a9d6b	-0.07549556
250	0x3d91a64a	0.07111795
251	0x3e798101	0.24365617
252	0xbdce2276	-0.10065167
253	0x3d6f1707	0.05837157
254	0x3df9a440	0.12189531
255	0xbd80bd49	-0.06286103

conv_blocks.1.weight f4 [4, 8, 3, 3]
0	0x3e253759	0.16134395
1	0x3e8a9764	0.27068627
2	0xbd914cec	-0.0709475
3	0x3de09905	0.10966686
4	0x3d9a6b85	0.07540039
5	0xbe2848bd	-0.16433997
6	0x3db84b16	0.089986965
7	0x3ce08dbb	0.027411332
8	0xbdf1fc03	-0.118156455
9	0xbbd117f2	-0.0063810283
10	0x3db5cd84	0.088770896
11	0xbe3a2f88	-0.18182194
12	0x3e62e0b2	0.22156027
13	0xbe322958	-0.17398584
14	0x3d17a792	0.037025042
15	0xbe01cfb3	-0.12676887
16	0xbe5bcdc1	-0.21465208
17	0x3d07111e	0.03297531
18	0x3b9c6e70	0.0047739074
19	0x3db7d4a7	0.08976107
20	0x3e8ee4b3	0.2790886
21	0x3e4d2e00	0.20037079
22	0x3e4dba8a	0.2009069
23	0x3e9af0f0	0.30261946
24	0xbd812190	-0.0630523
25	0x3ec06e5f	0.37584206
26	0x3e3192d5	0.17341168
27	0xbe125f3e	-0.14294145
28	0xbd0eb5c4	-0.034841314
29	0x3deae9fb	0.114704095
30	0xbe1c2034	-0.1524666
31	0xbbfd3ab3	-0.0077279448
32	0x3c293153	0.010326701
33	0x3dc70136	0.09717028
34	0x3e3d8549	0.18507876
35	0x3c992237	0.018693073
36	0xbc2edb80	-0.01067245
37	0xbe5ca79b	-0.21548311
38	0x3e0b86a7	0.13625585
39	0x3e7273cd	0.23676987
40	0x3dfbf0bc	0.12301776
41	0x3e1e22e2	0.15442994
42	0x3dc89ea6	0.09795885
43	0xbe519530	-0.20467067
44	0xbdf8e247	-0.12152534
45	0xbdb2ed55	-0.08736674
46	0xbe36837b	-0.17823593
47	0xbe42170b	-0.18954103
48	0xbdf40b3b	-0.119162045
49	0xbeb9933b	-0.3624514
50	0xbd19133e	-0.037371866
51	0xbe6ca034	-0.23107988
52	0xbe31516f	-0.1731622
53	0xbd989176	-0.074496195
54	0x3d93a3ec	0.07209
55	0xbe142c72	-0.1447008
56	0x3cc1452f	0.02359256
57	0xbe1be9d4	-0.15225917
58	0xbed0693a	-0.40705281
59	0xbe9d7bd3	-0.30758533
60	0xbddbd36b	-0.10733684
61	0xbde151ef	-0.11001956
62	0xbdff9faf	-0.12481629
63	0x3ddfa3c7	0.1091991
64	0xbc9e4c93	-0.019323623
65	0x3cf734a0	0.03017646
66	0x3db422d1	0.08795703
67	0xbd11721a	-0.035509206
68	0xbe3b2a8f	-0.18277954
69	0x3e2be7f6	0.16787705
70	0x3e275995	0.16342767
71	0x3c8a05ca	0.016848464
72	0xbd02c3a7	-0.03192487
73	0xbd467246	-0.048448823
74	0xbddab07e	-0.106781945
75	0xbd99d9eb	-0.07512268
76	0x3dd006cb	0.10157546
77	0xbc5be139	-0.0134203965
78	0xbd9cd4a2	-0.07657744
79	0xbc51defd	-0.012809512
80	0x3dec10d1	0.11526645
81	0xbdf2cc05	-0.1185532
82	0xbe6fe933	-0.23428802
83	0xbe185e76	-0.14879784
84	0xbe11d8d8	-0.14242876
85	0x3d9256d2	0.07145466
86	0xbe576b35	-0.2103699
87	0xbe4a6b9c	-0.19767612
88	0xbe23b9a1	-0.1598878
89	0xbe2bd129	-0.16779007
90	0xbdcc888e	-0.09986983
91	0xbc836b32	-0.016042326
92	0x3cb8178d	0.022472167
93	0xbe8beae9	-0.2732766
94	0xbdc895a2	-0.09794165
95	0xbde87be6	-0.11351757
96	0x3c3b2528	0.011422433
97	0xbe3a66db	-0.18203299
98	0x3dda34a2	0.1065457
99	0xbc2f7a25	-0.010710274
100	0x3ddf0063	0.10888746
101	0xbc398587	-0.011323339
102	0x3c15af62	0.009136053
103	0x3e04faf4	0.12986356
104	0xbd72a709	-0.05924133
105	0x3e0d9345	0.1382571
106	0x3ca6f3eb	0.020379981
107	0x3d55ea1a	0.05222521
108	0x3dac3a10	0.08409512
109	0x3e7f9424	0.24958855
110	0xbbf4cf69	-0.0074710143
111	0x3e25e69b	0.1620125
112	0xbd59607f	-0.05307054
113	0x3e21161d	0.15731092
114	0x3df84e0d	0.12124262
115	0x3e128ce0	0.14311552
116	0x3e47f332	0.19526365
117	0xbda3afb5	-0.07992498
118	0xbcca933e	-0.024728414
119	0x3e308f5e	0.1724219
120	0xbc047747	-0.008085079
121	0xbd51a82d	-0.051185776
122	0x3d101969	0.035180483
123	0xbd9663b7	-0.07343238
124	0x3d55be9f	0.052183744
125	0xbd015ec1	-0.031584505
126	0x3d55a856	0.05216249
127	0x3db838fc	0.08995244
128	0x3c4c9b04	0.0124881305
129	0xbbac0db1	-0.0052506556
130	0x3daf4474	0.08557978
131	0x3e2eb636	0.17061695
132	0x3e739481	0.23787118
133	0xbe78e993	-0.24307851
134	0x3e3d34d0	0.18477178
135	0x3cad29e4	0.02113814
136	0xbc11bc4d	-0.008894992
137	0x3dcfa0d0	0.101380944
138	0x3e42c09e	0.1901879
139	0xbd7e5680	-0.06209421
140	0x3e3701e1	0.1787181
141	0x3e11cdd6	0.14238676
142	0x3c9be079	0.019027935
143	0xbd522506	-0.05130484
144	0x3e1a58ac	0.15072888
145	0xbe2d34c4	-0.1691466
146	0x3e3ac6e7	0.18239938
147	0x3df11682	0.11771871
148	0xbe4878ac	-0.19577283
149	0x3caf3fd8	0.021392748
150	0xbe965b06	-0.2936632
151	0xbdf75aef	-0.12077891
152	0xbe82df88	-0.25561166
153	0xbe3c11d5	-0.18366177
154	0xbee61bda	-0.44943124
155	0xbe6c0dd3	-0.23052149
156	0xbe2bcd99	-0.16777648
157	0xbe87f480	-0.26553726
158	0x3caf7a68	0.021420673
159	0xbdba6913	-0.091020726
160	0xbd30e479	-0.04318664
161	0x3cb7b05a	0.022422958
162	0x3e023505	0.12715538
163	0x3d4582c6	0.04822042
164	0xbe2da938	-0.16959083
165	0x3d5ae58c	0.05344157
166	0xbd7ca3d4	-0.061679676
167	0xbd430aa0	-0.047617555
168	0x3d28639c	0.04111062
169	0x3d5e7258	0.054308265
170	0xbde80ede	-0.11330961
171	0x3e00892c	0.12552327
172	0x3c4ab7bb	0.012372906
173	0xbe7d5f2c	-0.24743336
174	0x3d6237a6	0.05522885
175	0x3c1679e7	0.009184337
176	0x3e731f7a	0.23742476
177	0xbd6572a1	-0.05601752
178	0xbe48abd0	-0.19596791
179	0x3d708852	0.058723755
180	0xbe62f93a	-0.22165385
181	0xbdd4b91d	-0.1038687
182	0xbd27ad83	-0.040936958
183	0xbe8df2e6	-0.2772438
184	0xbe8085ec	-0.25102174
185	0xbc6dd72c	-0.014516633
186	0xbe481e54	-0.1954282
187	0x3c32f921	0.010923655
188	0x3dda6ace	0.106649026
189	0xbd06287b	-0.03275345
190	0xbe028f53	-0.12749986
191	0x3e4dcc42	0.2009745
192	0xbd0c07b4	-0.034187034
193	0x3e9bfbe4	0.30465615
194	0x3e99b183	0.30018243
195	0x3d33fa9e	0.04394018
196	0x3dc6125c	0.096714705
197	0xbd3e0a20	-0.046396375
198	0xbcd720ba	-0.026260722
199	0x3e6f76ef	0.23385213
200	0x3db76b9f	0.08956074
201	0x3c623971	0.01380764
202	0x3e3cfa5e	0.18454883
203	0x3d0f9341	0.03505254
204	0xbe7acdc3	-0.24492554
205	0x3ce57467	0.028009607
206	0xbda2c65a	-0.07947989
207	0x3dd26581	0.102732666
208	0xbe276bad	-0.16349669
209	0x3d59e263	0.053194415
210	0xbea03288	-0.31288552
211	0xbe538fa4	-0.20660263
212	0xbde37af8	-0.11107439
213	0xbe767e81	-0.24071695
214	0xbea37b96	-0.31930226
215	0xbd0652c2	-0.032793768
216	0xbe154359	-0.14576472
217	0xbeab091d	-0.3340539
218	0xbe83438f	-0.2563748
219	0xbe97c9be	-0.29646105
220	0xbe262d5a	-0.16228238
221	0xbe1d0339	-0.1533326
222	0x3ca5fc17	0.020261807
223	0x3da56927	0.08076697
224	0xbdc35b3f	-0.09538888
225	0xbe5c7a1a	-0.21530953
226	0xbd05a047	-0.032623556
227	0xbd04b244	-0.03239657
228	0x3de590f0	0.11209285
229	0x3ea50771	0.3223224
230	0xbcb9ed35	-0.022696117
231	0x3d2dd040	0.04243493
232	0x3ed4fb6e	0.41598076
233	0x3d9dc37b	0.077033006
234	0x3df79ac0	0.12090063
235	0x3e34de41	0.17662908
236	0x3d5babd9	0.053630684
237	0x3e52786d	0.20553751
238	0x3e4453c5	0.1917258
239	0xbdee7df5	-0.11645118
240	0xbdc39696	-0.09550206
241	0x3d0e34ed	0.034718443
242	0xbe38a104	-0.18030173
243	0xbe29c761	-0.16579963
244	0x3c23975d	0.009984818
245	0x3db95f4f	0.09051382
246	0xbd945582	-0.07242872
247	0x3e365c62	0.17808679
248	0xbd4fc7d3	-0.050727677
249	0x3c4bf7ca	0.012449214
250	0x3d98505b	0.074372016
251	0xbe1b0d62	-0.15141824
252	0xbd93e020	-0.07220483
253	0x3d380439	0.044925902
254	0x3d9d96d6	0.07694785
255	0xbcc61a3b	-0.02418243

conv_blocks.1.bias f4 [4]
0	0x3e2f7ced	0.17137499
1	0x3f329c98	0.69770193
2	0xbd510305	-0.05102827
3	0xbe3abceb	-0.18236129

conv_blocks.4.weight f4 [1, 4, 3, 3]
0	0xbd44a63c	-0.048010096
1	0xbd5cb404	-0.053882614
2	0xbd95a655	-0.07307116
3	0xbda5987b	-0.08085724
4	0xbdf40f4a	-0.11916979
5	0xbe35eda0	-0.17766428
6	0xbd1d57e8	-0.038413912
7	0xbe174bc3	-0.14774995
8	0xbdb702fd	-0.08936117
9	0x3c9c2752	0.019061718
10	0x3dbf69ba	0.093463376
11	0x3bff4618	0.0077903382
12	0x3ddae1d2	0.10687603
13	0x3dd5e5ae	0.104441985
14	0x3c48f41a	0.01226523
15	0x3baa00d6	0.005188088
16	0x3da53df5	0.08068458
17	0xbc9f2e12	-0.019431148
18	0xbd3ea5f3	-0.04654498
19	0xbd8d8f6b	-0.069121204
20	0xbdc171e5	-0.09445552
21	0xbdf35d90	-0.1188308
22	0xbe1eabbf	-0.15495203
23	0xbdb91339	-0.090368696
24	0xbe1a1141	-0.15045644
25	0xbe3a9012	-0.18219021
26	0xbd95bcd3	-0.07311406
27	0xbddced8f	-0.10787498
28	0xbe0086d2	-0.1255143
29	0xbc581b32	-0.013190078
30	0xbe2a9b58	-0.16660821
31	0xbe2a4a45	-0.16629894
32	0xbcc00f68	-0.023444846
33	0xbde3735e	-0.11105989
34	0xbdc23268	-0.094822705
35	0xbda5078f	-0.08058082
