mnist_gan/MNIST_GAN_CNN/save_mode_collapse/G--20.ckpt (torch_old, 537904 bytes, 7 tensors)

l1.0.weight f4 [256, 128]
0	0x3dc10699	0.094250865
1	0x3d80c639	0.06287808
2	0xbb46bff7	-0.0030326822
3	0x3dad4735	0.08460847
4	0x3d7ae2e7	0.061251547
5	0x3d92993f	0.071581356
6	0x3c73e3a8	0.01488582
7	0xbe74522d	-0.23859473
8	0xbda9d5bd	-0.082927205
9	0x3d73e632	0.059545703
10	0xbe257e18	-0.16161382
11	0x3de72f36	0.11288302
12	0xbe2eb0e9	-0.17059673
13	0xbc0bb1c8	-0.008526273
14	0x3c3ba4e1	0.011452884
15	0x3d848fa4	0.0647271
16	0x3e1895c3	0.1490088
17	0xbcc120b8	-0.023575172
18	0xbdd3e489	-0.10346324
19	0xbe2ec2e6	-0.17066535
20	0xbe0dd53b	-0.13850872
21	0xbdb57545	-0.08860258
22	0xbdafe6a2	-0.085889116
23	0xbb98b9f5	-0.0046608397
24	0xbe035f8b	-0.12829416
25	0x3d103371	0.03520531
26	0x3e43083d	0.19046111
27	0xbcd142eb	-0.025544604
28	0xbddb581b	-0.10710164
29	0x3c2a0e2d	0.010379356
30	0xbdcebe5b	-0.10094901
31	0xbe150bde	-0.14555308
32	0xbd2fff0d	-0.042967845
33	0xbe365068	-0.1780411
34	0x3db55b38	0.08855289
35	0xbc8ec2c5	-0.017426858
36	0xbdab7740	-0.083723545
37	0x3d912b3b	0.07088324
38	0x3db24148	0.08703858
39	0xbdc9da32	-0.098560706
40	0x3db50c53	0.08840241
41	0xbdc98f5b	-0.09841796
42	0xbda13660	-0.07871699
43	0xbd6d38d8	-0.05791554
44	0xbc303e9e	-0.010757117
45	0x3d9024cb	0.07038268
46	0x3cbb3608	0.022852913
47	0xbbadb6d8	-0.0053013377
48	0xbdf262ae	-0.11835228
49	0x3d88d04e	0.06680356
50	0x3caa6bb9	0.02080332
51	0x3bfdc5a9	0.00774451
52	0x3e2ff921	0.17184879
53	0xbb9ebafd	-0.004844068
54	0xbd04d38e	-0.032428317
55	0x3d09c992	0.033639498
56	0x3d2d5c3d	0.042324293
57	0xbdab0fae	-0.083526
58	0x3cda9e50	0.026686817
59	0xbe06f291	-0.13178469
60	0x3c9d33ed	0.0191898
61	0xbd74ec58	-0.059795707
62	0xbdbe4286	-0.09290032
63	0xbdc989b7	-0.0984072
64	0xbbe0c7d0	-0.006859757
65	0x3d9b604a	0.07586725
66	0xbd7cf3ac	-0.06175582
67	0x3e285891	0.16440035
68	0xbdce7a5e	-0.100819334
69	0xbd1acb11	-0.037791315
70	0xbd9aae44	-0.0755277
71	0xbe29deb3	-0.1658886
72	0x3e544a2d	0.20731421
73	0xbd4a2292	-0.049349375
74	0x3d57e465	0.05270805
75	0x3d918357	0.07105129
76	0x3daecf77	0.085356645
77	0x3d1f6c8e	0.038921885
78	0xbdc8a7ad	-0.097976066
79	0x3d026db2	0.031842895
80	0xbbfc117d	-0.0076925145
81	0xbd2251c6	-0.039628766
82	0x3e463259	0.19355144
83	0xba2a1cd3	-0.00064892805
84	0x3c82fd6d	0.015989983
85	0xbccd635d	-0.025071794
86	0x3dc8174c	0.097700685
87	0xbd844df1	-0.06460179
88	0x3dec177c	0.11527917
89	0xbc84e4fb	-0.016222468
90	0x3dddc939	0.10829396
91	0xbd34f460	-0.044178367
92	0xbde4f320	-0.11179185
93	0x3e155cad	0.14586134
94	0xbdb12794	-0.08650127
95	0x3b7bc707	0.003841819
96	0x3defda00	0.11711502
97	0x3dd53ed7	0.104123764
98	0x3e056e1e	0.13030288
99	0xbdfb20fe	-0.12262152
100	0xbc7b0db6	-0.015323093
101	0xbe639696	-0.22225413
102	0xb9aa06b3	-0.00032429918
103	0x3d83e45a	0.06440039
104	0xbdc2078b	-0.09474095
105	0xbbfb6924	-0.007672446
106	0xbd3335e0	-0.04375255
107	0xbd1d6f40	-0.038436174
108	0xbcd01242	-0.025399331
109	0xbe510d3e	-0.20415208
110	0x3c5992e3	0.013279649
111	0x3dca5842	0.09880115
112	0xbd97c9c3	-0.0741153
113	0xbdb2476f	-0.08705031
114	0x3d721685	0.059103508
115	0xbd619bd4	-0.05508025
116	0xbdd2428a	-0.102665976
117	0xbdfaff32	-0.12255706
118	0xbd742cf5	-0.059613187
119	0x3c7c459d	0.0153974565
120	0xbd24d947	-0.040246274
121	0xbdde78f1	-0.108629115
122	0xbd0378b2	-0.032097526
123	0x3c54f333	0.012997436
124	0x3c6d241b	0.01447394
125	0x3cfe81cc	0.031067751
126	0x3c5ce7ca	0.013482997
127	0xbdc157bb	-0.094405614
128	0xbdb1b56b	-0.08677181
129	0x3bfa66c5	0.0076416456
130	0x3d2245e5	0.039617438
131	0xbd9273eb	-0.07151016
132	0x3cd8be31	0.026457878
133	0x3af155b1	0.0018412379
134	0x3e3d7886	0.18503007
135	0x3d33f796	0.04393729
136	0x3dd78565	0.1052349
137	0x3d41b811	0.04729468
138	0xbd5b7254	-0.05357583
139	0x3ca311e9	0.019906001
140	0xbd625103	-0.05525304
141	0xbc8d9630	-0.017283529
142	0x3dbf00f3	0.09326353
143	0x3d1d0a6b	0.038340013
144	0x3dd2a1e6	0.10284786
145	0x3e70d0da	0.2351717
146	0x3e099e04	0.13439184
147	0xbd058159	-0.03259406
148	0xbda20287	-0.07910638
149	0xbc33b864	-0.010969255
150	0xbc9a3d50	-0.018828064
151	0x3e191640	0.14949894
152	0xbc9ae710	-0.018909007
153	0xbcadfeef	-0.021239726
154	0x3cddecac	0.027090393
155	0x3cd6912b	0.026192268
156	0xbcdae688	-0.026721254
157	0xbe0135b9	-0.1261815
158	0xbd74257a	-0.059606053
159	0xbd48c869	-0.04901925
160	0xbd9eca68	-0.0775345
161	0xbdda0c57	-0.10646885
162	0xbdebe984	-0.11519149
163	0x3cf79407	0.030221952
164	0xbe43dfff	-0.19128416
165	0xbb45dbae	-0.0030190754
166	0xbda374a3	-0.07981231
167	0xbd272a46	-0.0408118
168	0x3dda2604	0.10651782
169	0xbd351933	-0.044213485
170	0x3dbbf04f	0.091766946
171	0xbdbd9ca7	-0.09258395
172	0x3cc6eac2	0.024281863
173	0x3c9596e2	0.018260423
174	0xbbd8aad0	-0.0066121593
175	0xbd568d6d	-0.052380968
176	0x3d8485d3	0.064708374
177	0x3dd13a7b	0.102162324
178	0xbd1552e3	-0.036456
179	0x3d1d72e2	0.03843964
180	0xbbb22f98	-0.0054378025
181	0x3d756040	0.059906244
182	0xbd6f07a0	-0.05835688
183	0x3ca0e4ac	0.01964029
184	0x3c8955dd	0.016764576
185	0xbd604031	-0.054748718
186	0xbc1cbec8	-0.00956697
187	0xbcb3650f	-0.021898774
188	0x3e48b5ff	0.19600676
189	0xbcf432b5	-0.029809335
190	0x3db041b9	0.086062856
191	0x3cc03042	0.023460511
192	0x3e7d4511	0.24733378
193	0x3c53e9f0	0.012934193
194	0x3cea9086	0.028633367
195	0x3d4a750d	0.049428035
196	0x3b823084	0.0039730687
197	0x3d172f5e	0.036910407
198	0x3d50309c	0.050827608
199	0xbe23e3a2	-0.16004804
200	0x3abd35f4	0.0014435635
201	0xbe34ec94	-0.17668372
202	0x3db695fa	0.089153245
203	0x3dc3c83b	0.09559675
204	0xbc17ded8	-0.009269439
205	0x3cfbb82d	0.03072747
206	0xbc35000b	-0.0110473735
207	0x3aaf3677	0.0013367672
208	0x3d899bcd	0.0671917
209	0xbd97f2d1	-0.074193604
210	0x3d1d7bc8	0.038448125
211	0x3da02b27	0.07820731
212	0x3cf1da08	0.02952291
213	0xbd860a35	-0.065449156
214	0x3ba9a6ad	0.00517734
215	0xbd0b3aa1	-0.03399146
216	0xbc7ed336	-0.015553286
217	0xbdef92bb	-0.116979085
218	0x3cf771d1	0.03020564
219	0xbdb5375f	-0.08848452
220	0x3ad996f2	0.0016600771
221	0x3e5bbfca	0.2145988
222	0xbd45f072	-0.04832501
223	0xbce583d1	-0.028016957
224	0xbe27a9a1	-0.16373302
225	0x3dbe64e9	0.09296591
226	0x3dfa7af1	0.122304805
227	0x3d047274	0.032335714
228	0x3ddd8dc9	0.10818059
229	0x3cad87f2	0.021182988
230	0x3e253bf3	0.1613615
231	0x3e06cfba	0.13165179
232	0x3dfb9708	0.12284666
233	0xbc9df98e	-0.019284036
234	0x3de6f641	0.11277438
235	0xbcccdb3f	-0.025006888
236	0xbe29f71c	-0.16598171
237	0xbd7b56d7	-0.061362114
238	0x3d05d474	0.032673314
239	0x3d802579	0.06257147
240	0x3d066c5e	0.03281819
241	0xba3f35ca	-0.0007294087
242	0x3dd4248f	0.103585355
243	0xbbbcf545	-0.005766543
244	0xbd7392fb	-0.059466343
245	0x3d9cd3d0	0.076575875
246	0x3da4295e	0.08015703
247	0x3d464b8f	0.048411902
248	0xbc993f02	-0.018706802
249	0xbe385e92	-0.18004826
250	0x3cf31d29	0.02967699
251	0x3c277fa1	0.0102233
252	0x3d05e1dc	0.0326861
253	0x3d081ac1	0.03322864
254	0xbdeb8b09	-0.11501128
255	0x3d8f979a	0.070113376

l1.0.bias f4 [256]
0	0x3db82070	0.08990562
1	0x3ecb9704	0.39763653
2	0x3ea12b19	0.31478193
3	0xbda79219	-0.08182163
4	0x3d9571db	0.07297107
5	0x3d88ae00	0.06673813
6	0xbe8adae8	-0.27120137
7	0xbe6ab161	-0.22919227
8	0xbe185760	-0.14877081
9	0x3da26a3a	0.07930417
10	0x3ea8fcab	0.3300527
11	0xbe1eadfa	-0.15496054
12	0xbd3d7d77	-0.04626223
13	0x3e872986	0.26398867
14	0xbdf7cb69	-0.12099344
15	0x3eb19cc0	0.34689903
16	0x3f2f0df0	0.6838064
17	0xbc8252d2	-0.015908632
18	0xbe7170c8	-0.23578179
19	0x3ea7eec0	0.3279934
20	0xbd245348	-0.040118486
21	0xbe54a294	-0.20765144
22	0xbe6016d3	-0.21883707
23	0x3f02c42f	0.510806
24	0xbe881702	-0.26580054
25	0x3e0edb7d	0.13950916
26	0xbe24b005	-0.16082771
27	0x3f283eb0	0.65720654
28	0xbe905e9b	-0.28197178
29	0xbf0ce7f9	-0.5504146
30	0x3ebbd974	0.3668934
31	0xbe792c5e	-0.24333331
32	0x3f0fd218	0.5617995
33	0xbe70b3a9	-0.23506035
34	0x3d155260	0.036455512
35	0x3d1405c8	0.036138326
36	0xbee0c0ce	-0.43897098
37	0x3c84e2ef	0.016221492
38	0xbf413250	-0.75467396
39	0xbc32d20a	-0.010914335
40	0xbf47a4de	-0.7798594
41	0xbdb94f51	-0.090483315
42	0xbd96d70c	-0.07365236
43	0xbf1da30d	-0.6157692
44	0xbee06e22	-0.43834025
45	0xbf12cae0	-0.5734081
46	0x3df1c48d	0.11805067
47	0xbdd4122e	-0.1035503
48	0x3ee66e58	0.4500606
49	0xbe966617	-0.29374763
50	0x3dc2ef5e	0.09518312
51	0xbee46f75	-0.44616285
52	0xbed6ca00	-0.4195099
53	0x3e896944	0.26838124
54	0xbf484eb0	-0.7824507
55	0xbbed559e	-0.0072428724
56	0xbc5639f6	-0.013075342
57	0x3f4952dc	0.7864206
58	0xbeacdc09	-0.33761624
59	0x3f2bd586	0.67122686
60	0xbe8060c9	-0.2507384
61	0xbf2bd896	-0.6712736
62	0x3f1aa268	0.6040406
63	0x3edf92ee	0.43666786
64	0xbef5e6c4	-0.48027623
65	0x3dc2d857	0.0951392
66	0x3e3d8f28	0.18511641
67	0x3ed82388	0.42214608
68	0x3ea4de3d	0.32200804
69	0xbe1732c6	-0.14765462
70	0x3c65f5a0	0.014035612
71	0x3e7914ee	0.2432439
72	0x3ea4ba48	0.3217337
73	0x3f13b92f	0.5770444
74	0xbe9e6d65	-0.30942836
75	0x3e9ddc64	0.30832207
76	0x3f2373bd	0.6384848
77	0xbddb1aa7	-0.10698443
78	0xbea443f9	-0.3208311
79	0x3eb10313	0.34572658
80	0xbeb8149e	-0.3595323
81	0xbe8206a7	-0.253957
82	0xbf07187b	-0.5277173
83	0xbf1045c3	-0.5635645
84	0xbf4da8b9	-0.80335575
85	0xbef83cec	-0.4848398
86	0xbec2ea42	-0.3806935
87	0x3efacc6d	0.4898409
88	0xbf0cc986	-0.54995
89	0xbea9dfc7	-0.3317854
90	0xbe9a424d	-0.30128708
91	0x3e8eb61d	0.27873316
92	0x3e14ed23	0.14543585
93	0xbeff3212	-0.49842888
94	0x3d47490a	0.04865364
95	0xbc225e6d	-0.009910208
96	0xbf38280b	-0.719361
97	0xbdd24885	-0.10267738
98	0xbd33fa49	-0.043939862
99	0xbd19707c	-0.03746079
100	0x3ceb72fa	0.028741349
101	0xbe9571ce	-0.2918839
102	0xbf0aa26a	-0.54154074
103	0xbecb9189	-0.39759472
104	0xbeb5fe5d	-0.35545626
105	0x3eb9e5ff	0.36308286
106	0x3e35195b	0.17685454
107	0x3f1c3455	0.6101735
108	0x3f236406	0.638245
109	0x3e7ca2e9	0.2467152
110	0x3d78ebd1	0.060771767
111	0xbec114d4	-0.37711203
112	0xbef46d92	-0.47739846
113	0xbe9b8dc9	-0.3038161
114	0x3e2fe829	0.17178406
115	0x3ee8273b	0.4534243
116	0xbed91c51	-0.42404416
117	0xbf37d99c	-0.7181642
118	0x3d4b55e9	0.049642477
119	0xbec28262	-0.379901
120	0x3d9f04d9	0.077645965
121	0x3ee8f9e7	0.4550316
122	0x3f080ca3	0.5314428
123	0x3f3f6978	0.7477031
124	0xbe2da265	-0.1695648
125	0x3edae88c	0.42755544
126	0x3eb8adca	0.3607009
127	0xbf341d1d	-0.70356923
128	0x3e571994	0.21005851
129	0xbcc665eb	-0.02421852
130	0x3e3c5565	0.1839195
131	0x3eb2c4c8	0.34915757
132	0x3e0a0c48	0.13481247
133	0xbe678661	-0.22609855
134	0xbe06ddda	-0.13170567
135	0x3e8c3525	0.27384296
136	0xbf2798b9	-0.6546741
137	0x3d13c21f	0.0360738
138	0xbeca159a	-0.39469606
139	0x3e98f54e	0.29874653
140	0xbf441589	-0.7659536
141	0x3d3e34cd	0.046437073
142	0x3f1340df	0.5752086
143	0xbeac6c6a	-0.33676463
144	0x3e7b830d	0.2456171
145	0x3ea10d73	0.31455573
146	0x3ea0751c	0.31339347
147	0x3ea66c6c	0.32504594
148	0xbea59c5d	-0.32345858
149	0xbf091587	-0.53548473
150	0xbf1bcd1a	-0.60859835
151	0xbea8d5f2	-0.32975727
152	0xbe566ab2	-0.20939139
153	0xbe5d6b91	-0.21623065
154	0xbee20faa	-0.44152576
155	0x3f03bd70	0.51460934
156	0xbe503358	-0.20332086
157	0xbf02a90e	-0.51039207
158	0xbd0021de	-0.0312823
159	0xbc993302	-0.01870108
160	0x3e38edd4	0.18059474
161	0x3e6f307b	0.23358338
162	0xbe92ec1d	-0.28695765
163	0xbf150513	-0.5821087
164	0xbe22c4e7	-0.15895425
165	0x3ef41405	0.47671524
166	0x3ec461f2	0.38355976
167	0xbf340beb	-0.70330685
168	0xbe8c3dbf	-0.2739086
169	0x3f24c582	0.64363873
170	0xbd6aeda6	-0.057355545
171	0xbc20462d	-0.009782356
172	0xbe899c96	-0.26877278
173	0xbf142468	-0.5786805
174	0xbdef4531	-0.11683119
175	0xbf536fec	-0.82592654
176	0xbeebce98	-0.46056056
177	0xbef0506e	-0.46936363
178	0xbe3c24c0	-0.18373394
179	0x3e8482c5	0.2588102
180	0x3e30d600	0.17269135
181	0xbd94c5fa	-0.072643235
182	0xbf095e98	-0.53659964
183	0xbe6bb837	-0.23019491
184	0xbf0f7cd7	-0.56049865
185	0xbf33ead7	-0.7028021
186	0x3eba6de4	0.36411965
187	0x3f314a4c	0.69253993
188	0x3c5a1304	0.013310198
189	0x3f30c687	0.6905293
190	0xbf136e5e	-0.5759028
191	0x3eef07d1	0.4668565
192	0x3f14d622	0.5813924
193	0xbe002b7a	-0.12516585
194	0xbed2e629	-0.41191223
195	0x3ab78544	0.0014001508
196	0x3ef68933	0.4815155
197	0xbf00c0f0	-0.502944
198	0x3eb12fae	0.3460669
199	0x3e00eed9	0.12591113
200	0x3ec2aba5	0.3802158
201	0x3ed038a8	0.40668225
202	0xbec02b3a	-0.3753298
203	0x3f2c98fe	0.6742095
204	0x3e575cd4	0.21031505
205	0x3dd37315	0.103246845
206	0xbf0baaf6	-0.5455774
207	0x3e0c1083	0.13678174
208	0x3cbe4fc6	0.023231398
209	0x3f34aef7	0.70579475
210	0xbe1161c0	-0.14197445
211	0x3e8dde45	0.2770864
212	0x3eb026bb	0.3440455
213	0x3cd54ad6	0.026036661
214	0xbde7c740	-0.11317301
215	0x3ee78ab6	0.45223016
216	0x3cb8d7b1	0.022563787
217	0x3f0c543a	0.5481602
218	0x3e9a508c	0.30139577
219	0xbe95fa06	-0.29292315
220	0x3ddbc70d	0.10731325
221	0xbf0f0034	-0.55859685
222	0x3e0b2f2c	0.13592213
223	0xbf46326c	-0.7742069
224	0x3ed78830	0.4209609
225	0x3f2f8710	0.68565464
226	0xbed5b1bf	-0.41737172
227	0x3cb887c2	0.022525672
228	0x3ef2aec4	0.4739896
229	0xbe845997	-0.25849602
230	0x3de4528a	0.111485556
231	0xbf1a25d6	-0.60213983
232	0xbf04ad6f	-0.5182714
233	0x3d04ed49	0.032452855
234	0xbd25f8fc	-0.040520653
235	0xbf015bfb	-0.50530976
236	0x3eaaaf12	0.33336693
237	0x3f3e2a07	0.7428288
238	0xbe06a81d	-0.13150068
239	0x3f0139e5	0.50478965
240	0xbeb6b842	-0.35687453
241	0xbe37fe4e	-0.17968103
242	0x3ea1c63d	0.31596556
243	0x3e5ebcf3	0.21751766
244	0xbf16bbb6	-0.58880174
245	0x3f266f57	0.6501364
246	0xbd2906f0	-0.04126638
247	0x3f46d8dc	0.7767465
248	0xbf1246d5	-0.5713933
249	0xbea788d0	-0.32721567
250	0xbe502f2c	-0.20330495
251	0xbeeb91cf	-0.4600968
252	0x3f19680b	0.5992438
253	0xbe3ae817	-0.18252598
254	0x3e4439e0	0.19162703
255	0x3d8c3ad1	0.06847156

l1.1.weight f4 [392, 256]
0	0xbc8dbe40	-0.017302632
1	0x3e31bbf2	0.17356852
2	0xbd937301	-0.0719967
3	0xbe93fd4a	-0.28904182
4	0x3da5e311	0.0809995
5	0x3e3abc32	0.18235853
6	0x3d26d3cd	0.040729333
7	0xbd94988e	-0.0725566
8	0x3e10901f	0.14117478
9	0x3c8d6d55	0.017264048
10	0x3d4767e7	0.048683073
11	0xbdc2a736	-0.09504549
12	0xbe89dd10	-0.2692647
13	0x3e1c11c6	0.15241155
14	0xbe9eaf1f	-0.30992982
15	0x3e2735e9	0.16329159
16	0xbc9b62f2	-0.01896808
17	0xbe1a346b	-0.15059058
18	0xbd89018b	-0.066897474
19	0x3e906d0a	0.2820819
20	0x3e1251d1	0.14289023
21	0x3e45ce91	0.1931708
22	0xbb76f49a	-0.0037682415
23	0x3e2fc9c5	0.17166813
24	0x3b83c003	0.0040206923
25	0x3e2f08ee	0.1709325
26	0xbe4941f3	-0.19654064
27	0xbdca187c	-0.09867951
28	0x3e15740e	0.14595053
29	0x3e92e063	0.28686818
30	0x3dff7839	0.124741025
31	0x3e02d648	0.12777054
32	0x3e743ce7	0.23851357
33	0x3e3ba78b	0.18325631
34	0xbdee4f47	-0.11636215
35	0x3da4868b	0.080334745
36	0x3cac58ca	0.021038432
37	0xbe4d0553	-0.20021562
38	0xbe2d0cc6	-0.16899404
39	0x3e9d2da8	0.30698895
40	0xbe636209	-0.22205366
41	0x3e30c5e0	0.17262983
42	0xbdd68103	-0.10473826
43	0x3c099deb	0.008399467
44	0xbc31a4ac	-0.0108424835
45	0x3e39281a	0.18081704
46	0xbdb07fbd	-0.08618114
47	0xbcd783ae	-0.026307907
48	0xbc8abe77	-0.016936524
49	0xbc522f64	-0.012828682
50	0xbde33aeb	-0.11095222
51	0xbd90506c	-0.07046589
52	0x3e753f62	0.2394996
53	0xbe173e46	-0.14769849
54	0xbe3da162	-0.18518594
55	0x3d45011a	0.048096754
56	0x3e7ff392	0.24995258
57	0x3e37ed05	0.1796151
58	0x3e1c3272	0.15253618
59	0x3e8dd9da	0.2770527
60	0x3e9f317d	0.31092444
61	0xbd9827e7	-0.07429486
62	0x3d1ba747	0.038001325
63	0xbdae6a9a	-0.085164264
64	0xbe01cb65	-0.12675245
65	0x3e3d1044	0.18463236
66	0x3d85f273	0.06540384
67	0x3df3d0c1	0.11905051
68	0xbe7cfd11	-0.24705912
69	0x3e823e01	0.2543793
70	0xbd8c8ef1	-0.068632014
71	0x3e057049	0.13031115
72	0xbd767479	-0.06016967
73	0x3e9a5f64	0.30150902
74	0xbe7cd702	-0.24691394
75	0x3dd4e643	0.103954814
76	0xbaaed5f5	-0.0013338911
77	0x3cd08567	0.025454236
78	0xbe3aca89	-0.18241324
79	0x3e9799dd	0.29609576
80	0x3d4f3681	0.05058909
81	0xbcd6ad85	-0.026205787
82	0xbe84b4d8	-0.25919223
83	0x3e377dae	0.17919037
84	0xbdcf0d72	-0.10109986
85	0xbd141b41	-0.036158804
86	0x3d9fa129	0.07794411
87	0xbd81bd6e	-0.06334959
88	0xbd3259c2	-0.04354263
89	0xbd74bc52	-0.05974991
90	0xbe9e1f11	-0.30883077
91	0x3ea01b06	0.31270617
92	0x3b7a4c97	0.0038192624
93	0xbd853a8c	-0.065053076
94	0x3e314fa9	0.17315544
95	0x3dbbcfc2	0.09170486
96	0xbdf59e06	-0.11993031
97	0xbc3a32d2	-0.011364656
98	0x3eda860f	0.42680404
99	0x3da6f5c4	0.08152345
100	0x3e16b489	0.14717306
101	0x3e6c1617	0.23055302
102	0x3df3e402	0.119087234
103	0x3e287ce7	0.16453896
104	0x3d33e1ae	0.043916397
105	0xbd1a7949	-0.037713323
106	0xbe9afed1	-0.30272534
107	0x3e16bf1f	0.14721344
108	0x3e460fdc	0.19341987
109	0xbe148364	-0.14503247
110	0xbe0d765f	-0.13814686
111	0xbe6010fa	-0.21881476
112	0x3c1eee5a	0.009700382
113	0xbe8d66dd	-0.2761754
114	0xbe0b68ee	-0.13614246
115	0x3e53ed54	0.20696002
116	0x3e4d079f	0.20022438
117	0xbdb1a986	-0.08674912
118	0x3e7b9d5c	0.24571747
119	0x3e8d6278	0.27614188
120	0xbd9abe48	-0.075558245
121	0xbe23ef26	-0.16009197
122	0xbd94c34c	-0.072638124
123	0x3c7fec98	0.015620373
124	0x3e8a50e8	0.27014852
125	0x3db73d4f	0.089472406
126	0x3d8f8318	0.07007426
127	0xbdfd6a8a	-0.12373836
128	0xbdda92c0	-0.106725216
129	0x3e73c52c	0.23805684
130	0x3e69f156	0.22845969
131	0x3d502c80	0.05082369
132	0x3e9656e1	0.29363158
133	0x3ba148d2	0.004922011
134	0xbe14303f	-0.1447153
135	0x3cde05b6	0.027102333
136	0x3b34bb50	0.0027577467
137	0xbe0ce0ae	-0.13757583
138	0xbc6d9c21	-0.014502556
139	0xbd488249	-0.048952375
140	0x3c77f03e	0.015132962
141	0x3e8d97a1	0.27654746
142	0x3e210590	0.15724778
143	0x3cface96	0.030616086
144	0x3e51c926	0.20486888
145	0x3c8a0b4d	0.016851092
146	0xbdb3ec04	-0.08785251
147	0xbcf25b96	-0.029584687
148	0xbe94cf23	-0.29064283
149	0xbebc1e4f	-0.36741874
150	0x3c8900c8	0.016724005
151	0x3e45c268	0.19312441
152	0x3db0b1e9	0.08627684
153	0x3ca4b4d5	0.020105759
154	0xbe1a9c65	-0.15098722
155	0xbe04b799	-0.12960662
156	0xbe892925	-0.26789203
157	0xbe304b4a	-0.1721622
158	0x3d113d51	0.035458867
159	0x3bc5277a	0.006016669
160	0xbe5602a7	-0.2089945
161	0x3c3644fa	0.011124844
162	0xbe8a1438	-0.2696855
163	0x3e054116	0.1301311
164	0x3e48d185	0.19611175
165	0xbe2d20a3	-0.16906981
166	0xbdb2e116	-0.08734338
167	0xbdd0e944	-0.10200742
168	0xbe5ae0b8	-0.21374786
169	0x3e6386a7	0.22219335
170	0x3e896342	0.2683354
171	0x3d3cad6f	0.046063837
172	0x3df5b2ac	0.119969696
173	0xbe47f65d	-0.19527574
174	0xbdee5c18	-0.11638659
175	0x3d80e3f2	0.06293477
176	0x3dc1e1a3	0.09466865
177	0xbe48c418	-0.19606054
178	0x3e28d7db	0.16488592
179	0x3d2573f7	0.040393796
180	0xbd42fced	-0.04760449
181	0xbdd75f71	-0.10516251
182	0xbd68eeb3	-0.056868266
183	0x3d581073	0.052750062
184	0xbe60521e	-0.21906325
185	0x3d2993ec	0.041400835
186	0x3d8ad10f	0.06778156
187	0xbda6a713	-0.08137336
188	0x3e1e3e58	0.1545347
189	0x3e323c9d	0.17405935
190	0x3cb520c5	0.022110352
191	0x3de5a388	0.11212832
192	0xbe8533e8	-0.26016164
193	0xbeae73c5	-0.340727
194	0x3e0b874d	0.13625832
195	0xbd3a96a9	-0.045553837
196	0xbe3fb187	-0.18720065
197	0xbdbc8dc2	-0.09206726
198	0x3e0e9bd5	0.13926633
199	0x3bacbf38	0.0052718185
200	0x3ec9578f	0.39324614
201	0xbd348891	-0.044075552
202	0x3d890df8	0.066921175
203	0x3d5c0e1f	0.053724404
204	0xbcc837e4	-0.024440713
205	0x3df0df46	0.11761336
206	0xbe218ac6	-0.15775594
207	0xbe9dd25d	-0.30824557
208	0x3ea57124	0.32312882
209	0x3e3a8e5c	0.18218368
210	0xbd42600b	-0.047454875
211	0x3d6a80fb	0.05725191
212	0x3e0c84e7	0.13722573
213	0x3e3cdae2	0.18442872
214	0xbe4ca24f	-0.19983791
215	0xbddba073	-0.10723963
216	0x3e28d70b	0.16488282
217	0x3e25419a	0.16138306
218	0xbdc4304f	-0.09579527
219	0xbe123614	-0.14278442
220	0xbdecb93f	-0.115587704
221	0xbe2c2a88	-0.168131
222	0x3e9e9438	0.30972457
223	0xbe16fe3a	-0.14745417
224	0x3e243201	0.160347
225	0x3e2efb6d	0.17088099
226	0x3d0bd3a6	0.03413739
227	0x3d0d3256	0.034471832
228	0x3c73796a	0.01486049
229	0xbe068149	-0.13135256
230	0x3d207329	0.039172325
231	0x3e82850c	0.25492132
232	0xbe3f5439	-0.18684472
233	0xbe01b00e	-0.12664816
234	0x3dd48fd2	0.10378994
235	0x3ead65f9	0.3386686
236	0xbc393291	-0.01130356
237	0x3e6c6d57	0.23088585
238	0x3dd99100	0.1062336
239	0xbe226ee8	-0.1586262
240	0xbe1265fe	-0.1429672
241	0xbe8ff181	-0.2811394
242	0x3e7526e4	0.23940617
243	0x3e34ef9d	0.1766953
244	0x3e91d3de	0.28481954
245	0xbe1410f9	-0.144596
246	0x3e2064fe	0.15663525
247	0x3d6b6c55	0.05747636
248	0x3e8911fc	0.26771533
249	0xbe4feb27	-0.20304547
250	0x3c381182	0.011234643
251	0xbe821252	-0.25404602
252	0xbda2feff	-0.07958793
253	0x3dce3908	0.100694716
254	0x3e7515b7	0.23934065
255	0x3ea2d070	0.3179965

l1.1.bias f4 [392]
0	0x3e2e3014	0.17010528
1	0xbe22fdae	-0.15917084
2	0xbe79d5b4	-0.24397928
3	0xbe8a2b75	-0.2698628
4	0xbd93d6dd	-0.07218716
5	0xbe668bdd	-0.22514291
6	0xbed7849f	-0.4209337
7	0x3e1451cb	0.14484327
8	0xbdbf9137	-0.093538694
9	0x3b043c29	0.002017746
10	0x3d3b8d19	0.045788858
11	0x3c0e65d7	0.008691273
12	0x3e8000a1	0.2500048
13	0x3e6c69d9	0.23087253
14	0xbe25605a	-0.16150036
15	0xbe1df4b8	-0.15425384
16	0x3acb7b4e	0.0015524419
17	0x3d8e6daa	0.069545105
18	0x3e8a3701	0.2699509
19	0x3e27be25	0.16381128
20	0x3d205db6	0.03915187
21	0xbe555d21	-0.20836307
22	0xbd4c5dca	-0.04989413
23	0x3e4f5ac5	0.2024947
24	0x3b94d4a3	0.00454195
25	0x3e95dd54	0.29270422
26	0x3eae553b	0.340494
27	0x3dd8bd4a	0.10582979
28	0x3dd48990	0.103778005
29	0x3df7f38f	0.12107002
30	0x3e59f967	0.21286546
31	0xbe12439f	-0.14283608
32	0x3d976a17	0.07393282
33	0x3ed71e5b	0.42015347
34	0x3ddf67e1	0.10908485
35	0x3e5c8ccd	0.21538086
36	0x3e1a22db	0.15052359
37	0x3e5b7e71	0.21434952
38	0x3db31808	0.08744818
39	0x3ed6c117	0.4194419
40	0x3ebb3fd5	0.36572137
41	0x3dcef72d	0.10105739
42	0x3ccb6870	0.024830073
43	0x3e0bf655	0.13668187
44	0xbe71b28a	-0.23603263
45	0x3d711b0f	0.058863696
46	0x3e131522	0.1436353
47	0x3d9ce394	0.076605946
48	0xbdd366f8	-0.10322374
49	0xbebc1118	-0.36731791
50	0xbe05c134	-0.13061982
51	0xbbf434c7	-0.0074525806
52	0xbe5a9822	-0.21347097
53	0xbcaa9e53	-0.020827448
54	0xbdd7ae1a	-0.10531254
55	0xbdd0a232	-0.10187186
56	0xbe5d5226	-0.21613368
57	0x3dea78a5	0.11448792
58	0x3dec9d1f	0.11553406
59	0xbcb38223	-0.02191264
60	0xba25adb3	-0.00063201337
61	0xbe5a225e	-0.21302173
62	0xbe778628	-0.2417227
63	0xbe062670	-0.131006
64	0x3bb90711	0.0056465943
65	0xbe2719e0	-0.16318464
66	0xbdee180a	-0.11625679
67	0xbdd3f2b4	-0.10349026
68	0xbe82fe7f	-0.2558479
69	0xbebb8cd8	-0.36630893
70	0xbdd6f4e3	-0.10495927
71	0x3dda6dc4	0.106654674
72	0xbd4a055e	-0.049321525
73	0xbead014f	-0.3379006
74	0xbe575463	-0.21028285
75	0xbea84b29	-0.32869843
76	0xbea90fe5	-0.3301994
77	0xbe1b40fb	-0.15161507
78	0x3b9216f9	0.004458305
79	0xbe473cab	-0.19456737
80	0xbe8ba7ea	-0.27276546
81	0xbe0c0b4f	-0.13676189
82	0xbeb937ad	-0.3617529
83	0xbe7f6ced	-0.24943896
84	0xbd76edf1	-0.060285512
85	0xbeb2fbf1	-0.3495784
86	0xbe6667a7	-0.22500478
87	0xbe34987e	-0.17636296
88	0xbe4e2ec1	-0.20135023
89	0xbed6d2ca	-0.41957694
90	0xbda01340	-0.07816172
91	0xbd9d1f1d	-0.0767195
92	0x3c368683	0.0111404685
93	0xbebfaa2b	-0.37434515
94	0xbf2ba116	-0.6704267
95	0xbeee4b7c	-0.46541965
96	0x3d8ab090	0.06771958
97	0xbe1a77f4	-0.15084821
98	0x3f3ee2f8	0.74565077
99	0x3eb9b8b6	0.36273736
100	0xbd4b6fb7	-0.049667086
101	0x3e2b521c	0.16730541
102	0x3e805073	0.25061378
103	0x3e98fe1d	0.29881373
104	0x3e877685	0.2645761
105	0x3eb40911	0.35163167
106	0x3d9f920e	0.077915296
107	0xbe7b6be0	-0.2455287
108	0xbec46d4a	-0.3836463
109	0xbeb27aef	-0.34859416
110	0x3e383b11	0.17991282
111	0x3e45cc01	0.19316103
112	0x3ece8ae9	0.40340355
113	0xbdd2afce	-0.10287438
114	0xbee3efe4	-0.4451896
115	0xbeac1d72	-0.33616215
116	0xbe9d6052	-0.3073755
117	0xbaabb3f1	-0.0013099891
118	0x3e867efa	0.2626875
119	0x3ec87511	0.39151815
120	0xbe125f63	-0.142942
121	0xbe948b74	-0.29012644
122	0xbeab0817	-0.3340461
123	0xbed7c9eb	-0.4214624
124	0xbd3a98a4	-0.045555726
125	0x3e94d346	0.2906744
126	0x3e8c9ca0	0.27463245
127	0xbe09db73	-0.1346262
128	0xbe289f39	-0.16466989
129	0xbe41b989	-0.18918432
130	0xbee40c34	-0.4454056
131	0x3c047f47	0.008086986
132	0x3ecbb17d	0.3978385
133	0x3f0ff379	0.56230885
134	0x3c8640e3	0.016388362
135	0xbe55a63a	-0.20864192
136	0xbe13e87f	-0.14444159
137	0xbdea2171	-0.1143216
138	0x3e6a5c9b	0.22886889
139	0x3e3c56f0	0.18392539
140	0x3f23bbce	0.6395844
141	0x3f10b0a1	0.56519514
142	0x3df1677f	0.117873184
143	0x3df8c4aa	0.12146886
144	0x3ef2608d	0.47339287
145	0x3ef8bb8f	0.48580596
146	0x3ed789c7	0.42097303
147	0x3e839ff4	0.25707972
148	0xbdd22dd3	-0.102626465
149	0xbe1004e9	-0.14064373
150	0x3de192cd	0.11014328
151	0x3e403ca0	0.18773127
152	0x3e884a8c	0.26619375
153	0xbe9069bf	-0.28205678
154	0xbd2c6695	-0.042090017
155	0xbdb7d61f	-0.08976387
156	0x3cba549e	0.022745427
157	0xbd58d859	-0.0529407
158	0x3d8c0947	0.06837707
159	0x3d370dce	0.0446909
160	0xbe5eb242	-0.21747687
161	0xbecbaf7d	-0.39782324
162	0x3d1d8f3f	0.03846669
163	0x3d950db0	0.07278001
164	0x3e6be997	0.23038326
165	0x3b731654	0.0037092166
166	0x3d24c74c	0.040229127
167	0x3d3a3806	0.045463584
168	0x3c8d8492	0.017275129
169	0xbd39cc1b	-0.045360666
170	0xbd252ac9	-0.040324006
171	0xbda3196e	-0.07963835
172	0x3eaa6629	0.33281067
173	0xbdb57850	-0.088608384
174	0xbd78e67c	-0.060766682
175	0xbe0bfb36	-0.13670048
176	0x3e42f48d	0.19038601
177	0x3e902fdb	0.2816151
178	0x3e6d4186	0.23169526
179	0x3e77b926	0.24191722
180	0xbdb9f2b4	-0.09079495
181	0x3e65031c	0.22364467
182	0xbe2f80f3	-0.17139034
183	0x3c70d038	0.014698081
184	0x3e93a79b	0.2883881
185	0x3eabd961	0.33564284
186	0x3e477bcb	0.19480817
187	0xbd48a277	-0.048983064
188	0x3ebed3d7	0.37270996
189	0xbe22b1ec	-0.15888184
190	0x3d8785f9	0.0661735
191	0xbc90e483	-0.017687088
192	0x3e39798c	0.18112773
193	0xbe46f385	-0.19428833
194	0xbee00443	-0.4375325
195	0x3d427819	0.047477815
196	0xbf1a6be0	-0.60320854
197	0xbeaf686a	-0.3425935
198	0xbb804a68	-0.00391512
199	0x3d624b73	0.055247735
200	0xbe55e2fc	-0.20887369
201	0xbe00cfc5	-0.12579258
202	0xbf418e3b	-0.7560765
203	0xbebf1f5b	-0.3732861
204	0xbe836027	-0.25659296
205	0x3e8cbff6	0.27490205
206	0x3e134abb	0.14383976
207	0x3e24eeac	0.16106671
208	0xbe619f6b	-0.2203347
209	0xbe3ed143	-0.18634515
210	0xbe82197d	-0.2541007
211	0x3e34f048	0.17669785
212	0x3eca4453	0.39505252
213	0x3ea2733c	0.31728542
214	0x3ec2addf	0.38023278
215	0x3be6e5e7	0.0070464495
216	0xbe8b2ce5	-0.2718269
217	0xbe132962	-0.14371255
218	0x3e391bf9	0.18077077
219	0x3e17b215	0.14814027
220	0x3e8147aa	0.25249988
221	0x3edca33e	0.43093294
222	0x3afdd04e	0.0019364448
223	0xbe4b6ef9	-0.19866551
224	0xbe2d0523	-0.16896491
225	0x3d0ec11e	0.03485214
226	0x3e74a835	0.23892291
227	0x3ebc1359	0.3673351
228	0x3e904b7c	0.2818259
229	0x3dc2ab0e	0.09505282
230	0xbe57b071	-0.21063401
231	0xbe20a810	-0.15689111
232	0x3e3bec59	0.18351878
233	0x3e819588	0.25309396
234	0x3e8fe12d	0.28101483
235	0x3da60c9d	0.081078745
236	0xbdff0f44	-0.124540836
237	0xbedebb56	-0.435023
238	0xbec3c04d	-0.3823265
239	0xbd889b45	-0.0667024
240	0xbea9fb8e	-0.33199733
241	0xbe600a08	-0.21878827
242	0xbdc584df	-0.09644484
243	0xbe623fe9	-0.22094692
244	0xbed41153	-0.41419467
245	0xbd92d1b0	-0.07168901
246	0xbdf6a06f	-0.12042319
247	0x3eb49ae7	0.3527443
248	0x3ee1e31c	0.44118583
249	0x3c9474ac	0.01812204
250	0xbd60f4b8	-0.054920882
251	0x3ee55ded	0.44798222
252	0x3cbd6d5b	0.023123434
253	0x3e3afc71	0.18260361
254	0x3e1dbeb1	0.15404774
255	0xbbb35412	-0.0054726684

conv_blocks.1.weight f4 [4, 8, 3, 3]
0	0x3c9afab9	0.018918382
1	0x3e171d4e	0.14757273
2	0xbdd2d979	-0.10295386
3	0x3d41d751	0.047324482
4	0x3e3dbed8	0.18529832
5	0xbdf2e166	-0.118593976
6	0x3e0d0715	0.13772233
7	0x3de5f500	0.11228371
8	0xbddfa825	-0.10920743
9	0xbc5986ba	-0.01327675
10	0x3deea6ed	0.11652932
11	0xbdc6dac2	-0.097096935
12	0x3e698770	0.22805572
13	0xbe11e83a	-0.14248744
14	0xbdbcaa9d	-0.092122294
15	0xbe10c841	-0.14138891
16	0xbe797364	-0.24360424
17	0xbdc0793b	-0.09398123
18	0x3da393e7	0.079871945
19	0x3e6ea2ea	0.23304334
20	0x3e84c8f3	0.25934562
21	0x3d759f47	0.05996635
22	0x3e9c5f82	0.30541617
23	0x3ef8e2d4	0.48610556
24	0xbd8f913c	-0.07010123
25	0x3ef85873	0.4850498
26	0x3e8c38b1	0.27387002
27	0xbd3ab97a	-0.04558704
28	0xbdbe2e16	-0.09286134
29	0x3d7a93a2	0.06117595
30	0xbe2d0015	-0.16894563
31	0xbe893f43	-0.26806077
32	0xbe34f831	-0.17672803
33	0x3d1c1c2b	0.0381128
34	0x3e4a837a	0.19776717
35	0x3d83ad49	0.06429536
36	0xbbfdfa12	-0.007750758
37	0xbe78906b	-0.24273841
38	0x3e222e43	0.1583796
39	0x3e0578e2	0.13034394
40	0x3df4e6f4	0.11958113
41	0x3e1613cb	0.14655988
42	0x3e0ee2d7	0.1395372
43	0xbd937ebc	-0.07201907
44	0xbc03a0ca	-0.008033941
45	0xbd104e2c	-0.0352308
46	0xbdff4758	-0.124647796
47	0xbe2cba41	-0.16867925
48	0xbde3dfa9	-0.11126644
49	0xbe47602c	-0.1947028
50	0xbde0f56c	-0.109843105
51	0xbe668e65	-0.22515257
52	0xbe80b3f8	-0.25137305
53	0xbcbea3e2	-0.023271505
54	0x3db4357a	0.08799262
55	0xbdd74ae4	-0.10512331
56	0x3d8369fe	0.06416701
57	0x3d9872d9	0.074437805
58	0xbec53391	-0.38515905
59	0xbe41c005	-0.18920906
60	0xbd442ef8	-0.047896355
61	0xbe859a64	-0.26094353
62	0xbe2ff2ad	-0.17182417
63	0x3e15ce14	0.14629394
64	0x3ac97918	0.0015371172
65	0xbcad3fcc	-0.021148585
66	0x3de8cbfb	0.11367031
67	0x3c5ae9e4	0.013361428
68	0xbe936a77	-0.28792164
69	0x3e2b74b5	0.16743739
70	0x3e14e899	0.14541854
71	0x3dca7a42	0.098866
72	0xbe0fc5fe	-0.14040372
73	0xbde50445	-0.11182455
74	0xbdb2a2d4	-0.08722463
75	0xbdae2d08	-0.08504683
76	0xbc0f1599	-0.008733177
77	0xbd8db1c6	-0.06918673
78	0x3daedf95	0.08538739
79	0xbd5a8c08	-0.0533562
80	0x3daae7ad	0.0834497
81	0xbdbf8508	-0.093515456
82	0xbdb67324	-0.0890868
83	0xbd4f4d98	-0.05061111
84	0xbe3ae42d	-0.18251105
85	0x3d0c4e7f	0.034254547
86	0xbdf0628d	-0.11737547
87	0xbe068270	-0.13135695
88	0xbdbbb823	-0.09165981
89	0xbdf43b40	-0.119253635
90	0xbc0b0285	-0.008484487
91	0xbc6c5adf	-0.014425962
92	0x3daf9b4f	0.08574545
93	0xbe5ca0d8	-0.21545732
94	0xbd5a114c	-0.05323915
95	0xbd867473	-0.0656518
96	0xbc0741e8	-0.008255459
97	0xbe211c40	-0.15733433
98	0x3dc54bea	0.0963362
99	0xbdd75377	-0.105139665
100	0x3d4bf124	0.049790516
101	0x3b35e13f	0.0027752665
102	0x3d3a2a5e	0.04545056
103	0x3e4da59c	0.20082706
104	0xbe1a011d	-0.15039487
105	0x3caea08a	0.021316785
106	0x3de00d3f	0.109400265
107	0x3e00de3f	0.1258478
108	0x3e033784	0.12814146
109	0x3e98c341	0.29836467
110	0x3cf1c0bd	0.02951085
111	0x3dfe68e8	0.12422353
112	0x3c80205e	0.015640434
113	0x3e2175e6	0.15767631
114	0x3dbd22f3	0.09235182
115	0x3dad9e7b	0.084774934
116	0x3e03f806	0.12887582
117	0x3d62d22d	0.05537622
118	0x3cc0ace9	0.02351995
119	0x3db6d96d	0.089281894
120	0x3d07a94f	0.03312045
121	0xbe3b4755	-0.1828893
122	0x3cf038d5	0.029323975
123	0x3d0fdf04	0.035124794
124	0xbd549ad5	-0.05190547
125	0xbdeeaa73	-0.11653604
126	0x3c981975	0.018566826
127	0xbbc78e73	-0.0060899793
128	0xbd41feaf	-0.047362026
129	0xbcb4a2d4	-0.022050299
130	0x3c9c177b	0.019054165
131	0x3e0fde21	0.14049579
132	0x3db8d3c4	0.09024766
133	0xbd6b4c23	-0.057445657
134	0x3e316672	0.17324236
135	0xbca9a76a	-0.020709712
136	0x3e4c272b	0.19936816
137	0x3df521bc	0.11969325
138	0x3db74da1	0.089503534
139	0x3d98b55e	0.07456468
140	0x3e3f22d7	0.18665634
141	0x3dfddb88	0.12395388
142	0x3e15e908	0.14639676
143	0x3c394bf5	0.0113096135
144	0x3d64ecea	0.05589
145	0xbe9012ea	-0.2813943
146	0x3e4254ab	0.18977611
147	0x3dce77d8	0.10081452
148	0xbd531d20	-0.051541448
149	0x3c561ec7	0.013068861
150	0xbe5cd9e4	-0.21567494
151	0xbe040ea7	-0.12896214
152	0xbeb3dc2a	-0.3512891
153	0xbdba2e37	-0.09090846
154	0xbec7220c	-0.38893163
155	0xbe86fa83	-0.26363
156	0xbdb6c3b5	-0.08924047
157	0xbe92d16e	-0.28675407
158	0xbd30508c	-0.043045565
159	0x3a39fb46	0.00070946326
160	0x3c57d81e	0.013174085
161	0xbc107c52	-0.008818703
162	0x3dd70a7a	0.10500045
163	0x3de5f852	0.11229004
164	0xbe1a7c98	-0.15086591
165	0x3e26a402	0.16273502
166	0x3e160d55	0.14653523
167	0xbabe4740	-0.0014517084
168	0x3d436612	0.047704764
169	0x3da9d9cb	0.08293494
170	0xbde6aed3	-0.11263814
171	0x3dd2c7db	0.10292026
172	0x3d686714	0.056738928
173	0xbe42142c	-0.18953007
174	0xbcf335a1	-0.029688658
175	0x3da1bdb9	0.07897515
176	0x3eacd25d	0.33754244
177	0xbc66be43	-0.014083448
178	0xbdeebe36	-0.116573736
179	0x3e124525	0.14284189
180	0xbe4de4fc	-0.20106882
181	0xbc88f4ab	-0.01671823
182	0xbd3dd724	-0.046347752
183	0xbec7eecb	-0.39049372
184	0xbe5f60ee	-0.2181432
185	0xbc1f69f1	-0.009729848
186	0xbe5bb841	-0.21457006
187	0x3d1835a0	0.037160516
188	0x3dcd0dc7	0.100123934
189	0xbe1af18e	-0.15131208
190	0xbea0c094	-0.31396925
191	0x3e4fa2ad	0.202769
192	0xbd6149a1	-0.05500186
193	0x3e5981fb	0.2124099
194	0x3ea3ed41	0.32016948
195	0xbbe186ce	-0.006882525
196	0x3dd70848	0.104996264
197	0x3d3990a9	0.045303974
198	0xbdea0d42	-0.1142831
199	0x3e8555ba	0.26041967
200	0x39d5e72d	0.00040798765
201	0xbd0fc39b	-0.035098653
202	0x3e95b499	0.29239348
203	0xbb2cc1bf	-0.00263606
204	0xbe9b3ea6	-0.30321234
205	0xbd034453	-0.03204758
206	0x3ced0476	0.028932791
207	0x3e44692d	0.19180746
208	0xbe101e5a	-0.14074078
209	0x3e3a4fe4	0.18194538
210	0xbe30df7c	-0.17272753
211	0xbe9264f8	-0.28592658
212	0xbdcf5aac	-0.10124716
213	0xbe67c074	-0.22632009
214	0xbecb22c6	-0.39674968
215	0xbb3d1fab	-0.0028857987
216	0xbe512b69	-0.20426716
217	0xbeac6ef0	-0.3367839
218	0xbeab48be	-0.33453935
219	0xbe749c96	-0.23887858
220	0xbe848333	-0.25881347
221	0xbe72fad4	-0.23728496
222	0x3d013806	0.03154757
223	0xbd2b94a7	-0.041889813
224	0xbd26f620	-0.040762067
225	0xbe6da299	-0.23206557
226	0xbda07fdc	-0.07836887
227	0xbc2188ee	-0.009859307
228	0x3d6b683e	0.05747246
229	0x3e8c3ae2	0.27388674
230	0x3e3ae833	0.1825264
231	0xbde2dafa	-0.11076923
232	0x3e8d8505	0.27640548
233	0x3d52cf0f	0.051466998
234	0x3da6fd99	0.08153839
235	0x3e19202d	0.1495368
236	0x3b0d2b8f	0.0021540856
237	0x3dea4b46	0.114401385
238	0x3e64f5df	0.22359417
239	0xbde7e033	-0.113220595
240	0xbe2d2aaa	-0.16910806
241	0x3d4cc70e	0.04999452
242	0xbe5a5f57	-0.21325432
243	0xbd47306c	-0.048630163
244	0xbd82d214	-0.063877255
245	0x3caa457f	0.020785091
246	0x3d0bf7b8	0.03417179
247	0x3e377a61	0.17917778
248	0x3dc1bee0	0.09460235
249	0x3c1a0387	0.009400255
250	0x3e138959	0.14407863
251	0xbde504b5	-0.111825384
252	0xbdaeabdf	-0.085288756
253	0x3dd9fb39	0.1064362
254	0x3dca11d1	0.098666795
255	0x3cb9da4b	0.022687098

conv_blocks.1.bias f4 [4]
0	0x3de13344	0.10996106
1	0x3f61e9ed	0.8824757
2	0xbe1232df	-0.14277218
3	0xbe8982a9	-0.26857498

conv_blocks.4.weight f4 [1, 4, 3, 3]
0	0xbd4dcc71	-0.0502438
1	0xbde47451	-0.11154998
2	0xbe2e4524	-0.17018563
3	0xbccc7a37	-0.02496062
4	0xbdcdc8b9	-0.100480504
5	0xbda9ec7f	-0.08297061
6	0xbc9dcd76	-0.01926301
7	0x3d3ad214	0.045610502
8	0x3de7ba82	0.113148704
9	0xbc6db47f	-0.014508366
10	0x3d589b70	0.05288261
11	0xbc4fe97e	-0.012689946
12	0x3dbdbc93	0.09264483
13	0x3dc6d55c	0.09708664
14	0x3d95b47f	0.073098175
15	0xbc273854	-0.010206301
16	0x3dba698a	0.09102161
17	0x3d3e6f82	0.04649306
18	0xbdd2cdfa	-0.10293193
19	0xbe2b60ea	-0.16736189
20	0xbdee8da6	-0.11648111
21	0xbdfbdbee	-0.12297808
22	0xbdf23ea5	-0.11828355
23	0xbdb457dd	-0.08805821
24	0xbd2a5449	-0.041584287
25	0xbd87cbf5	-0.066306986
26	0xbd07c1e1	-0.03314388
27	0x3b8752dc	0.0041297507
28	0xbd95baad	-0.07310996
29	0xbcc8e813	-0.024524724
30	0xbe0c49cc	-0.13700026
31	0xbe03a740	-0.1285677
32	0xbcc51c4b	-0.024061343
33	0xbd9c1e23	-0.076229356
34	0xbd55f53f	-0.052235838
35	0xbbab6409	-0.005230431
