mnist_gan/MNIST_GAN_CNN/save_mode_collapse/G--30.ckpt (torch_old, 537904 bytes, 7 tensors)

l1.0.weight f4 [256, 128]
0	0x3da9e52e	0.08295666
1	0x3d22ec17	0.039775934
2	0xbc06178f	-0.008184328
3	0x3e13f3d7	0.14448486
4	0x3db738c9	0.08946378
5	0x3d9a085a	0.07521124
6	0xbcc3d320	-0.023904383
7	0xbe716ab2	-0.23575857
8	0xbca45dad	-0.0200642
9	0x3bc7669c	0.00608523
10	0xbe28b516	-0.16475329
11	0x3de0122a	0.109409645
12	0xbe10067b	-0.14064972
13	0xbd1d8168	-0.03845349
14	0x3da0bec7	0.07848888
15	0x3d494d03	0.04914571
16	0x3e7c76ba	0.24654666
17	0xbdadd484	-0.084878
18	0xbd8e327a	-0.069432214
19	0xbe082189	-0.13294043
20	0xbd209e6f	-0.039213594
21	0xbdedb06a	-0.11605914
22	0xbda283f0	-0.07935321
23	0x3d54b967	0.051934626
24	0xbda74e40	-0.08169222
25	0x3de2717b	0.11056801
26	0x3e0fa00e	0.140259
27	0xbd653b33	-0.05596466
28	0xbd9d3622	-0.07676341
29	0x3c73808c	0.014862191
30	0xbda7fb14	-0.08202186
31	0xbe1b6c70	-0.15178084
32	0xbd4fff0c	-0.05078034
33	0xbe33d168	-0.17560351
34	0x3d876f72	0.066130534
35	0x3bf5b1cb	0.007498001
36	0xbd906909	-0.07051284
37	0x3defeb67	0.11714821
38	0x3db8128c	0.089879125
39	0xbd4efbe9	-0.05053321
40	0x3d8ff669	0.07029421
41	0xbe5e647c	-0.21718019
42	0xbd8bd0c0	-0.06826925
43	0x3c073389	0.008252033
44	0xbc5d9c87	-0.013526089
45	0x3d9d5c01	0.07683564
46	0x3caf7838	0.02141963
47	0x3d1567e3	0.036476027
48	0xbccbbb2a	-0.02486952
49	0x3d46acbd	0.04850458
50	0x3d6486ec	0.055792734
51	0x3bfd0ae9	0.007722248
52	0x3e358b44	0.17728907
53	0xbc55395f	-0.013014167
54	0xbd821f32	-0.06353606
55	0x3c7f8f37	0.01559811
56	0x3d053fd4	0.032531574
57	0xbe0c87d3	-0.13723688
58	0x3c7b3cda	0.015334332
59	0xbe1617d1	-0.14657523
60	0xbd002008	-0.031280547
61	0xbd7aadf9	-0.06120107
62	0xbc8c9e02	-0.017165188
63	0xbd24e343	-0.040255796
64	0x3d5bc425	0.053653855
65	0xbd4dd720	-0.050253987
66	0x3cd98dcd	0.026556874
67	0x3df600ea	0.12011893
68	0xbd8f5ace	-0.069997415
69	0xbdbc7da9	-0.09203655
70	0xbd8c4f52	-0.06851067
71	0xbda8d4b3	-0.08243694
72	0x3e6502a3	0.22364287
73	0xbcbad4a5	-0.022806475
74	0x3dae4b48	0.085104525
75	0x3dc6f049	0.097137995
76	0x3c745154	0.014911968
77	0xbda0856a	-0.07837947
78	0xbd68a3a4	-0.056796685
79	0x3d6de668	0.05808106
80	0x3c32aef4	0.01090597
81	0x3d0fb1e8	0.035081774
82	0x3dd8fe08	0.105953276
83	0x3c5d0651	0.0134902755
84	0xbc78f41b	-0.015194918
85	0xbdb84c93	-0.089989804
86	0x3cd53c3d	0.0260297
87	0xbda4e68d	-0.080517866
88	0x3da9fc81	0.083001144
89	0x3bfb0ffe	0.0076618185
90	0x3d20c5d3	0.03925116
91	0xbdf5b021	-0.119964845
92	0xbe0f9647	-0.1402217
93	0x3e195d46	0.14976987
94	0xbd4b57c7	-0.049644258
95	0x3d446170	0.047944486
96	0xbb1954e7	-0.0023396553
97	0x3db199b9	0.086718984
98	0x3dc68aa8	0.09694415
99	0xbd39f83f	-0.04540276
100	0xbda2d8f8	-0.0795154
101	0xbe4363df	-0.19081067
102	0xbc8bb309	-0.017053144
103	0x3d74b657	0.059744205
104	0xbdeb9137	-0.11502307
105	0x3cfc3719	0.030787991
106	0xbc70e0a8	-0.014702
107	0xbcda0c9a	-0.026617337
108	0xbb1b9cff	-0.00237447
109	0xbe680fdf	-0.22662304
110	0xba25c010	-0.000632287
111	0x3d2e455c	0.042546615
112	0xbe0633d1	-0.13105704
113	0xbcdf2206	-0.027237903
114	0x3c340e96	0.010989806
115	0xbd6a7bab	-0.057246845
116	0xbd200496	-0.039066873
117	0xbe09d4c2	-0.13460067
118	0xbb81d458	-0.003962081
119	0xbda90373	-0.08252611
120	0xbd1a4a5a	-0.037668563
121	0xbde6f055	-0.112763084
122	0x3c724e63	0.014789197
123	0x3c9301f5	0.01794527
124	0x3c08023f	0.008301317
125	0x3db427c8	0.0879665
126	0xbd3c5502	-0.045979507
127	0xbd9022f2	-0.07037915
128	0xbd1f9fe5	-0.038970847
129	0xbd2f3770	-0.04277748
130	0x3d094ab2	0.0335185
131	0xbc694b8b	-0.014239202
132	0x3d478727	0.048712876
133	0x3d664687	0.056219604
134	0x3de09060	0.10965037
135	0x3dc79021	0.09744287
136	0x3dc006ed	0.09376321
137	0x3cc5302b	0.02407082
138	0xbdd08ea6	-0.10183458
139	0x3c470c5c	0.012148943
140	0xbe173ee4	-0.14770085
141	0xbca69980	-0.020336866
142	0x3de095ef	0.109660976
143	0x3d5ea341	0.05435491
144	0x3dadc0ed	0.08484063
145	0x3e4ce10d	0.20007725
146	0x3e3842d5	0.17994244
147	0xbd1e0507	-0.038579013
148	0x3a78b367	0.0009487182
149	0xbd17e5da	-0.037084438
150	0xbd5f7e1a	-0.05456362
151	0x3e4bf5f2	0.1991804
152	0x3d60a059	0.05484042
153	0x3c523681	0.012830378
154	0x3d67db58	0.056605667
155	0xbc1bd902	-0.009512188
156	0xbd694d66	-0.05695858
157	0xbd531f0d	-0.051543284
158	0xbd8b3d89	-0.06798846
159	0xbd859de6	-0.06524257
160	0xbdd23d78	-0.102656305
161	0xbdcd9f5c	-0.10040161
162	0xbdf62402	-0.12018587
163	0x3d5d243a	0.053989626
164	0xbddf81fb	-0.10913464
165	0xbc254f62	-0.010089727
166	0xbc365458	-0.011128508
167	0x3cbb627f	0.022874115
168	0x3d152ce5	0.036419768
169	0xbd5fc066	-0.054626845
170	0x3dc2aa71	0.09505165
171	0xbb058df8	-0.002037881
172	0x3c8495b5	0.016184667
173	0xbd1a5b49	-0.037684713
174	0x3baf4939	0.005349305
175	0x3bd4f698	0.006499123
176	0x3e08600c	0.13317889
177	0x3de1f0a1	0.110322244
178	0xbd5ec244	-0.054384485
179	0xbbdfa651	-0.0068252464
180	0x3d376b57	0.0447801
181	0x3db30722	0.08741595
182	0xbbeedb3e	-0.0072893193
183	0x3d11303d	0.035446394
184	0x3d884af2	0.0665492
185	0xbd2f5c93	-0.042812895
186	0xbd4164e6	-0.047215365
187	0x3c0774aa	0.008267561
188	0x3e1571ef	0.14594243
189	0xbc903355	-0.017602602
190	0x3dd9c9e1	0.106342085
191	0x3d45549a	0.048176385
192	0x3e79d184	0.2439633
193	0xbbe39f40	-0.0069464743
194	0x3d3500a0	0.04419005
195	0x3ddcf57c	0.1078901
196	0x3daabe16	0.08337037
197	0xbcc6d99f	-0.024273692
198	0x3ba7a328	0.0051158853
199	0xbda26313	-0.07929053
200	0x3b51f092	0.003203426
201	0xbdfe3b88	-0.124136984
202	0x3e067e38	0.13134086
203	0x3ddee4b7	0.10883468
204	0xbcea41c6	-0.028595816
205	0x3d1967ef	0.037452634
206	0x3c73cc5b	0.014880265
207	0x3d2f3f11	0.042784754
208	0x3dfbb90e	0.12291156
209	0xbd4aea6d	-0.049539972
210	0x3d3cb4e0	0.046070933
211	0x3c8247a9	0.01590331
212	0xbcf44641	-0.029818656
213	0xbda9fb8d	-0.08299933
214	0xbd302f08	-0.043013602
215	0xbd41645c	-0.04721485
216	0x3ca3015c	0.01989811
217	0xbcff19f3	-0.031140303
218	0xbd39f3df	-0.04539859
219	0xbe0e2531	-0.13881375
220	0x3d2d2941	0.04227567
221	0x3e5cfdbc	0.21581167
222	0xbd9d4383	-0.076788925
223	0xba90099a	-0.001098919
224	0xbe46e7f9	-0.19424428
225	0x3dd24712	0.10267462
226	0x3e1871db	0.14887182
227	0x3d9032b2	0.07040919
228	0x3db2d912	0.08732809
229	0x3c1cb3e2	0.009564372
230	0x3d328b3e	0.043589823
231	0x3d490d3c	0.049084887
232	0x3d9ce762	0.0766132
233	0x3dd01df1	0.10161961
234	0x3df55eda	0.11980982
235	0xbc88eb55	-0.016713778
236	0xbe1a93e4	-0.15095478
237	0xbd90e440	-0.07074785
238	0x3d631178	0.05543658
239	0x3d89906e	0.06717001
240	0x3cadbe60	0.021208942
241	0x3ce5734f	0.028009085
242	0x3d86f95e	0.06590532
243	0x3da26598	0.07929534
244	0xbc2d6829	-0.010583916
245	0x3d3c666f	0.045996126
246	0x3d930a7d	0.07179735
247	0x3d710780	0.058845043
248	0xbca11700	-0.019664288
249	0xbe0cff3f	-0.13769244
250	0x3d26bb2e	0.040705852
251	0xbcf541ad	-0.029938543
252	0xbba7feea	-0.0051268237
253	0x3d076fa3	0.03306545
254	0xbcd93bd7	-0.026517792
255	0x3d7fb6c2	0.06243015

l1.0.bias f4 [256]
0	0x3dfa4f3d	0.12222145
1	0x3ebb2b1f	0.36556336
2	0x3ec8ae0b	0.39195284
3	0x3ca3dc08	0.02000238
4	0x3cb200ca	0.021728892
5	0xbcc6b627	-0.024256779
6	0xbea94c9e	-0.33066267
7	0xbe0e4ddd	-0.1389689
8	0xbd011235	-0.031511504
9	0x3e56fad0	0.20994115
10	0x3ec0cc76	0.3765599
11	0xbd42a65e	-0.04752194
12	0x3c41b443	0.011822763
13	0x3e5cc6b1	0.2156017
14	0xbd9efc68	-0.077629864
15	0x3eaeba6b	0.341266
16	0x3f37d522	0.7180959
17	0x3bc9b514	0.0061556194
18	0xbe97a1ec	-0.29615724
19	0x3e965e1e	0.2936868
20	0xbd57003a	-0.05249045
21	0xbe569f7d	-0.20959277
22	0xbe0f80be	-0.14013955
23	0x3f1d6290	0.6147852
24	0xbe57942a	-0.21052614
25	0xbd3b308c	-0.045700595
26	0xbde597d2	-0.11210598
27	0x3f3ad2dd	0.72978
28	0xbe911735	-0.28338018
29	0xbef66cc1	-0.48129848
30	0x3eab7f7b	0.33495697
31	0xbc8a4ca7	-0.016882254
32	0x3f1387e9	0.5762926
33	0xbe2b713f	-0.16742419
34	0xbce43af3	-0.02786014
35	0xbda722c7	-0.0816093
36	0xbed41631	-0.4142318
37	0x3e20bf12	0.15697888
38	0xbf42f4d3	-0.7615482
39	0xbcae43da	-0.021272589
40	0xbf5c06ca	-0.8594786
41	0x3cef48a1	0.029209437
42	0x3cfbe08a	0.030746717
43	0xbf1e8bde	-0.6193217
44	0xbec9a621	-0.3938456
45	0xbf1fcd87	-0.62422985
46	0x3e5ad419	0.21369971
47	0x3cd49f0e	0.02595475
48	0x3eb1ef10	0.34752703
49	0xbeb8a689	-0.36064556
50	0x3d77f001	0.06053162
51	0xbef0a8e5	-0.47003856
52	0xbf095769	-0.53649
53	0x3ead6dfe	0.3387298
54	0xbf542b81	-0.8287888
55	0xbc0e6562	-0.008691164
56	0xbe1cde76	-0.15319237
57	0x3f664002	0.8994142
58	0xbee8b756	-0.45452374
59	0x3f47d5f3	0.78060836
60	0xbe87f27f	-0.26552197
61	0xbf4e251a	-0.8052536
62	0x3f29da70	0.66348934
63	0x3eefc240	0.46827888
64	0xbf07075a	-0.5274559
65	0x3dc41b44	0.09575513
66	0x3ea1461b	0.314988
67	0x3eb141a6	0.34620398
68	0x3ec174b5	0.37784353
69	0xbe35c27c	-0.17749971
70	0x3d717039	0.058944914
71	0x3c6e5378	0.014546268
72	0x3e93b9df	0.28852746
73	0x3f0fe962	0.5621549
74	0xbe83503d	-0.25647154
75	0x3e4427ec	0.19155854
76	0x3f44c3a1	0.76861006
77	0xbdb55f4c	-0.08856067
78	0xbeb18670	-0.3467288
79	0x3e87c8d2	0.265204
80	0xbe7ea3ff	-0.24867247
81	0xbe94925b	-0.2901791
82	0xbf0e3e24	-0.5556357
83	0xbf16e3d1	-0.5894137
84	0xbf47af96	-0.780023
85	0xbebba600	-0.36650085
86	0xbeef78c8	-0.46771836
87	0x3ed3d0fa	0.41370374
88	0xbf1cb0bf	-0.61207193
89	0xbe9d72a5	-0.3075153
90	0xbeab0f99	-0.33410338
91	0x3e6e29d8	0.2325815
92	0xbd0bd615	-0.03413971
93	0xbef218d4	-0.47284567
94	0xbe25a7ba	-0.16177264
95	0xbb8dd894	-0.0043287966
96	0xbf25e37b	-0.6480023
97	0xbdc1783a	-0.094467595
98	0xbe3ebe8c	-0.18627375
99	0xbe7439fe	-0.23850247
100	0xbd06aba0	-0.032878518
101	0xbda4cd55	-0.080469765
102	0xbf062337	-0.52397484
103	0xbeac8c46	-0.3370077
104	0xbec63be9	-0.38717583
105	0x3eb834b9	0.35977724
106	0x3ea9d1b2	0.33167797
107	0x3f3616b2	0.7112838
108	0x3f0bbfed	0.5458973
109	0x3e2e43cc	0.1701805
110	0x3e43cee5	0.19121893
111	0xbed9f7e0	-0.42571926
112	0xbede4d4a	-0.43418342
113	0xbea273e8	-0.31729054
114	0x3e30546a	0.17219701
115	0x3ebe481a	0.37164384
116	0xbec91e30	-0.39280844
117	0xbf588cac	-0.8458965
118	0xbdce0d20	-0.10061097
119	0xbe9114f5	-0.283363
120	0x3caeb69d	0.021327311
121	0x3ed2ca31	0.41169885
122	0x3f0c7f6c	0.5488193
123	0x3f52fc44	0.82416177
124	0xbdb13fd1	-0.0865475
125	0x3f019435	0.5061677
126	0x3ef781d4	0.48341238
127	0xbf47698e	-0.7789544
128	0x3e776029	0.24157776
129	0xbc6918d3	-0.01422711
130	0x3e9520d1	0.291266
131	0x3efc6e22	0.49302775
132	0xbd8485fb	-0.06470867
133	0xbe9392be	-0.28822893
134	0xbde0167a	-0.10941787
135	0x3e9cc444	0.3061849
136	0xbf449859	-0.76794964
137	0x3d1d434a	0.03839425
138	0xbea3e3e9	-0.3200982
139	0x3e25c443	0.16188149
140	0xbf58491f	-0.84486574
141	0xbd78d447	-0.06074932
142	0x3f126d09	0.57197624
143	0xbe56b568	-0.20967638
144	0x3d2d812f	0.042359527
145	0x3ecedc95	0.40402666
146	0x3e8c4d56	0.27402753
147	0x3e84953a	0.258951
148	0xbe3e0320	-0.1855588
149	0xbf22ac75	-0.635444
150	0xbf1b5e8a	-0.6069113
151	0xbef8bc92	-0.48581368
152	0xbe099938	-0.13437355
153	0xbeabd982	-0.33564383
154	0xbee163d1	-0.44021466
155	0x3ef69330	0.4815917
156	0xbdbfac03	-0.093589805
157	0xbebca1e0	-0.3684225
158	0xbdc65bf8	-0.096855104
159	0xbe28247a	-0.16420165
160	0x3e1c3381	0.15254022
161	0x3df57e3d	0.11986969
162	0xbe8b1a31	-0.2716842
163	0xbf37ab9a	-0.7174622
164	0xbd513731	-0.051078025
165	0x3ecae455	0.3962733
166	0x3ed40f07	0.41417715
167	0xbf48c40d	-0.7842415
168	0xbe7d5f49	-0.2474338
169	0x3f346bb1	0.70476824
170	0x3b4d2317	0.0031301433
171	0x3d493d5c	0.049130782
172	0xbe6d74de	-0.23189113
173	0xbf32c3f7	-0.6983027
174	0x3d3f362f	0.046682533
175	0xbf6fed20	-0.937212
176	0xbea0dbd3	-0.31417713
177	0xbedfb470	-0.4369235
178	0xbea15d10	-0.31516314
179	0x3e847e15	0.25877443
180	0x3e4a7cbe	0.19774148
181	0xbe1653bc	-0.1468038
182	0xbf1bd15b	-0.60866326
183	0xbe3d1a77	-0.18467127
184	0xbf02f143	-0.51149386
185	0xbf3021fb	-0.6880185
186	0x3ea15eb4	0.31517565
187	0x3f495f89	0.786614
188	0xbe13cfda	-0.14434758
189	0x3f44876d	0.76769143
190	0xbf12ce06	-0.57345617
191	0x3ef24485	0.473179
192	0x3f1f6c78	0.62274885
193	0xbe4019aa	-0.1875979
194	0xbeb6f39d	-0.35732737
195	0xbe1bf0e3	-0.1522861
196	0x3f200bbd	0.6251791
197	0xbeddb61b	-0.43302998
198	0x3ee1a75b	0.44072995
199	0x3e4ef76a	0.20211568
200	0x3e95fdfc	0.29295337
201	0x3ea0890f	0.31354567
202	0xbeb3ae60	-0.35093975
203	0x3f339abe	0.7015799
204	0x3e9a8e0d	0.301865
205	0x3e1b93c5	0.15193088
206	0xbf018de9	-0.5060716
207	0x3e6a3900	0.22873306
208	0xbe239057	-0.1597303
209	0x3f2c9efe	0.674301
210	0xbe517b93	-0.20457296
211	0x3ecc6255	0.3991877
212	0x3e5b304c	0.21405143
213	0xbd9ec92a	-0.07753213
214	0xbe549a3c	-0.2076196
215	0x3ef8a192	0.48560768
216	0xbd902998	-0.070391834
217	0x3edfde6f	0.4372439
218	0x3eb5de1f	0.35521027
219	0xbe1dd053	-0.154115
220	0x3ead8b73	0.33895454
221	0xbf05a80e	-0.52209556
222	0x3e520281	0.20508768
223	0xbf5830a7	-0.8444924
224	0x3eb68d6d	0.35654774
225	0x3f2ef512	0.683427
226	0xbea7b875	-0.32757917
227	0xbd6afd12	-0.057370253
228	0x3ec0980c	0.37616003
229	0xbe8199d5	-0.25312677
230	0x3e457416	0.19282565
231	0xbf1dcd71	-0.61641604
232	0xbf2382ed	-0.6387165
233	0x3d906188	0.070498526
234	0xbe38dccb	-0.18052976
235	0xbf0c41b3	-0.5478775
236	0x3ead00a8	0.33789563
237	0x3f4d225c	0.80130553
238	0xbe5b13f8	-0.21394336
239	0x3f0eaa0a	0.5572821
240	0xbebcba7c	-0.36861026
241	0xbd8c1a12	-0.0684091
242	0x3e8922ac	0.26784265
243	0x3dc45d53	0.09588113
244	0xbf1e5663	-0.61850566
245	0x3f17bf80	0.5927658
246	0xbdfe2674	-0.12409678
247	0x3f5b5700	0.85679626
248	0xbf195a27	-0.59903187
249	0xbd7538b2	-0.059868522
250	0xbdf343de	-0.11878179
251	0xbebd3e75	-0.36961713
252	0x3f2c38c5	0.67274123
253	0xbe579dcb	-0.21056287
254	0x3d7d9f6d	0.06191962
255	0xbce3ccfb	-0.027807703

l1.1.weight f4 [392, 256]
0	0x3e503180	0.20331383
1	0x3e98fc72	0.298801
2	0xbe3664e6	-0.17811927
3	0xbf142564	-0.57869554
4	0x3e9fb493	0.31192455
5	0x3ead02ce	0.33791202
6	0x3d810da3	0.06301429
7	0xbe7ad7db	-0.24496405
8	0x3e584d6e	0.21123287
9	0xbd17abe4	-0.037029162
10	0xbdc6171d	-0.09672377
11	0xbde5ebb1	-0.11226595
12	0xbf0b4607	-0.5440373
13	0x3e6b1800	0.22958374
14	0xbf0f1254	-0.5588734
15	0x3e52ccf6	0.20585999
16	0x3b94520b	0.004526382
17	0xbcb15284	-0.021645792
18	0xbe1a17d4	-0.15048152
19	0x3eb1d259	0.34730795
20	0xbd026e13	-0.031843256
21	0x3e4d8aa8	0.20072424
22	0x3e4a9ee7	0.19787179
23	0x3e5d40e7	0.2160679
24	0xbe2f9242	-0.17145637
25	0x3e16200d	0.14660664
26	0xbee6daa0	-0.45088673
27	0xbea48553	-0.32132968
28	0x3e9cafe1	0.30602935
29	0x3ec67c3f	0.38766667
30	0x3e96767f	0.2938728
31	0x3bf3e721	0.007443324
32	0x3e6c252e	0.23061058
33	0x3e6b17fb	0.22958367
34	0xbe87cb69	-0.26522377
35	0x3db70cc4	0.08937982
36	0xbdaaca70	-0.08339393
37	0xbecb9a66	-0.39766234
38	0xbe8c2d0c	-0.27378118
39	0x3ec4c484	0.3843118
40	0xbea12d36	-0.31479806
41	0x3eb2bdb1	0.34910348
42	0xbe035e6a	-0.12828985
43	0xbd8e72cd	-0.0695549
44	0x3cbe2ae2	0.023213807
45	0x3db7c212	0.08972563
46	0xbd87dfde	-0.06634496
47	0xbd9a861e	-0.07545112
48	0x3e09c02b	0.13452213
49	0x3e20e269	0.15711369
50	0xbe92656e	-0.2859301
51	0xbe09f78b	-0.13473336
52	0x3e7d3519	0.24727286
53	0xbdaff5a8	-0.08591777
54	0xbe3f54ef	-0.18684743
55	0x3e4178ba	0.1889371
56	0x3e93e2c9	0.2888396
57	0x3e9c8a0f	0.3057408
58	0x3defb56d	0.11704526
59	0x3eb5847a	0.35452634
60	0x3f0c67f8	0.54846144
61	0xbdf7cda2	-0.12099768
62	0xbd32f574	-0.043691114
63	0xbec676c0	-0.38762474
64	0xbec4b3dd	-0.38418475
65	0x3d03d1d5	0.032182533
66	0x3d70f170	0.058824003
67	0x3da3ad8d	0.079920866
68	0xbe833736	-0.2562806
69	0x3e26cbf4	0.1628874
70	0x3b2adc1b	0.0026071134
71	0x3e7531b7	0.23944746
72	0xbe609e23	-0.21935324
73	0x3ede8f0a	0.43468505
74	0xbea45bfb	-0.32101426
75	0x3e7c12d3	0.24616556
76	0xbcbdc0f0	-0.023163289
77	0xbe1367cc	-0.14395064
78	0xbd0ec2d7	-0.034853783
79	0x3ea5dfd1	0.3239732
80	0x3dc4eb28	0.09615165
81	0xbe1a7f73	-0.1508768
82	0xbe866568	-0.26249242
83	0x3ef1b492	0.47208077
84	0xbe4febeb	-0.2030484
85	0xbd9818f8	-0.074266374
86	0x3dd62c94	0.10457721
87	0x3e20abca	0.15690532
88	0x3de46b2a	0.111532524
89	0x3db886e9	0.09010107
90	0xbef08519	-0.46976545
91	0x3ea69385	0.32534423
92	0x3e66377d	0.22482105
93	0xbe0cb5f1	-0.1374128
94	0x3e9e6f0b	0.30944094
95	0xbd5739b3	-0.05254526
96	0xbe736a4f	-0.23771022
97	0xbcb4a3e7	-0.022050811
98	0x3f22478d	0.6339043
99	0x3e099cf3	0.13438778
100	0x3de49bd2	0.11162533
101	0x3ebcf4ca	0.3690551
102	0x3e8403c2	0.25784117
103	0x3e0b36da	0.13595143
104	0x3bc14139	0.0058976677
105	0xbe85809a	-0.26074678
106	0xbf2686bf	-0.65049356
107	0x3cfeefd2	0.031120215
108	0x3ecc7639	0.39933947
109	0xbeb2d065	-0.34924617
110	0xbd974368	-0.073859036
111	0xbea00f18	-0.31261516
112	0xbdcf2e9c	-0.10116312
113	0xbe9bafbf	-0.3040752
114	0xbe5441c2	-0.2072821
115	0x3eb29621	0.34880164
116	0x3eb95caf	0.36203524
117	0xbd390fba	-0.045181014
118	0x3ec22e5b	0.3792599
119	0x3efcfd8c	0.4941219
120	0xbe3b02fe	-0.1826286
121	0xbe86ee23	-0.2635356
122	0xbe7c689a	-0.24649277
123	0x3c4d2325	0.012520586
124	0x3f029e61	0.5102292
125	0x3e833347	0.2562506
126	0xbdeb1f1c	-0.11480543
127	0xbe703959	-0.23459376
128	0xbe74a393	-0.23890524
129	0x3ead5063	0.33850393
130	0x3e9f90e4	0.3116523
131	0x3e413144	0.1886645
132	0x3f023f49	0.50877815
133	0x3ddc61cc	0.10760841
134	0xbe618b1c	-0.22025722
135	0x3e319546	0.173421
136	0x3d64ad12	0.055829115
137	0x3c4eb770	0.012616977
138	0xbe359d40	-0.17735767
139	0x3e1ea2e2	0.15491822
140	0x3d3f11d3	0.046647858
141	0x3ec3d180	0.38245773
142	0x3d50d51e	0.050984494
143	0xbdedbbbc	-0.11608073
144	0x3eb83eaf	0.35985324
145	0x3d9ce9a6	0.076617524
146	0xbe567d87	-0.20946322
147	0x3def9c40	0.11699724
148	0xbed23a88	-0.4106028
149	0xbedbd374	-0.42934763
150	0x3dfd4b11	0.123678334
151	0x3eb022a7	0.34401438
152	0xbe13db71	-0.14439179
153	0xbe08cb0b	-0.13358705
154	0xbe2f37f1	-0.17111184
155	0xbe3395a7	-0.17537557
156	0xbec845d7	-0.39115784
157	0xbe5502a3	-0.20801787
158	0xbd371177	-0.04469439
159	0x3ccdd3c3	0.02512539
160	0xbe5b85e6	-0.21437797
161	0xbe468d71	-0.19389893
162	0xbec07364	-0.37588036
163	0x3ed09776	0.40740556
164	0x3ecec907	0.40387747
165	0xbeb17143	-0.34656724
166	0xbe5563e8	-0.20838892
167	0xbe2184f6	-0.15773377
168	0xbec73cb3	-0.38913497
169	0x3e8dc78e	0.2769131
170	0x3ea7e112	0.32788903
171	0x3d91c85a	0.07118292
172	0x3e282037	0.16418539
173	0xbe996077	-0.2995641
174	0xbe54d0a9	-0.20782723
175	0x3e1f39c4	0.1554938
176	0xbbae5bc0	-0.005320996
177	0xbe7621e5	-0.24036367
178	0x3e759580	0.23982811
179	0x3e84ce6a	0.2593873
180	0xbd82f7ca	-0.06394918
181	0xbe85eb26	-0.26155967
182	0xbdaf61ed	-0.085636
183	0x395f24cf	0.0002128065
184	0xbed153d0	-0.40884256
185	0x3e7ebb2b	0.24876086
186	0x3e6781f5	0.22608168
187	0xbe9ca2b0	-0.3059287
188	0x3e62cf90	0.22149491
189	0x3e838edb	0.25694928
190	0x3e09d365	0.13459547
191	0x3dd7a2f1	0.105291255
192	0xbefb9a72	-0.4914127
193	0xbf178149	-0.5918165
194	0x3e58d9e4	0.21176869
195	0xbe5983a9	-0.2124163
196	0xbeb76395	-0.35818163
197	0xbe9111b8	-0.2833383
198	0x3e9540e6	0.29151076
199	0x3dadd0e0	0.08487105
200	0x3f0c576d	0.548209
201	0xbc6288bc	-0.013826545
202	0xbbbe3200	-0.0058043003
203	0x3e5a6b13	0.21329908
204	0x3b84545e	0.0040383777
205	0x3eb9b3ba	0.36269933
206	0xbe5e8704	-0.21731192
207	0xbeb26eec	-0.34850252
208	0x3ed9eb5a	0.42562371
209	0x3ea8d425	0.32974353
210	0xbd800c00	-0.06252289
211	0x3e620066	0.22070464
212	0x3e5ff98e	0.21872541
213	0x3e9ffa95	0.31245866
214	0xbecd9c1a	-0.4015816
215	0x3ddf6d82	0.10909559
216	0x3eb1edbd	0.34751692
217	0x3e09d7d2	0.13461235
218	0x3d64d571	0.055867616
219	0xbdb32d40	-0.08748865
220	0xbe43ae63	-0.19109492
221	0xbe2262e0	-0.1585803
222	0x3eb8ac6e	0.36069053
223	0xbe0092b2	-0.1255596
224	0x3e9a99a5	0.30195346
225	0x3e11ff23	0.14257483
226	0x3e283dee	0.16429874
227	0x3d901886	0.070359275
228	0xb9748d49	-0.00023322286
229	0xbd5f5d89	-0.05453256
230	0x3e92f39c	0.28701484
231	0x3f0910fa	0.5354153
232	0xbe442497	-0.19154583
233	0xbda902f4	-0.082525164
234	0x3e8db0f2	0.2767406
235	0x3f317664	0.69321275
236	0xbe6e01ce	-0.23242876
237	0x3e9cf6f8	0.30657172
238	0x3e338798	0.17532194
239	0xbeffe74b	-0.4998115
240	0xbd850850	-0.06495726
241	0xbf085f29	-0.532702
242	0x3f02d04c	0.51099086
243	0x3ecbee2f	0.39830157
244	0x3f1698ee	0.588271
245	0xbe866b0f	-0.26253554
246	0x3e697b58	0.22800958
247	0xbe032bf6	-0.12809739
248	0x3ed40e85	0.41417328
249	0xbec586cf	-0.38579413
250	0x3bc9fb81	0.006164015
251	0xbe95eea5	-0.29283634
252	0xbdc1d1cb	-0.09463843
253	0x3e3b3706	0.18282709
254	0x3ecb6918	0.39728618
255	0x3f0625dc	0.5240152

l1.1.bias f4 [392]
0	0x3e3d4db8	0.18486679
1	0xbe998c33	-0.29989776
2	0xbecd6be2	-0.4012137
3	0xbed33433	-0.41250762
4	0xbc66ec1b	-0.014094378
5	0xbe6f7ee1	-0.23388244
6	0xbe74f529	-0.23921646
7	0xbd060c69	-0.03272668
8	0xbe9b8ec7	-0.30382368
9	0xbe0a5696	-0.13509592
10	0x3cdd31c1	0.027001264
11	0xbd3a085b	-0.045418125
12	0x3e823c3d	0.25436583
13	0x3d3283b7	0.043582644
14	0xbe4e11a0	-0.20123911
15	0xbe58b352	-0.21162155
16	0x3d239a86	0.039942287
17	0x3e2e8867	0.17044221
18	0x3e0afa64	0.13572079
19	0x3e7163c7	0.23573218
20	0xbde9e3cc	-0.11420402
21	0xbea241c7	-0.3169081
22	0xbde50609	-0.11182792
23	0x3e6b0c54	0.22953922
24	0x3d114d7d	0.03547429
25	0x3e3ec2df	0.18629025
26	0x3ea7ad09	0.32749203
27	0x3e2320f1	0.15930535
28	0x3e165cf8	0.14683902
29	0x3dcbd76c	0.09953198
30	0x3e90c302	0.2827378
31	0xbe03b71c	-0.1286282
32	0x3df73ab6	0.12071745
33	0x3edaacec	0.42710054
34	0x3b953103	0.004552962
35	0x3e8a99bf	0.27070424
36	0x3e7029c4	0.23453432
37	0x3e86e5d8	0.26347232
38	0x3e16c088	0.14721882
39	0x3eccc7b9	0.39996126
40	0x3efbd112	0.49182945
41	0x3dea2c9d	0.114342906
42	0xbd4236eb	-0.047415655
43	0xbaaa057d	-0.0012971606
44	0xbe3d0835	-0.18460162
45	0x3e4df809	0.20114149
46	0x3e84c2c4	0.25929844
47	0x3d346734	0.044043735
48	0xbf1ff927	-0.6248955
49	0xbebdef87	-0.37096807
50	0x3ce56a88	0.0280049
51	0xbe433bd5	-0.19065793
52	0xbddc284c	-0.107498735
53	0x3e1bb4ac	0.1520564
54	0xbdbad324	-0.09122303
55	0xbe78d9a6	-0.24301776
56	0xbeb08a68	-0.34480596
57	0xbd0f5b78	-0.03499934
58	0x3e8fabba	0.28060704
59	0x3da2c007	0.079467826
60	0xbdcafeb0	-0.09911859
61	0xbe7875f0	-0.2426374
62	0xbe96f91f	-0.2948694
63	0xbe3359ac	-0.17514676
64	0xbdddaed8	-0.108243644
65	0xbe19483e	-0.14968964
66	0xbe3e242d	-0.18568487
67	0xbe1ad762	-0.15121225
68	0xbe7d513d	-0.24738021
69	0xbea30bda	-0.3184498
70	0xbea99d9b	-0.33128056
71	0x3d38041f	0.044925805
72	0xbe0d9398	-0.13825834
73	0xbf03d927	-0.51503223
74	0xbe231317	-0.15925251
75	0xbeb2e92c	-0.3494352
76	0xbec9e6b0	-0.39433813
77	0xbdc15d4b	-0.09441622
78	0x3c9f11c2	0.019417647
79	0xbe87fc41	-0.26559642
80	0xbe6398c0	-0.22226238
81	0xbe07058d	-0.13185711
82	0xbedbe80f	-0.42950484
83	0xbe8ce29a	-0.27516633
84	0xbcf6fded	-0.030150378
85	0xbed489bf	-0.41511342
86	0xbea45fdc	-0.32104385
87	0xbe9b1c3f	-0.30294988
88	0xbea6422f	-0.3247237
89	0xbf279b8c	-0.6547172
90	0xbe479436	-0.19490132
91	0x3dbc8e35	0.09206811
92	0x3d036e0a	0.032087363
93	0xbf1215dc	-0.57064605
94	0xbf490d47	-0.78535885
95	0xbf3c0fd9	-0.7346168
96	0xbd938a0e	-0.07204066
97	0xbe09cd03	-0.13457112
98	0x3f8836a7	1.0641679
99	0x3eec82bf	0.461935
100	0x3dbab3c5	0.091163196
101	0x3e3172af	0.17328905
102	0x3ea10297	0.31447288
103	0x3ee4071e	0.4453668
104	0x3e9ca3c6	0.305937
105	0x3ef63b4b	0.48092112
106	0x3db0d231	0.08633841
107	0xbecb1cc7	-0.39670393
108	0xbecd9428	-0.40152097
109	0xbe9e9eba	-0.30980474
110	0x3e27db29	0.16392197
111	0x3eb76d5f	0.3582563
112	0x3ed5ff1c	0.41796196
113	0xbe0ad790	-0.13558793
114	0xbf10fac7	-0.56632656
115	0xbea8c8b1	-0.32965615
116	0xbe6f9202	-0.23395541
117	0xbd8f4ff7	-0.06997674
118	0x3e8ceb98	0.27523494
119	0x3ec320d0	0.3811097
120	0xbe57cebb	-0.21074955
121	0xbea1bf1b	-0.31591114
122	0xbe8eaebb	-0.27867684
123	0xbf10d28c	-0.5657127
124	0xbe10b835	-0.1413277
125	0x3e962167	0.2932236
126	0x3ef74aa6	0.4829914
127	0xbe2fced4	-0.17168742
128	0xbe9ea149	-0.30982426
129	0xbdc4adf0	-0.096034884
130	0xbee04b5c	-0.43807495
131	0xbd04322e	-0.032274418
132	0x3ed73454	0.4203211
133	0x3f72977e	0.9476241
134	0x3df317e9	0.11869795
135	0xbea1c930	-0.31598806
136	0xbe8a61a0	-0.27027607
137	0xbe163222	-0.14667562
138	0x3e85ccef	0.26132914
139	0x3e83b98f	0.25727507
140	0x3f34b4dd	0.70588475
141	0x3f24dcad	0.64399225
142	0x3eb6fae7	0.35738298
143	0x3eb127fe	0.34600824
144	0x3f1eb7af	0.6199903
145	0x3f1a7747	0.6033825
146	0x3ed4a6b6	0.4153344
147	0x3eaca058	0.33716083
148	0xbec1ea32	-0.3787399
149	0xbd19e4b3	-0.03757162
150	0x3d713f02	0.05889798
151	0x3e21f7d2	0.15817192
152	0x3e8493d0	0.25894022
153	0xbec5b297	-0.38612816
154	0x3cb64121	0.022247853
155	0xbea24b5e	-0.31698126
156	0x3d153200	0.036424637
157	0xbe4f14fb	-0.20222847
158	0x3d4fad82	0.05070258
159	0xbd10a67b	-0.03531502
160	0xbea34279	-0.31886652
161	0xbead5851	-0.33856443
162	0x3ea89f67	0.32934114
163	0x3d5c2920	0.053750157
164	0x3e63d24a	0.22248188
165	0x3dfd7b64	0.123770505
166	0x3db58a60	0.088642836
167	0x3e1d4b1b	0.15360682
168	0xbd1b44b8	-0.037907332
169	0xbd2f563d	-0.042806853
170	0x3e1ad0a4	0.15118653
171	0x3d56df16	0.052458845
172	0x3ea7dfce	0.32787937
173	0x3ca54bb3	0.020177698
174	0x3d231c66	0.039822005
175	0xbe332347	-0.17493926
176	0x3e3d0dec	0.18462342
177	0x3e4fe7f0	0.20303321
178	0x3e409f0e	0.18810675
179	0x3eb50b73	0.35360298
180	0xbde6eeb2	-0.11275996
181	0x3e8673ab	0.26260123
182	0xbe5fd4fb	-0.2185859
183	0xbe1cc604	-0.15309912
184	0x3d9cff28	0.07665855
185	0x3ead1215	0.33802858
186	0x3e0838e0	0.13302946
187	0xbd603aa2	-0.054743417
188	0x3e2b914f	0.1675465
189	0xbc1df2ae	-0.009640379
190	0xba88c866	-0.00104357
191	0x3d0dde24	0.034635678
192	0x3e045a8f	0.1292517
193	0xbe627284	-0.22113997
194	0xbe7f64ac	-0.24940747
195	0x3e8e57b2	0.2780128
196	0xbf34d11c	-0.70631576
197	0xbe941529	-0.28922394
198	0xbccc4784	-0.024936445
199	0xbd0185c5	-0.031621713
200	0xbe5e9e30	-0.21740031
201	0xbe8f0ebd	-0.27940932
202	0xbf38fa5a	-0.72257006
203	0xbeaa9ad7	-0.33321258
204	0xbe18436f	-0.14869474
205	0x3e91e974	0.28498423
206	0x3e83ab18	0.25716472
207	0x3e0ea1be	0.13928887
208	0xbe726b67	-0.23673783
209	0xbecdb2b2	-0.40175396
210	0xbe251f10	-0.1612513
211	0x3e5d9dc2	0.21642211
212	0x3ec0714a	0.37586433
213	0x3ea4c535	0.32181707
214	0x3eccb991	0.39985326
215	0x3dd6e5e1	0.10493065
216	0xbef01df8	-0.46897864
217	0xbe268aed	-0.16263933
218	0x3eb7f3b4	0.35928118
219	0x3dc127c8	0.09431416
220	0x3e8338c3	0.25629243
221	0x3ec2f0dc	0.38074386
222	0xbcbb96f4	-0.022899128
223	0xbecba7ce	-0.39776462
224	0xbe304e93	-0.17217474
225	0x3d611164	0.054948226
226	0x3ea63dfd	0.32469168
227	0x3eb70f96	0.3575408
228	0x3ea04751	0.3130441
229	0x3dbba63e	0.091625676
230	0xbec5e9d0	-0.38654947
231	0xbe961cfb	-0.29318985
232	0x3d962c98	0.07332724
233	0x3e9d521d	0.3072671
234	0x3e72bec1	0.2370558
235	0x3e1b5239	0.15168084
236	0xbdf30e61	-0.11867977
237	0xbed648b6	-0.4185235
238	0xbf1780b1	-0.5918074
239	0xbe506567	-0.20351182
240	0xbef2b676	-0.47404832
241	0xbd9966d2	-0.074903145
242	0xbe4d14d6	-0.2002748
243	0xbe35302b	-0.17694156
244	0xbe52369b	-0.20528643
245	0x3c458145	0.012054746
246	0x3da11fc5	0.07867388
247	0x3ee16e6f	0.44029567
248	0x3ec20131	0.37891534
249	0x3cef5c6b	0.029218873
250	0xbe19dd9d	-0.15025945
251	0x3f077592	0.52913773
252	0xbde2cda5	-0.1107438
253	0x3ed35e9a	0.41283113
254	0x3e2db209	0.16962446
255	0xbca9f1c6	-0.02074517

conv_blocks.1.weight f4 [4, 8, 3, 3]
0	0x3d8e794a	0.06956728
1	0x3deba754	0.11506525
2	0xbda2de00	-0.079524994
3	0x3d0c7545	0.034291524
4	0x3e22a185	0.15881927
5	0xbd96becb	-0.073606096
6	0x3e532fd8	0.2062372
7	0x3dd44505	0.10364727
8	0xbe0ac252	-0.1355069
9	0xbdbb8289	-0.09155757
10	0x3e2a6817	0.1664127
11	0xbdce9d55	-0.100886025
12	0x3ddd93b5	0.108191885
13	0xbe42501a	-0.18975869
14	0xbd9186bb	-0.07105776
15	0xbda3d606	-0.07999806
16	0xbe25eeef	-0.16204427
17	0x3ca7e15f	0.020493207
18	0xbce547c4	-0.027988322
19	0x3dbe086e	0.092789516
20	0x3eb97053	0.3621851
21	0x3dc253cc	0.09488639
22	0x3eba603e	0.36401552
23	0x3f01b9b1	0.5067397
24	0xbdca6a60	-0.09883571
25	0x3eec1b34	0.46114504
26	0x3e970864	0.2949859
27	0x3d410801	0.047126774
28	0xbc9322a8	-0.017960861
29	0x3d9073a6	0.07053308
30	0xbe9c5a86	-0.30537814
31	0xbc8e42e5	-0.017365882
32	0xbe3bd55e	-0.18343112
33	0x3e47e0b6	0.19519314
34	0x3e24c367	0.16090165
35	0xbb98a053	-0.004657784
36	0xbda15d8b	-0.0787917
37	0xbe92e4cc	-0.28690183
38	0x3d1ae233	0.037813377
39	0x3e333e56	0.17504248
40	0x3e46ff09	0.19433226
41	0x3e107607	0.14107524
42	0x3e30f187	0.17279635
43	0xbd7d92a4	-0.061907426
44	0x3cd04302	0.025422577
45	0xbe0bdfc1	-0.13659574
46	0xbd9b2dfa	-0.07577129
47	0xbe415558	-0.18880212
48	0xbd5e4a53	-0.0542701
49	0xbe34d5b6	-0.17659649
50	0xbd25697d	-0.040383805
51	0xbe0b56e7	-0.1360737
52	0xbeb4641a	-0.3523262
53	0x3da3c017	0.079956226
54	0x3d351edf	0.044218894
55	0xbbc6ac14	-0.006062994
56	0x3e2dc7d3	0.16970758
57	0x3e56a2c6	0.2096053
58	0xbea1a553	-0.31571445
59	0x3a204fa4	0.0006115383
60	0xbd140b6b	-0.0361437
61	0xbe8eef54	-0.27916968
62	0xbe242133	-0.1602829
63	0x3e0383da	0.12843266
64	0x3d81932e	0.063269004
65	0x3ba0fb5e	0.004912778
66	0x3d93d29e	0.072179064
67	0x3d501fed	0.050811697
68	0xbe997492	-0.2997175
69	0x3dad3c57	0.084587745
70	0x3e581402	0.21101382
71	0xbd970de1	-0.07375694
72	0xbe82ea78	-0.2556951
73	0xbe478d9e	-0.19487616
74	0xbc83e29a	-0.016099263
75	0xbd7edf8b	-0.062224906
76	0xbdcf514a	-0.101229265
77	0xbba08c7e	-0.0048995605
78	0x3cc61450	0.024179608
79	0xbd1cf3d7	-0.03831848
80	0x3db69047	0.089142375
81	0xbe5287e1	-0.20559646
82	0x3c5268bb	0.0128423525
83	0xbcf565a3	-0.02995569
84	0xbde78547	-0.113047175
85	0x3e14d210	0.14533257
86	0xbc1e0d28	-0.009646691
87	0xbd5c785e	-0.05382573
88	0xbdd1ceda	-0.10244532
89	0xbd9215ae	-0.07133041
90	0xbbaee314	-0.0053371284
91	0xbc096b9d	-0.008387473
92	0x3d8c96b9	0.068646856
93	0xbe37da98	-0.1795448
94	0xbe2e837e	-0.17042348
95	0xbe02a469	-0.1275803
96	0x3ccb97c5	0.024852643
97	0xbe387edc	-0.18017143
98	0x3d808f02	0.062772766
99	0xbe1d6b92	-0.15373066
100	0x3df846cf	0.12122881
101	0x3d55fb7b	0.052241784
102	0x3df6299c	0.12019655
103	0x3e2c9481	0.16853525
104	0xbdbbfea5	-0.09179429
105	0x3b5dd6c2	0.003384993
106	0x3dad7a01	0.08470536
107	0x3de0d78d	0.10978613
108	0x3db03204	0.0860329
109	0x3e8fd3b0	0.28091192
110	0x3c249ce5	0.010047172
111	0x3defb932	0.11705245
112	0x3dd48000	0.103759766
113	0x3e3ba377	0.18324076
114	0x3d6e21ac	0.05813758
115	0x3cddcb70	0.027074546
116	0x3d8a5d2d	0.06756053
117	0x3d9a4a49	0.075337
118	0x3cdb011c	0.026733927
119	0x3da7610f	0.08172809
120	0x3d90c47e	0.07068728
121	0xbdcbcb03	-0.09950831
122	0xbd6ebbee	-0.058284692
123	0x3e0a326e	0.134958
124	0x3d73aca2	0.059490807
125	0xbdc75eee	-0.09734903
126	0x3d188dda	0.037244655
127	0xbd939f09	-0.07208068
128	0xbd1c9be5	-0.03823461
129	0x3cd02176	0.02540658
130	0x3d7dbb6f	0.06194633
131	0x3dc50cc9	0.09621579
132	0x3d370c7a	0.044689633
133	0xbc334793	-0.010942358
134	0x3db46f07	0.08810239
135	0x3d2a3292	0.041552134
136	0x3e211c47	0.15733443
137	0x3e10980b	0.141205
138	0x3a9d6c53	0.0012010433
139	0x3d768294	0.060183123
140	0x3e8f30b3	0.27966842
141	0x3d705fe7	0.05868521
142	0x3e48b884	0.19601637
143	0x3de22763	0.11042669
144	0xbc22f545	-0.009946172
145	0xbe933908	-0.2875445
146	0x3e568692	0.20949772
147	0x3d4cbe2a	0.049986042
148	0xbd051007	-0.032485988
149	0x3c6aed25	0.014338766
150	0xbeb22f26	-0.34801596
151	0xbe29dd85	-0.16588409
152	0xbe82d5b2	-0.25553662
153	0xbe8aeeff	-0.27135465
154	0xbecc08cb	-0.39850459
155	0xbe2da7e1	-0.16958572
156	0xbdc10bf3	-0.09426107
157	0xbe8f92f4	-0.28041804
158	0x3e0d18c3	0.13778977
159	0x3d038f2d	0.032118965
160	0x3e0c7468	0.1371628
161	0x3b82da68	0.003993321
162	0x3e281128	0.16412795
163	0x3e03c92a	0.12869707
164	0xbe358bce	-0.17729113
165	0x3e948afd	0.2901229
166	0x3e56d507	0.20979701
167	0xbd30b699	-0.04314289
168	0x3e0eb930	0.13937831
169	0x3d962528	0.07331306
170	0xbe5f7599	-0.21822204
171	0x3d596cab	0.05308215
172	0x3d4feddf	0.05076396
173	0xbd98b9d5	-0.0745732
174	0xbe0637be	-0.13107201
175	0x3db4ca3b	0.08827635
176	0x3e8d3d90	0.2758603
177	0x3d97e7ea	0.07417281
178	0xbddb044d	-0.1069418
179	0x3e199efb	0.15002052
180	0xbee4145b	-0.4454678
181	0x3d41f5ed	0.047353674
182	0x3d113f2b	0.035460632
183	0xbeecddb8	-0.46262908
184	0xbd4b75e3	-0.049672972
185	0xbcd5e47e	-0.02610993
186	0xbe3af466	-0.18257293
187	0x3e13691a	0.14395562
188	0x3d92a4cb	0.07160338
189	0x3d5fa4bb	0.05460046
190	0xbeb1cb3e	-0.34725374
191	0x3e0ca934	0.13736421
192	0xbd5da042	-0.054107912
193	0x3ed247b7	0.4107034
194	0x3c28dc22	0.01030639
195	0xbe017009	-0.12640394
196	0x3dd5417f	0.10412883
197	0xbe07474a	-0.13210788
198	0xbcff3030	-0.031150907
199	0x3e83203b	0.25610527
200	0x3dd61480	0.10453129
201	0x3c1746b6	0.009233167
202	0x3e9acf47	0.30236265
203	0xbe07b158	-0.13251245
204	0xbe1f0332	-0.15528563
205	0x3d93aa19	0.07210178
206	0xbbf0c4bb	-0.007347671
207	0x3dcbd76d	0.099531986
208	0xbe14572a	-0.14486375
209	0x3dbaa54b	0.091135584
210	0xbe22b0dd	-0.1588778
211	0xbe448942	-0.19192985
212	0xbd74d848	-0.059776574
213	0xbe877e6c	-0.2646364
214	0xbefdff6f	-0.49608943
215	0x3e09ee7e	0.13469884
216	0xbe37ae0f	-0.17937492
217	0xbed2afdf	-0.41149804
218	0xbe9906ff	-0.2988815
219	0xbe685485	-0.22688492
220	0xbe381161	-0.1797538
221	0xbe3f3af2	-0.1867483
222	0xbd1a574c	-0.03768091
223	0xbdf7f718	-0.12107676
224	0x3d30ecc9	0.043194566
225	0xbe56294e	-0.20914194
226	0x3cb027f3	0.021503424
227	0x3c6b1e5f	0.014350503
228	0xbd29f8ce	-0.041497044
229	0x3e868077	0.26269886
230	0x3e2ba48c	0.16761988
231	0xbdd358da	-0.103196815
232	0x3e983fbe	0.2973613
233	0x3d4a37f1	0.049369756
234	0x3d13beb7	0.03607055
235	0x3dd8a0e7	0.10577565
236	0x3c733c6f	0.014845951
237	0x3d565ce7	0.052334692
238	0x3dfd94da	0.12381907
239	0xbdc49438	-0.09598583
240	0xbe48809d	-0.19580312
241	0x3d12d32c	0.03584592
242	0xbe703337	-0.23457037
243	0xbdaec48d	-0.08533583
244	0xbdfbd459	-0.122963615
245	0xbaebdbe7	-0.0017994613
246	0x3c87709a	0.016533185
247	0x3e868dc7	0.26280043
248	0x3e030a97	0.12797008
249	0xbdb61c09	-0.08892066
250	0x3e9bec2b	0.3045362
251	0xbdafb359	-0.0857913
252	0xbd5076b0	-0.05089444
253	0x3e3aac2d	0.18229742
254	0x3ddc0688	0.10743433
255	0x3de178b8	0.110093534

conv_blocks.1.bias f4 [4]
0	0x3ce2ac86	0.027670156
1	0x3f87b5a8	1.0602312
2	0xbdd3f322	-0.10349108
3	0xbecdc5ad	-0.40189877

conv_blocks.4.weight f4 [1, 4, 3, 3]
0	0xbc0dfa8a	-0.00866569
1	0xbdcf3d60	-0.10119128
2	0xbe3f02d1	-0.18653418
3	0x3cc2a1b0	0.02375874
4	0xbd649541	-0.055806402
5	0xbda2066d	-0.07911382
6	0xbc1fb4a6	-0.00974766
7	0x3bc6659d	0.0060545937
8	0x3d830cbb	0.063989125
9	0xbd0248f7	-0.031807866
10	0x3d1c92bc	0.038225874
11	0xbd9acec3	-0.07558968
12	0x3d5c27cc	0.05374889
13	0x3e0919bd	0.13388725
14	0x3dba35a5	0.09092263
15	0x3d0b5e81	0.034025673
16	0x3da18ec1	0.07888556
17	0x3daee07f	0.08538913
18	0x3c25b325	0.010113512
19	0xbc2a2157	-0.010383925
20	0xbe48afd0	-0.19598317
21	0xbd7e1b5d	-0.062037814
22	0xbd75d65f	-0.060018893
23	0xbe50e00e	-0.2039797
24	0xbd047813	-0.032341074
25	0xbd7e0848	-0.062019616
26	0xbe0de4a5	-0.13856752
27	0x3d4d9a79	0.050196145
28	0xbd5282b8	-0.051394194
29	0xbda589c2	-0.08082916
30	0xbdd74627	-0.105114274
31	0xbe0a6a7d	-0.13517185
32	0xbccab1c8	-0.024742976
33	0xbda1a70e	-0.07893191
34	0xbd6823e1	-0.05667484
35	0xbca3cc24	-0.019994803
