mnist_gan/MNIST_GAN_CNN/save_mode_collapse/G--40.ckpt (torch_old, 537904 bytes, 7 tensors)

l1.0.weight f4 [256, 128]
0.13867854 -0.035873577 -0.051686943 0.12065326 0.10467894 0.06780767 0.018689597 -0.1448564
-0.05482569 -0.1070138 -0.15206806 0.19040738 -0.07968314 -0.057435088 0.10299518 -0.04529836
0.21746197 -0.09095171 -0.065609984 -0.074462116 -0.041426413 -0.04120659 -0.04084192 0.11223655
-0.07311199 0.06671898 0.15161069 -0.14162606 -0.024683036 0.013735011 -0.14185187 -0.12659012
-0.053630844 -0.09783504 0.046874937 -0.115455806 -0.0855612 0.0678195 0.0823659 -0.0018231131
0.020398594 -0.19840968 -0.030729083 0.047039356 -0.04770587 0.037090037 0.11696029 0.09097211
-0.0150358165 0.088412024 0.030813463 -0.08302503 0.16802421 0.06300352 -0.0462213 0.078730874
0.04026324 -0.07934862 0.10068125 -0.15923399 0.02394168 -0.024349576 -0.01107027 -0.08927411
0.050939694 -0.06544704 -0.0105479015 0.09153214 0.00021078854 -0.12033149 -0.061264206 -0.1500993
0.116406515 -0.021556245 -0.0070760744 0.07940087 0.040383473 -0.06991652 -0.13073348 0.052946493
0.009164695 0.038302183 0.09835235 0.0075047542 0.02095134 -0.05600448 0.05201651 0.031240214
0.1357241 -0.025362521 0.014749556 -0.062181372 -0.07754423 0.22145066 -0.02937388 -0.0057441345
0.013692338 0.12429833 0.05273173 -0.07687612 -0.02620413 -0.14051831 0.050811484 0.019862387
-0.0718734 0.036831453 0.01733002 0.03690756 0.062327117 -0.20404474 0.05370542 -0.04181519
-0.12103774 -0.048752166 0.08394134 -0.08550899 -0.032925256 -0.07395881 -0.0062596076 -0.0798727
-0.048822045 -0.1805621 0.018386161 -0.031329952 0.017411139 0.0937454 0.008755834 -0.034126528
0.040256504 -0.035609573 0.0069275186 -0.026610374 -0.018208982 -0.0029714503 0.12692377 0.11854317
0.08046235 -0.025908604 -0.09297567 0.13297416 -0.06291048 -0.026898548 0.097313255 0.048613578
0.1722703 0.15936604 0.0865386 -0.0054466524 0.0013404841 0.008096023 -0.07032291 0.19380328
0.06657891 -0.045214627 0.03995548 -0.0649701 -0.02879828 -0.016261907 -0.06480202 -0.07068096
-0.06878553 -0.04157481 -0.08485093 -0.02253513 -0.058919255 0.04476332 -0.07533526 0.029983798
0.016131084 -0.020695096 0.08178226 -0.020582568 -0.06509375 -0.04862164 0.08252919 -0.014206543
0.09443283 0.13149458 -0.03277929 -0.06973328 0.062403444 0.08543569 -0.027949424 0.010643146
0.053701553 -0.058714174 0.024181772 -0.08211709 0.09493958 0.0076869214 0.03966088 0.04597734
0.2147565 -0.05971553 0.06524375 0.08304046 0.08425093 -0.10949608 0.027803691 -0.122745
-0.024305174 -0.073467135 0.04424258 0.007839047 -0.011056228 0.025767535 -0.0669285 0.030535407
0.060644593 -0.047838595 0.05087438 0.020038856 -0.0046095476 -0.036678404 0.04202338 -0.017355315
0.0049803434 -0.023001095 -0.018585678 -0.07524182 0.09845299 0.17825389 -0.006849927 -0.06571943
-0.103692524 0.022367915 0.101617806 0.022216773 0.098864324 0.0130319735 0.04363893 0.05410501
0.109175794 0.07684286 0.07610118 -0.00982597 -0.06099848 -0.062370002 0.07437539 0.05258443
0.030072374 0.0008158242 0.06838812 0.06720104 0.011390379 0.04250676 0.07661725 0.06183599
-0.09357221 -0.11427064 0.05516438 0.0047855675 0.013388623 0.016813396 -0.029458992 0.023220237
00000000: bf01 0e3e 2cf0 12bd b0b5 53bd 0e19 f73d
00000010: e961 d63d bfde 8a3d ed1a 993c 3c55 14be
00000020: e790 60bd 0d2a dbbd bbb7 1bbe 27fa 423e
00000030: ea30 a3bd 0e41 6bbd 23ef d23d c68a 39bd
00000040: 5aae 5e3e e444 babd 875e 86bd 987f 98bd
00000050: beae 29bd 3ec8 28bd db49 27bd 47dc e53d
00000060: bdbb 95bd f6a3 883d d53f 1b3e 6c06 11be
00000070: 1434 cabc d008 613c 9e41 11be d7a0 01be
00000080: 04ac 5bbd bd5d c8bd efff 3f3d 1874 ecbd
00000090: b63a afbd f3e4 8a3d 74af a83d 86f5 eeba
000000a0: f41a a73c e82b 4bbe 8fbb fbbc 57ac 403d
000000b0: 3b67 43bd b9eb 173d e088 ef3d 964f ba3d
000000c0: c958 76bc 5d11 b53d 846c fc3c 0709 aabd
000000d0: 8a0e 2c3e fd07 813d 8c52 3dbd a73d a13d
000000e0: 11eb 243d 8781 a2bd f931 ce3d 3c0e 23be
000000f0: 5821 c43c c378 c7bc 1460 35bc 58d5 b6bd
00000100: 24a6 503d 1909 86bd 1bd1 2cbc 3475 bb3d
00000110: 1e07 5d39 5b70 f6bd 2df0 7abd a2b3 19be
00000120: 8a66 ee3d b996 b0bc 6ade e7bb ec9c a23d
00000130: 2469 253d 6430 8fbd ffde 05be 6cde 583d
00000140: 8427 163c c0e2 1c3d f56c c93d 71ea f53b
00000150: 25a2 ab3c f464 65bd 440f 553d 7aeb ff3c
00000160: 42fb 0a3e 10c5 cfbc 1fa8 713c e5b1 7ebd
00000170: 82cf 9ebd f6c3 623e 7ea1 f0bc 4b39 bcbb
00000180: d455 603c 1f90 fe3d 3afd 573d 3a71 9dbd
00000190: 0baa d6bc 08e4 0fbe b41f 503d 72b6 a23c
000001a0: 5c32 93bd 94dc 163d b0f7 8d3c 622c 173d
000001b0: b84a 7f3d 1bf1 50be 37fa 5b3d 6846 2bbd
000001c0: a2e2 f7bd 5ab0 47bd 70e9 ab3d 561f afbd
000001d0: a2dc 06bd b777 97bd 651d cdbb 4c94 a3bd
000001e0: a0f9 47bd 45e5 38be 939e 963c d653 00bd
000001f0: cea1 8e3c 97fd bf3d a174 0f3c 42c8 0bbd
00000200: 01e4 243d 58db 11bd 3d00 e33b 00fe d9bc
00000210: 012b 95bc aabc 42bb 4ef8 013e c3c6 f23d
00000220: 72c9 a43d 483e d4bc 076a bebd 612a 083e
00000230: 36d7 80bd 585a dcbc 2c4c c73d 081f 473d
00000240: a067 303e da30 233e 263b b13d d579 b2bb
00000250: 2fb3 af3a 2fa5 043c 7505 90bd 5e74 463e
00000260: 865a 883d f932 39bd 5ba8 233d 0b0f 85bd
00000270: 5fea ebbc b137 85bc ecb6 84bd 2ec1 90bd
00000280: 6edf 8cbd 594a 2abd 53c6 adbd 989b b8bc
00000290: 5155 71bd be59 373d 5f49 9abd 95a0 f53c
000002a0: 5625 843c c388 a9bc 757d a73d c69c a8bc
000002b0: df4f 85bd 7c27 47bd 1005 a93d 8fc2 68bc
000002c0: 0066 c13d 84a6 063e 9443 06bd 52d0 8ebd
000002d0: c19a 7f3d e8f8 ae3d 31f6 e4bc 9760 2e3c
000002e0: 29f6 5b3d 467e 70bd da18 c63c 012d a8bd
000002f0: af6f c23d 92e2 fb3b 7273 223d bc52 3c3d
00000300: 21e9 5b3e 4698 74bd 849e 853d 1e11 aa3d
00000310: c08b ac3d 7b3f e0bd 91c4 e33c bb61 fbbd
00000320: a51b c7bc f075 96bd b537 353d 596f 003c
00000330: 2e25 35bc 7016 d33c cf11 89bd 6425 fa3c
00000340: 7766 783d 67f2 43bd a761 503d 8728 a43c
00000350: b00b 97bb 183c 16bd b520 2c3d bc2c 8ebc
00000360: 2632 a33b cb6c bcbc fe40 98bc 6218 9abd
00000370: b9a1 c93d 3088 363e 5a75 e0bb e997 86bd
00000380: bf5c d4bd eb3c b73c ff1c d03d f3ff b53c
00000390: 6179 ca3d 0f84 553c bcbe 323d 379d 5d3d
000003a0: 8f97 df3d ca5f 9d3d efda 9b3d 1bfd 20bc
000003b0: 8bd9 79bd b077 7fbd 2052 983d c562 573d
000003c0: 575a f63c 09dd 553a 120f 8c3d b3a0 893d
000003d0: b69e 3a3c 921b 2e3d 81e9 9c3d bc47 7d3d
000003e0: c9a2 bfbd ba06 eabd 0cf4 613d 40d0 9c3b
000003f0: f45b 5b3c 3fbc 893c fc53 f1bc 5e38 be3c

l1.0.bias f4 [256]
0.18182015 0.3483361 0.5407319 -0.024526855 0.051093474 -0.045046188 -0.40751317 -0.059198603
-0.043185852 0.2875152 0.42417878 0.034096505 -0.14182374 0.2296314 -0.12665784 0.24923287
0.6586843 0.033872157 -0.2720668 0.30860135 0.024225123 -0.012114419 -0.03652892 0.5278512
-0.14032514 -0.19766678 -0.07311073 0.7456647 -0.18703713 -0.4256746 0.37534034 0.046779137
0.55861175 -0.13711599 -0.04287778 -0.19437785 -0.41640875 -0.00070032215 -0.76886785 0.017095508
-0.92306 0.15134437 0.13799325 -0.62495613 -0.30816907 -0.70367855 0.31896612 0.20470354
0.18522868 -0.33214024 -0.076517135 -0.4386462 -0.5028085 0.33552533 -0.88377875 0.060383752
-0.04396301 1.0006729 -0.3757249 0.86207855 -0.09016293 -0.81642073 0.6737764 0.37214786
-0.599002 0.13204491 0.29698804 0.26162788 0.3607245 -0.19160512 0.031178819 -0.054359406
0.24536283 0.6132146 -0.19975993 0.17050104 0.7994839 -0.070905045 -0.2939958 0.26720786
-0.19276331 -0.37858123 -0.63756704 -0.47894648 -0.7548119 -0.24087715 -0.5271156 0.40850264
-0.44258726 -0.1719666 -0.41404346 0.15446527 -0.13145405 -0.42905775 -0.124860644 -0.12901028
-0.49491847 -0.03779408 -0.038970884 -0.2841444 0.0271908 0.040065814 -0.43740582 -0.09978952
-0.4024221 0.25750872 0.24162292 0.7551073 0.50600344 0.08248916 0.31698218 -0.43531638
-0.4092191 -0.33740887 0.07460822 0.4199118 -0.24793176 -0.8160891 -0.093033545 -0.19084434
0.073019266 0.31255704 0.53199923 0.91012704 0.03085609 0.47691613 0.3650657 -0.8173336
0.3037603 -0.009851041 0.43257755 0.49551207 0.0030011197 -0.40698028 0.020658618 0.3854462
-0.83199406 0.0068519763 -0.4344863 0.16612853 -0.9168142 -0.1392276 0.6102972 -0.12467347
0.06520586 0.47980592 0.14983179 0.21017347 -0.20791347 -0.7144809 -0.5807326 -0.51031035
-0.306203 -0.3934713 -0.21400884 0.34065902 -0.027053878 -0.29507425 -0.047911976 -0.21764173
0.10198703 -0.037199274 -0.07239685 -0.7693158 -0.07286932 0.35500726 0.39232156 -0.8295302
-0.29888138 0.7036908 -0.062192187 0.13665625 -0.10407791 -0.62512976 0.1970534 -0.99422914
-0.1429018 -0.45451546 -0.32787502 0.3539559 0.11659784 -0.24408399 -0.5600854 -0.09136283
-0.59273154 -0.6692743 0.2430227 0.8426867 -0.2186881 0.87120277 -0.5061866 0.36241716
0.6748157 -0.24985214 -0.2581272 -0.26632112 0.7494059 -0.42073286 0.49989113 0.20729731
0.36114734 0.32160488 -0.26708403 0.7769613 0.43603933 0.0662994 -0.5497658 0.347031
-0.22314839 0.6703431 -0.15335807 0.40253296 0.036021255 -0.16264065 -0.23205908 0.50702226
0.03315349 0.3338454 0.3835352 -0.12551889 0.41489702 -0.4935434 0.26527128 -0.93472373
0.24023019 0.7802732 -0.16464515 0.15339446 0.20453385 -0.19632186 0.22385222 -0.6279919
-0.7435486 0.17802045 -0.04530512 -0.5478403 0.24396044 0.847373 -0.15885943 0.52150786
-0.28210407 0.002276179 0.19745257 0.11132942 -0.57697266 0.5388498 -0.037830327 0.96500176
-0.56021005 0.12414862 -0.08350458 -0.24239436 0.7206433 -0.30524403 -0.03976248 0.009316957
00000000: 102f 3a3e 1c59 b23e 686d 0a3f 8bec c8bc
00000010: 6447 513d 5a82 38bd 91a5 d0be 3c7a 72bd
00000020: a6e3 30bd 3135 933e f62d d93e c7a8 0b3d
00000030: 3e3a 11be 7e24 6b3e 98b2 01be e736 7f3e
00000040: 899f 283f 88bd 0a3d 574c 8bbe ff00 9e3e
00000050: c473 c63c 8e7b 46bc 599f 15bd 4221 073f
00000060: 65b1 0fbe 2969 4abe 14bb 95bd e2e3 3e3f
00000070: a986 3fbe 05f2 d9be 9c2c c03e 7b9b 3f3d
00000080: 2e01 0f3f 2268 0cbe 9ca0 2fbd fd0a 47be
00000090: 8733 d5be d395 37ba 86d4 44bf e10b 8c3c
000000a0: a94d 6cbf 05fa 1a3e 1a4e 0d3e 20fd 1fbf
000000b0: 56c8 9dbe 4724 34bf 874f a33e ce9d 513e
000000c0: 96ac 3d3e 490e aabe 04b5 9cbd 3c96 e0be
000000d0: 0fb8 00bf fac9 ab3e 533f 62bf f454 773d
000000e0: 8f12 34bd 0d16 803f 045f c0be 2eb1 5c3f
000000f0: 58a7 b8bd f300 51bf 9c7c 2c3f 2a8a be3e
00000100: 3258 19bf c836 073e d10e 983e 17f4 853e
00000110: e2b0 b83e 2234 44be b96a ff3c f8a7 5ebd
00000120: 6540 7b3e a2fb 1c3f de8d 4cbe d397 2e3e
00000130: faaa 4c3f aa36 91bd 9e86 96be 78cf 883e
00000140: bf63 45be 66d5 c1be 9837 23bf 7938 f5be
00000150: 5a3b 41bf 80a8 76be 0cf1 06bf 4227 d13e
00000160: cc9a e2be 0318 30be 81fd d3be 252c 1e3e
00000170: e49b 06be 75ad dbbe f0b6 ffbd 451b 04be
00000180: f465 fdbe f7cd 1abd ef9f 1fbd 607b 91be
00000190: 3ebf de3c 0d1c 243d a8f3 dfbe 735e ccbd
000001a0: 450a cebe 2fd8 833e 006c 773e b64e 413f
000001b0: 7189 013f 14f0 a83d 7d4b a23e cae1 debe
000001c0: 2a85 d1be dbc0 acbe 32cc 983d aefe d63e
000001d0: d3e1 7dbe 37eb 50bf 5f88 bebd b36c 43be
000001e0: 208b 953d 7a07 a03e 1a31 083f 16fe 683f
000001f0: e9c5 fc3c 5a2e f43e e4e9 ba3e c63c 51bf
00000200: 7886 9b3e 4366 21bc ce7a dd3e c2b3 fd3e
00000210: 6fae 443b b85f d0be 433c a93c 3459 c53e
00000220: 90fd 54bf 8b86 e03b fd74 debe 991d 2a3e
00000230: 56b4 6abf ae91 0ebe 703c 1c3f ce54 ffbd
00000240: a68a 853d 1fa9 f53e 816d 193e b737 573e
00000250: 45e7 54be 38e8 36bf e4aa 14bf b3a3 02bf
00000260: a4c6 9cbe 1275 c9be 2225 5bbe dc6a ae3e
00000270: 18a0 ddbc f913 97be 593f 44bd 79dd 5ebe
00000280: 93de d03d 445e 18bd cd44 94bd e1f1 44bf
00000290: 833c 95bd 83c3 b53e 5fde c83e 175c 54bf
000002a0: fb06 99be 1525 343f 3cbd 7ebd 9eef 0b3e
000002b0: cd26 d5bd 8108 20bf 5ec8 493e cd85 7ebf
000002c0: d954 12be 40b6 e8be 3cdf a7be b539 b53e
000002d0: d9ca ee3d 27f1 79be c261 0fbf 6f1c bbbd
000002e0: 41bd 17bf 8f55 2bbf f1da 783e 51ba 573f
000002f0: c6ef 5fbe 2507 5f3f 7295 01bf be8e b93e
00000300: b9c0 2c3f 3dd9 7fbe 4029 84be 3e5b 88be
00000310: 11d9 3f3f 4c6a d7be bbf1 ff3e bf45 543e
00000320: 4ee8 b83e 65a9 a43e 3dbf 88be f0e6 463f
00000330: 8c40 df3e fbc7 873d 74bd 0cbf 0cae b13e
00000340: 0381 64be 9b9b 2b3f e609 1dbe cd18 ce3e
00000350: 068b 133d 458b 26be e5a0 6dbe 36cc 013f
00000360: f4cb 073d c9ed aa3e ba5e c43e 0688 00be
00000370: 626d d43e b8b1 fcbe a3d1 873e 0e4a 6fbf
00000380: e7fe 753e fcbf 473f bd98 28be 7013 1d3e
00000390: 5271 513e 9908 49be 8439 653e 14c4 20bf
000003a0: 3359 3ebf fe4a 363e dd91 39bd 433f 0cbf
000003b0: c4d0 793e 70ed 583f 0cac 22be 8a81 053f
000003c0: f26f 90be f22b 153b 0231 4a3e ae00 e43d
000003d0: 7bb4 13bf 0ff2 093f f9f3 1abd 5b0a 773f
000003e0: ed69 0fbf a241 fe3d 7304 abbd 3a36 78be
000003f0: 147c 383f f248 9cbe fbdd 22bd 26a6 183c

l1.1.weight f4 [392, 256]
0.24123468 0.3063656 -0.23386624 -0.6166895 0.40157604 0.36720765 0.098550856 -0.36264232
0.21131425 -0.13169158 -0.151844 -0.09713206 -0.58501184 0.23243733 -0.5385555 0.1587699
0.02125629 0.06510518 -0.14001927 0.3298449 -0.097645834 0.09619165 0.17363521 0.15699987
-0.24512695 0.15988103 -0.43365312 -0.38785887 0.27925944 0.308099 0.29586506 -0.097664215
0.14742841 0.14151688 -0.26360217 0.19067648 -0.14526187 -0.36830726 -0.24776933 0.3487428
-0.22818439 0.3263459 -0.1502938 -0.07696318 0.020594107 0.1479519 -0.16228056 -0.1652285
0.19140483 0.26594955 -0.21830672 -0.06779696 0.2893967 -0.097895935 -0.10409435 0.16532774
0.2631181 0.25609067 0.124238335 0.27476063 0.5246806 -0.043748308 -0.12149494 -0.5042412
-0.37486523 -0.0362493 0.012705701 0.07847087 -0.21063472 0.07294161 0.035612382 0.23817436
-0.26005667 0.4287792 -0.26599395 0.28932482 -0.10753961 -0.19270895 0.047063515 0.2252638
0.03311185 -0.16833031 -0.14953974 0.4469935 -0.18268915 -0.09300331 0.1572421 0.2163218
0.13499147 0.20215653 -0.3744456 0.2855784 0.38237813 -0.09783844 0.32196188 -0.007291463
-0.2976649 -0.07722015 0.6333466 0.17263862 0.005290247 0.30243286 0.19554263 -0.012697795
-0.05694816 -0.2703664 -0.7204317 -0.114749976 0.37154266 -0.32522228 -0.033744674 -0.24813959
-0.07234208 -0.24286702 -0.1029027 0.326976 0.22216246 0.0417158 0.41680577 0.47832182
-0.18291023 -0.1935689 -0.25518325 -0.060573086 0.47222078 0.28947937 -0.24047552 -0.21392027
-0.2669722 0.3708255 0.20956753 0.17708741 0.46117747 0.17755006 -0.21560651 0.14640582
0.12124705 0.12885147 -0.18222821 0.28159872 0.08580078 0.38445503 -0.008816419 -0.2181625
0.42594218 0.0366561 -0.13774535 0.22073966 -0.35321912 -0.31293035 0.17246899 0.40103197
-0.19210921 -0.11711189 -0.22259836 -0.101355836 -0.4370736 -0.2342567 -0.11667959 -0.0039761644
-0.07278367 -0.15802845 -0.40229508 0.4604279 0.43079618 -0.37982818 -0.24461125 -0.12862164
-0.35903132 0.23093183 0.28885192 0.045038477 0.115758486 -0.29612884 -0.3298444 0.23236102
-0.090272024 -0.17433248 0.32008722 0.21865316 -0.054444514 -0.22859462 -0.09709848 -0.0953491
-0.3915039 0.27884245 0.29009676 -0.421033 0.291344 0.17598279 0.17502694 0.06939775
-0.48724484 -0.5733362 0.17976776 -0.17398545 -0.44644108 -0.32159525 0.25434524 0.039932325
0.48922002 0.019645354 -0.05284997 0.17195778 -0.052519735 0.39256525 -0.17218994 -0.39961955
0.41708645 0.27486187 -0.103611514 0.2077406 0.25254774 0.37716258 -0.38160506 0.10880044
0.3318087 0.11601171 0.1044525 -0.018818116 -0.25643456 -0.082312904 0.27194333 0.005212138
0.35571435 0.082616396 0.078737125 0.095689975 0.07052112 -0.033577293 0.27191836 0.56219375
-0.06693216 -0.12520614 0.28003246 0.6769482 -0.3516083 0.24452709 0.2329884 -0.5355071
0.019367686 -0.55184746 0.58592427 0.47863546 0.53761923 -0.22628471 0.2352931 -0.2560838
0.36123082 -0.5096259 0.005426536 -0.32900652 -0.06008454 0.20597388 0.40147832 0.47846615
00000000: 3906 773e f4db 9c3e a27a 6fbe 5ddf 1dbf
00000010: 609b cd3e a402 bc3e 08d5 c93d 41ac b9be
00000020: c362 583e 28da 06be fe7c 1bbe 2ced c6bd
00000030: 56c3 15bf 0d04 6e3e c6de 09bf 9494 223e
00000040: ac21 ae3c dd55 853d 3661 0fbe 6ee1 a83e
00000050: 8afa c7bd 2100 c53d 6ecd 313e 93c4 203e
00000060: 8f02 7bbe dab7 233e c807 debe 7095 c6be
00000070: 18fb 8e3e 27bf 9d3e a07b 973e 2d04 c8bd
00000080: 79f7 163e cde9 103e ddf6 86be b240 433e
00000090: 87bf 14be c592 bcbe 3eb7 7dbe 6b8e b23e
000000a0: 2ba9 69be cf16 a73e 9ee6 19be df9e 9dbd
000000b0: f9b4 a83c b480 173e e02c 26be a931 29be
000000c0: a1ff 433e 8a2a 883e cc8b 5fbe 22d9 8abd
000000d0: ce2b 943e aa7d c8bd 6b2f d5bd ad4b 293e
000000e0: 6ab7 863e 511e 833e ab70 fe3d 6dad 8c3e
000000f0: 7851 063f 6d31 33bd 57d2 f8bd f415 01bf
00000100: 56ee bfbe 257a 14bd 932b 503c 56b5 a03d
00000110: a1b0 57be 6962 953d 4ade 113d fbe3 733e
00000120: 2626 85be f388 db3e 5c30 88be 6222 943e
00000130: ba3d dcbd 7f55 45be acc5 403d 8eab 663e
00000140: 4ba0 073d c85e 2cbe f220 19be 55dc e43e
00000150: dd12 3bbe 8578 bebd 1304 213e 7683 5d3e
00000160: 343b 0a3e 1f02 4f3e 55b7 bfbe 5537 923e
00000170: 11c7 c33e 855f c8bd 30d8 a43e 3aed eebb
00000180: 8967 98be 9925 9ebd 0123 223f 2ec8 303e
00000190: cf59 ad3b 7bd8 9a3e 543c 483e 6a0a 50bc
000001a0: 7942 69bd 776d 8abe 366e 38bf 0902 ebbd
000001b0: d73a be3e 8983 a6be db37 0abd 4e18 7ebe
000001c0: 1628 94bd 22b2 78be a7be d2bd 6669 a73e
000001d0: 8e7e 633e 30de 2a3d 9167 d53e 99e6 f43e
000001e0: d24c 3bbe ed36 46be 61a7 82be 7c1b 78bd
000001f0: ecc6 f13e a436 943e 373f 76be ea0d 5bbe
00000200: 95b0 88be d7dc bd3e df98 563e 6756 353e
00000210: 741f ec3e afcf 353e f4c7 5cbe 68eb 153e
00000220: 6050 f83d a4f1 033e 089a 3abe b52d 903e
00000230: 52b8 af3d 4ad7 c43e be72 10bc fe65 5fbe
00000240: 1815 da3e b524 163d 1e0d 0dbe 9409 623e
00000250: 23d9 b4be 6838 a0be b69b 303e 1054 cd3e
00000260: 47b8 44be 5cd8 efbd d3f0 63be a693 cfbd
00000270: 1cc8 dfbe fde0 6fbe b5f5 eebd 7c4a 82bb
00000280: 9b0f 95bd 36d2 21be 9ff9 cdbe 35bd eb3e
00000290: 5191 dc3e d778 c2be 5f7b 7abe 64b5 03be
000002a0: f4d2 b7be 6579 6c3e 66e4 933e 447a 383d
000002b0: c912 ed3d 339e 97be 5de1 a8be 0cf0 6d3e
000002c0: 8ae0 b8bd 3784 32be 79e2 a33e 9de6 5f3e
000002d0: 3601 5fbd b514 6abe 91db c6bd 6446 c3bd
000002e0: 3373 c8be 70c4 8e3e 9087 943e a391 d7be
000002f0: 0a2b 953e d534 343e 433a 333e 6820 8e3d
00000300: 2878 f9be 29c6 12bf 0a15 383e 3e29 32be
00000310: ed93 e4be 22a8 a4be 8a39 823e 1490 233d
00000320: 0c7b fa3e 4bef a03c 3679 58bd b315 303e
00000330: ef1e 57bd 50fe c83e 8f52 30be ef9a ccbe
00000340: 5b8c d53e b2ba 8c3e 4632 d4bd f4b9 543e
00000350: f04d 813e 741b c13e bd61 c3be c4d2 de3d
00000360: d4e2 a93e 8c97 ed3d 31eb d53d 7328 9abc
00000370: 644b 83be ab93 a8bd 283c 8b3e 95ca aa3b
00000380: 3120 b63e c932 a93d ee40 a13d 1bf9 c33d
00000390: 616d 903d 5888 09bd e238 8b3e eeeb 0f3f
000003a0: ba13 89bd 0a36 00be 6a60 8f3e 7a4c 2d3f
000003b0: 0106 b4be 4f65 7a3e 8394 6e3e fe16 09bf
000003c0: fba8 9e3c e045 0dbf 22ff 153f b50f f53e
000003d0: 6aa1 093f 2eb7 67be adf0 703e 6a1d 83be
000003e0: 3ff3 b83e d876 02bf 15d1 b13b 8b73 a8be
000003f0: 351b 76bd d1ea 523e 918e cd3e 84f9 f43e

l1.1.bias f4 [392]
0.122145005 -0.36186904 -0.4890327 -0.38567024 -0.11658419 -0.34911528 -0.249055 -0.13767216
-0.38784137 -0.21327016 -0.03824876 0.033586573 0.20696573 -0.018424839 -0.4565016 -0.34941873
0.03383859 0.12245185 0.19731614 0.2974279 -0.1018567 -0.4941227 -0.1482122 0.2955744
-0.047762755 0.14439821 0.27884173 0.10799995 0.07774088 0.13483766 0.357242 -0.07269591
0.0701138 0.46413305 0.029191827 0.22240473 0.16560878 0.27986878 0.102190785 0.5256065
0.4534023 0.041853137 0.03181211 -0.016195318 -0.06158626 0.36915705 0.37510017 -0.02293461
-0.41972002 -0.22156504 0.11015791 -0.3781863 -0.27962953 0.21907498 -0.13483143 -0.37122852
-0.49580145 -0.075602874 0.30607262 0.008619439 -0.06975831 -0.3446221 -0.53336227 -0.15499945
0.06670073 -0.2980362 -0.18450539 -0.103756994 -0.25384396 -0.49205193 0.027074037 0.12475664
-0.20454536 -0.6209782 -0.049329933 -0.40690032 -0.32188115 -0.016811892 -0.027114622 -0.23463255
0.005663995 -0.2266031 -0.5113052 -0.45767748 -0.01309094 -0.48456416 -0.38833466 -0.32955065
-0.40783122 -0.7911783 -0.3939478 -0.15726924 -0.17906103 -0.53111315 -0.88324636 -0.78305745
0.06732331 -0.6724218 1.0641836 0.4890538 0.24719393 0.45648783 0.44163376 0.49225703
0.38844958 0.5051673 -0.0067578987 -0.3612866 -0.44191143 -0.39716578 0.15562883 0.29135254
0.40602294 -0.17293175 -0.57067853 -0.33516058 -0.29757768 -0.19411446 0.33500674 0.5954178
-0.23542008 -0.27946347 -0.2184901 -0.5212227 -0.28662324 0.34898645 0.58434 -0.21525593
-0.23266013 -0.09452813 -0.46561715 -0.032626983 0.39025715 0.9160752 0.16566408 -0.34472936
-0.34107864 -0.15766007 0.26270574 0.32693675 0.96212953 0.7510838 0.4422566 0.4663594
0.6590288 0.6741226 0.45353016 0.15995431 -0.4907777 -0.26612225 0.36680835 0.3579864
0.32382175 -0.28766072 -0.14384659 -0.11015834 0.013392617 -0.16847911 0.099964865 -0.029063152
-0.2605025 -0.049214356 0.11976293 0.008603243 0.20169742 0.20177087 0.0604264 0.18059103
0.10474874 -0.076980345 0.23998812 -0.018631404 0.34218186 0.14193182 -0.021609731 -0.2002115
0.2734629 0.0921931 0.3461157 0.34962645 -0.114960924 0.2206867 -0.3169128 -0.05079011
0.12176272 0.4598262 0.19411775 -0.14702451 0.088882774 0.046554618 -0.018446224 -0.117702425
-0.06805063 -0.15782644 -0.51911545 -0.02058551 -0.5486457 -0.10005072 0.03705301 -0.01737309
-0.2612865 -0.2583485 -0.8523874 -0.31655413 -0.1601094 0.3731728 0.26675582 0.24269216
-0.16683933 -0.37258822 -0.11696529 0.2932498 0.5194997 0.34325162 0.47724882 0.040149998
-0.37726837 -0.13194093 0.34100938 0.03749169 0.4018838 0.4141158 0.052153654 -0.42326295
-0.1649372 0.048952997 0.21687922 0.49163517 0.34481063 0.044505622 -0.5843098 -0.24435742
0.11147169 0.30150068 0.22389108 0.18275419 -0.1336603 -0.71652085 -0.5524684 -0.29316586
-0.49475318 0.12864828 -0.321367 -0.15653831 0.030670045 0.24309975 0.24650766 0.54931974
0.4641937 0.11736931 -0.100163594 0.46798712 0.17147477 0.4341879 0.29189816 0.051581986
00000000: 2927 fa3d e646 b9be 7e62 fabe 9276 c5be
00000010: b1c3 eebd 3dbf b2be 4608 7fbe eef9 0cbe
00000020: 2593 c6be 7e63 5abe bbaa 1cbd 1392 093d
00000030: d3ee 533e b0ef 96bc 94ba e9be 03e7 b2be
00000040: 559a 0a3d 09c8 fa3d 3e0d 4a3e 7848 983e
00000050: 3f9a d0bd a7fd fcbe f0c4 17be 8755 973e
00000060: e1a2 43bd 20dd 133e 58c4 8e3e 142f dd3d
00000070: 9c36 9f3d e212 0a3e 6ce8 b63e 98e1 94bd
00000080: d397 8f3d d9a2 ed3e b323 ef3c 11be 633e
00000090: 5995 293e f64a 8f3e 6749 d13d 268e 063f
000000a0: 5924 e83e 326e 2b3d 6a4d 023d 0bac 84bc
000000b0: e041 7cbd 2702 bd3e 210d c03e 5de1 bbbc
000000c0: 8be5 d6be f2e1 62be 789a e13d a2a1 c1be
000000d0: 9a2b 8fbe 3155 603e 4011 0abe aa11 bebe
000000e0: b0d9 fdbe aed5 9abd 8db5 9c3e 8c38 0d3c
000000f0: 72dd 8ebd 4f72 b0be 6e8a 08bf 2db8 1ebe
00000100: 649a 883d 3398 98be fbee 3cbe 8c7e d4bd
00000110: d6f7 81be 3bee fbbe 5fca dd3c 6980 ff3d
00000120: 5774 51be 6df8 1ebf 2f0e 4abd 3d55 d0be
00000130: 9bcd a4be 18b9 89bc 7c1f debc 8443 70be
00000140: 0999 b93b a50a 68be e6e4 02bf b454 eabe
00000150: 627b 56bc cb18 f8be cdd3 c6be ddba a8be
00000160: 41cf d0be a98a 4abf 87b3 c9be 300b 21be
00000170: c65b 37be 08f7 07bf 6f1c 62bf 7476 48bf
00000180: cee0 893d d623 2cbf 2b37 883f 4265 fa3e
00000190: 6820 7d3e c6b8 e93e d21d e23e 1d09 fc3e
000001a0: dde2 c63e a552 013f 5d71 ddbb 8ffa b8be
000001b0: 3742 e2be 5059 cbbe 2a5d 1f3e 292c 953e
000001c0: 3de2 cf3e 0515 31be fd17 12bf 2b9a abbe
000001d0: 1a5c 98be f1c5 46be 0186 ab3e 4d6d 183f
000001e0: f611 71be d615 8fbe debb 5fbe da6e 05bf
000001f0: 48c0 92be 5aae b23e 4e97 153f 0d6c 5cbe
00000200: 753e 6ebe f797 c1bd 5f65 eebe dfa3 05bd
00000210: c9cf c73e e883 6a3f d8a3 293e 5e80 b0be
00000220: dca1 aebe a471 21be 5e81 863e 4164 a73e
00000230: 1f4e 763f 0747 403f 756f e23e a9c6 ee3e
00000240: 1db6 283f 4c93 2c3f 1b35 e83e 10cb 233e
00000250: 3747 fbbe 2d41 88be 4ece bb3e fe49 b73e
00000260: f7cb a53e 4448 93be 854c 13be b29a e1bd
00000270: b56c 5b3c ca85 2cbe 61ba cc3d d915 eebc
00000280: 9560 85be fe94 49bd 4446 f53d 9ef4 0c3c
00000290: c589 4e3e 069d 4e3e ac81 773d dbec 383e
000002a0: 8286 d63d dfa7 9dbd 72bf 753e e3a0 98bc
000002b0: 7632 af3e 9356 113e e406 b1bc 3e04 4dbe
000002c0: 5403 8c3e bccf bc3d 1436 b13e 3d02 b33e
000002d0: a270 ebbd b2fb 613e 6542 a2be 4a09 50bd
000002e0: bc5e f93d 576e eb3e cec6 463e 988d 16be
000002f0: 2c08 b63d 0eb0 3e3d 891c 97bc f80d f1bd
00000300: 215e 8bbd 419d 21be c0e4 04bf f2a2 a8bc
00000310: 0b74 0cbf 64e7 ccbd e6c4 173d 0352 8ebc
00000320: 58c7 85be 4146 84be 1036 5abf 6213 a2be
00000330: b8f3 23be 8110 bf3e 3894 883e 4b84 783e
00000340: eed7 2abe e2c3 bebe 7f8b efbd d624 963e
00000350: effd 043f adbe af3e f559 f43e 5374 243d
00000360: 5229 c1be 861b 07be c898 ae3e e390 193d
00000370: b7c3 cd3e fc06 d43e 129f 553d ecb5 d8be
00000380: 4ce5 28be f082 483d 9615 5e3e 9bb7 fb3e
00000390: 058b b03e 874b 363d 5495 15bf d538 7abe
000003a0: 454b e43d 4c5e 9a3e b443 653e ea23 3b3e
000003b0: 3fde 08be e96d 37bf 926e 0dbf d619 96be
000003c0: 4a50 fdbe 60bc 033e 378a a4be 944b 20be
000003d0: bf3f fb3c 24ef 783e 816c 7c3e 38a0 0c3f
000003e0: ccaa ed3e 525f f03d 9222 cdbd 029c ef3e
000003f0: 1597 2f3e e04d de3e ad73 953e a247 533d

conv_blocks.1.weight f4 [4, 8, 3, 3]
0.073038906 0.0849625 -0.09258223 0.112675875 0.11847688 -0.029336909 0.13886918 0.14681344
-0.05920294 -0.08569967 0.13383915 -0.1295226 0.15772498 -0.11940143 -0.06558285 -0.166528
-0.12428863 0.09976447 0.054444853 0.07400535 0.30828777 0.13445017 0.32209834 0.5008876
-0.13585132 0.37646335 0.20305222 0.14875628 -0.10677993 0.2512707 -0.29963124 -0.16071239
-0.13952465 0.14575632 0.09168029 0.090474255 -0.02465245 -0.33241168 -0.040686432 0.10206926
0.044131923 0.16494876 0.19876084 -0.021148812 0.03734915 -0.16710876 -0.08088191 -0.047536585
-0.10072797 -0.1451095 -0.09439022 -0.19031459 -0.34418255 0.06307011 0.08486223 -0.11305504
0.07880771 0.2025736 -0.44003615 0.15244105 -0.01713536 -0.26753575 -0.07136542 0.05902769
-0.0017482407 0.08994446 -0.056671835 -0.0882762 -0.3335186 0.112411715 0.27767804 -0.10178446
-0.19888866 -0.22784805 -0.039226633 -0.044966146 0.0040771263 0.021253658 0.0008025541 -0.05670258
0.097957455 -0.0867505 -0.12455641 -0.04165687 -0.0036082237 0.10867703 -0.03500311 -0.042216174
-0.09358908 -0.07819791 -0.016870031 -0.010998201 -0.030973949 -0.15409274 -0.14841628 -0.23863877
0.013285112 -0.17053314 0.082164556 -0.1499596 0.08079052 0.03127082 0.04012416 0.15330693
-0.07226745 -0.019589301 0.015457684 0.08675479 0.103847854 0.28645176 0.04694081 0.11726733
0.10515102 0.100837514 -0.06113918 -0.016204907 0.13685511 0.050495807 0.0468022 -0.044910166
0.088237025 -0.1316602 -0.06328949 0.11641966 0.040422585 -0.020466734 0.03492377 0.040966246
0.009205214 -0.060151424 0.11747822 0.13938706 0.02151891 0.038065135 0.047146395 0.03897162
0.1499296 0.02806582 -0.029235698 -0.022030907 0.2609148 -0.016415093 0.0877793 0.12713736
-0.05562328 -0.15336114 0.1399537 0.1318376 -0.056495365 0.04073044 -0.28368872 -0.16319518
-0.2542463 -0.2677263 -0.37497112 -0.16655271 -0.09516934 -0.44795603 0.20109512 -0.011375335
0.03583038 0.020320203 0.2258732 0.24034113 -0.026397927 0.20059511 0.1967995 -0.12398971
0.10597324 0.046242107 -0.25551677 0.049970314 0.017722527 -0.14347953 -0.18902855 0.021949312
0.41416818 0.06214502 -0.27203065 0.18140946 -0.54453325 -0.109330244 0.09557517 -0.1827162
-0.033193417 -0.04873209 -0.23874241 0.110472955 0.011825908 -0.10420221 -0.36988276 0.08261322
0.12856318 0.34866253 -0.14433578 -0.12217932 0.114748634 -0.05147155 -0.10796405 0.30936778
0.15170477 0.041808113 0.38615376 -0.08243126 -0.16104794 0.16994041 0.09895727 0.101573415
-0.13052484 0.17577791 -0.061539333 -0.06563654 -0.06858696 -0.24673213 -0.4992603 0.10531023
-0.18731238 -0.44524932 -0.2784207 -0.25109944 -0.24599436 -0.14425392 0.023808412 -0.102698416
0.0447246 -0.19097619 -0.071412966 0.04178475 0.057461087 0.3399409 0.22987096 -0.122913174
0.26675135 -0.0154774105 0.057215236 0.08429933 0.0073720035 0.010709846 0.10067752 -0.09829527
-0.14584817 0.048249856 -0.25471646 -0.08704209 -0.00867124 -0.010779227 -0.030782608 0.23133312
0.11923724 0.1127537 0.20080084 -0.017378455 -0.015610156 0.1998746 0.160614 0.24063657
00000000: 6c95 953d d200 ae3d c19b bdbd 9cc2 e63d
00000010: 02a4 f23d f553 f0bc b933 0e3e 4356 163e
00000020: c87e 72bd 4f83 afbd 210d 093e 93a1 04be
00000030: a882 213e bd88 f4bd 4d50 86bd 5186 2abe
00000040: 0a8b febd 5051 cc3d 9101 5f3d 1e90 973d
00000050: e5d7 9d3e 4ead 093e 13ea a43e 2b3a 003f
00000060: 9c1c 0bbe cebf c03e ecec 4f3e 9153 183e
00000070: 70af dabd 8ea6 803e 4469 99be ca91 24be
00000080: 8ddf 0ebe 2541 153e e0c2 bb3d 914a b93d
00000090: eff3 c9bc dd31 aabe d1a6 26bd b009 d13d
000000a0: adc3 343d 54e8 283e f687 4b3e 4640 adbc
000000b0: 6cfb 183d 8f1e 2bbe 6aa5 a5bd b9b5 42bd
000000c0: 774a cebd 9697 14be a94f c1bd d4e1 42be
000000d0: b238 b0be e72a 813d 40cc ad3d 6789 e7bd
000000e0: f065 a13d 746f 4f3e 6b4c e1be 8219 1c3e
000000f0: 745f 8cbc 72fa 88be 0928 92bd 05c7 713d
00000100: 3925 e5ba cd34 b83d ba20 68bd 27ca b4bd
00000110: f3c2 aabe 1d38 e63d d12b 8e3e 5f74 d0bd
00000120: 78a9 4bbe 0051 69be 1bac 20bd 6c2e 38bd
00000130: 6a99 853b 271c ae3c 7e62 523a f740 68bd
00000140: eb9d c83d 3faa b1bd 6e17 ffbd 65a0 2abd
00000150: f377 6cbb 1092 de3d 6c5f 0fbd deea 2cbd
00000160: a2ab bfbd 3a26 a0bd 0533 8abc cc31 34bc
00000170: 14bd fdbc 7dca 1dbe 70fa 17be b95d 74be
00000180: cca9 593c 3da0 2ebe e445 a83d 028f 19be
00000190: 8075 a53d d515 003d 3b59 243d 7efc 1c3e
000001a0: f500 94bd be79 a0bc 3a42 7d3c 7fac b13d
000001b0: 2fae d43d cea9 923e 0245 403d db29 f03d
000001c0: 6b59 d73d e683 ce3d 146d 7abd 27c0 84bc
000001d0: bf23 0c3e b1d4 4e3d aab3 3f3d b9f3 37bd
000001e0: 9db5 b43d eed1 06be ec9d 81bd 6e6d ee3d
000001f0: 2792 253d daa9 a7bc 3a0c 0f3d 39cc 273d
00000200: 77d1 163c 5761 76bd 6c98 f03d 7bbb 0e3e
00000210: 6d48 b03c 30ea 1b3d 941c 413d b5a0 1f3d
00000220: 2587 193e 4aea e53c b47f efbc 297a b4bc
00000230: a096 853e f278 86bc a2c5 b33d 4c30 023e
00000240: 3dd5 63bd b40a 1dbe 0650 0f3e 7000 073e
00000250: af67 67bd f6d4 263d a63f 91be a31c 27be
00000260: 922c 82be 6c13 89be 37fc bfbe cb8c 2abe
00000270: 25e8 c2bd 7e5a e5be e1eb 4d3e 9d5f 3abc
00000280: e0c2 123d 8e76 a63c 4e4b 673e fc1b 763e
00000290: 7740 d8bc ce68 4d3e cf85 493e 51ee fdbd
000002a0: 8008 d93d 5d68 3d3d 18d3 82be acad 4c3d
000002b0: d52e 913c 4cec 12be b390 41be 0bcf b33c
000002c0: da0d d43e c78b 7e3d 9a47 8bbe 67c3 393e
000002d0: 8866 0bbf 89e8 dfbd eabc c33d f519 3bbe
000002e0: d2f5 07bd 4d9b 47bd e478 74be a53f e23d
000002f0: 74c1 413c f867 d5bd 4661 bdbe 1f31 a93d
00000300: 11a6 033e e583 b23e c2cc 13be 2739 fabd
00000310: 5501 eb3d d5d3 52bd 411c ddbd 7465 9e3e
00000320: 7f58 1b3e fc3e 2b3d f2b5 c53e b8d1 a8bd
00000330: c0e9 24be dc04 2e3e 1caa ca3d b905 d03d
00000340: 4ea8 05be 20ff 333e ab10 7cbd 736c 86bd
00000350: 5277 8cbd 59a7 7cbe 0c9f ffbe e4ac d73d
00000360: d1ce 3fbe b8f7 e3be 288d 8ebe 1b90 80be
00000370: f2e5 7bbe 4db7 13be dc09 c33c 8c53 d2bd
00000380: 2431 373d 438f 43be f640 92bd 7c26 2b3d
00000390: 515c 6b3d bc0c ae3e 4b63 6b3e e7b9 fbbd
000003a0: a293 883e f794 7dbc 865a 6a3d 21a5 ac3d
000003b0: d990 f13b 5a78 2f3c 0430 ce3d 084f c9bd
000003c0: 3959 15be a4a1 453d 326a 82be 2043 b2bd
000003d0: d111 0ebc 5b9b 30bc cf2b fcbc 97e2 6c3e
000003e0: a732 f43d 69eb e63d bc9e 4d3e 435d 8ebc
000003f0: bdc1 7fbc edab 4c3e ff77 243e 6f69 763e

conv_blocks.1.bias f4 [4]
0.040882364 1.2506177 -0.17178406 -0.5009586
00000000: 4474 273d 3e14 a03f 29e8 2fbe d33e 00bf

conv_blocks.4.weight f4 [1, 4, 3, 3]
-0.056128282 -0.038752344 -0.07897904 -0.021648424 -0.05614271 -0.084718786 0.0066108387 -0.05043335
0.04360556 -0.0353866 0.028536238 -0.03618692 0.041717533 0.093710616 0.00938848 0.10191952
0.078116156 0.050135676 -0.06640588 -0.0047530616 -0.06808544 -0.09176295 -0.14985941 -0.05145764
-0.044779804 -0.09073769 -0.0007408292 0.031806663 -0.033839196 -0.06346656 -0.009828831 -0.1355185
-0.0633632 -0.09488289 -0.07033975 -0.04833283
00000000: c5e6 65bd c7ba 1ebd c3bf a1bd 0958 b1bc
00000010: e6f5 65bd 0b81 adbd bc9f d83b 3393 4ebd
00000020: be9b 323d 8af1 10bd d4c4 e93c bc38 14bd
00000030: 01e0 2a3d 5aeb bf3d 24d2 193c 2ebb d03d
00000040: 5dfb 9f3d 115b 4d3d ceff 87bd 92bf 9bbb
00000050: 6170 8bbd 37ee bbbd bf74 19be 3fc5 52bd
00000060: 076b 37bd afd4 b9bd 3534 42ba b447 023d
00000070: f89a 0abd c1fa 81bd 1b09 21bc 5dc5 0abe
00000080: 91c4 81bd f651 c2bd 490e 90bd a5f8 45bd
