mnist_gan/MNIST_GAN_CNN/save_mode_collapse/G--50.ckpt (torch_old, 537904 bytes, 7 tensors)

l1.0.weight f4 [256, 128]
00000000: 45ea a23d cca8 2abc 54f8 6ebd 4920 dc3d
00000010: f433 523d 59fd 2f3b 671b 20bc 2f7c 03be
00000020: 4a23 8abd 8124 a8bd cc86 76be 5af9 c03d
00000030: 8d58 80bd cec2 6bbd 9665 353e 1409 ddbd
00000040: f98f 723e e76f f33c 2b52 77bc be44 47bd
00000050: 7694 04be 2cdc 18bd 386b 1ebd 0507 e63d
00000060: 3f50 21bd c77e 113e 8eb7 c93d 8460 f5bd
00000070: f1ae 8fbd ef61 25bd 0f2e febd fa12 33be
00000080: 15e4 adbd 478a ebbd b9d1 8d3d 11ff b4bd
00000090: 5ed9 04be bc11 1c3e 8332 a83d 63bb 0fbc
000000a0: 6d50 4f3d d62d 4dbe e660 47bd 3fde 5bbd
000000b0: d7e0 75bd ed06 ce3c 1754 d63d 31c9 0c3d
000000c0: a08e 69bd 3526 d33d 4636 69bd 1e9b 55bd
000000d0: b963 563e 68af 27bd 0c8f 80bd 3113 163d
000000e0: bf34 12bb b38c 283d f22e 9a3d d8dc 0abe
000000f0: 84ee 263d e311 073d 8f98 8cba 6c96 11be
00000100: e910 b03c 183a 1bbd c815 1fbd 3fe8 4e3d
00000110: 396b debb 3098 9abd bc0f d0bb b170 5abe
00000120: 276b e93c f706 a9bd 3d02 0ebd 5c5a 963b
00000130: 0921 0b3d b9a5 38bc 2308 cabd 9f46 dc3c
00000140: 8738 bf3c 243b c43d d74d 733d 5b34 853c
00000150: f9f2 873d eae3 81bd 9d40 ae3c ce7d f73b
00000160: 39f4 e23d f87e 253c 5fa1 cf3d 8fdf 3b3c
00000170: 4ee2 87bd 8e44 5a3e 77d1 193d d65e 05be
00000180: dcbe 013d f36a ea3d 6311 bc3d cab9 d9bd
00000190: 8ee7 debc 14d3 1ebe 1397 b4bc e47f 9fbc
000001a0: 1319 0c3c 96e9 c63d 3cc6 bfbd 1112 b63c
000001b0: 1ba2 533c fc1e e9bd 56d6 b03d 4483 963b
000001c0: 7ced 33be 67df 663c c1af 9e3d 496e babd
000001d0: 9bad 84bd 510e 0cbd 880a 36bd f425 b0bd
000001e0: 7a88 88bd a742 12be 42f1 343b 812d 8bbc
000001f0: e69e ce3d 7c10 b63d a366 aa3c 8031 cfbb
00000200: b00d 603d 8e4b 5dbd 8d7f cfbc dac4 1dbd
00000210: 41fa 8aba e20d 0b3c bf69 4c3d 0bcb 183e
00000220: bfa2 903d 742f bebc 4571 10be 7789 adba
00000230: 07c5 5fbc 1c6a 4cbd ca28 113e 585a abbb
00000240: a9ed 063e d993 d93d e61d 6b3d f469 f53c
00000250: 4e3c e7bd d17a 953d eaba 52bd 5cc7 d13d
00000260: 18e8 cd3d 2411 643d 930d 36bc 7035 aabd
00000270: 6789 89bd c628 063d fed1 7fbc bbb6 c1bd
00000280: d050 18bc c030 83bd e6e3 87bd 5ab7 f4bc
00000290: 512d 99bd 71ae 833d 1974 aebc a0c0 493c
000002a0: 0a06 2bbc c31a 17bd 5860 093d 2cb7 c3bd
000002b0: d3e5 aabd fc9b f6bc e551 4d3d ecc7 d2bc
000002c0: e893 4e3d 092f 0f3e ffb8 0ebe 80e0 55bd
000002d0: 37fd d53d 3bf5 77bb e897 5a38 1628 aa3c
000002e0: 294c f53c 72c7 dcbc e530 893d 8597 ddbd
000002f0: edea e43d 75ba 303d c17c 673d 7a1f bc3c
00000300: f76d 0f3e 5b3a 31bd acb7 b8bb 93bd e83d
00000310: 3459 1b3d 6fef f2bd 608b 8e3c b64b f1bd
00000320: 74f8 80bd a70e edbd 00e4 f2b6 18b8 7abd
00000330: 2fcf b33b 7d15 e13c 6f07 9ebd 9aa6 dbbb
00000340: 3121 823d e2a9 bb3c d91f 8d3c be5e 273d
00000350: 1049 243d 3bbb 0abd 0914 5abc e3c6 02bc
00000360: 12a0 e8bc 94cd 48bb 0739 313d 5575 91bd
00000370: 3e4a 203d 21be 3f3e 21c3 4b3d cc7f 04be
00000380: d032 11bd 02be 533c 443f 7c3d 21d7 013c
00000390: 169f 8c3c e5b8 55bd 4020 593d 42ef ae3c
000003a0: 4de8 0a3e 312e ac3d d4e2 053c 85d5 2c3d
000003b0: 99a7 77bd 0339 ff3b 54be 903d 48bd 113d
000003c0: bf9e 5dbc bd33 313d 1583 323d 8dd3 c53c
000003d0: 806a f4bc e18b 453d eeda 213c 2d50 a13c
000003e0: 2902 9dbd 15c1 bebd 0925 a93d d61c 783c
000003f0: 5e43 8a3d e3ac 153d 9e3a debb 185c 7d3d
0.079548396 -0.010416221 -0.058342293 0.107483454 0.051319078 0.0026853888 -0.009772158 -0.12840341
-0.06745012 -0.082100876 -0.24074858 0.0942256 -0.0626689 -0.057558827 0.17714533 -0.10792747
0.23687734 0.029716445 -0.015095274 -0.048649542 -0.12947258 -0.037319347 -0.03867647 0.112318076
-0.03938317 0.14208518 0.098494634 -0.119812995 -0.07015789 -0.0403766 -0.12411129 -0.17487708
-0.08490769 -0.11500984 0.06924767 -0.088377126 -0.12973544 0.1524114 0.08212759 -0.008772704
0.05061381 -0.20037016 -0.048676394 -0.053678747 -0.060028877 0.025149787 0.104652576 0.03437156
-0.057020783 0.10310022 -0.056936525 -0.052149884 0.20936479 -0.040938765 -0.06277284 0.036639396
-0.002230927 0.041149806 0.07528485 -0.13560808 0.04075481 0.032976042 -0.0010726618 -0.14217538
0.021492438 -0.0378972 -0.03883913 0.050514456 -0.0067876843 -0.07548559 -0.006349532 -0.21332051
0.028493477 -0.082532816 -0.034670103 0.0045884084 0.03396705 -0.01126998 -0.09864833 0.026889144
0.023342384 0.09581593 0.059400406 0.016260317 0.0663814 -0.06342299 0.021271044 0.007552839
0.11081738 0.0101010725 0.10138201 0.011466875 -0.06634961 0.21315214 0.037553277 -0.13024458
0.03167616 0.1144618 0.09183004 -0.106311396 -0.027210023 -0.15510207 -0.022044694 -0.019470163
0.0085509 0.09712522 -0.09363982 0.022225412 0.012917067 -0.11382863 0.08634631 0.004593285
-0.17571062 0.014091349 0.07748366 -0.091030665 -0.06478425 -0.03419334 -0.044443637 -0.08600989
-0.06666656 -0.14283238 0.0027609621 -0.016989471 0.10088901 0.08889863 0.020800894 -0.0063230395
0.054700553 -0.054027133 -0.025329376 -0.03851781 -0.0010603146 0.008487197 0.049905535 0.14921205
0.07062291 -0.023215987 -0.14105709 -0.001323982 -0.013657815 -0.04990588 0.14175716 -0.0052292757
0.13176598 0.10623903 0.05740156 0.029957749 -0.11290799 0.07298816 -0.051447786 0.10243103
0.10054034 0.05568041 -0.011111635 -0.08310974 -0.067156605 0.03275373 -0.015614031 -0.09458681
-0.009296611 -0.06405783 -0.06635265 -0.029872585 -0.074793465 0.064297564 -0.021295594 0.012313992
-0.010438452 -0.036890756 0.033539146 -0.09556422 -0.08344617 -0.030103676 0.05012693 -0.025730096
0.050434023 0.13982786 -0.13937758 -0.052216053 0.104486875 -0.0037835378 5.2116724e-05 0.020771068
0.029943543 -0.026950572 0.06698779 -0.10819916 0.11177621 0.04314657 0.05651546 0.022964228
0.14006792 -0.043268543 -0.00563713 0.113642834 0.037926868 -0.118620746 0.017400444 -0.11782019
-0.06297389 -0.1157506 -7.2387047e-06 -0.06121072 0.0054873447 0.027476067 -0.077162616 -0.00670321
0.06353987 0.022908155 0.0172271 0.040861838 0.04010874 -0.033869963 -0.013310441 -0.007981989
-0.02839664 -0.0030640112 0.043267276 -0.071024574 0.039133303 0.18724872 0.049746636 -0.12939376
-0.03544885 0.012923719 0.061583772 0.007924826 0.017165702 -0.052178282 0.05300927 0.021354321
0.13565178 0.08407248 0.008171756 0.042195816 -0.060462568 0.0077887787 0.07067552 0.035580903
-0.013526618 0.043262232 0.04358204 0.024148727 -0.02983594 0.048229102 0.009878857 0.019691551
-0.07666428 -0.09314171 0.08259017 0.015143594 0.067511305 0.03654183 -0.00678189 0.061855406

l1.0.bias f4 [256]
00000000: 77a6 a93d bcac 823e 01bc 203f 3963 8dbd
00000010: 5fb2 a23d e31e 043d aeb2 fabe a5ec 043d
00000020: a336 9cbd 6eb8 043e a76f ff3e c543 8dbc
00000030: 4ebf 73be 2206 203d 10ed e9bd 8a0e 563e
00000040: 58cf 143f 6e90 f2bc 605b 53be 7d6e b13e
00000050: 07c7 4c3e 8bff c63d 2fce 333d cd7c ec3e
00000060: 4d59 e2bd b3fd 8ebe e33c 87bd 353c 403f
00000070: 866d d9bd ef94 acbe 692f 6f3e 98eb 063e
00000080: 7963 0c3f 5763 10be a380 dd3c 9a8e 62be
00000090: 8b8a e6be f408 03be 0f28 43bf 3ab6 d4bd
000000a0: 0116 79bf ba94 9cbc e211 d43d bd6e 1bbf
000000b0: 2bcd 13be b8f4 47bf 6b95 d13e e0cb ab3e
000000c0: 8dfc c73d f7cc d8be 40ae 67bd 0be4 c3be
000000d0: b78a abbe f1a2 b53e 8941 73bf a09e f5bc
000000e0: 0546 8c3c 7229 853f 774f b1be 6658 693f
000000f0: 28e4 61bd ace7 5cbf bb40 2c3f b5d8 b93e
00000100: 18b8 18bf fef7 9c3e 06b2 b93d f1bc 583e
00000110: 2978 783e 2899 ddbd e732 2bbe 25f4 af3d
00000120: d218 443e 20aa 043f 37f5 ddbd af0e 2c3d
00000130: 73f9 5f3f 344b 7ebc 1d52 8bbe 154f 843e
00000140: 8e59 42be ab64 f8be 4f17 11bf 320c d3be
00000150: 65f8 2dbf f830 88be 56d8 babe 7741 a93e
00000160: 31d6 b4be f207 e5bd 4bbb d8be fa5c 143e
00000170: 46ab 47be 82ca 98be 5180 eebd 77c1 3cbe
00000180: acd2 b6be 4d65 d33a fc5f 1dbe c815 17be
00000190: 20b5 423d 2be5 babd f8e9 ebbe 5c6c 8a3c
000001a0: a2b4 b8be deca 333e ba1b dd3d dae9 4e3f
000001b0: 537a e03e c3d9 373d 3330 bf3e bd49 ddbe
000001c0: 2b40 ecbe 6a60 c3be 950e 15bd 5d26 b53e
000001d0: 08a8 19be f5c2 4ebf b7df ecbd 1daf 2ebe
000001e0: e7ea 973e 88a7 453e 809b f33e 9fce 6b3f
000001f0: f2b6 623d e9a6 8e3e 288c 753e a3f6 47bf
00000200: 5673 d33e 157f bbbd 662d f43e 6043 bd3e
00000210: ffa7 1c3d 64ea b6be b102 bdbc 3060 873e
00000220: 2aaa 5cbf 8e14 333b 9883 cdbe e136 cbbb
00000230: 3940 77bf 1d1b 2fbe d7c0 103f 7247 3c3d
00000240: c2c2 1a3e 48ec dc3e 89db 23bd 7508 153e
00000250: 9218 fabd 521b 36bf 6457 e5be 1113 04bf
00000260: dd40 b0be a204 a2be 092a 87bd c3ac 2d3e
00000270: b848 0abb c8cc 8dbe 6b88 123d b549 01be
00000280: 5636 e03c 06e3 fbbd 5b06 0dbc a97c 46bf
00000290: c065 5ebe ddb4 9e3e 8b88 9a3e a286 59bf
000002a0: d1a6 70be 9ceb 273f 575a babd 50fb 4f3e
000002b0: a916 3abb 5da8 0cbf 7687 a63e 3f41 86bf
000002c0: f5f6 9e3c ae91 00bf a293 6abe 89db af3e
000002d0: 6797 dd3d 3d0d 6cbe 3eb5 eabe b478 b6bc
000002e0: c1cc 08bf 47af 1dbf dbb2 1a3e 8fb2 613f
000002f0: cad2 19be 204f 683f e3ef edbe 1394 ab3e
00000300: 0dcb 3a3f f9ab 4cbe 41bd 39bd be0b 3abe
00000310: a06a 4d3f 7c20 90be b579 f63e 03ff db3d
00000320: a542 8b3e c967 5d3e 02ec 06be 647e 563f
00000330: 76f9 f53e eb72 c3bc 6953 1bbf 6c9f da3e
00000340: 42a5 95be c33c 373f 3273 bebd 4931 c83e
00000350: 4e90 5f3d 539a a7be 5687 6fbe c9b7 c63e
00000360: 5b9a 9e3d ac0d 483e dece c33e 1442 16be
00000370: c190 a73e edcc 12bf aa28 293e 85c7 83bf
00000380: d628 173d 0f96 563f 513c b9bd f556 a93e
00000390: 696d dc3d dcab 7dbe b60e 0d3e d793 1ebf
000003a0: 0f6c 5fbf 1252 483e 3da4 533d 93cb 06bf
000003b0: 17df 423e 200c 533f 89de 08bd a514 0f3f
000003c0: 16b5 92be 0336 003e 00e0 4b3b 2aa7 1a3e
000003d0: ca91 f8be c211 183f 2288 dd3d c088 893f
000003e0: 7753 09bf 5e95 023e 2d65 0abe b996 4abe
000003f0: 0220 3c3f 723c cebe f42f c1bd 3957 b23c
0.08283704 0.2552241 0.6278687 -0.06903691 0.07944178 0.03225602 -0.48964447 0.032452244
-0.076276086 0.1296098 0.4988987 -0.01724423 -0.23803446 0.03906835 -0.11422169 0.20903984
0.5812888 -0.029609885 -0.20640326 0.34654608 0.19997798 0.0971671 0.043897804 0.46188965
-0.11052189 -0.27927932 -0.0660341 0.7509187 -0.10616593 -0.33707377 0.2335793 0.1317581
0.54839283 -0.14100395 0.027038878 -0.2212471 -0.45027575 -0.12796384 -0.76233 -0.103863195
-0.972992 -0.019113887 0.103549734 -0.6071585 -0.14433734 -0.78107786 0.4093431 0.33553982
0.09764967 -0.42343876 -0.056562662 -0.3825992 -0.3350427 0.35475877 -0.95021874 -0.029982865
0.017123232 1.0403273 -0.3463094 0.9115051 -0.055149227 -0.86291003 0.6728627 0.36298147
-0.59655905 0.30657953 0.090671584 0.21165825 0.24264587 -0.10820228 -0.16718636 0.08591489
0.19150093 0.5182209 -0.10837787 0.04200619 0.87490004 -0.0155208595 -0.27211085 0.25841585
-0.18979475 -0.48514304 -0.5667619 -0.41220242 -0.67957145 -0.2659986 -0.36493176 0.33057758
-0.35319665 -0.11183156 -0.42330393 0.14488593 -0.1949893 -0.29842 -0.11645568 -0.18433176
-0.35707605 0.0016128212 -0.15368646 -0.14754403 0.047536016 -0.091257416 -0.46076941 0.016897373
-0.36075312 0.17557856 0.10796304 0.8082558 0.43843326 0.044885408 0.3734146 -0.4322032
-0.46142706 -0.38159496 -0.03639086 0.3538083 -0.15005505 -0.8076623 -0.11566108 -0.17058988
0.29671404 0.1930219 0.47579575 0.92112154 0.05535025 0.27861717 0.23979247 -0.7811071
0.41298932 -0.09155098 0.47690886 0.36965466 0.03824615 -0.357257 -0.023072572 0.26440573
-0.8619715 0.0027325484 -0.4013946 -0.0062016104 -0.9658237 -0.17100187 0.5654425 0.045966573
0.15113357 0.43149018 -0.040004287 0.14554007 -0.12211718 -0.7113544 -0.44793236 -0.51591593
-0.34424487 -0.3164416 -0.065998144 0.16960435 -0.0021100473 -0.27695298 0.03577463 -0.12625773
0.02736966 -0.12299161 -0.008607472 -0.77533966 -0.21718502 0.30997363 0.301823 -0.8497106
-0.23501135 0.65593886 -0.09099262 0.20310712 -0.0028394854 -0.549444 0.32525223 -1.0488662
0.019404868 -0.5022229 -0.2290788 0.3434718 0.10819893 -0.23051925 -0.45841402 -0.022274353
-0.5343743 -0.61595577 0.1510729 0.88163084 -0.15021816 0.90745735 -0.46472082 0.3351141
0.7296608 -0.19987477 -0.045346502 -0.18168542 0.8024082 -0.28149784 0.4813973 0.10741999
0.27199283 0.21621622 -0.13175967 0.83786607 0.48041886 -0.023858508 -0.6067415 0.42699754
-0.29227644 0.7157709 -0.092993155 0.39100102 0.05458098 -0.32734928 -0.2339147 0.38812092
0.07744285 0.19536465 0.38243765 -0.14673644 0.32727626 -0.5734394 0.16519418 -1.0295264
0.03690418 0.8382272 -0.090447076 0.33074155 0.10763056 -0.2477259 0.13775143 -0.61944336
-0.8727426 0.19562557 0.0516703 -0.5265438 0.19030415 0.82440376 -0.03341535 0.55890876
-0.28653783 0.12520604 0.0031108856 0.1510283 -0.48548728 0.59402096 0.10816981 1.0744858
-0.5364298 0.12752292 -0.13515158 -0.19784059 0.7348634 -0.4028049 -0.094329745 0.021770107

l1.1.weight f4 [392, 256]
00000000: 1ffb 1e3e 132f 323e 9b31 92be f67d 05bf
00000010: bf44 dd3e 7776 9a3e ced7 b43d 7cfe dcbe
00000020: f354 5f3e fe7c 11be 106f 88be f20a 13be
00000030: fa95 fbbe 2786 153e 734d a6be c7e3 fdbc
00000040: be7f 16bd a95a 0e3e 2fa7 09be 6224 b43e
00000050: 98d5 37bd 2123 96bd 8d51 463e 8d8b 76bb
00000060: 684e 75be bee9 c93d 98a0 84be 5a77 f2be
00000070: 163f 6c3e 30e9 ae3e 1516 353e d915 1fbe
00000080: cca0 75ba 6918 86bd 6925 5dbe 3790 b93e
00000090: 153a 35be b5e0 8abe e4bd 89bd ffaf c23e
000000a0: 3bb1 643c ec29 943e 0b38 c9bd e84b 2f3d
000000b0: 6ccb b53d c616 ae3e 26ac a0be cb9a 4abe
000000c0: 340c 343d f405 c53e 0ed1 73bd 4c79 0a3e
000000d0: 89c7 de3e d46b 28be f9e5 0d3e 133a 95bb
000000e0: 3e04 573e c024 973d 8079 3f3e 7f7a 793d
000000f0: 8fca bb3e 3745 173e 468f 87be e889 1bbf
00000100: 9fc8 56be 96e8 0cbe 6a97 bcbd 1a45 51bc
00000110: 3c6c 5dbe f51c 223d 10f4 083e 8f37 083e
00000120: d34d 98be 857f 843e b8ac 9fbd 50e6 733e
00000130: fafa 96be e25f 2bbe e023 fb3d 1687 e33c
00000140: f026 7e3c 0828 a0bd 1efe c03d f566 ed3e
00000150: 3b09 dc39 3e5d 77bb 622d 263e 51a1 7a3d
00000160: cebc 4f3e 71fa b23e 35bc d8bd 48a5 fc3d
00000170: 08fe cb3e 4b3d f33c 532f 023e 09c2 2e3d
00000180: b4bd 7bbe 37b8 63be a1d8 e33e 7cfe 843d
00000190: e8ef 34be a7a3 403e 0089 423e e874 1a3d
000001a0: dfbe 0fbe dd21 91be e2e5 35bf 0347 c9be
000001b0: 5f89 d73d 686b 3abe 8e5d 98bb 598c c4bd
000001c0: 7db3 a43d 120a 3dbd 28dc 083e 4395 ec3d
000001d0: baec c23d e6b0 7f3e a3f9 cd3e 8828 c43e
000001e0: 6351 d8bd 389f b9bd 90fb 80be 53fd 93be
000001f0: 4ce2 d63e 89a7 8c3e e78b ccbe be7f 1cbd
00000200: ee89 a0be e6a2 e13e 5219 d9bd 2800 8a3d
00000210: 9c62 2c3e 7310 583e bf09 b7bd acb3 cb3b
00000220: 2db6 aa3e 588f 623e b987 dabd 6079 b83e
00000230: 26d3 a03e f1d0 663e 9d22 b3bd d76e 18be
00000240: 334f bc3e 8ff6 cebd 4010 abbc ca7b b03e
00000250: 3728 ccbd a9a9 8cbd 7f07 5d3e 7a97 d33e
00000260: e5e2 49be 2c08 bc3b e095 52be 8fa3 12be
00000270: 125c d1be 957b 1cbe 88eb 82be 0e3d fbbc
00000280: 58c2 083e 3ed1 07be 5519 9bbe 615b e43e
00000290: a092 cd3e 10c6 e7be 1c0c c7be e176 9dbb
000002a0: ff44 1abe de0b 593d 58ab 8e3d 980a b73d
000002b0: 5738 053e af9e f6bd 427a a9be a828 d53e
000002c0: 22a0 18bc 1c43 b13c ac69 9d3e 5907 8b3d
000002d0: e18d 1bbe e2b4 f4bd 70d4 dbbd fc90 8cbe
000002e0: 8bbe 60be cc14 b83e f11b 623e 2013 25bf
000002f0: b1ae bd3e f5b1 ccbd 6638 a83e c2e5 60bd
00000300: fef9 03bf 4986 c8be 7c10 2c3e 8f94 3cbd
00000310: 1831 f0be b413 5bbe e5f9 403e ffe0 b9bd
00000320: c096 7c3e 7162 9e3d 58e2 053d fd4e ee3b
00000330: aeb7 e6bd ed37 c13e 4f6e a13d 367c c8be
00000340: 0df8 953e cb05 9dbb abfc 5fbe 8d46 eb3d
00000350: 972f 6e3e 7ad2 9d3e 6dd0 b0be 72ea 9dbd
00000360: 5687 283e 39ea b7bb 1861 323e 032a f03d
00000370: 2a18 6fbe 16d6 be3d bcac d13d 8348 653e
00000380: 2f0d 443e bfc3 e9bd 0788 b4bd 5b00 223e
00000390: 46b6 893d 49de 9fbd cdec 0a3e 62e1 143f
000003a0: 4f53 593d d731 04be 9dab 903e 9d6d 1d3f
000003b0: b08c d9be 6d43 633c 370c 963e 6686 f6be
000003c0: 41db d03d 9513 cdbe cb7b 103f 7377 063f
000003d0: 1502 013f 049f 8cbe 97d1 7c3e 628e ccbe
000003e0: 7827 953e 3e2f 03bf c142 353e 7595 59be
000003f0: cba2 85bd 551e 663e 2bdb 8d3e acbc 813e
0.15525483 0.1740077 -0.2855347 -0.52145326 0.43216512 0.30168507 0.08830224 -0.43162906
0.2180975 -0.14207837 -0.26647234 -0.14359644 -0.4913786 0.14601956 -0.32480964 -0.030992402
-0.03674292 0.13901772 -0.13442682 0.35184008 -0.044881433 -0.07330919 0.19367047 -0.00376198
-0.23955691 0.09859036 -0.25903773 -0.47356683 0.2307094 0.34162283 0.17684205 -0.15535678
-0.0009369969 -0.065476246 -0.21596302 0.3624284 -0.17697938 -0.27124563 -0.06725672 0.380249
0.013958271 0.28938234 -0.098251425 0.042797 0.0887669 0.3400175 -0.3138134 -0.19785611
0.04395695 0.38481104 -0.059525542 0.13522834 0.43511608 -0.16447383 0.13857259 -0.004554042
0.20997712 0.073800564 0.18698692 0.060907837 0.36677977 0.14772497 -0.26476496 -0.60757303
-0.20974968 -0.137606 -0.092085674 -0.012772823 -0.2162332 0.039578397 0.13374352 0.13302444
-0.29746875 0.2587854 -0.07796615 0.23818326 -0.29488355 -0.16735795 0.12262702 0.027774375
0.015512213 -0.07820135 0.09423469 0.46367612 0.00041968547 -0.0037744786 0.1622825 0.061189
0.20286867 0.34956697 -0.10582773 0.123362124 0.39842248 0.029692313 0.12713365 0.042665515
-0.24584085 -0.22238241 0.44501212 0.064938515 -0.17669642 0.18812428 0.18997574 0.037709147
-0.14037655 -0.28346148 -0.710539 -0.3931199 0.10524248 -0.18205035 -0.0046498245 -0.09597082
0.08042047 -0.046152182 0.13365233 0.11551907 0.09517808 0.24969825 0.4022952 0.38312173
-0.10562398 -0.09063572 -0.25191927 -0.2890421 0.41969526 0.2747157 -0.39950487 -0.038207762
-0.31355232 0.44069594 -0.106005326 0.06738311 0.16834491 0.21100025 -0.08937406 0.006216487
0.33342114 0.22124994 -0.10670418 0.36030102 0.31411093 0.22540642 -0.08746836 -0.14886032
0.36779174 -0.10105621 -0.020881772 0.34469444 -0.09968608 -0.068682976 0.21584891 0.41326505
-0.1971546 0.005738279 -0.20564985 -0.14320205 -0.40890557 -0.15281518 -0.2557032 -0.030668762
0.13355386 -0.13263413 -0.30292764 0.44600967 0.40150928 -0.45268297 -0.38876426 -0.0048054312
-0.15065382 0.052989833 0.06966275 0.089375675 0.13009773 -0.12041985 -0.33101088 0.4163258
-0.009315522 0.021638446 0.30744684 0.06788511 -0.15190841 -0.11948563 -0.107338786 -0.27454364
-0.21947686 0.35953367 0.22080971 -0.6448231 0.3704734 -0.0999488 0.3285553 -0.054906614
-0.5155333 -0.3916495 0.16803163 -0.046040114 -0.46912456 -0.21394235 0.18845327 -0.09076118
0.24666882 0.0773362 0.03268656 0.0072725997 -0.11265503 0.3773798 0.07882368 -0.39157265
0.2929081 -0.0047919503 -0.21873729 0.11488066 0.23260342 0.30824643 -0.34534016 -0.077107325
0.16457877 -0.0056126383 0.17419851 0.11726763 -0.23349062 0.093181774 0.102380246 0.22390942
0.19145654 -0.11414289 -0.08815008 0.15820448 0.06724219 -0.078060694 0.13566895 0.58156407
0.053057965 -0.12909637 0.2825593 0.6149538 -0.4249015 0.013871056 0.29306194 -0.48149413
0.10198069 -0.40054002 0.56438893 0.52526015 0.503938 -0.2746507 0.24689327 -0.3995238
0.29131675 -0.5124396 0.17701246 -0.2124842 -0.06525191 0.22472508 0.27706274 0.25339258

l1.1.bias f4 [392]
00000000: 966b 0ebe b4b6 cdbe 45f1 ecbe 9f50 e6be
00000010: 94fe 0ebe 7e33 dabe 18a0 15be 39b1 79be
00000020: 1ba6 ccbe 4e24 72be 3d7d 00be 4491 ce3d
00000030: 3152 8e3e d946 f7bd 1957 09bf 76db d1be
00000040: a930 fc3c 74c3 da3d 455a 7f3e 828e 713e
00000050: 6917 7dbe 72a9 60bf 8d70 a3bd 9295 483e
00000060: 3be9 a7bd db4e d63d e59f b83e 9e0c 1c3d
00000070: 566e c93c 114a 1c3e 8e81 c83e 7668 acbd
00000080: c16c f6b9 de3b 043f eb74 ea3d bb82 413e
00000090: 3190 1fbe 60f9 ca3e f37b 243e e7ed 253f
000000a0: 83e9 e43e 961a 2ebe 3345 ccbc c270 2ebe
000000b0: c803 273d e67a 0f3f 2467 e23e 6677 0d3e
000000c0: dbf0 0dbf 5888 52be f72e 81bd 7aca 31be
000000d0: 5956 92be 6089 3dbe 241c f4bd eb5b 1cbf
000000e0: 8e7a 37bf 7860 a2be 046e 083e d71c cebd
000000f0: 361c adbc 7ba6 a2be f766 33bf 4481 afbd
00000100: 7eba 2d3e ac90 6ebe ad36 80be 8a4d 9fbd
00000110: 3ace a6be d3ca 0abf 447b 2f3d ea38 473e
00000120: 0deb 82be a868 33bf 6dbd c6bd 26ff b2be
00000130: c18b 10bf 2d3f 843c a2d0 86bd b0ee 91be
00000140: 25cb 0e3e 8a1a 4cbe bc85 03bf 0934 eebe
00000150: 0b22 853d 4346 0cbf f731 f1be a256 c1be
00000160: 9368 f3be ea2d 81bf 8c2b 9fbe 6336 3cbe
00000170: 17f7 8bbe da76 11bf 4c49 70bf 520e 34bf
00000180: f05c 303e 2c04 8bbf a7b6 8f3f 2441 373f
00000190: cfec a93e 17d4 8a3e f160 f43e d728 253f
000001a0: 180e 2c3f 03d8 133f e1d5 203d 3f7e 13bf
000001b0: 2801 04bf 849f e9be 58fd 8c3d 6c87 f03e
000001c0: 8128 de3e c5e2 14be ee0f 22bf cb1c d2be
000001d0: be4c a4be ca2f 3dbe 63ef bb3e 55b3 373f
000001e0: 8eeb 74be 91ec 74be 044a ffbd cf49 b7be
000001f0: fe13 55be f9f9 9b3e 7a99 203f 7f12 9ebe
00000200: 78f5 4abe a594 b3bd 9b9b 10bf 9bab 86bd
00000210: e30a e93e 9910 8b3f 4ed6 b03d 79d2 debe
00000220: b5c0 dfbe 809b 1cbe d917 9e3e 1090 043f
00000230: 7272 303f dba2 fd3e 5d45 fc3e 7f49 da3e
00000240: fa7c 093f 2462 4a3f 81c2 ea3e 0036 583d
00000250: 9d3c 13be c168 7bbe fec6 053e ed00 a93e
00000260: da0c e93e f3c3 c3bd b4c5 2a3e 51e5 573e
00000270: 9778 0f3d 17d5 dcbc 451c 563d e4c5 3abe
00000280: 02cf a2bd f2d5 bfbe 75f2 653e 71e8 793c
00000290: 367e 96bb 4b03 8a3e e1b5 07bd 1691 3e3e
000002a0: 5f1b 043e 78e2 3e3d e957 2f3e 8a07 47be
000002b0: 8312 483e fb99 6dbd 9cb6 d2bd 58ef ea3c
000002c0: 6a0b 973e da0b d03d 9831 c73e fa3d ac3e
000002d0: 4be0 85bd 503d 0e3e 60ba 9ebe bf26 24bd
000002e0: cf83 1a3e 6419 e43e 6d85 673d f144 6cbd
000002f0: 4bef ba3c 40e4 5abd 1bf6 2b3e 509b 7a3d
00000300: 6f63 59be bc80 a0be 386e 2fbe fbbd 893d
00000310: c6a3 fbbe eeb7 79be 4298 5b3d 1e28 1e3e
00000320: 791d 87be 5d51 dfbe e382 8ebf f583 fcbe
00000330: 5424 e6bd f5d2 b23e 0c32 aa3e 62ff 943e
00000340: 59eb bfbe b1a4 5ebe 8afe 23be 3e72 973e
00000350: 4204 043f 6c3b 993e 0db6 193f 26a5 fa3d
00000360: b904 2abf 8391 66bd 4c8e 863e 31d8 1e3e
00000370: 2b7e f43e da27 123f ad8a a43d 7100 01bf
00000380: 0ef0 d8bd a26c 3b3d cf54 8f3e 9ce2 113f
00000390: bf24 b73e 17ae f93b c893 d9be 9eaa 4abe
000003a0: f104 163e 9536 3d3e 51a7 4f3e e4ca 213e
000003b0: 3e23 f2bd 2103 54bf f44b 12bf 5a67 b3be
000003c0: 1dcf afbe 82a4 283d fecb 59be 51a3 373d
000003d0: 617c 51be b226 ad3e 09d6 5c3e a314 e63e
000003e0: 8e17 433f ba7e bf3d 27fd aebe 0b3c 5e3e
000003f0: 5822 9fbc 482e ff3e 6e1f 6b3e 2a15 e5bc
-0.13908228 -0.40178454 -0.46277824 -0.44983384 -0.13964301 -0.4261741 -0.14611852 -0.24384011
-0.39970478 -0.23646662 -0.12547775 0.10086301 0.27797082 -0.1207406 -0.53648525 -0.40987748
0.030784922 0.10681811 0.24936779 0.23589519 -0.24715962 -0.87758553 -0.07980452 0.19588307
-0.08198782 0.10464259 0.3605949 0.03809797 0.024588745 0.15262629 0.39161342 -0.08418362
-0.00047001804 0.5165385 0.114480816 0.18897526 -0.15582348 0.39643383 0.16062908 0.64816135
0.44709405 -0.17002329 -0.02493534 -0.17035201 0.04077509 0.56046903 0.44219315 0.13815078
-0.5544564 -0.20559824 -0.06307786 -0.17362395 -0.28581503 -0.18509436 -0.1191943 -0.61077756
-0.7167138 -0.31714225 0.13323218 -0.100640945 -0.021131616 -0.3176764 -0.70078987 -0.08569577
0.16965672 -0.23297375 -0.25041714 -0.07778461 -0.32579213 -0.54215735 0.042842165 0.19455305
-0.25569955 -0.7008157 -0.09704099 -0.34960288 -0.5646325 0.016143406 -0.06582762 -0.28502417
0.13944681 -0.19931999 -0.5137594 -0.46524075 0.06500634 -0.5479471 -0.47108433 -0.37761408
-0.4754072 -1.0092137 -0.3108791 -0.18380122 -0.27336952 -0.5682198 -0.9386184 -0.7033435
0.17222953 -1.0860648 1.1227616 0.7158377 0.33188483 0.27114937 0.4773021 0.6451544
0.67209005 0.5775148 0.03926647 -0.5761451 -0.51564264 -0.45629513 0.06884259 0.4697832
0.43390277 -0.1453963 -0.63305557 -0.41037592 -0.320898 -0.18475261 0.36706075 0.71758014
-0.23917982 -0.23918368 -0.12465289 -0.357985 -0.20808408 0.30464152 0.62734187 -0.30873486
-0.19820201 -0.08768586 -0.56487435 -0.065757 0.45516118 1.086444 0.086346254 -0.43519953
-0.4370171 -0.15293694 0.3087757 0.5178232 0.6892463 0.4953831 0.4927167 0.42634198
0.53706324 0.79056 0.4585152 0.052785873 -0.14378591 -0.24551679 0.13064191 0.3300852
0.45517617 -0.09558859 0.1667698 0.21083571 0.035027113 -0.026957078 0.052273054 -0.18239552
-0.0794964 -0.37467915 0.22455771 0.015253172 -0.0045926822 0.26955637 -0.033132438 0.18610033
0.12901066 0.046602696 0.17123379 -0.1943647 0.19538312 -0.058008175 -0.10288736 0.028678581
0.29500896 0.101585105 0.38905025 0.33641034 -0.06536921 0.13890576 -0.31001568 -0.040076014
0.15089343 0.44550622 0.05652373 -0.057682935 0.022819182 -0.053440332 0.167931 0.061183274
-0.21229337 -0.31348217 -0.17131889 0.06725689 -0.49148387 -0.2438657 0.053612 0.15444991
-0.26389673 -0.43616763 -1.1133693 -0.49319425 -0.11237398 0.34926572 0.33241308 0.29101092
-0.37484244 -0.21742512 -0.16015068 0.29579347 0.51568997 0.29928148 0.6004341 0.12238531
-0.66413456 -0.056291115 0.2628044 0.15512158 0.4775251 0.5709206 0.08034263 -0.503913
-0.10592662 0.045757897 0.2799439 0.56986403 0.35770223 0.00761963 -0.4249556 -0.19791648
0.14650322 0.18477853 0.2027867 0.15800053 -0.11823128 -0.82817274 -0.57147145 -0.35039788
-0.34337702 0.041172512 -0.21269223 0.044833485 -0.20457603 0.33818585 0.21566023 0.4493762
0.76207817 0.09350343 -0.34177515 0.21702592 -0.019425556 0.49839997 0.22961208 -0.027964193

conv_blocks.1.weight f4 [4, 8, 3, 3]
00000000: 695a 8d3d 03f2 063d e9a1 34bd 27e6 183d
00000010: ec9a 8a3d 94aa 9ebd c87f 523e 1e1a cd3d
00000020: 2a60 7abd 8e7c 0ebe 9264 173e c98e e6bd
00000030: 6429 163c 8be7 c0bd 610e a3bd e027 06be
00000040: 7f7f adbd 29e9 f63d 5033 763d cd14 513d
00000050: 0143 8b3e c126 223e 3293 7d3e 66ad f93e
00000060: a9af 21be ba39 793e 3df9 363e 110e c43d
00000070: 929f 87bd 4b79 413e 2c33 a6be 958d 38be
00000080: 9bb6 8cbe c736 3a3d 37e4 0c3c 04a9 263e
00000090: 1fd1 0fbc 32fa 53be 0e45 02be bcb9 f33d
000000a0: 3227 dcba b6ee 223e f138 b03e 9b78 23be
000000b0: e0ad c53d 5e8c 9ebd 4e45 b3bd 74b8 08bd
000000c0: 59d7 7fbd 983c 96be 23ff 93bd 5060 b8be
000000d0: 0b51 aabe 1943 243e 4d56 4d39 03ed 29be
000000e0: 0d68 53bd 7f01 053e 8587 a0be 44ba bf3d
000000f0: b36d b4bc 1d18 72be c7aa 82bc 9e4f e13c
00000100: 8609 2abd a346 ac3c 3662 cbbc e393 0abe
00000110: 6097 3bbe 2c17 f53d 5adf 4b3e 7a52 b7bd
00000120: 1025 61be 85a6 38be 353c 96bc 8bd7 2f3d
00000130: 4ccf 6ebd a45c 1fbb 2747 72bd 4348 083c
00000140: a86f e13d c5eb e9bd 142d 81bd 8b61 c0bc
00000150: 71e1 ae3c 3961 d23d 8086 0bbd 4f90 aebd
00000160: 378a 34be df69 6cbd 58bd d0bc bfce 81bc
00000170: b724 4abd b4ea dabd 11c2 24be df6e 8ebe
00000180: 9b5a b33d 2a10 3dbe 989a f33d 1919 ebbd
00000190: 8fb2 a03d acd0 e2bb 421d d8bc 7a6a 093e
000001a0: 81f0 aebd bba4 87bc 0d36 60bc 5d11 273d
000001b0: 55f0 023e 78bb 6b3e 05a7 823c c6e3 a9bd
000001c0: fd40 043e a2c7 a43c 3469 e53b 0834 8abd
000001d0: d8cf 093e 00d7 093d be72 043e a2be 7cbd
000001e0: 94a3 cb3d 9234 03be c1f0 e1bd 31f7 0c3e
000001f0: 5d68 953c 32c2 94bd dfaf 8e3c 71e8 78bb
00000200: 490e 28bd d7a8 43be 909d 6f3e d09e ea3d
00000210: 9a05 80bd 4b59 333b aecb 1b3d 756d 343d
00000220: ffcb fb3d 1349 7e3b 6c76 48bd 7239 34bd
00000230: 87b1 9a3e f2eb 7fba cc4a 0c3d bb76 353e
00000240: 34b6 2fbd f635 11be d962 193e 38d8 7a3e
00000250: 8c68 46bc 66db 593d bf4f aebe 475b 0dbe
00000260: d0f9 83be fa1c 9abe efc3 85be 65e0 3dbe
00000270: b732 88bd 653a 0fbf 0a0b 1f3e 45cc babd
00000280: 5bc8 403c d856 e63c 5e3f 223e d2cb 8d3e
00000290: 4851 3dbd 7796 0a3e adfa 4a3e 74e7 43be
000002a0: 14ff ad3d 78cf 89ba 4760 35be 43cd 96bd
000002b0: 458d 3d3e b61d 22be 1968 abbe 8d52 c73d
000002c0: 261c cc3e dd6b c43d 4561 24be 5c60 f73d
000002d0: 0874 13bf c458 6cbd cf01 0d3e f8c1 b0be
000002e0: 944d d4bd 0599 a53c 77d6 51be 0035 8a3d
000002f0: 9986 2cbd 1846 e0bd bc3e bfbe e4fc e03d
00000300: 642f a23d a7df c93e 8a1c 7dbd 5638 2fbd
00000310: 9462 31bd 75e6 2dbe 9472 72bd 1808 b13e
00000320: 616b ec3c f045 67bd b5f4 fe3e d836 6cbd
00000330: febe 3abe 005e c13e 435d ca3d 6511 dc3d
00000340: b65d 34bd b9cb 4b3e e25f b0bd 3c08 acbd
00000350: b7a5 13be b0b9 1abe 295a f5be 57d7 fd3d
00000360: ac86 5dbe fd58 cdbe 05c8 69be 9c36 3cbe
00000370: f2cd 82be a4bc 35be 0473 123d edb7 48bc
00000380: ffb2 e7bc ee27 bdbd 7e04 5fbd 0d41 fc3b
00000390: 82c0 7c3d 8545 533e 1d86 9b3e 5647 32bd
000003a0: 9753 a03e 2a38 933c a934 b33d bf92 6d3d
000003b0: 6f06 b0bc fa5b da3c 4557 2d3d c8f1 bebc
000003c0: efa1 b5bd 68b7 2a3d c6a4 18be 10b4 b2bc
000003d0: 2612 31bd 4408 cfbd 54a1 02be 30b6 023e
000003e0: f430 bc3d 46e2 853d 53a4 113e a65f 17bd
000003f0: e0c1 3ebb 6b1e 7b3e 30a6 163e cf18 273e
0.0690201 0.032945644 -0.044099722 0.037328865 0.0676783 -0.07747379 0.20556557 0.10014747
-0.061126865 -0.13914701 0.14784458 -0.11257703 0.009165142 -0.09419163 -0.07961727 -0.13101149
-0.084715836 0.120561905 0.06010753 0.051045228 0.27199557 0.15835096 0.24763182 0.48765105
-0.15789665 0.24338427 0.17868514 0.095729955 -0.066222325 0.18893926 -0.32460916 -0.1802276
-0.27483067 0.045462396 0.0085993325 0.16275412 -0.008777886 -0.2070091 -0.12721655 0.119006604
-0.0016796349 0.15911373 0.34418443 -0.15963976 0.09652305 -0.07741617 -0.08753453 -0.033379033
-0.06246123 -0.29343104 -0.07226398 -0.3601098 -0.33264956 0.1604122 0.00019582473 -0.16594319
-0.051612902 0.12988852 -0.31353393 0.09361699 -0.022024965 -0.23642011 -0.015950574 0.027503785
-0.04151299 0.021029776 -0.024827104 -0.13532977 -0.18319464 0.1196731 0.1990942 -0.08951278
-0.21986794 -0.18032272 -0.018339256 0.042930167 -0.058303162 -0.0024316693 -0.059149887 0.00831801
0.11007625 -0.114219226 -0.06307426 -0.023484012 0.021347733 0.1027245 -0.034063816 -0.085236184
-0.1763085 -0.057718154 -0.025480911 -0.015845655 -0.04935142 -0.10689297 -0.16089655 -0.27818963
0.08757516 -0.18463197 0.11894721 -0.114793964 0.07846557 -0.0069218483 -0.026381139 0.13419524
-0.08541966 -0.016558042 -0.013684762 0.040788043 0.12786992 0.23020732 0.015948782 -0.082953975
0.12915416 0.020114724 0.0070010666 -0.067482054 0.13458192 0.033652306 0.12934396 -0.06170524
0.099433094 -0.12813023 -0.11032248 0.13766171 0.01823824 -0.07263602 0.017417846 -0.0037980343
-0.04102925 -0.19107376 0.23399949 0.11456072 -0.062510684 0.0027366455 0.03803604 0.0440497
0.122947685 0.003880088 -0.04894106 -0.044000097 0.30213568 -0.00097626366 0.03425102 0.17721073
-0.04289837 -0.1418074 0.14979114 0.24496543 -0.012109887 0.05318775 -0.34045216 -0.13804351
-0.2577653 -0.30100232 -0.26126048 -0.18542631 -0.06650298 -0.5594848 0.15531555 -0.091209926
0.0117665185 0.028117582 0.15844485 0.27694565 -0.046220094 0.1353396 0.19822188 -0.19131261
0.08495918 -0.0010514101 -0.17712508 -0.07363369 0.18510921 -0.15831646 -0.33477858 0.09732542
0.39865226 0.09590886 -0.1605273 0.12078926 -0.57598925 -0.05770184 0.13770221 -0.34522986
-0.10366359 0.020214567 -0.20491968 0.0674839 -0.04212055 -0.10950869 -0.3735255 0.10985735
0.07919195 0.39428446 -0.061794795 -0.042778336 -0.043306902 -0.16982444 -0.0591913 0.34576488
0.028859796 -0.056463182 0.49796072 -0.05766949 -0.1823692 0.3776703 0.098810695 0.10745505
-0.044034682 0.19901933 -0.08612038 -0.08400008 -0.14418684 -0.15109897 -0.4792035 0.123945884
-0.21633404 -0.40106955 -0.22830208 -0.18380207 -0.2554775 -0.17747742 0.03575422 -0.012250883
-0.028283594 -0.092361316 -0.054447643 0.0076981843 0.061707027 0.20631988 0.30375758 -0.043525063
0.31313774 0.017971117 0.087502785 0.058001276 -0.021487443 0.026655186 0.042319555 -0.02330865
-0.08868777 0.041678816 -0.14906606 -0.021814376 -0.0432302 -0.101089984 -0.12756854 0.12764812
0.091890246 0.06537299 0.14222841 -0.03695645 -0.0029107258 0.24523322 0.14711833 0.16318057

conv_blocks.1.bias f4 [4]
00000000: fa98 0c3d aee3 ba3f 2ec0 47be e4bd 15bf
0.034325577 1.4600732 -0.19506904 -0.58492875

conv_blocks.4.weight f4 [1, 4, 3, 3]
00000000: f745 2f3b e055 07bd d151 d2bd 35c7 503c
00000010: 1dc7 65bd ffb3 9cbd b202 14bd 41a5 8fbc
00000020: f07c 6e3d 0f4c 9ebc a0fd d2bb 661f 5bbd
00000030: 205c b53d d9b1 133e 76b0 53bc edb3 c53d
00000040: e3fe 043e cd6c 293d c3de b4bd 8398 bf3b
00000050: b919 81bd 66c8 dbbd 29ee 40be e865 1a38
00000060: 00df 85bc b597 05be d408 c4bb 850b f73c
00000070: 129e a7bd 9e9f 70bd 56f6 8cbd 62f8 f0bd
00000080: 2be9 c7bc b31e 7fbd 8fe5 22bd 352d 3a3c
0.0026744583 -0.03304088 -0.102695115 0.012742807 -0.056098092 -0.07651519 -0.036135383 -0.017534854
0.05822462 -0.019323377 -0.006438926 -0.05349674 0.08855462 0.14423312 -0.01292049 0.09653459
0.12987857 0.041363526 -0.08831551 0.0058470382 -0.06303734 -0.10731582 -0.18840851 3.681137e-05
-0.016341686 -0.13046153 -0.0059824977 0.03015686 -0.081844464 -0.058745973 -0.06882922 -0.11766125
-0.024403175 -0.062285136 -0.039769705 0.011363317
