rl_cartpole/policy_net0222_adam_lr2e-05.pth (torch_old, 687773 bytes, 22 tensors)

conv1.weight f4 [16, 1, 5, 5]
0	0xbdd75d87	-0.10515886
1	0x3b0d2ce5	0.0021541652
2	0xbe5cc53e	-0.21559617
3	0xbe26cc43	-0.16288857
4	0x3e0da27f	0.13831519
5	0x3cfaee91	0.030631335
6	0xbb98f01e	-0.004667296
7	0x3e0a02e9	0.13477673
8	0x3d8a7f66	0.067625806
9	0xbd38e591	-0.045140807
10	0xbd2ed2d4	-0.04268153
11	0xbe2c32ab	-0.16816203
12	0xbdfb00cc	-0.12256011
13	0xbe2654ba	-0.16243258
14	0x3d161aba	0.036646582
15	0x3def5d4b	0.11687716
16	0x3d7729e3	0.06034268
17	0x3cf31d93	0.029677188
18	0xbe149e37	-0.14513479
19	0x3db1dd79	0.08684821
20	0x3e525fda	0.20544377
21	0x3e1ed1cb	0.15509717
22	0xbd0399f9	-0.03212926
23	0xbe1d6315	-0.15369828
24	0xbdb674b7	-0.0890898
25	0xbdf90efd	-0.12161062
26	0xbe26259d	-0.16225286
27	0xbda72f5c	-0.0816333
28	0xbe2a2460	-0.16615438
29	0x3decf5fa	0.11570354
30	0xbd780222	-0.06054891
31	0xbe094a9a	-0.13407364
32	0xbe2624f3	-0.16225033
33	0xbc5c1ffa	-0.013435358
34	0x3d080fe2	0.033218272
35	0xbd883b0b	-0.066518866
36	0x3e1162db	0.14197867
37	0x3da07b42	0.078360096
38	0x3dc212ff	0.094762795
39	0xbc977f5e	-0.01849335
40	0x3d4725a2	0.048619874
41	0xbc82c05c	-0.015960865
42	0x3e0d0357	0.13770805
43	0xbd6e96e2	-0.05824936
44	0xbd146ccf	-0.03623658
45	0x3c07891a	0.008272434
46	0xbd80ae80	-0.06283283
47	0xbc9fca1d	-0.019505555
48	0xbe0f26ce	-0.13979647
49	0xbe02487a	-0.1272296
50	0xbe45519e	-0.19269416
51	0x3cd2b29b	0.025719931
52	0x3de9dd33	0.114191435
53	0x3e29c8c6	0.16580495
54	0x3e525aba	0.20542422
55	0xbcc24118	-0.02371268
56	0xbe33de8d	-0.17565365
57	0xbdabd2b6	-0.08389799
58	0xbe1a0fd7	-0.15045105
59	0xbe066ca0	-0.13127375
60	0xbdd9b56d	-0.10630307
61	0x3e1ac1e0	0.1511302
62	0xbd373319	-0.044726465
63	0xbdfec450	-0.124397874
64	0x3dc87c16	0.097892925
65	0x3dc8e3e4	0.09809092
66	0x3de32929	0.11091835
67	0xbe508b9f	-0.20365761
68	0xbd75400d	-0.059875537
69	0xbdce860f	-0.100841634
70	0x3e3262f7	0.17420565
71	0x3d57e93b	0.05271266
72	0x3e22392f	0.15842126
73	0xbd746145	-0.059663076
74	0x3d2e125f	0.04249799
75	0x3e107344	0.1410647
76	0xbd1f0256	-0.038820587
77	0xbe55e13e	-0.20886704
78	0x3dce1b83	0.10063841
79	0x3e19c7d4	0.15017635
80	0x3e32d447	0.1746379
81	0xbe32b1a5	-0.17450579
82	0xbe0e5632	-0.13900068
83	0x3e0122d5	0.12610944
84	0xbddf1426	-0.10892515
85	0xbdd535e1	-0.10410667
86	0xbe085ca0	-0.13316584
87	0xbe3d0dc5	-0.18462284
88	0xbdd52f1e	-0.104093775
89	0xbe006b1f	-0.12540863
90	0xbd8934ce	-0.06699525
91	0x3e272a82	0.16324809
92	0x3e0b3b5d	0.13596864
93	0x3deac52f	0.11463391
94	0x3e40eb35	0.18839724
95	0xbd98e64b	-0.074658
96	0x3c3a0991	0.01135482
97	0x3dde1c85	0.108452834
98	0x3dfc498f	0.12318718
99	0x3b15d87f	0.0022864637
100	0x3e2bbf96	0.16772303
101	0x3de7ec9f	0.11324429
102	0x3ad48667	0.0016214371
103	0x3e2005b8	0.15627182
104	0xbe12c0f6	-0.14331421
105	0xb98b8de0	-0.0002661785
106	0xbdb6f9d8	-0.08934373
107	0x3c45eaf5	0.012079944
108	0x3e4a5bdf	0.19761609
109	0xbe01e17b	-0.1268367
110	0x3e416c08	0.18888867
111	0xbbf9dd78	-0.007625278
112	0x3d9b4ad8	0.07582635
113	0xbe38e989	-0.18057837
114	0x3c617ccb	0.013762663
115	0xbe616b58	-0.22013605
116	0xbd9decc3	-0.07711174
117	0xbe294a7a	-0.16532317
118	0xbdbd71cc	-0.09250221
119	0x3ddadded	0.1068686
120	0xbde555b6	-0.11197989
121	0x3db5ec68	0.088829815
122	0x3d4b0f0f	0.049574908
123	0xbd59d8a0	-0.053185105
124	0x3d603c39	0.054744933
125	0xbc819821	-0.015819611
126	0x3e001813	0.12509184
127	0xbe4f5f1b	-0.20251124
128	0x3e2cf699	0.16890945
129	0x3d1c31d3	0.038133454
130	0x3e11e4e1	0.14247467
131	0xbd38216b	-0.044953745
132	0xbd23ae28	-0.03996101
133	0x3c8dc40e	0.0173054
134	0x3de09cf5	0.10967437
135	0xbc0f9ad0	-0.0087649375
136	0xbd9f1785	-0.07768158
137	0xbc407b34	-0.011748124
138	0x3e118e44	0.14214426
139	0x3e45ace9	0.19304241
140	0x3d7c0e83	0.061537277
141	0x3e1afae6	0.15134773
142	0xbd9e7f40	-0.07739115
143	0xbd99687e	-0.074906334
144	0xbd6c8f37	-0.057753768
145	0x3e0a4ad3	0.13505106
146	0xbd8d3c37	-0.06896251
147	0x3c102765	0.008798455
148	0xbd842152	-0.06451668
149	0xbde24bd4	-0.11049619
150	0xbe3d9fcb	-0.18517987
151	0xbdc1cba0	-0.094626665
152	0x3df92417	0.12165087
153	0x3cf74c88	0.03018786
154	0x3e53f894	0.20700294
155	0x3e12bf56	0.14330801
156	0x3e11f2b4	0.1425274
157	0x3e3b1523	0.18269782
158	0x3e0c1d27	0.13682996
159	0x3a45b81e	0.0007542389
160	0xbe0f2444	-0.13978678
161	0xbb9fd48e	-0.0048776334
162	0xbe00f391	-0.12592913
163	0x3d24c08f	0.0402227
164	0xbe2c45c5	-0.1682349
165	0xbdc50ec6	-0.096219584
166	0xbcd94249	-0.026520865
167	0x3d5895b0	0.052877128
168	0x3db503ad	0.08838592
169	0xbe21d4bb	-0.15803806
170	0x3e2b353b	0.16719525
171	0xbd21367f	-0.039358612
172	0xbc6f159e	-0.014592556
173	0xbc63db37	-0.013907245
174	0xbdccdef1	-0.1000346
175	0x3e0067f7	0.1253966
176	0x3d9d334e	0.07675801
177	0x3e51df9f	0.20495461
178	0x3d157a56	0.03649362
179	0xbcdcdaac	-0.02695974
180	0xbd953a4a	-0.072865084
181	0x3e2e07ed	0.16995211
182	0x3da1ef12	0.07906927
183	0xbdde7817	-0.10862749
184	0x3c8c98d4	0.017162718
185	0xbb0d5736	-0.0021566874
186	0x3d9e5d08	0.07732588
187	0x3d36992c	0.04457967
188	0xbe325ed0	-0.1741898
189	0xbd75e623	-0.06003393
190	0x3dd4aa0b	0.103839956
191	0x3d94f1be	0.07272671
192	0x3d5b34d2	0.05351717
193	0xbe15cdff	-0.14629363
194	0xbc007198	-0.007839583
195	0xbca9b48d	-0.020715976
196	0xbdb6aff7	-0.089202814
197	0xbdc0e4a6	-0.09418611
198	0xbd26f0ac	-0.040756866
199	0xbe24f044	-0.16107279
200	0xbd884266	-0.066532895
201	0x3e1fb508	0.15596402
202	0xbdd801d9	-0.105472274
203	0x3be0b239	0.0068571833
204	0xbe0b8738	-0.136258
205	0x3e1b89e9	0.15189327
206	0xbddb4717	-0.10706919
207	0xbe20a130	-0.15686488
208	0x3d00216a	0.031281866
209	0x3d454a09	0.04816631
210	0xbd45eeae	-0.048323326
211	0xbe46c651	-0.19411589
212	0x3e0465cb	0.12929456
213	0x3ad2bb9b	0.0016077639
214	0x3e1f28c7	0.15542899
215	0x3e0dc894	0.13846046
216	0xbcbff1ac	-0.023430668
217	0x3e2eb0a5	0.17059572
218	0x3e2c87d2	0.16848686
219	0x3e015161	0.126287
220	0xbdf97da6	-0.12182169
221	0x3e1b7db0	0.15184665
222	0xbca9a552	-0.020708714
223	0xbcad52cb	-0.021157643
224	0x3d9cfec5	0.07665781
225	0x3d0f143c	0.034931406
226	0xbd4e4c65	-0.050365824
227	0x3e2e676f	0.17031644
228	0xbd44d0ac	-0.048050568
229	0xbd31b27a	-0.0433831
230	0x3cfa90e6	0.030586671
231	0x3b4527fd	0.003008365
232	0x3dce0813	0.10060134
233	0x3e0a0d20	0.1348157
234	0xbd86bd96	-0.065791294
235	0xbdb0227e	-0.08600329
236	0xbe503943	-0.20334344
237	0xbd8d3d0d	-0.0689641
238	0xbc527dc3	-0.012847367
239	0x3e291573	0.16512088
240	0x3d8274fd	0.0636997
241	0x3d21b915	0.03948315
242	0x3e09a210	0.13440728
243	0x3e1df2f8	0.15424716
244	0xbd8d21d0	-0.06891215
245	0xbe4e3210	-0.20136285
246	0x3d8982ce	0.06714402
247	0xbdef5cd9	-0.11687631
248	0x3d5a2ef8	0.05326745
249	0xbcd32b6f	-0.025777547
250	0x3d732289	0.059359107
251	0x3ce6d4ec	0.028177701
252	0x3c548b09	0.012972602
253	0xbdf45831	-0.11930884
254	0x3dc6d539	0.09708638
255	0x3d2cdd72	0.042203374

conv1.bias f4 [16]
0	0x3e31fc60	0.1738143
1	0xbe28ec44	-0.16496378
2	0xbe4bf13c	-0.19916242
3	0xbcb235cb	-0.021754166
4	0x3cacde27	0.021102024
5	0xbe45a490	-0.19301057
6	0xbd6812f4	-0.0566587
7	0x3dd2e9ab	0.10298475
8	0xbe209443	-0.15681557
9	0xbda3e55c	-0.08002731
10	0x3e21395e	0.1574454
11	0x3d88ebe2	0.06685616
12	0xbde913c2	-0.11380722
13	0xbdd5ea87	-0.10445123
14	0x3e06f2ba	0.1317853
15	0x3d985a97	0.07439154

bn1.weight f4 [16]
0	0x3ef53fe0	0.47900295
1	0x3eca7a79	0.39546564
2	0x3f2492e2	0.64286625
3	0x3ef664cd	0.4812378
4	0x3e2c5075	0.16827567
5	0x3f49b97c	0.7879865
6	0x3e8fe66b	0.28105482
7	0x3ed68467	0.4189789
8	0x3e8bb06e	0.27283043
9	0x3f5269b3	0.82192534
10	0x3f170d3e	0.5900458
11	0x3f7365fa	0.9507748
12	0x3f46f8da	0.7772347
13	0x3f09e2fb	0.5386197
14	0x3e861f43	0.26195726
15	0x3ea87495	0.32901445

bn1.bias f4 [16]
0	0x3de60b61	0.11232639
1	0x3d45c8ee	0.048287325
2	0xb9dd9479	-0.00042263026
3	0x399419f1	0.00028248088
4	0xb93ceae2	-0.00018016578
5	0xb8c8a225	-9.566945e-05
6	0x3da7c24c	0.08191356
7	0x3e21b685	0.15792282
8	0x389fec45	7.6257194e-05
9	0x3a0f0157	0.0005455217
10	0xb4eacdaf	-4.373555e-07
11	0x3927d4b9	0.00016005606
12	0x39ec42bb	0.00045063146
13	0x39856234	0.00025440904
14	0xbd7925fb	-0.060827237
15	0xb89d7891	-7.5088006e-05

bn1.running_mean f4 [16]
0	0x3e3212e1	0.17390014
1	0xbe28f7fc	-0.16500849
2	0xbe4bf994	-0.19919425
3	0xbcb232bc	-0.021752708
4	0x3cacb5d8	0.021082804
5	0xbe45a6b4	-0.19301873
6	0xbd67fc4c	-0.056637093
7	0x3dd2f00a	0.1029969
8	0xbe20978c	-0.1568281
9	0xbda3ea39	-0.08003659
10	0x3e213fda	0.15747014
11	0x3d88f3d1	0.06687129
12	0xbde92393	-0.11383738
13	0xbdd5f96a	-0.104479626
14	0x3e06f34f	0.13178752
15	0x3d98616e	0.07440458

bn1.running_var f4 [16]
0	0x3944e8ab	0.00018778692
1	0x388155e2	6.167196e-05
2	0x389e1acd	7.539019e-05
3	0x38eeabc2	0.00011380717
4	0x3807e195	3.2396598e-05
5	0x38cf8b9e	9.896535e-05
6	0x38bfe58e	9.1503476e-05
7	0x394c035f	0.00019456212
8	0x388fbcee	6.853962e-05
9	0x38bc9c7b	8.993685e-05
10	0x3930e31c	0.00016869273
11	0x389b15f7	7.395067e-05
12	0x3871de6c	5.7666024e-05
13	0x37fd7f44	3.0219213e-05
14	0x393bc350	0.0001790647
15	0x38535e91	5.0394392e-05

conv2.weight f4 [32, 16, 5, 5]
0	0xbcb6565b	-0.022257974
1	0xbcb27fbb	-0.021789422
2	0x3c64cc5c	0.013964739
3	0x3cf8dae9	0.030377822
4	0xbcea2713	-0.028583085
5	0x3c7e3ae8	0.015516974
6	0xbca0f914	-0.01965002
7	0xbcf1e8e6	-0.02953
8	0xbd0572d3	-0.032580208
9	0xbd20e3c2	-0.039279707
10	0x3d5fc994	0.0546356
11	0xbd15a6b8	-0.03653595
12	0xbcdfc56d	-0.02731582
13	0xbc27d2fd	-0.010243175
14	0x3c798005	0.015228276
15	0xbcaac579	-0.020846115
16	0xbd166b3a	-0.036723353
17	0xbcab9efd	-0.020949835
18	0x3ce01496	0.027353566
19	0xbcc4c31f	-0.024018822
20	0xbd6b1fb5	-0.057403285
21	0xbc75bc81	-0.014998556
22	0x3acd4f38	0.0015663868
23	0xbc7f3867	-0.015577412
24	0x3c5b935e	0.013401834
25	0x3d3aae74	0.045576528
26	0xbda6f02c	-0.08151278
27	0x3a01b9ed	0.00049486646
28	0x3b625c7c	0.0034539988
29	0x3ccb216f	0.024796216
30	0xbd1bdf17	-0.038054552
31	0xba3db68e	-0.00072369806
32	0x3d39fec8	0.045408994
33	0x3cc3b521	0.02389008
34	0x3cd6cdf2	0.02622125
35	0x3d24411f	0.040101167
36	0xbce3fd37	-0.027830703
37	0x3a5268e2	0.0008026493
38	0x3c4511a0	0.012028128
39	0x3c7a6dfd	0.015285012
40	0xbcd33c14	-0.025785483
41	0xbce87e9f	-0.02838069
42	0x3d006f7f	0.03135633
43	0xbcb8679a	-0.022510339
44	0xba4ea2c2	-0.0007882529
45	0xbca49234	-0.020089246
46	0xbd17d284	-0.037065998
47	0x3c01d145	0.007923429
48	0xbb332431	-0.0027334804
49	0x3cc27525	0.0237375
50	0x3c1f2b09	0.00971485
51	0x39873394	0.00025787635
52	0xbc924ca2	-0.017858807
53	0x3b83b730	0.0040196404
54	0x3b9d4a92	0.0048001492
55	0x3d8886c9	0.06666333
56	0xbcc7df50	-0.024398476
57	0xba938512	-0.0011254868
58	0x3bfef77e	0.007780968
59	0x3ce987ef	0.028507201
60	0x3b8ce0bc	0.0042992514
61	0x3c191301	0.00934291
62	0x3d42bacf	0.047541436
63	0x3bcb4aa5	0.0062039667
64	0x3c501c52	0.012702065
65	0xbd0b0689	-0.03394178
66	0xbca69072	-0.020332549
67	0x3d52b091	0.051437918
68	0xbbb5008c	-0.005523747
69	0x3d298130	0.04138297
70	0xbd487362	-0.048938163
71	0x3d2a753a	0.041615702
72	0xbd10558a	-0.035237826
73	0x3c965dc2	0.018355254
74	0xbc2011e2	-0.009769889
75	0x3d36ad8b	0.044599097
76	0xbab62e36	-0.001389927
77	0x3b5f85e5	0.0034106907
78	0xbb859c96	-0.0040775044
79	0x3c0f93c3	0.0087632565
80	0xbc454a54	-0.012041647
81	0xbd1e0857	-0.038582172
82	0xbcc569b5	-0.024098257
83	0xbb3f0120	-0.0029144958
84	0xbb8c313e	-0.004278331
85	0x3cb20729	0.02173193
86	0xbc6366ab	-0.013879458
87	0xbc1518af	-0.009100123
88	0xbd232d48	-0.039838105
89	0x3cf3f04b	0.029777667
90	0xbc9913a6	-0.018686127
91	0xbd350c1e	-0.04420101
92	0xbcb9447e	-0.022615667
93	0x3d235db3	0.03988428
94	0x3c7f1b5b	0.015570487
95	0xbc291d82	-0.010321977
96	0xbcc8c925	-0.024509976
97	0xbccafa1d	-0.024777466
98	0xbd3896f7	-0.045065846
99	0x3cd17af8	0.025571331
100	0x3c7d4f57	0.015460811
101	0xbd2beb19	-0.041972253
102	0xbd4a1159	-0.04933295
103	0x3cfe2f98	0.031028554
104	0xbcd08027	-0.025451733
105	0x3dbae37e	0.09125422
106	0xbc8bd82f	-0.017070858
107	0xb95fd68f	-0.00021346867
108	0x3d0297df	0.031883117
109	0x3cc69dce	0.024245169
110	0x3d33129c	0.04371892
111	0x3c92695e	0.017872509
112	0x3ca97222	0.020684306
113	0x3d187ff2	0.037231393
114	0xbcf5e20b	-0.030015012
115	0xbb80aa5c	-0.0039265584
116	0x3c24a9eb	0.010050277
117	0x3cec8200	0.028870583
118	0x3a3d2d31	0.0007216512
119	0x3d9a80e1	0.07544113
120	0x3b1606a0	0.0022892132
121	0x3c1298c7	0.008947558
122	0x3c6a4a98	0.014300011
123	0xbbe2d4b4	-0.006922329
124	0x3cf63ebc	0.030059211
125	0x3bd2445a	0.0064168395
126	0x3cc42a95	0.023946086
127	0x3b97ad4b	0.0046288124
128	0xbc48c3b4	-0.0122536905
129	0xba94f5eb	-0.0011364793
130	0x3c89ae10	0.016806632
131	0x3ce0ba78	0.027432665
132	0x3c864283	0.016389137
133	0xbd118b26	-0.035533093
134	0x3d5302c4	0.05151631
135	0xbc2b747e	-0.010464786
136	0x3c87202a	0.01649483
137	0xbd722864	-0.05912055
138	0x3ca49e37	0.020094974
139	0x3c358cd4	0.011080939
140	0xbcc96e21	-0.024588646
141	0xbd23dd4d	-0.04000597
142	0x3b373e3f	0.0027960686
143	0xbd41de2a	-0.047331013
144	0xbcf7f691	-0.03026894
145	0xbd0726c5	-0.032995958
146	0x3bd7ff03	0.006591679
147	0xbcc257d4	-0.02372352
148	0x3d01a239	0.03164885
149	0x3ceee1c3	0.029160386
150	0xbb31ed88	-0.0027149636
151	0x3d5573e0	0.05211246
152	0x3d2bd679	0.041952584
153	0xbc23621c	-0.009972122
154	0xbcb2a18d	-0.021805549
155	0xbd229c74	-0.039699987
156	0xbd4342bf	-0.047671076
157	0x3d0c8621	0.034307603
158	0xbbb9f37d	-0.005674778
159	0x3d06534d	0.032794286
160	0x3d158d52	0.036511727
161	0x3d207f0e	0.03918367
162	0x3d0d63be	0.03451895
163	0xbc47135e	-0.012150614
164	0xbd374842	-0.044746645
165	0x3c1cbd24	0.009566579
166	0xbcd57b62	-0.02605981
167	0x3af3f4d5	0.0018612394
168	0xbcb0b90a	-0.021572609
169	0xbd4e4856	-0.050361954
170	0x3c71dfd2	0.014762836
171	0xbd029027	-0.031875756
172	0xbd297000	-0.041366577
173	0xbd4ba0d9	-0.049713943
174	0x3cb571cc	0.02214899
175	0xbca58301	-0.02020407
176	0xbb605afe	-0.0034233923
177	0xbcd731de	-0.026268896
178	0xbd315647	-0.04329517
179	0xbcdb753b	-0.026789298
180	0xbcd440d5	-0.02590982
181	0x3c220d98	0.009890936
182	0x3d4805a7	0.048833515
183	0x3c1390ca	0.009006688
184	0xbd47dcb2	-0.048794456
185	0xbd40bef2	-0.0470571
186	0xbd2bfea1	-0.04199088
187	0x3d3c9e3b	0.046049338
188	0xbc8099b2	-0.015698288
189	0x3c544487	0.012955791
190	0xbba2c7a5	-0.004967647
191	0xbd6ae52f	-0.057347473
192	0x3a6bc69b	0.0008994133
193	0xbd293622	-0.04131139
194	0xbd362061	-0.044464473
195	0x3cfe23fd	0.03102302
196	0x3d23ece2	0.04002083
197	0xbd5713e1	-0.052509192
198	0x3b735585	0.003712983
199	0xbd064d16	-0.03278836
200	0x3b60c792	0.003429864
201	0xbd1ecd04	-0.038769737
202	0xbd5b87bb	-0.05359624
203	0xbd5fdca5	-0.054653782
204	0x3d07e6b6	0.033179007
205	0x3d4d15c8	0.0500696
206	0x3d1e7dbe	0.038694136
207	0xbc1df9ab	-0.009642045
208	0xbbd4025d	-0.0064700083
209	0x3bb5363a	0.005530146
210	0xbd12193d	-0.0356686
211	0x3d09949c	0.03358899
212	0xbb1e569e	-0.0024160515
213	0x3cef9121	0.029244008
214	0xbc22a42f	-0.00992684
215	0xbadfe95c	-0.0017083096
216	0x3d395f7b	0.045257073
217	0xbcd607e2	-0.026126806
218	0x3cab4dd1	0.02091113
219	0xbd577526	-0.052601956
220	0x3d5328fd	0.05155276
221	0x3c92f09c	0.017936997
222	0x3d366385	0.044528503
223	0xbb669e54	-0.0035189586
224	0xbd31270d	-0.043250132
225	0xbc1c7ba7	-0.009550965
226	0x3c65b609	0.014020451
227	0xbc83dabc	-0.016095512
228	0x3ce62bed	0.028097117
229	0x3d0ef535	0.034901816
230	0x3ce1f584	0.027582891
231	0x3c91a44e	0.017778542
232	0x3d0c8202	0.034303673
233	0xbd181112	-0.037125655
234	0xbbec274f	-0.0072068344
235	0xbb4877a2	-0.0030588885
236	0xbd3b21a7	-0.04568639
237	0x3c52a8c1	0.012857617
238	0x3d0bd29d	0.034136403
239	0xbc9a0cd5	-0.018804947
240	0x3d0adaa6	0.033899926
241	0xbcd0896f	-0.025456158
242	0xbcef1462	-0.029184524
243	0x3c0637db	0.008192028
244	0x3c43ca99	0.0119501585
245	0x3cf8ddb2	0.03037915
246	0x3c5d1f0b	0.013496171
247	0xbd80198c	-0.06254873
248	0x3c64ad5f	0.0139573505
249	0xbcc856a3	-0.024455374
250	0xbd22e44e	-0.03976851
251	0x3d00d73b	0.03145526
252	0x3bc9ff6a	0.006164481
253	0xbcd80ff3	-0.026374793
254	0xbcf74c7a	-0.030187834
255	0x3cd020b1	0.025406213

conv2.bias f4 [32]
0	0x3d3d7aa4	0.046259537
1	0xbd2df141	-0.042466406
2	0xbd42ad05	-0.047528286
3	0xbcba77f1	-0.02276227
4	0x3cd926fc	0.026507847
5	0x3d09348d	0.033497382
6	0xbcd108ae	-0.025516834
7	0xbcf3a593	-0.029742038
8	0x3cfbde3b	0.030745616
9	0xbbbf21ee	-0.005832902
10	0x3cde881f	0.027164517
11	0xbc950da2	-0.018194977
12	0xbcea0b8c	-0.02856996
13	0x3d2fc7f0	0.042915285
14	0xbd0bd649	-0.034139905
15	0x3d115639	0.03548262
16	0x3ca709d6	0.020390432
17	0x3d24a5e4	0.040197268
18	0xbd49de40	-0.04928422
19	0xbcb56a80	-0.02214551
20	0xbb896d64	-0.0041939486
21	0x3cad2afb	0.021138659
22	0xbc99c61d	-0.018771226
23	0x3d09fece	0.033690266
24	0xbc7806c0	-0.015138328
25	0xbb22fff7	-0.0024871805
26	0xbd4f8492	-0.05066354
27	0xbd323c71	-0.043514673
28	0x3ccfeb0b	0.025380632
29	0xbcb90ec0	-0.022590041
30	0xbc891f1f	-0.016738473
31	0xbcb7a56a	-0.022417743

bn2.weight f4 [32]
0	0x3eb7a30e	0.35866588
1	0x3f2aee1d	0.6676958
2	0x3ee8ca80	0.45466995
3	0x3e91ad98	0.28452754
4	0x3f56d627	0.8392052
5	0x3eb5fce5	0.35544506
6	0x3ebdfa89	0.37105206
7	0x3e773994	0.24143058
8	0x3f4a1d31	0.7895079
9	0x3f229bfd	0.6351927
10	0x3f609738	0.8773074
11	0x3f67a3c5	0.9048427
12	0x3f0c3935	0.5477479
13	0x3e591aeb	0.21201675
14	0x3ec03d5d	0.37546816
15	0x3f64eb9a	0.89422
16	0x3e9c7693	0.30559215
17	0x3f359b50	0.70940113
18	0x3d92c05c	0.07165596
19	0x3e54145a	0.20710889
20	0x3f35695d	0.70863897
21	0x3dfdac11	0.12386335
22	0x3e99dbae	0.30050415
23	0x3f0d4e4f	0.55197614
24	0x3f6725a3	0.90291804
25	0x3eaa3b65	0.3324844
26	0x3e45bdff	0.19310759
27	0x3f801569	1.0006534
28	0x3ec2ed0b	0.38071474
29	0x3f33d096	0.7024015
30	0x3edf1e5c	0.4357785
31	0x3e4983b0	0.19679141

bn2.bias f4 [32]
0	0x3bd98eb5	0.0066393265
1	0xbd1e4a82	-0.038645275
2	0xbbad8018	-0.005294811
3	0xbb80af2f	-0.0039271335
4	0xbc8dfec8	-0.017333403
5	0x3c533dc7	0.012893147
6	0xbc8cde11	-0.017195733
7	0xbc339c09	-0.010962495
8	0x3d209c08	0.039211303
9	0x3d12e1b3	0.035859775
10	0x3cc62365	0.0241868
11	0x3d31443f	0.043277975
12	0x3d5435fd	0.0518093
13	0xbc9afa1e	-0.018918093
14	0xbbaa969c	-0.0052059423
15	0xbca34288	-0.019929186
16	0x3d3f5393	0.046710562
17	0xbd06cb6f	-0.032908853
18	0x3cb87b0e	0.022519615
19	0xbc9744a1	-0.018465342
20	0xbd25bfeb	-0.04046623
21	0x3cf60fa2	0.030036751
22	0x3b1e737e	0.0024177725
23	0xbcfe4377	-0.03103803
24	0x3cb53c98	0.02212362
25	0xbc25fe65	-0.010131453
26	0xbc36c2db	-0.011154856
27	0x3d39e6fa	0.045386292
28	0x3cd8f1d6	0.026482504
29	0xbd18bc76	-0.037289105
30	0x3c367427	0.011136091
31	0x3d14ec29	0.036358032

bn2.running_mean f4 [32]
0	0xbd97d852	-0.07414307
1	0xbe2e38f2	-0.1701391
2	0xbdbd6e29	-0.09249527
3	0xbddfbf02	-0.10925104
4	0x3ea995d9	0.33122137
5	0xbd90d1ea	-0.07071288
6	0xbdce8abb	-0.100850545
7	0xbdc510e3	-0.096223615
8	0x3c8fa669	0.017535405
9	0xbe31346d	-0.17305155
10	0xbe0bafbc	-0.13641256
11	0xbe41e4d0	-0.18934941
12	0xbe4286ce	-0.18996736
13	0x3c29aedc	0.010356631
14	0xbde297e5	-0.11064128
15	0xbdf5decf	-0.12005388
16	0xbdbf0eb5	-0.09328977
17	0xbd7752b7	-0.060381617
18	0xbdff5cf0	-0.12468898
19	0xbd3375ea	-0.043813623
20	0x3e91c37c	0.28469455
21	0xbc5e1357	-0.013554416
22	0xbdf3a806	-0.11897282
23	0xbd8a757f	-0.06760692
24	0xbde02ac2	-0.109456554
25	0x3c6e5b40	0.014548123
26	0xbd3f1f77	-0.046660867
27	0xbe72cec3	-0.23711686
28	0xbd2a4899	-0.04157314
29	0x3d4d31c5	0.050096292
30	0xbdd3db56	-0.103445694
31	0xbc9aafe1	-0.018882694

bn2.running_var f4 [32]
0	0x3d3f946b	0.0467724
1	0x3d74fb34	0.05980988
2	0x3d5f7309	0.054553065
3	0x3d0d6d86	0.034528278
4	0x3eae5aad	0.34053555
5	0x3d6b2f05	0.05741789
6	0x3d03ba17	0.03215989
7	0x3cb75bd0	0.022382647
8	0x3e022808	0.12710583
9	0x3e2b42b9	0.16724671
10	0x3e0433ef	0.12910436
11	0x3e74ebf6	0.23918137
12	0x3e0a4b38	0.13505256
13	0x3cfa288f	0.030536918
14	0x3d421df4	0.047391847
15	0x3d94c79a	0.072646335
16	0x3dbc80c4	0.092042476
17	0x3db2c9ff	0.08729934
18	0x3c771087	0.015079624
19	0x3d021adb	0.031763893
20	0x3e7d4530	0.24733424
21	0x3d045a4e	0.032312684
22	0x3d4173de	0.04722964
23	0x3d95d9b4	0.07316914
24	0x3e538e89	0.20659842
25	0x3d0d6659	0.034521434
26	0x3d0675b2	0.032827087
27	0x3e2c3c41	0.1681986
28	0x3d202b0c	0.039103553
29	0x3d589b22	0.05288232
30	0x3de58bf5	0.11208335
31	0x3d416ff8	0.047225922

conv3.weight f4 [32, 32, 5, 5]
0	0x3b1f86b6	0.0024341769
1	0xbcaf2ac2	-0.021382693
2	0xbb86f394	-0.0041183922
3	0x3d20d090	0.0392614
4	0x3bb01f16	0.0053747995
5	0x3c80075d	0.015628511
6	0x3be23059	0.006902736
7	0xbb9f694d	-0.0048648478
8	0xbba838c5	-0.0051337206
9	0xbd1b3fb4	-0.03790255
10	0x3d1b4796	0.037910067
11	0x3c8f0a34	0.01746092
12	0x3b77f415	0.0037834693
13	0xbd64c546	-0.055852197
14	0x3cdf2e75	0.027243832
15	0xbb2d225a	-0.002641818
16	0xba37991c	-0.0007003711
17	0xbcdf206e	-0.027237143
18	0x39bcbc29	0.00035998345
19	0xbc9ceaa2	-0.01915485
20	0xb99ece34	-0.00030289742
21	0xbbdab61b	-0.0066745407
22	0xbd344b3f	-0.044017073
23	0x3b9de402	0.0048184404
24	0xbd79d0db	-0.060990196
25	0xbd0c2ce2	-0.03422249
26	0xbd047fb4	-0.03234835
27	0xbcc93c11	-0.024564775
28	0x3ca74bbc	0.020421855
29	0x3aec0c8f	0.0018009114
30	0xbbd82d8e	-0.0065972274
31	0x3c2eb397	0.010662935
32	0xbc60a1c4	-0.013710443
33	0xbd025d65	-0.03182735
34	0x3b950287	0.0045474204
35	0xbaccef36	-0.0015635255
36	0xbca9b1b1	-0.020714613
37	0xbc0ec4ef	-0.008713945
38	0xbc11b1a4	-0.0088924505
39	0x3c8c48b4	0.017124511
40	0xbd257373	-0.040393304
41	0xbbbe5747	-0.005808744
42	0x3cc89a5f	0.024487672
43	0xbae24aa1	-0.0017264673
44	0x3bd62072	0.0065346295
45	0xbb530d1d	-0.003220386
46	0xbb55a689	-0.0032600483
47	0x3b21d367	0.0024692656
48	0xbc3fa5f3	-0.01169728
49	0xbc964d00	-0.018347263
50	0xbac3d7e8	-0.0014941664
51	0xbca1769a	-0.019709874
52	0x3c9af18c	0.018914007
53	0xbbaf4d90	-0.0053498223
54	0x3c385b13	0.011252183
55	0x3cfa4796	0.030551713
56	0x3c1d70c5	0.009609406
57	0xbb500229	-0.0031739569
58	0x3c9ba8f9	0.01900147
59	0xbc4bf769	-0.012449124
60	0xbc36711f	-0.011135369
61	0xbd001204	-0.03126718
62	0x3c346355	0.011010011
63	0xbb9192b6	-0.004442538
64	0xbb6641e7	-0.0035134496
65	0xbcaa26ee	-0.020770516
66	0xbb5c9c8e	-0.003366265
67	0xbca1b58a	-0.019739885
68	0xbb058d5c	-0.0020378446
69	0x3be5b5ef	0.0070102136
70	0xbd0d39d4	-0.034478977
71	0xbc914537	-0.0177332
72	0xbcfc6ea1	-0.03081447
73	0x3d0cf521	0.03441346
74	0x3b775314	0.0037738727
75	0xbc52f301	-0.012875319
76	0xbb40d285	-0.0029422354
77	0x3c6b46e8	0.014360167
78	0xbcda4f76	-0.026649218
79	0x3c8ae0dc	0.016952924
80	0x3c7cb611	0.015424267
81	0x3ccea482	0.025224928
82	0x3d3f1f7c	0.046660885
83	0xbd161bd6	-0.03664764
84	0xbb8594e0	-0.004076585
85	0xbc7d7555	-0.015469869
86	0x3cd2b19a	0.025719453
87	0x3d0955ec	0.033529207
88	0xbac78d4f	-0.0015224608
89	0xbd3f55fe	-0.046712868
90	0x3aec73e7	0.0018039913
91	0xbb8740c9	-0.004127596
92	0xbbbcbe29	-0.0057599735
93	0x3a43945c	0.0007460767
94	0xbc9ae09c	-0.01890593
95	0xbb290f56	-0.0025796494
96	0x3ca89026	0.020576548
97	0xbc0b090c	-0.008486044
98	0xbc7c2d33	-0.015391636
99	0x3c7e7a7f	0.015532135
100	0x3c1ac6a0	0.00944677
101	0x3b9285a5	0.004471498
102	0xbc584616	-0.013200304
103	0xbc8385ab	-0.016054949
104	0xbc71b049	-0.014751502
105	0x3c99b0ef	0.018761126
106	0xbc430cec	-0.011904936
107	0x3caaf020	0.020866454
108	0xbc521a39	-0.012823635
109	0x3d32dcfe	0.043667786
110	0xb9f717e8	-0.00047129323
111	0xbcad1136	-0.02112637
112	0x3cfae5a7	0.030627085
113	0x398052b2	0.00024475675
114	0x3cac40c1	0.02102697
115	0x3c81d50e	0.015848663
116	0xbca9f9db	-0.020749023
117	0x3c9d2f76	0.01918767
118	0xbbc2a96a	-0.005940606
119	0xbc3351f7	-0.010944835
120	0x3c5167e5	0.012781118
121	0xbcb052bb	-0.021523824
122	0x3c1a3feb	0.009414653
123	0x3c0d65d7	0.008630238
124	0xbb3a9e1b	-0.0028475586
125	0xbd40098a	-0.046884097
126	0x3cdf2e28	0.027243689
127	0x3b219049	0.002465265
128	0x3c075522	0.008260043
129	0x3cfa109f	0.030525504
130	0xbd3ec4e4	-0.04657449
131	0x3bdad017	0.0066776383
132	0xbc9b769d	-0.018977458
133	0xbc36a112	-0.011146801
134	0x3b9b44e2	0.004738436
135	0xbc862c0f	-0.01637843
136	0xbc043f26	-0.008071696
137	0x3be2151e	0.00689949
138	0xbd6a5a0b	-0.057214778
139	0xbc368d67	-0.011142111
140	0xbd158ab8	-0.036509246
141	0xbd355995	-0.044274885
142	0xbccd1c52	-0.025037918
143	0xbcb778cf	-0.022396473
144	0xbd21da20	-0.03951466
145	0xbd26e53f	-0.04074597
146	0x3c27e26d	0.010246855
147	0xbcde7b0f	-0.027158288
148	0xbba5a263	-0.0050547584
149	0xbcae2702	-0.021258835
150	0xbc7193c6	-0.014744705
151	0x3aa80381	0.0012818427
152	0xbb7669fd	-0.0037599795
153	0x3d57cb76	0.05268427
154	0x3cab9cd3	0.020948803
155	0xbc9de9df	-0.019276557
156	0xbc02ac1a	-0.0079756025
157	0xbcc3c130	-0.02389583
158	0x3ada44d3	0.0016652591
159	0x3c319de7	0.0108408695
160	0x3c938326	0.018006872
161	0xbb7882e6	-0.0037919818
162	0x3c08ade8	0.008342244
163	0x3c3d65b7	0.011559895
164	0xbcb6a078	-0.022293314
165	0x3caff210	0.02147773
166	0x3c9b45c9	0.018954175
167	0x3c118ac1	0.008883179
168	0xb9e1cf4a	-0.00043069787
169	0x39b52af4	0.00034555013
170	0xbd00eea4	-0.031477585
171	0xbd458f58	-0.048232406
172	0x3c99c6da	0.018771578
173	0xbc3bdc7b	-0.011466141
174	0xbd1c8722	-0.03821481
175	0xbc55d790	-0.013051882
176	0x3b496e14	0.0030735778
177	0xbc69fb03	-0.014281037
178	0xbcb0009b	-0.021484664
179	0x3d017c92	0.03161294
180	0xbc4e3224	-0.012585197
181	0x3bbd9b8e	0.005786366
182	0xbc51f6ae	-0.012815161
183	0x3c9e3df6	0.019316655
184	0xb9ed30cf	-0.00045240528
185	0xbc3f8500	-0.0116894245
186	0xbcee7446	-0.029108178
187	0xba0deb6b	-0.0005413803
188	0x3c26826d	0.010162932
189	0xbc7c9466	-0.01541624
190	0x3cbd3e27	0.023100926
191	0xbbac90b6	-0.0052662743
192	0xbca386f6	-0.019961815
193	0xbd166185	-0.036714096
194	0xbcbc65ba	-0.022997726
195	0xbc4105c9	-0.011781164
196	0x3c9513d0	0.018197924
197	0x3c889853	0.016674196
198	0x3ccfb912	0.025356803
199	0xbd5ac071	-0.053406183
200	0x3cf2e4de	0.029650148
201	0xbd18b0ca	-0.037277974
202	0xbd26e56c	-0.040746137
203	0x3d31aaf0	0.04337591
204	0x3c242858	0.010019384
205	0x3d423347	0.047412183
206	0xbd1af3f0	-0.037830293
207	0xbd630bcc	-0.055431172
208	0x3c64acad	0.013957185
209	0xbc11cc6a	-0.008898834
210	0x3d1b302b	0.037887733
211	0xbd85856b	-0.06519588
212	0xb9bfabbe	-0.00036558317
213	0xba4ef565	-0.0007894843
214	0x3da306c1	0.079602726
215	0x3d0c91c9	0.03431872
216	0xbd943743	-0.07237103
217	0xbc970cb8	-0.018438682
218	0x3b6863cb	0.0035459872
219	0x3d19aa13	0.03751571
220	0xbd10ad4b	-0.035321515
221	0xbd5e104d	-0.054214764
222	0xbd28a22e	-0.04117029
223	0x3c1d613c	0.009605702
224	0x3cf447dd	0.029819423
225	0x3c95705f	0.01824206
226	0xbcd6f9c5	-0.026242146
227	0x3b3ec7cd	0.002911079
228	0x3ca9c603	0.020724302
229	0xbc841ec2	-0.016127948
230	0x3cf4687b	0.029834976
231	0xbc4cd08d	-0.012500894
232	0xbba88b8e	-0.0051435893
233	0xbc8987e7	-0.016788436
234	0xbcadd63d	-0.02122032
235	0xbc85cbea	-0.016332585
236	0xbcad612d	-0.021164501
237	0x3cd69418	0.026193663
238	0x3d05560a	0.032552756
239	0x3bf6a310	0.007526763
240	0xbcb3a2f1	-0.021928282
241	0xbd4efe51	-0.050535504
242	0x3c50bb1e	0.012739925
243	0x3c8e1503	0.017344004
244	0x3c8fbb78	0.017545447
245	0xbc8ce0af	-0.017196981
246	0xbcdf1421	-0.027231278
247	0x3c31a368	0.010842182
248	0xb895c31c	-7.1412156e-05
249	0xbc2e6f32	-0.010646628
250	0x3c10dce4	0.008841727
251	0x3bd74c44	0.006570371
252	0xbc112308	-0.00885845
253	0xbcab491d	-0.020908887
254	0xbd095731	-0.033530418
255	0xbbf4a638	-0.007466104

conv3.bias f4 [32]
0	0x3cd33ded	0.025786364
1	0xbcdba47b	-0.026811829
2	0xbc80d370	-0.015725821
3	0xbae1c94b	-0.0017226128
4	0xbc89fcf0	-0.016844243
5	0x3bb99a11	0.005664118
6	0x3b548090	0.0032425262
7	0x3c0943af	0.008377953
8	0xbca3ba77	-0.019986374
9	0xbc486b30	-0.012232587
10	0x3d22df35	0.039763648
11	0x3c4c4ff4	0.012470234
12	0xbcfb9beb	-0.030713996
13	0xbcb694fb	-0.022287836
14	0x3a10656b	0.00055082765
15	0xbcafcd03	-0.021460062
16	0x3d0f1989	0.03493646
17	0xbc0ccd87	-0.008593923
18	0x3b5ab88c	0.0033374159
19	0x3c534499	0.012894773
20	0x3c8ee30a	0.017442245
21	0x3cf7463e	0.030184861
22	0xbd04b34e	-0.03239756
23	0xba4ad6e8	-0.0007737712
24	0x3ca53c77	0.020170433
25	0x3cbe38b2	0.023220394
26	0x3c57dcf1	0.013175235
27	0x3c0d1769	0.008611538
28	0x3cfc06b8	0.030764922
29	0x3ab5741d	0.0013843809
30	0xbb028b4a	-0.0019919449
31	0xbd061c32	-0.032741733

bn3.weight f4 [32]
0	0x3f8eb03a	1.114753
1	0x3ec9b37e	0.39394754
2	0x3ee2cedd	0.4429845
3	0x3e6bf690	0.23043275
4	0x3edcb8e5	0.43109813
5	0x3f159158	0.584249
6	0x3f68d27d	0.9094618
7	0x3e2b74e1	0.16743805
8	0x3f33e3ea	0.70269644
9	0x3f01fc54	0.5077565
10	0x3e89ae1f	0.26890656
11	0x3e4c7e77	0.19970118
12	0x3eb5a71f	0.35479066
13	0x3e92b877	0.2865636
14	0x3f485e6a	0.78269064
15	0x3f27dd38	0.6557193
16	0x3f4f42b1	0.8096114
17	0x3f272a40	0.65298843
18	0x3eb0378e	0.34417385
19	0x3f12600c	0.57177806
20	0x3ea938ef	0.3305125
21	0x3f11c834	0.5694611
22	0x3eeb0fbc	0.45910442
23	0x3f443abf	0.7665214
24	0x3f84abd7	1.0364941
25	0x3ea497e6	0.3214714
26	0x3f806e5b	1.0033678
27	0x3f2373af	0.63848394
28	0x3f1ff1ce	0.6247834
29	0x3f672e46	0.9030498
30	0x3f063910	0.5243082
31	0x3f65d8d1	0.8978396

bn3.bias f4 [32]
0	0x3e1c597c	0.1526851
1	0x3e13f064	0.1444717
2	0x3e1c54d9	0.15266742
3	0x3e0ff836	0.14059529
4	0x3e1445f1	0.14479806
5	0x3e0a1709	0.1348535
6	0x3e2eccdf	0.1707034
7	0x3e0b2e06	0.13591775
8	0x3e166e65	0.1469055
9	0x3e146298	0.14490736
10	0x3e16c06f	0.14721845
11	0x3e0e4450	0.13893247
12	0x3e1a27a7	0.15054189
13	0x3e15307f	0.14569281
14	0x3e17f7b1	0.1484058
15	0x3e1b9146	0.15192136
16	0x3e0727bf	0.13198756
17	0x3e41a27b	0.18909638
18	0x3e1139b8	0.14182174
19	0x3e1157c5	0.14193638
20	0x3e129c43	0.14317422
21	0x3e1c20a4	0.15246826
22	0x3e102308	0.14075863
23	0x3e289680	0.16463661
24	0x3e1543f7	0.14576708
25	0x3e1f68ef	0.15567373
26	0x3e2238c7	0.15841971
27	0x3e156036	0.14587483
28	0x3e13594a	0.1438953
29	0x3e13da8a	0.14438835
30	0x3e15794f	0.14597057
31	0x3e161749	0.1465732

bn3.running_mean f4 [32]
0	0x3bc5a668	0.0060318
1	0xbe441c0a	-0.19151321
2	0xbf3d30db	-0.7390267
3	0xbef83cd2	-0.48483902
4	0x3c828e95	0.015937129
5	0xbf2e25f1	-0.68026644
6	0xbf194735	-0.5987428
7	0xbeea575a	-0.4576977
8	0xbe9fc4a3	-0.3120471
9	0xbda2103c	-0.07913253
10	0xbe22eeb2	-0.15911368
11	0xbf093455	-0.5359548
12	0xbf3c22e0	-0.73490715
13	0xbf5608bc	-0.8360708
14	0xbda5a9b2	-0.080890074
15	0xbf45ee83	-0.77317065
16	0xbf2ccf8a	-0.6750418
17	0xbea40788	-0.32036996
18	0xbe592a9a	-0.21207657
19	0xbf2e716f	-0.68141836
20	0xbe88561f	-0.26628205
21	0xbf115ed7	-0.5678534
22	0xbe6e2bc4	-0.23258883
23	0xbf042a7e	-0.5162734
24	0xbe6b8586	-0.23000154
25	0x3ca588fb	0.020206919
26	0xbe54618a	-0.20740333
27	0xbf38fd06	-0.72261083
28	0xbdb00faf	-0.085967414
29	0xbde0311d	-0.109468676
30	0xbe5d810f	-0.21631263
31	0xbe717397	-0.2357925

bn3.running_var f4 [32]
0	0x3c8956a2	0.016764943
1	0x3cb7c881	0.022434475
2	0x3ce013fd	0.027353281
3	0x3cc577be	0.02410495
4	0x3d051b8e	0.03249698
5	0x3cdfafaa	0.027305443
6	0x3cc5932c	0.024118029
7	0x3cbb2803	0.022846228
8	0x3ca7296c	0.020405494
9	0x3cd23427	0.025659634
10	0x3cc73f37	0.024322135
11	0x3cc6c3ee	0.024263348
12	0x3cdf66ee	0.02727076
13	0x3cd763f3	0.026292777
14	0x3ce64731	0.028110119
15	0x3cc3f90c	0.023922466
16	0x3ca79e9e	0.020461377
17	0x3cbcc5f0	0.023043603
18	0x3c87f537	0.01659642
19	0x3cceee99	0.025260257
20	0x3cfde9ab	0.03099521
21	0x3d0807c0	0.033210516
22	0x3cd564fd	0.026049132
23	0x3cad4581	0.021151306
24	0x3cc1b1de	0.023644384
25	0x3cf5048d	0.029909397
26	0x3ca6ab31	0.020345302
27	0x3cd6348e	0.026148107
28	0x3c80284a	0.015644211
29	0x3c808c67	0.015691949
30	0x3c4109fe	0.0117821675
31	0x3c82f4dd	0.0159859

fc1.weight f4 [256, 512]
0	0x3dcc1b3c	0.09966132
1	0x3e326f7d	0.17425342
2	0x3e4bd8b0	0.19906878
3	0x3e54dbcd	0.20786972
4	0x3e837356	0.25673932
5	0x3e41be14	0.18920165
6	0x3e2ac92b	0.16678302
7	0x3dd5da3f	0.10442018
8	0x3e04e654	0.12978488
9	0x3e2f7977	0.17136179
10	0x3e3aac17	0.1822971
11	0x3e0fdbb9	0.14048661
12	0x3e86995b	0.26288876
13	0x3e48cadd	0.19608636
14	0x3e451397	0.19245754
15	0x3e176102	0.147831
16	0x3e237a67	0.15964662
17	0x3dfd78c0	0.12376547
18	0x3e0c035c	0.13673156
19	0x3e386c21	0.18009998
20	0x3e581eac	0.2110545
21	0x3e7370d3	0.23773508
22	0x3e0f1eb1	0.13976552
23	0x3e2c6cf7	0.16838442
24	0x3e0f97e1	0.14022781
25	0x3dfdce2c	0.1239284
26	0x3e372d42	0.17888358
27	0x3e32e7f6	0.17471299
28	0x3e6dd583	0.2322598
29	0x3e356f2c	0.1771819
30	0x3e45a5f3	0.19301586
31	0x3dccef93	0.10006633
32	0xbc86e6f1	-0.016467543
33	0x3a8ec0e7	0.001089123
34	0xbe2802ad	-0.1640727
35	0x3e25cf68	0.161924
36	0x3e458995	0.19290765
37	0x3e396fed	0.18109103
38	0xbd85c62f	-0.06531941
39	0xbcbb08a9	-0.022831278
40	0x3d1b8eba	0.03797791
41	0xbbac2f10	-0.0052546337
42	0x3d83176e	0.06400953
43	0x3e06c70b	0.13161866
44	0x3e2fbfad	0.17162962
45	0x3e18fec4	0.14940935
46	0xbdb77f7e	-0.08959864
47	0x3d2167c5	0.039405603
48	0x3dea6cc6	0.11446528
49	0x3dd22d80	0.10262585
50	0x3e2432a9	0.1603495
51	0x3e46bfab	0.19409053
52	0x3e1283ec	0.14308137
53	0x3e434758	0.19070184
54	0x3e0c9d2d	0.13731833
55	0x3dfa1abd	0.12212131
56	0x3dd8e668	0.105908215
57	0x3dd6a04a	0.104797915
58	0x3e503b03	0.20335011
59	0x3e376457	0.1790937
60	0x3e5dd1ef	0.21662115
61	0x3e0c4d78	0.13701427
62	0x3dea575c	0.11442444
63	0x3dfc7997	0.12327879
64	0x3e1f9bf4	0.15586835
65	0x3ddd1784	0.10795501
66	0x3e26ae2e	0.16277382
67	0x3e40df0e	0.18835089
68	0x3e29542d	0.16536017
69	0x3e2bee73	0.1679018
70	0x3e2471f6	0.16059098
71	0x3e32795e	0.1742911
72	0x3dd51fe7	0.104064755
73	0x3e315a30	0.1731956
74	0x3e1d4adc	0.15360588
75	0x3e0f57b8	0.13998306
76	0x3e2d1bfc	0.16905206
77	0x3e506510	0.20351052
78	0x3e4ad7f0	0.19808936
79	0x3df30781	0.11866666
80	0x3c951c62	0.01820201
81	0xbca51d0b	-0.02015545
82	0x3dcaab33	0.09895935
83	0x3cbf4c71	0.02335188
84	0x3e11c5e1	0.14235641
85	0x3df00e90	0.117215276
86	0x3d2dd1a8	0.042436272
87	0x3cc5bb1a	0.024137069
88	0x3d335261	0.043779735
89	0x3c899c80	0.016798258
90	0x3de85ad8	0.11345452
91	0x3e036a7f	0.12833594
92	0x3e38f976	0.18063912
93	0x3e27ae73	0.16375141
94	0x3e071c09	0.13194288
95	0x3d89ef35	0.06735078
96	0xbcb689cd	-0.022282505
97	0x3c4dd664	0.012563322
98	0xbe298ec8	-0.16558373
99	0x3e274e12	0.16338375
100	0x3e3643a6	0.17799243
101	0x3e19e7c8	0.15029824
102	0xbe00ae4d	-0.1256649
103	0xbc290f9e	-0.010318665
104	0xb9c0e580	-0.00036792085
105	0xbd09d87f	-0.033653732
106	0x3daff0ec	0.08590874
107	0x3e24d052	0.16095093
108	0x3e0722f1	0.13196923
109	0x3e068be3	0.131393
110	0xbdeceede	-0.11568998
111	0x3cf9445f	0.03042811
112	0x3e1feed8	0.15618455
113	0x3e3e9f2f	0.18615411
114	0x3e03766b	0.12838142
115	0x3e48520a	0.19562545
116	0x3e555efb	0.20837013
117	0x3e311d36	0.172963
118	0x3e307a10	0.17234063
119	0x3e2aabf9	0.16667165
120	0x3e27cee2	0.16387513
121	0x3e27fb66	0.16404495
122	0x3e2ee329	0.17078842
123	0x3e298763	0.16555552
124	0x3e354fe8	0.17706263
125	0x3e613342	0.2199221
126	0x3e4f3a83	0.20237164
127	0x3e0639a0	0.1310792
128	0x3e073e6b	0.13207404
129	0x3dfcaffb	0.12338253
130	0x3e394e5b	0.18096296
131	0x3e485871	0.19564988
132	0x3e44e2b7	0.1922711
133	0x3e34f4bf	0.17671488
134	0x3e2c6eab	0.16839091
135	0x3de11c05	0.109916724
136	0x3dffbe1e	0.12487434
137	0x3e3bcfe5	0.18341024
138	0x3e198dfc	0.14995569
139	0x3e4551ef	0.19269536
140	0x3e6758d3	0.22592478
141	0x3e578260	0.21045828
142	0x3e3bf897	0.18356548
143	0x3e25dd5e	0.16197726
144	0x3e094652	0.13405731
145	0x3e20adea	0.15691343
146	0x3e2386f1	0.15969445
147	0x3e498ef3	0.19683437
148	0x3e56bb80	0.20969963
149	0x3e1817a1	0.14852764
150	0x3e37e6bd	0.17959113
151	0x3e2ae8ef	0.1669042
152	0x3e0248ee	0.12723133
153	0x3e3242a3	0.17408232
154	0x3e53d235	0.20685656
155	0x3e78551e	0.2425122
156	0x3e2495f4	0.16072828
157	0x3e4c6402	0.19960025
158	0x3e3da322	0.18519261
159	0x3e195e66	0.14977416
160	0x3e260fae	0.16216919
161	0x3e2f7c20	0.17137194
162	0x3e35a3fa	0.17738333
163	0x3e3f18cb	0.18661802
164	0x3e69d595	0.22835381
165	0x3e3f7186	0.1869565
166	0x3e307764	0.17233044
167	0x3e0de45a	0.1385664
168	0x3e093b74	0.13401586
169	0x3e2060ec	0.15661973
170	0x3e3d9ad2	0.1851609
171	0x3e648d43	0.22319512
172	0x3e39ee97	0.18157421
173	0x3e69a801	0.22817995
174	0x3e131f8b	0.14367501
175	0x3e3169ad	0.17325468
176	0x3e0184cd	0.12648316
177	0x3dfe64f6	0.124216005
178	0x3e0dd35c	0.13850158
179	0x3e53e589	0.2069303
180	0x3e3d8991	0.18509509
181	0x3e6aaec6	0.22918233
182	0x3e3e1d6a	0.18565908
183	0x3e451bce	0.19248888
184	0x3e1ed4ce	0.15510866
185	0x3e346bb9	0.17619218
186	0x3e5c37cd	0.21505661
187	0x3e55b6bd	0.2087049
188	0x3e200915	0.15628465
189	0x3e45acdb	0.1930422
190	0x3e3fa5f7	0.18715654
191	0x3e1f7e6f	0.15575574
192	0xbcbfe4c8	-0.023424521
193	0x3c81e40e	0.015855815
194	0xbd8bfb2b	-0.06835016
195	0x3e1209e2	0.14261582
196	0x3e246445	0.16053875
197	0x3e4a9f5a	0.1978735
198	0x3c628086	0.013824588
199	0xbd4412b4	-0.0478694
200	0x3d187e70	0.037229955
201	0x3cf6e20b	0.030137083
202	0x3d5a36f9	0.053275082
203	0x3e1effc3	0.15527253
204	0x3e1907ea	0.14944425
205	0x3dfc7b04	0.12328151
206	0xbd62cff1	-0.05537409
207	0x3d4dee4f	0.050276097
208	0xb9d891e9	-0.00041307442
209	0x3c125285	0.008930807
210	0x3cc1efa4	0.02367384
211	0x3e1cd95e	0.15317294
212	0x3e08fde5	0.13378103
213	0x3e0e1d8f	0.13878463
214	0xbda18b8a	-0.07887943
215	0x3d529c6f	0.051418718
216	0x3c8d1316	0.017221015
217	0xbc44f1ae	-0.012020512
218	0x3dede1e6	0.11615352
219	0x3e25d3d3	0.16194086
220	0x3dfa6f3b	0.12228247
221	0x3e0abcba	0.13548556
222	0x3cc3a7ca	0.023883719
223	0x3c836b7c	0.016042463
224	0x3e0996e9	0.13436474
225	0x3e2517ad	0.16122313
226	0x3e229e52	0.15880707
227	0x3e3d6199	0.18494262
228	0x3e182c33	0.1486061
229	0x3e51eac0	0.20499706
230	0x3e22ecdf	0.15910672
231	0x3e3ab60d	0.1823351
232	0x3df9cf66	0.12197761
233	0x3e0edf11	0.1395228
234	0x3e34a4ff	0.17641066
235	0x3e0da807	0.13833629
236	0x3e42aa61	0.19010307
237	0x3e378998	0.17923582
238	0x3e40acee	0.18815967
239	0x3e32a77a	0.174467
240	0x3cfc8422	0.030824725
241	0xbcdeea4d	-0.027211333
242	0x3bbba64b	0.005726611
243	0x3e258c80	0.16166878
244	0x3de4d783	0.11173918
245	0x3e1ad567	0.15120469
246	0xbdee0ab1	-0.11623133
247	0xbbbccdc2	-0.005761833
248	0xbcb4bbeb	-0.022062263
249	0xbcd357a5	-0.025798628
250	0x3e21556b	0.1575524
251	0x3e182ff0	0.14862037
252	0x3df11921	0.11772371
253	0x3e293c1f	0.1652684
254	0x3c96cca9	0.018408136
255	0xbc5c7fc9	-0.013458201

fc1.bias f4 [256]
0	0x3de93d54	0.113886505
1	0x3e366664	0.17812496
2	0x3e1b0233	0.15137558
3	0x3e1895cc	0.14900893
4	0x3dd5a5e4	0.10432032
5	0x3df9f8cc	0.12205657
6	0x3dd11b45	0.102102794
7	0x3dc53772	0.09629716
8	0x3de39001	0.11111451
9	0x3c831076	0.01599906
10	0xbaabae29	-0.0013098168
11	0xbd3f0ece	-0.04664498
12	0x3e05041f	0.12989853
13	0x3d30a0e5	0.04312219
14	0x3e258b5b	0.16166441
15	0x3e30c4e2	0.17262605
16	0xbd245f1f	-0.040129777
17	0x3dbc7c13	0.09203353
18	0x3d9920a6	0.0747693
19	0x3de1a7ad	0.1101831
20	0x3e08f278	0.13373744
21	0x3dc39158	0.095492065
22	0x3c9c6505	0.019091139
23	0x3d394c44	0.04523875
24	0x3e3ce45f	0.18446492
25	0x3da5f7b9	0.0810389
26	0x3d696ddf	0.056989547
27	0x3cba9bc1	0.022779347
28	0x3d988250	0.0744673
29	0x3cf47ee8	0.02984567
30	0x3dc6e668	0.09711915
31	0x3e16ffac	0.14745969
32	0x3e2aa0f4	0.16662961
33	0x3c9a8569	0.018862443
34	0x3dafadd8	0.0857808
35	0x3e31eb98	0.17375028
36	0x3e0a7de6	0.13524589
37	0x3df05e7d	0.11736772
38	0x3e0bb90c	0.13644809
39	0xbcef3a10	-0.029202491
40	0x3e31626c	0.17322701
41	0x3cf56575	0.029955605
42	0x3e1a1828	0.15048277
43	0x3dc83d97	0.09777372
44	0x3e21ab15	0.15787919
45	0x3e0d9f2b	0.13830249
46	0x3e0eb028	0.13934386
47	0x3e1edeb3	0.1551464
48	0x3dc97e31	0.09838522
49	0x3e1cd270	0.1531465
50	0x3d8e5272	0.06949319
51	0x3e3f9873	0.18710499
52	0x3e3c4a9f	0.1838784
53	0x3e27f3e9	0.16401638
54	0x3de5b436	0.11216013
55	0x3cc86f75	0.02446721
56	0x3d323802	0.043510444
57	0x3e35b759	0.17745723
58	0x3d5f486f	0.054512437
59	0x3e19a63e	0.15004823
60	0x3e15635e	0.14588687
61	0x3cfa5f2a	0.030562956
62	0x3d1b1851	0.037864987
63	0x3dd53594	0.1041061
64	0x3e0651cd	0.13117142
65	0x3defabe4	0.117027074
66	0x3df3ada8	0.11898357
67	0x3dd72f5b	0.10507079
68	0x3c976d52	0.018484745
69	0x3df5438d	0.11975775
70	0x3d67e3c6	0.056613706
71	0x3e1c1462	0.1524215
72	0x3dc7221f	0.09723305
73	0x3e27a935	0.16373141
74	0x3d0810c2	0.033219106
75	0x3c1a44ae	0.009415789
76	0x3dafaa09	0.085773535
77	0x3dc81376	0.09769337
78	0x3e43893d	0.19095321
79	0x3e44e5d7	0.19228302
80	0x3d33296f	0.043740686
81	0x3d7e2bc2	0.06205345
82	0x3dc4fccd	0.096185304
83	0x3e215a19	0.15757026
84	0x3d898c8c	0.0671626
85	0x3e2cb3e2	0.16865495
86	0x3e122a6b	0.14273994
87	0x3d695262	0.056963332
88	0x3dd5adce	0.10433541
89	0x3e055377	0.1302012
90	0x3cf614ce	0.030039217
91	0x3dcee6ce	0.10102616
92	0x3c4a69ac	0.012354296
93	0x3ddf3dde	0.10900472
94	0x3d4fcbf0	0.0507316
95	0x3d32fe36	0.043699466
96	0x3de56a20	0.11201882
97	0x3df7f3e1	0.12107063
98	0x3d49367d	0.04912423
99	0x3c8d3200	0.017235756
100	0x3daa3e7b	0.083126985
101	0x3dc0d516	0.09415643
102	0x3c5bdd9a	0.013419533
103	0x3db33c07	0.08751684
104	0x3d8cfa4e	0.06883679
105	0x3c973665	0.018458555
106	0x3e1defc7	0.15423499
107	0x3ce8b78a	0.02840783
108	0x3e32ea87	0.17472278
109	0x3e21f371	0.15815522
110	0x3d88ffcb	0.06689414
111	0x3daff1bf	0.08591031
112	0x3e24ad15	0.1608165
113	0x3dff960b	0.1247979
114	0x3c89459e	0.016756829
115	0x3de1eed5	0.11031882
116	0x3de3b26f	0.11118018
117	0x3e1e4814	0.15457183
118	0x3dd99932	0.10624923
119	0x3de66b22	0.11250903
120	0x3e02fd6a	0.12791982
121	0x3e28b3ad	0.16474791
122	0x3d85687a	0.06514068
123	0x3e0a375f	0.13497685
124	0x3cb761a5	0.022385428
125	0x3e26304c	0.16229361
126	0x3dfcad74	0.12337771
127	0x3dd3fe98	0.10351294
128	0x3e0bd40b	0.13655107
129	0xbd3618d2	-0.044457264
130	0x3e261a1b	0.16220896
131	0x3e0f0ca0	0.1396966
132	0x3cb78a96	0.02240495
133	0x3d02f7ca	0.03197459
134	0x3e0b5040	0.13604832
135	0x3e0094d2	0.1255677
136	0x3cbc83a5	0.023011992
137	0x3d56d66b	0.05245058
138	0x3e2d8471	0.16945054
139	0x3e191cc3	0.14952378
140	0x3dbeab91	0.093100674
141	0x3e01bfd7	0.12670837
142	0x3c8c8fdc	0.017158441
143	0x3d790cbb	0.060803156
144	0x3e21d57b	0.15804093
145	0x3d3b9fab	0.045806568
146	0x3dce25d2	0.100658074
147	0x3d06393a	0.03276942
148	0x3e20e99d	0.15714116
149	0x3dfe7e09	0.12426383
150	0x3e28a26c	0.16468209
151	0x3dfbd90b	0.12297257
152	0x3c2a82ca	0.010407159
153	0x3e06493a	0.13113871
154	0x3e34d9e4	0.17661244
155	0x3cf36525	0.029711315
156	0x3e0fb74d	0.14034767
157	0x3e2d40b0	0.16919208
158	0x3d90ecde	0.07076429
159	0x3e0678c6	0.13132009
160	0x3e25d89d	0.16195913
161	0x3dd538a2	0.104111925
162	0x3df39347	0.11893325
163	0x3e03e905	0.12881859
164	0x3d3eaa52	0.04654915
165	0x3e234320	0.15943575
166	0x3e27c48e	0.16383573
167	0x3e2d9e60	0.16954947
168	0x3e028ece	0.12749788
169	0x3d54ea63	0.05198134
170	0x3df62f99	0.12020797
171	0x3e126cfd	0.14299388
172	0x3e15cc49	0.1462871
173	0x3d4bf428	0.049793392
174	0x3e23a524	0.15980965
175	0x3e2cbb6a	0.16868368
176	0x3e1f4356	0.1555303
177	0x3dbc42bf	0.09192418
178	0x3e3d8f05	0.18511589
179	0x3df09e9e	0.11749004
180	0x3e21e776	0.15810952
181	0x3da59c75	0.080864824
182	0x3df309d8	0.11867112
183	0x3d842dd6	0.06454055
184	0x3dd1104c	0.102081865
185	0x3d81da05	0.06340412
186	0x3e1e233b	0.15443127
187	0x3e1cf0a9	0.1532618
188	0x3dfaea41	0.12251712
189	0x3e0340b3	0.1281765
190	0x3e2de9ce	0.1698372
191	0x3d899a9c	0.067189425
192	0x3e2936e9	0.16524853
193	0x3d9f8e22	0.077907816
194	0x3e21c7db	0.15798895
195	0x3e3a09d4	0.18167812
196	0x3ddaec07	0.1068955
197	0x3e3421b8	0.17590988
198	0x3d9f0042	0.07763721
199	0x3e127f21	0.14306308
200	0x3e007666	0.12545165
201	0x3e20b3e4	0.15693623
202	0xbd81aca4	-0.06331757
203	0x3d67abe0	0.056560397
204	0x3dae8c21	0.08522821
205	0x3dd6d07a	0.104889825
206	0x3c848fbf	0.016181825
207	0x3e0cdca7	0.13756047
208	0x3e3852f3	0.18000393
209	0x3df7d4dc	0.121011466
210	0x3e02e171	0.12781312
211	0x3e0bfe48	0.1367122
212	0x3e25638c	0.16151255
213	0x3e097398	0.13423002
214	0x3e11141c	0.14167827
215	0x3d06655e	0.032811515
216	0xbd76468c	-0.060125872
217	0x3c72ce61	0.014819712
218	0x3d6f9393	0.058490347
219	0x3d49af14	0.049239233
220	0x3dbd3871	0.09239281
221	0x3e296d8f	0.165457
222	0x3d09cf48	0.033644944
223	0x3d928245	0.07153753
224	0x3d282aa4	0.04105629
225	0x3d9cfc46	0.07665305
226	0x3b906fe2	0.0044078687
227	0x3e13508d	0.14386196
228	0x3db8083d	0.08985946
229	0x3df8b3d7	0.12143677
230	0x3d1133cc	0.035449788
231	0x3e3207a8	0.17385733
232	0x3e3a8487	0.18214618
233	0x3e11e92e	0.14249107
234	0xbd6191fb	-0.05507086
235	0x3e02fa75	0.12790854
236	0x3e27e2be	0.16395089
237	0x3bf9ea75	0.0076268264
238	0x3d936801	0.071975715
239	0x3da40206	0.080081984
240	0x3e24b260	0.1608367
241	0x3e34df86	0.17663392
242	0x3d83b213	0.06430449
243	0x3dc99904	0.098436385
244	0x3e3272cd	0.17426606
245	0x3df90c12	0.12160505
246	0xbd847015	-0.064666905
247	0x3db92deb	0.09041961
248	0x3e2a1435	0.16609271
249	0x3e28e927	0.1649519
250	0x3dc6a9f8	0.09700388
251	0x3e26ee79	0.16301908
252	0x3d139a08	0.036035568
253	0x3d9b3661	0.07578731
254	0x3df52b36	0.119711325
255	0x3df90119	0.121584125
