rl_cartpole/policy_net0222_adam_lr0.01.pth (torch_old, 687773 bytes, 22 tensors)

conv1.weight f4 [16, 1, 5, 5]
000000 3c a7 b4 3f c5 13 92 40 e2 a4 41 3f 4e 35 e5 3f
       1.4113536 4.5649133 0.75642216 1.7906892
000010 16 1a ca bd 0a 70 86 c0 81 33 50 c0 15 55 a8 bf
       -0.09868257 -4.2011766 -3.2531435 -1.3150965
000020 ac 71 75 3e 20 cb 2e 3f d2 c2 8a 3f 46 09 aa be
       0.23969144 0.68278694 1.0840704 -0.332102
000030 83 5d bd 3f c0 b7 25 c0 14 c7 dd be 04 32 57 40
       1.4794163 -2.5893402 -0.43315947 3.3624277
000040 9f f3 9f bf 61 61 f7 bf 0b 8f 3d 40 9d 24 5a 3f
       -1.2496222 -1.9326593 2.9618556 0.8521212
000050 4e 98 b9 bf 46 64 70 3f 4a 59 7d 3f 41 de 4a c0
       -1.4499605 0.93903005 0.9896437 -3.1698153
000060 08 2e 27 bf b6 bd 32 c0 61 b3 1d be 82 70 4b bf
       -0.65304613 -2.792829 -0.15400459 -0.7946855
000070 45 d0 61 be 91 36 9a 3f dc 13 81 3e 3d 2f 53 bf
       -0.22052105 1.2047902 0.25210464 -0.82493955
000080 36 28 ee 3f ef 6e 66 bf b9 5a 88 be 67 0b b8 3e
       1.8606021 -0.9001302 -0.26631716 0.359462
000090 02 17 0d bf 2c dc ea bf 5b da 60 3f a2 6a 2c c0
       -0.5511323 -1.8348441 0.87833184 -2.6940084
0000a0 21 04 1b c0 41 df 05 3f 44 fc 34 40 09 aa d9 3f
       -2.422127 0.52293783 2.827897 1.7005016
0000b0 d6 14 1f c0 20 8c ab 40 5e 98 0d bf 36 43 7b c0
       -2.4856467 5.360855 -0.5531062 -3.9259772
0000c0 0d 1d 94 bf cf 14 5f 40 81 5d 47 3f 10 80 c6 3f
       -1.1571366 3.485645 0.7787705 1.5507832
0000d0 19 50 26 3d c2 2e b1 3f 9e 1d ef 3d f2 d5 ca 3e
       0.04060373 1.3842394 0.11675571 0.39616352
0000e0 64 6e 8c 3e e4 20 5a c0 e9 bb 53 bf af f3 47 3f
       0.2742797 -3.4082575 -0.82708603 0.78106207
0000f0 15 25 06 3f 78 8e 23 c0 77 68 14 c0 89 f6 92 bd
       0.5240033 -2.5555706 -2.318876 -0.07175929
000100 a1 54 0e 40 97 bd 31 c0 37 76 ae bf 26 56 23 bf
       2.2239153 -2.7771966 -1.3629826 -0.6380333
000110 0e 61 ef bf f9 10 9e bf a4 85 f3 bf 3d 07 33 bf
       -1.8701494 -1.234893 -1.9025159 -0.6993292
000120 4f 8f 1e 40 9e 22 5b c0 24 ae 84 bf bf e7 a4 3e
       2.4774969 -3.4239879 -1.0365644 0.32208058
000130 24 9c 23 be 01 a0 45 3d 26 45 1f 3f 07 fb 49 c0
       -0.15977532 0.048248295 0.6221489 -3.1559465
000140 5a 77 23 3f 75 eb fc 3f b9 41 39 bd e4 00 c7 c0
       0.6385399 1.9759356 -0.045228694 -6.2188587
000150 59 47 a6 bf 07 57 0c bf 20 82 f8 be c8 1a 09 3f
       -1.2990524 -0.54820293 -0.48536777 0.5355649
000160 c9 5d 2d c0 56 1a 6e 3f 98 43 ee bf 9c 52 76 bf
       -2.7088492 0.93008935 -1.8614378 -0.962198
000170 d0 7d 75 3e 8f a4 95 40 99 11 75 3f eb 09 91 be
       0.23973775 4.6763377 0.95729977 -0.2832788
000180 84 b0 b0 3e 4e f3 8f bf 6a de 06 40 78 bf b0 3e
       0.3450967 -1.1246126 2.107325 0.3452108
000190 02 9e 1b 40 e7 d1 e2 3e 02 23 af 3f 00 8a fe bd
       2.431519 0.44300768 1.3682559 -0.12428665
0001a0 e9 2c 19 3f ed d3 a5 bf 7f 8c 98 3d 0d 80 28 3f
       0.5983415 -1.29553 0.074486725 0.6582039
0001b0 87 bc c0 3f 5d ff 3c 3f 4d 97 9d 3e 57 1f d1 bc
       1.5057534 0.73827153 0.30779496 -0.02552764
0001c0 05 99 2a 3f 47 f3 ac 3e ff db 3d 3e 90 4c 12 bf
       0.6663974 0.33779356 0.18540953 -0.57148075
0001d0 d7 25 4b be 2b 74 91 3f 66 2f f8 bf f0 de a9 c0
       -0.19838654 1.1363577 -1.9389465 -5.308464
0001e0 5a c2 2e 40 b0 71 35 bf 0c 05 41 be 3e 47 a7 bf
       2.7306123 -0.708766 -0.18849581 -1.3068616
0001f0 c5 46 dc 3e bc 8f 41 40 52 ca 5d be cd db b0 3f
       0.43022743 3.0243979 -0.2165921 1.3817078
000200 54 b3 41 40 3c a9 b6 3f 01 b0 4d bf 91 1e 92 40
       3.0265703 1.4270396 -0.80346686 4.5662313
000210 4d e2 24 40 c7 b4 c6 bf ae f3 bf bd fd 6f f6 be
       2.5763123 -1.5523919 -0.0937265 -0.48132315
000220 1e 66 3c c0 10 22 87 3e 83 76 08 40 0f a4 df 3f
       -2.9437327 0.26393175 2.1322334 1.7471942
000230 b5 bb 9f bf 94 b1 72 3f 89 98 89 c0 a6 c5 52 c0
       -1.2479159 0.9480221 -4.29987 -3.2933135
000240 7b 34 e6 3e a9 b2 86 3f c8 09 fa 3e c2 31 d5 3e
       0.44961914 1.0523273 0.48835588 0.41639525
000250 ec e6 64 3e 54 f5 81 bf a5 cf c3 be c1 24 02 3f
       0.22353715 -1.0152993 -0.38244358 0.5083733
000260 02 36 03 bf fb 3c 1e be 62 ff 28 be 3e 92 cc be
       -0.51254284 -0.1545295 -0.16503671 -0.39955324
000270 77 3b 92 3c 01 e8 3f be 3b 69 ad 3c 07 8e 25 bf
       0.01785062 -0.18740846 0.021168342 -0.6466984
000280 a6 18 81 bf 6f 02 bf be 76 45 26 be e0 00 dd be
       -1.0085647 -0.37306544 -0.16237435 -0.4316473
000290 ab d9 1b 3e 5b d9 15 bf d2 7e fb be cf 05 34 3e
       0.15219752 -0.58534783 -0.49120194 0.17580341
0002a0 bc f8 20 bf 59 dd af be 9d 51 37 be a5 e1 66 bf
       -0.6287954 -0.34348562 -0.17902227 -0.90188056
0002b0 7f f7 4a 3f f9 95 cb be bc 81 ba bd a0 1c f7 bf
       0.792839 -0.39762858 -0.09106776 -1.9305611
0002c0 5b fc dd 3e 47 dc a4 3e d6 03 51 3f 44 cc b0 bf
       0.43356594 0.32199308 0.8164648 -1.3812337
0002d0 c5 cd 89 c0 dd ad b7 bf 51 0f 16 c0 39 59 3a 40
       -4.3063684 -1.4349934 -2.3446848 2.9116957
0002e0 3b ac 35 40 e6 ea 97 bf c8 38 b6 3f 77 d5 41 3f
       2.838637 -1.186856 1.4236078 0.75716347
0002f0 b1 cb 80 40 f7 cc a1 be 9e 27 e6 3f 22 98 00 bf
       4.0248647 -0.31601688 1.798084 -0.50232136
000300 42 d1 79 bf 1b 75 de bf 57 c1 17 bf ad b2 81 3f
       -0.9758493 -1.7379488 -0.5927939 1.0132653
000310 c0 9c 06 c0 04 97 35 40 c5 80 42 c0 e6 24 de 3e
       -2.1033173 2.8373423 -3.0391095 0.43387526
000320 b8 33 da be 47 f1 8a 3d bf c0 02 3f 5b 7a 41 be
       -0.42617583 0.06784301 0.5107536 -0.18894331
000330 d3 f1 f5 be e3 95 15 bf 3c 9e e9 3e 07 a4 6f 3e
       -0.4803606 -0.58431834 0.45628536 0.23402415
000340 59 5b ba bd ca b1 4b bf 20 d6 93 3e 7e 50 87 be
       -0.090994544 -0.7956816 0.28874302 -0.26428598
000350 75 04 93 bf e9 9b 49 3f a1 bf 44 3f f4 d3 4b 3e
       -1.1485735 0.78753525 0.768549 0.19905072
000360 8e a7 ae be 6e 36 8e bf 11 b2 65 bf c8 8d e1 bc
       -0.3411221 -1.1110361 -0.8972483 -0.027533427
000370 2d 7a 8c be 23 75 46 bf c6 04 71 be 76 0a 5a bf
       -0.27436963 -0.77522486 -0.23536977 -0.8517221
000380 7b 19 2d 3f 1f fa 4b bf 32 72 7f be 32 15 97 be
       0.67617005 -0.7967853 -0.24945906 -0.29508358
000390 89 b0 d4 c0 97 74 fe bf 4a 2d 2a be 98 ce b5 bf
       -6.6465497 -1.987933 -0.16618839 -1.4203672
0003a0 72 0b aa bf be 24 8e c0 95 30 23 bf b4 98 1a 3e
       -1.3284743 -4.441985 -0.63746005 0.15097314
0003b0 37 24 d6 bf ec 6a dd be a3 ba 19 c0 eb b9 d4 bf
       -1.6729802 -0.43245637 -2.4020164 -1.6619238
0003c0 7f a4 01 c0 08 56 58 c0 c6 c7 7f bf 18 fe 4e bf
       -2.025665 -3.380251 -0.99914205 -0.80856466
0003d0 af f0 f6 be eb da bf bf 2c 14 be bf 75 3f 4d be
       -0.48230502 -1.4988683 -1.4849906 -0.20043738
0003e0 56 59 1a 3f a9 98 75 be 1e 42 ef 3d 06 0f 2e 3f
       0.60292566 -0.23984016 0.11682533 0.67991674
0003f0 58 c4 90 3d 07 eb f7 3e fa 39 a2 3f fb cb a2 3f
       0.070686996 0.484215 1.2673943 1.27185

conv1.bias f4 [16]
000000 94 4f 49 bf 7e 31 5f 3e 9d ef ae 3e 3c c4 62 3e
       -0.7863705 0.21796224 0.34167185 0.2214517
000010 5a f6 ab 3d 8f 96 e7 be 94 aa 90 3e 47 e0 91 bf
       0.08396597 -0.45232055 0.2825514 -1.1396569
000020 1e 43 84 3e 36 2d 3d 3f 9d 9b 38 40 37 63 ae 3f
       0.25832456 0.7389711 2.884498 1.3624028
000030 6e fa ec 3f 46 0f 36 3e cf 57 b2 3f 95 08 5a 3f
       1.8513925 0.17779264 1.3933047 0.85169345

bn1.weight f4 [16]
000000 b0 fa 4e 40 ab 08 ed 3f 67 c7 c9 39 49 ca 20 40
       3.2340508 1.851827 0.00038486274 2.5123465
000010 28 5b 2e 3c b5 a2 e6 3f c0 16 28 3c 6e 86 38 3f
       0.0106418505 1.8018404 0.01025933 0.72080123
000020 44 46 94 ba af c4 aa 3f 6c 4c 47 40 f2 3e ce 3f
       -0.0011312445 1.3341273 3.1140394 1.6112959
000030 6e ed e6 3f ec 94 53 ba 9d 60 ca 3f 65 44 34 3f
       1.8041208 -0.00080712023 1.5810734 0.7041686

bn1.bias f4 [16]
000000 51 9d 42 40 09 1e be 3f ac be 48 bf 52 f7 71 c0
       3.0408518 1.4852916 -0.7841594 -3.7807202
000010 f1 6a 5c bf 6a 18 a3 3f 69 61 33 bf 08 3a 23 3f
       -0.8610068 1.2741826 -0.7007051 0.63760424
000020 82 36 09 be 65 2e 49 c0 13 60 81 40 66 9a 35 c0
       -0.133997 -3.1434567 4.042978 -2.8375487
000030 90 98 36 c0 e5 95 5b be e9 f6 0a c0 bc 4a fe 3e
       -2.8530617 -0.21443899 -2.1713202 0.49666393

bn1.running_mean f4 [16]
000000 cf c5 49 bf 21 ac 5b 3e 26 e1 ae 3e 34 92 63 3e
       -0.78817457 0.2145238 0.3415615 0.22223741
000010 3c b6 ab 3d d8 1f e7 be dd a9 90 3e 53 4b 91 bf
       0.08384368 -0.45141482 0.28254595 -1.1351112
000020 ea 3f 84 3e 00 85 3c 3f 1f 8f 38 40 6f 91 ae 3f
       0.25830013 0.7364044 2.8837354 1.3638133
000030 47 e6 ec 3f 86 14 36 3e b7 77 b1 3f b6 22 59 3f
       1.8507775 0.17781267 1.3864659 0.8481859

bn1.running_var f4 [16]
000000 04 9e 9c 3b 8c 91 38 3c 2c b6 10 3d 88 b2 87 3c
       0.004779579 0.01126517 0.035329983 0.016564623
000010 13 c0 88 3c ee 28 30 3c d5 0c 99 3b 19 eb 03 3d
       0.01669315 0.010751946 0.004670719 0.03220663
000020 8b 7e 78 3b 08 7c e6 3d 48 fc 2a 3b a4 ec 8f 3d
       0.0037917222 0.11254126 0.0026090313 0.070275575
000030 13 0f 2b 3d 3a 1c e8 3a 93 9f b9 3d 11 5a d7 3d
       0.041762423 0.0017708607 0.090636395 0.10515226

conv2.weight f4 [32, 16, 5, 5]
000000 ac e3 11 3f dc c5 22 3f 37 77 42 bf 32 6f d6 3f
       0.56988025 0.6358316 -0.7596316 1.6752684
000010 0d a4 c6 bf 90 54 6a c0 0e 6a be c0 31 f3 ba bf
       -1.5518814 -3.6614113 -5.950446 -1.4605466
000020 4e a3 88 c0 64 19 00 3e 7b 70 f8 3f c4 86 3e 3f
       -4.2699347 0.12509686 1.9409326 0.74424386
000030 1e 44 e2 3f 37 79 2f be 6b 30 61 40 47 df a6 bd
       1.7677038 -0.17136084 3.5185802 -0.081480555
000040 b3 a0 4f 3e 99 02 1b be e7 8b 21 c0 a3 be 61 be
       0.20276146 -0.1513771 -2.524164 -0.22045378
000050 ba be 83 3f 95 02 52 bf ef 8c b9 bf 62 6d 30 bf
       1.029258 -0.8203519 -1.4496135 -0.68916905
000060 1b 70 0a c0 f1 23 9e c0 7e 24 4c 40 d8 b1 0d c0
       -2.1630924 -4.9418874 3.1897273 -2.2139797
000070 d1 72 a3 3f cd 61 70 3f 76 d7 8f bf a4 97 18 3f
       1.2769414 0.9389923 -1.1237628 0.59606385
000080 a4 08 ea bb 86 db 8b 3e ba 7d 0d c0 bf c8 57 bf
       -0.0071421433 0.2731592 -2.2107987 -0.8429069
000090 ee e6 2b bf 3a d3 43 be 99 58 87 3f 32 b8 8e bf
       -0.67149246 -0.19123545 1.0573913 -1.1149962
0000a0 c8 aa f9 3e b3 93 84 c0 7c 22 b2 3e 8b 7f 5b c0
       0.48763108 -4.1430297 0.34791934 -3.4296596
0000b0 0f b2 c2 bf aa c6 1e bf dd 5b 2e bf ca 86 4e 3f
       -1.5210589 -0.6202189 -0.6810892 0.8067442
0000c0 53 d7 b6 be c2 8b aa bf 57 f4 ea bf 61 16 89 c0
       -0.35711154 -1.3323901 -1.8355817 -4.283982
0000d0 f1 a3 32 3c 66 7d 30 c0 b1 87 1c 3f 7f 40 58 c0
       0.0109033445 -2.7576537 0.6114455 -3.3789365
0000e0 1a 66 0e c0 78 ea f9 3e a8 b5 24 c0 1b f4 4f be
       -2.2249818 0.48811698 -2.5735874 -0.20307963
0000f0 ce f5 62 c0 64 e6 fe be d6 08 58 3e ef ba 7e bf
       -3.5462527 -0.4978515 0.2109712 -0.9950399
000100 fd 85 d7 bf 39 ce 85 c0 0c 1d b0 be e3 b8 31 3f
       -1.6837765 -4.1814237 -0.3439716 0.6942274
000110 68 05 b8 be c4 5f 91 c0 c3 7f 26 bf 29 dc f4 bd
       -0.35941625 -4.54294 -0.650387 -0.11956055
000120 bc 8a e4 bd 5b 5f 88 bf e6 b4 cf c0 13 67 6c 3f
       -0.11159274 -1.06541 -6.4908323 0.9234478
000130 21 85 fe 3f b7 34 77 3f e4 8e 8e 40 6b bc d5 3f
       1.9884378 0.9656481 4.4549427 1.6698126
000140 4d d1 aa c0 f8 aa 3c c0 34 4c 38 40 7f bf df be
       -5.3380494 -2.947935 2.879651 -0.43700787
000150 e2 7c 12 c0 b0 43 36 be b9 f6 2a c0 f9 0b 3b 3f
       -2.2888722 -0.17799258 -2.6713088 0.73065144
000160 f8 4d 5f 3d a5 fc bf bf 2c e6 92 be 19 61 8f bf
       0.054517716 -1.4998976 -0.28691232 -1.1201507
000170 93 33 bf 3e a8 4f 4d c0 f1 7c a7 c0 00 88 44 3f
       0.37344036 -3.2079868 -5.2340016 0.7677002
000180 a7 89 8d be 15 f5 a0 3f 3a 19 67 3e e7 0e 29 c0
       -0.27644083 1.2574793 0.22568217 -2.6415346
000190 f5 87 5b c0 0f 07 4a c0 74 d3 a9 bf 42 21 b6 bf
       -3.4301732 -3.1566808 -1.3267655 -1.42289
0001a0 0c c1 87 bf c3 a1 82 be b9 d1 b2 c0 b4 c3 99 3f
       -1.0605788 -0.2551404 -5.588101 1.2012849
0001b0 da 9b 87 bf 24 3a 8b bf 87 9c 40 bf c7 d3 cb bf
       -1.0594437 -1.0877118 -0.7523884 -1.5924004
0001c0 b5 3a d8 3f 37 8f ee bf 84 88 1c c0 c2 cc ac be
       1.6892916 -1.8637456 -2.4458323 -0.33749968
0001d0 69 28 3a 3f 9c ef d6 3d c8 d5 4f c0 35 4e 20 c0
       0.7271791 0.104949206 -3.2474232 -2.5047734
0001e0 48 9a f3 bf 7e 13 7c bf 6a ce ee be 9c de 28 c0
       -1.9031458 -0.9846724 -0.46641856 -2.638587
0001f0 af c6 b0 bf dd 55 83 c0 cc 60 22 bf 3a 8f 23 c0
       -1.3810633 -4.1042314 -0.6342895 -2.5556169
000200 d0 4b 13 3d a0 0e d2 bf ff e6 11 c0 da 95 56 3e
       0.035960972 -1.6410713 -2.279724 0.20955601
000210 7d 4d 43 c0 b6 d7 ce 3f fa 20 4a 3f 0e 49 8c 40
       -3.0516045 1.615958 0.7895657 4.383918
000220 61 8c df 3f 38 c2 ce bb fc e8 35 3f 5f 9d 5a bf
       1.7464715 -0.006309774 0.7105863 -0.8539638
000230 33 d6 19 c0 ee 15 94 3f 96 8f dc bf 52 20 e2 bf
       -2.4036987 1.1569192 -1.7231319 -1.7666113
000240 77 0e 25 be 76 f2 18 40 0d 97 a1 bf 72 9c 79 bf
       -0.16118799 2.3897986 -1.2624222 -0.9750434
000250 21 2d 15 c0 a2 ea 4e bf b3 84 4e bf 94 56 97 bf
       -2.3308794 -0.8082677 -0.8067123 -1.1823297
000260 e3 b5 2d bf 6b 9a 1f be a9 2c bf bf 0a a2 a5 bf
       -0.6785566 -0.1558625 -1.4935504 -1.2940075
000270 a0 db 14 c0 fd 9d 72 be 0f 20 d5 be f4 ed ff be
       -2.3259048 -0.2369308 -0.4162602 -0.4998623
000280 98 4d f8 3e b1 04 cf be b3 43 25 3e c1 41 ba be
       0.484967 -0.40433267 0.16139106 -0.3637829
000290 83 88 6f bd 3a 33 e2 3e 95 cd fc 3e 35 4d 9e be
       -0.058479797 0.44179708 0.49375597 -0.3091828
0002a0 fe 71 06 bf fe 76 dc bd 20 f6 7a 3e 55 25 01 bf
       -0.5251769 -0.107648835 0.24507952 -0.5044759
0002b0 c4 84 bf 3e 9a 8b 0f bf 4b 3d 14 3d d7 69 3f c0
       0.3740598 -0.5607239 0.036191266 -2.990835
0002c0 13 7c d2 3f fd 75 18 c0 6a cf 52 40 c7 b1 35 c0
       1.6444114 -2.3822014 3.2939095 -2.8389757
0002d0 c3 97 d2 be 7b d4 19 be 4b 26 9d c0 a6 1f 05 40
       -0.4113141 -0.15022461 -4.9109244 2.0800567
0002e0 35 59 44 bf c5 21 b1 bf 68 98 f4 bf 79 87 8d 3e
       -0.7669862 -1.3838431 -1.9109011 0.2764242
0002f0 99 73 2f c0 28 6a a7 bf fb 4c 1b 3f 53 35 21 bf
       -2.7414305 -1.3079271 0.6066434 -0.6297199
000300 2f 3b 22 c0 21 20 64 c0 6d 80 e3 3f 57 ef 75 3f
       -2.5348623 -3.564461 1.7773567 0.9606833
000310 e4 ab 68 bf e5 b0 9c bf 3c e0 6d c0 3b 0d 00 40
       -0.90887284 -1.2241484 -3.7168112 2.0008075
000320 c4 21 8e bf db db 76 bf 34 3f 8a be 5c c1 2c bf
       -1.1104054 -0.9642922 -0.27001345 -0.67482543
000330 f9 a2 9f 3d 38 16 ca bf 77 39 d9 bd 6c bf 1c be
       0.077947564 -1.5788031 -0.10606664 -0.15307397
000340 01 3b ee be 95 ae 26 be 9d 15 e2 be ef 4c 9c 3e
       -0.4652939 -0.16277535 -0.44157115 0.30527446
000350 9f 1a e7 3e 9b 1b f3 be 1a 0a ee 3d 82 5b 8d be
       0.45137498 -0.47482 0.116230205 -0.27608877
000360 05 66 42 3f 49 fa 76 bd 69 4c 29 3e 1c b5 89 bf
       0.7593692 -0.060297284 0.16533054 -1.0758395
000370 7c 8d 3e bc fb d4 0c 3f f9 37 22 be 1b 64 eb bd
       -0.011630412 0.5501248 -0.15841664 -0.11493703
000380 1c 1e 5d be 67 55 af 3f 73 66 88 3f 88 2c ae 3f
       -0.21593517 1.3697938 1.0656265 1.360734
000390 ce af 1a 40 43 3c 40 3f d8 21 aa bf 3b b5 7c c0
       2.4169803 0.7509195 -1.3291578 -3.9485614
0003a0 55 c6 af 3f 9e 85 92 bf 68 29 5a bf f4 cd 7e bf
       1.3732401 -1.1447027 -0.8521943 -0.9953301
0003b0 07 b8 b2 c0 16 86 98 bf 0d 07 8a c0 29 46 cd bf
       -5.5849643 -1.191592 -4.3133607 -1.6037036
0003c0 fc 69 86 3e 56 ab 05 c0 d5 18 42 bf 94 01 44 c0
       0.26252735 -2.0885825 -0.7581914 -3.0625963
0003d0 12 c1 54 c0 6a ca 67 3f 88 54 1c c0 fc 94 b1 bf
       -3.324284 0.90543234 -2.4426594 -1.3873591
0003e0 fb 25 14 c0 13 65 ea c0 5f db 0c be 03 5a 10 40
       -2.3148181 -7.324838 -0.13755558 2.2554939
0003f0 80 3f 7b be 38 41 e6 3f 0b 12 73 bf 8b 31 c6 bf
       -0.24535942 1.7988653 -0.94949406 -1.5483869

conv2.bias f4 [32]
000000 75 2b 86 bd d9 0f 4d be 3e 34 d7 bd 0b 13 94 bd
       -0.065512575 -0.20025577 -0.10508011 -0.07230195
000010 e4 32 f9 3d a8 d7 b7 3d 4c 0b 31 bd aa 1d 8d 3e
       0.1216791 0.0897668 -0.043223664 0.27561694
000020 b8 a6 58 bd 68 4d 9c bd 8f b0 6a bd 61 44 a7 3d
       -0.05289337 -0.076319516 -0.057297286 0.08167339
000030 9c f2 51 bc c3 5b de 3c c6 14 2e bd 44 b4 cc bd
       -0.01281419 0.027143365 -0.04250028 -0.099953204
000040 ec 68 99 ba 7a ce 3e bc da 15 78 3c 76 c9 34 bd
       -0.0011704243 -0.011645908 0.015141929 -0.04413744
000050 1e 15 00 be 15 49 fa 3d 3c ba 4a 3d 5a c2 23 be
       -0.12508056 0.122209705 0.049494013 -0.15992108
000060 bc b3 2d 3d e8 af 1d be 61 8b 25 3e 02 57 bf 3b
       0.042407736 -0.15399134 0.1616645 0.0058392296
000070 cf 0d bc bd d0 2d 19 bd 13 cd 5e bd e7 b0 6f 3d
       -0.09182321 -0.037397206 -0.054394793 0.058518317

bn2.weight f4 [32]
000000 9d 28 1d 40 6a c7 a2 40 db 21 84 40 b7 56 a7 3f
       2.4556038 5.0868425 4.1291327 1.3073338
000010 cb ed 8b 40 98 82 63 40 63 b6 87 3f 3d 60 b9 40
       4.3727775 3.5548458 1.0602535 5.792998
000020 31 31 81 40 7c b0 1c 40 42 96 66 40 a5 e1 70 40
       4.037255 2.4482718 3.602921 3.7637722
000030 98 31 88 bb 61 46 19 40 0d c1 a2 3f 60 76 6a 40
       -0.0041563027 2.3949206 1.2715164 3.663475
000040 cd 54 63 40 05 2c 86 3f d5 eb 0b 40 27 78 a2 3f
       3.5520508 1.0482184 2.186269 1.2692918
000050 f8 ee 7a 3f bd 1a 77 3f a9 e9 ce 3f fe b1 83 40
       0.9802089 0.96525174 1.6165057 4.1154776
000060 c2 55 a1 3f e9 68 da 3f 2b 05 86 40 13 54 93 3f
       1.2604296 1.7063266 4.188131 1.1510032
000070 f4 5c 82 40 d9 b4 7f 40 52 14 8e 40 1f 08 83 40
       4.073847 3.995413 4.4399805 4.0947413

bn2.bias f4 [32]
000000 58 89 a0 3f 7a 99 b9 bf 8b 5d 14 bf 8e 68 bb 3d
       1.2541914 -1.4499962 -0.57955235 0.091508016
000010 bb cc bf be 22 ed 99 bf 54 d3 67 c0 d9 de 2c bf
       -0.37460884 -1.2025492 -3.6222734 -0.6752754
000020 1d a3 78 bf c4 90 94 bf e6 a8 91 be 79 8f 08 bf
       -0.9712389 -1.1606679 -0.28449172 -0.5334392
000030 11 06 0d be 34 ea bb bf b2 63 31 c0 4f a8 71 bf
       -0.13771845 -1.4680848 -2.77171 -0.94397444
000040 f7 e5 26 bf ed e1 b0 bf 1a 1e b9 bd 90 c7 50 bf
       -0.6519465 -1.3818947 -0.090389445 -0.8155451
000050 24 7f bd ba c6 97 0d c0 33 16 b1 3e 80 1f 53 bf
       -0.0014457447 -2.2123885 0.3458725 -0.8246994
000060 5d c2 d6 bf 31 7c 0d bf ca ba 73 bf 27 f3 e7 bf
       -1.6778065 -0.55267626 -0.9520689 -1.8121079
000070 9b bf 8c bf c3 f2 51 bf 0c 25 23 bf 57 b8 3c bf
       -1.0995973 -0.8201105 -0.63728404 -0.7371878

bn2.running_mean f4 [32]
000000 3a ed 37 c3 b2 72 3d c3 8e c3 80 c3 70 e0 10 c2
       -183.92667 -189.44803 -257.52777 -36.219177
000010 8f 6d 90 c3 2d ee d7 c2 d8 98 cd 42 c6 7d 47 c3
       -288.85593 -107.96519 102.79852 -199.4913
000020 5a 62 21 c3 b1 9f e9 c2 33 a9 59 c3 a6 b2 41 c3
       -161.38419 -116.8119 -217.66093 -193.69785
000030 7a dc aa 41 71 7a 16 c3 f3 6a e3 41 10 da 07 c3
       21.357655 -150.47829 28.427221 -135.8518
000040 51 a2 1d c2 cd ea e5 c1 3b b9 29 c3 38 cb 23 c0
       -39.408512 -28.739649 -169.72356 -2.5592785
000050 aa 13 58 c2 33 0f 12 42 9f 7d 3a c2 94 d2 06 c3
       -54.019203 36.514843 -46.622677 -134.82257
000060 0d 08 6b 42 cd 82 1e c2 2b f4 1f c3 e5 4c 97 c2
       58.757862 -39.627735 -159.95378 -75.650185
000070 13 12 34 c3 40 76 8b c2 dc 5b 72 c3 34 a5 36 c3
       -180.0706 -69.73096 -242.35883 -182.64532

bn2.running_var f4 [32]
000000 5f f4 f3 45 21 fb ae 45 28 73 01 46 7c d1 2f 45
       7806.5464 5599.391 8284.789 2813.0928
000010 45 3f da 45 b3 60 81 45 3b b1 32 45 61 99 d8 45
       6983.9087 4140.0874 2859.077 6931.1724
000020 4b 58 b4 45 9a 82 82 45 02 77 99 45 90 3e b8 45
       5771.0366 4176.325 4910.876 5895.8203
000030 78 44 1f 43 4f 1f 6b 45 43 d9 64 45 b4 2a c2 45
       159.26746 3761.9568 3661.5789 6213.338
000040 ad ce 68 45 73 0d 43 45 3b 82 b0 45 85 d3 2e 45
       3724.9172 3120.8406 5648.279 2797.22
000050 3d 23 3c 45 4f ab 8a 45 a5 d4 6a 45 e4 db 80 45
       3010.2024 4437.4136 3757.2903 4123.4863
000060 bc 66 3c 45 ff ed 6c 45 75 3f b6 45 ec 05 37 45
       3014.421 3790.8748 5831.932 2928.37
000070 b7 2a e7 45 57 ed a4 45 cf 02 e1 45 12 dc a9 45
       7397.3394 5277.6675 7200.351 5435.509

conv3.weight f4 [32, 32, 5, 5]
000000 c5 c1 f8 bd 1f 62 c7 bd 2c 18 b9 3d 53 df a7 bd
       -0.121463336 -0.09735512 0.090378135 -0.081968926
000010 1e f7 5b 3c 5b 65 51 bd 52 63 3d bd 47 5f 9b 3d
       0.013425617 -0.05112205 -0.046237297 0.07586532
000020 ab 9f 84 bd af 78 ef bc 5f 2c e2 bd f9 4b 85 bd
       -0.06475767 -0.029232351 -0.11043619 -0.06508631
000030 2e 12 88 3d c6 9d 0c bd 9e fc c4 bc e7 59 07 be
       0.066440925 -0.034330152 -0.024046239 -0.13217889
000040 b4 08 97 bd 08 2a de 3b fe fd 78 bd e3 83 fa bc
       -0.07374707 0.006779913 -0.0607891 -0.030580467
000050 f1 07 42 bd 71 98 c2 3d f4 2d a6 bc c9 1e 83 bd
       -0.047370855 0.09501732 -0.020285584 -0.06402356
000060 9c 2a d1 bc 4f 4c 89 bd 97 51 56 bd b4 aa 82 3b
       -0.025533013 -0.06704008 -0.052323904 0.0039876346
000070 7c 1d a6 3d 03 b4 69 bd a6 14 21 bd d3 36 6b bd
       0.081110924 -0.05705644 -0.039326333 -0.05742533
000080 f1 eb ac b7 a6 69 c8 3d 2e 66 96 bd 2b 78 89 bd
       -2.0613867e-05 0.09785776 -0.07343708 -0.06712373
000090 8d fd 93 bd f4 48 1a bd 4b b1 12 3e b1 ea 26 bd
       -0.07226095 -0.03766723 0.14325444 -0.040751163
0000a0 d8 c8 57 bd ea f9 51 bd 4b c9 2a bd 85 95 fb 3d
       -0.052681774 -0.051263727 -0.041695874 0.12284378
0000b0 e5 52 87 3a a9 fe ce bd d7 f2 4f bd 98 15 00 bd
       0.0010324387 -0.10107166 -0.0507687 -0.031270593
0000c0 aa 47 bc bc 81 9f 5f bd 22 e1 6e 3c 07 40 44 3d
       -0.02298339 -0.054595474 0.014580043 0.047912624
0000d0 85 7b 02 3d 28 f4 ea 3c 76 bf d7 bc bd b7 90 3d
       0.03185608 0.028680876 -0.026336413 0.07066295
0000e0 48 52 88 3d 8a 64 a8 3c 62 cc 05 3d a3 60 2c 3d
       0.06656319 0.020555753 0.032665618 0.042084347
0000f0 82 4e 21 3d f8 54 af 3d bd 49 af 3d 3c 5e 35 3c
       0.03938151 0.085611284 0.08558986 0.0110698305
000100 a5 42 f7 3b f3 80 04 bc 3a 9e f0 3c cd 81 9f 3d
       0.0075457864 -0.0080873845 0.029372323 0.077884294
000110 d8 69 90 3c f8 52 2e bc 9e d0 f5 3c 2b 84 9a 3b
       0.017628595 -0.0106398985 0.030006703 0.0047154627
000120 f1 3c 93 3d ce 47 f0 3c 22 67 81 3a b6 cf c3 3c
       0.07189358 0.029331114 0.0009872655 0.023902755
000130 13 fc b2 3d 17 4a 01 3e eb d7 71 bd 2e 87 07 bd
       0.087394856 0.1262592 -0.059043806 -0.0330879
000140 88 d1 24 bd d5 ee ea 3d 8c 7f 1d bc 66 8e 21 3c
       -0.040238887 0.11471335 -0.009612929 0.009860611
000150 25 cc 6a bd 5f ae bc bd ee b4 05 3e 45 37 63 bd
       -0.057323594 -0.09212946 0.130573 -0.05547263
000160 54 e3 c9 bc 5f 4b 0d bd 1a 99 aa bd e0 24 15 3e
       -0.024644531 -0.034495708 -0.08329983 0.14564848
000170 37 4f 90 bd 8b e5 2c bd aa dd 82 bd 85 22 03 bd
       -0.07046359 -0.042211097 -0.06389935 -0.032015342
000180 2d de cb 3d 07 d7 03 bd af c7 9b bd 04 84 83 bd
       0.09954486 -0.032187488 -0.07606446 -0.06421664
000190 d3 bc 8e 3d e9 e8 6f bd 2c 2c b0 3c a9 54 c3 3d
       0.06969609 -0.05857173 0.021505438 0.09537632
0001a0 c1 e7 d9 3c 5a 81 8e bc 00 1f b1 bd 06 25 c3 3d
       0.026599767 -0.017395664 -0.08648491 0.09528546
0001b0 5d 18 d0 3d 5e 8f d9 3c cf 2e 92 3c 37 a6 8a bd
       0.10160897 0.02655762 0.017844586 -0.06769984
0001c0 9d 72 ad 3d 8d 8f 43 3d 04 a2 d2 3c e8 1b 6c 3d
       0.084691264 0.047744323 0.02571202 0.0576438
0001d0 80 f9 33 3c 78 60 90 3d 56 54 8e 3d 95 3b 7f 3d
       0.010984778 0.0704965 0.069496796 0.06231268
0001e0 b6 60 fa bb 90 ef be 3c 53 0d 93 3d 16 fd 36 3d
       -0.0076409234 0.023307592 0.07180276 0.044674955
0001f0 ae 68 3a 3d 62 0a cb bd ef b6 29 bd 9d ca b9 3d
       0.045509987 -0.0991409 -0.041434225 0.090718485
000200 5e 2a 2f 3c 30 1f 82 bd ea 90 a3 bd a5 82 44 3d
       0.0106912535 -0.06353605 -0.079866245 0.047976155
000210 7b 7d 5b 3d 76 6f 4c bd af 9f db bd 0f ec cc bd
       0.053586464 -0.049910985 -0.107238166 -0.10005962
000220 d5 c5 96 3c aa a6 41 3d 92 71 1b bd 67 d6 ca bd
       0.01840488 0.047278084 -0.037950106 -0.09904175
000230 46 de e9 3c 83 51 46 3c e9 02 c7 3d 0d fb c9 bd
       0.028548371 0.012104395 0.09717352 -0.09862337
000240 3c e4 41 bd e6 f6 b9 bd c8 97 15 3d b0 81 62 3d
       -0.047336802 -0.09080295 0.036521703 0.05529946
000250 70 16 e2 bd 26 0b 86 bc 22 80 9d bd 0d 43 9c bd
       -0.11039436 -0.016362738 -0.07690455 -0.076299764
000260 6c ba c7 3d 44 c8 7e bc eb 10 a3 bd 11 4b 46 bd
       0.09752354 -0.015550677 -0.07962211 -0.048411433
000270 21 34 11 bc e0 1a ff 3d 66 fa ba bb e3 19 db bd
       -0.008862526 0.12456298 -0.0057061194 -0.10698297
000280 fa 98 5c bd c9 b8 cb bc a7 85 00 3e 67 c2 15 bd
       -0.053856827 -0.024868386 0.12550984 -0.03656235
000290 c2 0b 0d bd 31 93 90 bd 62 b5 6a bd 6c f8 f4 3d
       -0.03443504 -0.070593245 -0.057301886 0.11961445
0002a0 a1 b1 71 bc 25 59 92 bd 97 08 f3 3b 9c 15 3f bc
       -0.014751823 -0.07145909 0.0074167955 -0.011662867
0002b0 3b b2 e7 3d 0f 88 b2 bc 9e 7d a2 bd e2 60 cf bd
       0.11313292 -0.021793393 -0.07934116 -0.10125901
0002c0 c4 cf 0f bc ea 3c 42 3d 34 25 3f bd 76 09 74 bd
       -0.0087775625 0.047421373 -0.04666634 -0.059579335
0002d0 c8 20 51 bd 65 6d a1 bc c0 8b c3 3d 74 7b 3f bd
       -0.051056653 -0.019705484 0.095481396 -0.046748593
0002e0 45 f6 2e bd 1d 19 8c bd f2 a2 5b bd db dc a4 3d
       -0.04271533 -0.068407275 -0.053622194 0.08049937
0002f0 22 ac 81 bd 06 f9 6d bd 21 75 1e bd cf 0c cc 3d
       -0.0633166 -0.058098815 -0.03868592 0.099633805
000300 cd 06 8d bd e1 24 02 3c 2c 15 d7 bc 81 de 90 bd
       -0.06886063 0.007943363 -0.026255213 -0.07073689
000310 4c c5 26 3b 76 10 ca bd 77 80 97 bd dd b7 81 bd
       0.0025447188 -0.09866421 -0.073975496 -0.06333897
000320 80 df 41 bd 61 b0 6f bc ba f1 ff 3b a9 0a 25 3d
       -0.047332287 -0.014629454 0.0078107985 0.04029337
000330 ec 73 82 ba af bb 86 bd f7 d5 80 3c 5a 84 a3 3b
       -0.000995276 -0.065787666 0.015727026 0.004990143
000340 3b 56 dd 3d d5 3c 4b bd f2 89 8e bd 4d 9a ac 3b
       0.10807463 -0.04961856 -0.06959905 0.0052674175
000350 ec 6d 3e bc 39 1e eb 3d 2c c6 a8 bd 4f 9f a4 bd
       -0.011622887 0.11480374 -0.08240923 -0.08038198
000360 5a 4c 24 bd 4a 06 dc 3d 7c bb 90 3d 98 61 4f bd
       -0.040111877 0.10743387 0.0706701 -0.050630182
000370 a8 fb 30 3c a0 e0 aa bc f5 6f 05 3e b6 f4 c0 3d
       0.010802187 -0.020859063 0.1303099 0.09421675
000380 f8 85 aa bd cc 8b 87 bd 58 13 84 bb 01 64 b4 3d
       -0.08326334 -0.06618461 -0.0040306263 0.08808137
000390 23 eb e0 3d 71 7d 00 bd b0 66 85 bd 39 75 1a 3d
       0.10982349 -0.03136963 -0.06513727 0.03770945
0003a0 5e 5a 7a 3d 64 96 f9 3c aa 1c 97 bc 0d 2c 1c bd
       0.061121337 0.03046722 -0.018446285 -0.038127948
0003b0 55 26 a4 3d 6c 53 27 3e 0a ec 10 3c a9 af 38 bd
       0.08015124 0.16340417 0.008845339 -0.045089398
0003c0 f8 3c d6 bb d6 ef c3 3d fa dc 2e 3e 4f 2b 8f bd
       -0.0065380298 0.095672294 0.17076483 -0.06990682
0003d0 a8 40 40 bd 45 0a 4e bd 74 c0 9a bc 58 aa 3d bd
       -0.04693666 -0.050302763 -0.018890597 -0.04630503
0003e0 cc a3 8a bd 2e cd 85 bc 4b 6d f3 3a 52 30 7a 3c
       -0.06769523 -0.016333189 0.0018572 0.0152703095
0003f0 11 b1 ae 3c 91 e5 9b 3d 44 de d5 bd c1 1e d0 bc
       0.021324666 0.07612146 -0.104427844 -0.02540529

conv3.bias f4 [32]
000000 1f df 12 bb f0 9c 18 bd 58 7f 78 bd ea 28 7d 3d
       -0.0022410823 -0.037259042 -0.06066832 0.061806597
000010 cb 18 93 bc bc 22 9a bc ef 49 b8 bd 3f 0d 18 be
       -0.017956158 -0.01881539 -0.08998477 -0.14848803
000020 81 1f 21 bc 31 46 15 bc b7 ea ed bb 65 81 8e bc
       -0.009834171 -0.009110973 -0.007260646 -0.017395684
000030 04 89 30 bd 40 a5 16 3c 10 e9 8c bc e7 86 2a bd
       -0.04309942 0.009194672 -0.017200977 -0.04163256
000040 d5 7d 10 3c 31 70 f3 3c 16 b3 88 3d 63 d0 19 3c
       0.008819063 0.029716583 0.06674783 0.009388062
000050 65 2a ad bd f5 1f cf ba 00 44 02 3d 33 98 64 bc
       -0.08455352 -0.0015802371 0.03180313 -0.013952303
000060 eb c8 62 3c a2 e8 89 bc 0a 47 ae 3d f8 b1 06 3e
       0.013841848 -0.01683456 0.085096434 0.13153827
000070 59 35 78 3c 04 54 3c be d6 08 45 3d fe 79 a4 3c
       0.015149438 -0.18391424 0.04810413 0.020077702

bn3.weight f4 [32]
000000 8b 2b 53 3b fe 6e 10 40 62 63 24 40 40 e6 6f 3d
       0.0032221999 2.2567744 2.5685658 0.058569193
000010 bd 0b d1 3e 00 d8 e7 3f e8 f7 fa 3f c9 64 11 3f
       0.40829268 1.8112793 1.9606905 0.5679441
000020 b1 67 17 bb af 7d d6 3f 81 97 8e 3d f0 42 c0 3f
       -0.0023102576 1.6757106 0.06962491 1.5020428
000030 d0 0e 15 3e 6d 73 e5 3f 4a b0 65 3d a9 a1 01 bd
       0.14556432 1.792585 0.056076325 -0.03164831
000040 89 43 b3 3d a5 f9 b5 3c 41 18 c4 3f 85 e1 0b 3f
       0.08753116 0.022213766 1.5319902 0.5464099
000050 c9 56 7d 3f 2f 24 f5 3d cc d5 72 3e dd 6c 78 3c
       0.9896055 0.11969792 0.2371437 0.015162674
000060 75 1f dd 3f ce f8 79 3e 8b 38 29 3e 55 9f 15 40
       1.7275225 0.24411318 0.16525476 2.3378499
000070 39 32 da 3d 54 96 d8 3f 6e ec 04 40 7d 31 2a 3e
       0.106541105 1.6920877 2.0769305 0.16620441

bn3.bias f4 [32]
000000 de 0e 9a bd 64 7e fa bf 95 5a e0 bf 97 fb 2f bf
       -0.07522367 -1.9569821 -1.7527643 -0.6874327
000010 02 02 9c bf 85 dc 08 c0 0d 3b 22 c0 aa f7 99 bf
       -1.2188113 -2.1384594 -2.5348542 -1.2028706
000020 e9 bf ea bd 6b 90 2b c0 67 94 05 be fb 5d b3 bf
       -0.11462385 -2.6806896 -0.13044892 -1.4013056
000030 5b 4b ce be 54 f7 36 c0 20 4c eb bd ed d5 10 bf
       -0.40291867 -2.8588457 -0.11489129 -0.56576425
000040 90 4e 3f bf 27 00 e7 bd 25 ad 68 c0 d5 5b 8d bf
       -0.7472925 -0.11279326 -3.635568 -1.104365
000050 6d c1 13 c0 d0 9d ab be 7a 75 c7 be 0f 40 6b bd
       -2.3086808 -0.3351884 -0.38956815 -0.057434138
000060 56 e5 18 c0 d2 a0 0d bf fb a1 7a 3e 2c f2 2d c0
       -2.3889976 -0.5532352 0.24475853 -2.717906
000070 b3 df 84 be bd a0 26 c0 4b b4 37 c0 57 0e ab be
       -0.2595192 -2.6035607 -2.8703792 -0.33409378

bn3.running_mean f4 [32]
000000 12 34 37 bf aa bb 35 c2 80 30 16 c2 39 74 55 c1
       -0.7156383 -45.433266 -37.547363 -13.340875
000010 ab cd 19 c0 67 97 a7 41 72 e9 b0 c1 2a a7 f2 c1
       -2.403178 20.948927 -22.113987 -30.331623
000020 0e ea dd c0 bc e8 f9 bf b5 a2 27 c1 94 d7 13 c3
       -6.934821 -1.952415 -10.477223 -147.8421
000030 5d 59 38 c1 5a e0 90 41 d3 02 04 c1 43 cf 8d 40
       -11.521817 18.109547 -8.2506895 4.4315505
000040 fe 25 93 c1 c6 14 e9 c0 41 68 03 42 57 35 6a c1
       -18.39355 -7.283786 32.85181 -14.638022
000050 d5 2e 56 c2 82 30 71 c1 03 a7 aa c1 42 26 5b c1
       -53.545734 -15.074343 -21.331549 -13.69684
000060 a9 c0 30 c2 65 62 87 c1 ee 1a 07 c1 0d 2d 34 c2
       -44.188145 -16.923044 -8.444075 -45.043995
000070 52 b9 5c c0 fa 05 70 c2 0c 12 a1 c1 2c 10 aa c0
       -3.448811 -60.005836 -20.133812 -5.314474

bn3.running_var f4 [32]
000000 ff df 37 40 2a db 05 46 92 4e 2a 46 88 87 ed 44
       2.8730466 8566.791 10899.643 1900.2354
000010 56 c8 e4 44 d8 e5 36 46 57 cb f4 45 d0 a0 a0 44
       1830.2605 11705.461 7833.4175 1285.0254
000020 53 c3 9f 41 a5 c3 94 45 f8 e1 b6 41 a9 67 10 46
       19.970373 4760.4556 22.860336 9241.915
000030 11 50 89 42 6c ce b1 45 76 66 94 41 73 90 83 44
       68.65638 5689.8027 18.55003 1052.514
000040 97 79 b6 44 a3 5e c4 41 a0 3d 81 45 93 11 e7 44
       1459.7997 24.54621 4135.703 1848.5492
000050 c9 5a f7 45 c6 67 91 43 b0 33 d5 42 77 90 53 41
       7915.348 290.81073 106.60095 13.22277
000060 03 2a cf 45 cd 01 2d 44 66 66 b1 45 6f d8 af 45
       6629.2515 692.02814 5676.8 5627.054
000070 c0 ab 72 43 f4 bb c1 45 a3 e5 8e 45 ca a7 0d 43
       242.6709 6199.494 4572.7046 141.65543

fc1.weight f4 [256, 512]
000000 06 23 2d 3d ca 54 0d bc cd 76 68 bc d2 04 97 bc
       0.04226973 -0.008626172 -0.014188481 -0.018434916
000010 2c e6 9d bc 54 17 02 bc c5 39 5b 3c da 98 35 3d
       -0.019274794 -0.007940132 0.013380473 0.044335224
000020 c6 7e 38 3d d1 0f 3a bc 87 cd 6e bc 2f 5f 64 bd
       0.045042776 -0.01135631 -0.014575369 -0.055754837
000030 c1 be 36 bd 05 5a d5 bd cf 04 c7 3c da f1 8d bc
       -0.04461551 -0.104175605 0.024294285 -0.017327238
000040 46 01 c9 bd b8 2e 72 bd 88 f8 ae bd 1f 18 45 bd
       -0.09814696 -0.059126586 -0.08543497 -0.048118707
000050 61 7e 23 bd 4f 5c 7f bc 39 59 8e be e0 8e f0 bd
       -0.039915446 -0.015585973 -0.27802446 -0.11746001
000060 b2 31 d6 bd d3 9d a4 bd 32 9e 09 be 00 16 44 bd
       -0.104586974 -0.08037915 -0.13439253 -0.047872543
000070 b9 3f ae bd 74 9b 08 be 08 cd 03 be f5 af d3 bd
       -0.08508248 -0.1334055 -0.12871182 -0.103362955
000080 2a 82 06 bd 88 9f 8f bd cc 8c 7e bd 89 0b 0e be
       -0.032838978 -0.0701285 -0.062145993 -0.13871588
000090 10 1a d0 3c 0d 40 e3 bd 58 7b 23 be fa ad 16 bd
       0.025403053 -0.11096201 -0.1596502 -0.03678701
0000a0 2e f1 94 bc 10 e7 0a bd 0b a4 f9 bd 8d ce 51 bd
       -0.01818141 -0.033911765 -0.12189492 -0.051222373
0000b0 04 d7 b2 bd 8e 01 82 bd 58 87 fb bd 9a 4c 72 bd
       -0.08732417 -0.06347953 -0.12281674 -0.059155084
0000c0 10 6a 94 bd 4e 53 11 bb aa 3f 9d bd ea f9 da bc
       -0.07246792 -0.0022174898 -0.076781586 -0.026730496
0000d0 5e c9 5e be b6 f8 9d 3d 62 87 6c be 58 5f 67 bc
       -0.21756503 0.077134535 -0.2309852 -0.014121853
0000e0 c3 05 76 bb c9 d9 4d bd db a1 68 bd e2 8e 0b be
       -0.0037540055 -0.050256524 -0.056794982 -0.13628724
0000f0 a3 a1 9a bc c3 be 50 bd 2d b8 13 bd b6 c4 b6 bc
       -0.018875903 -0.050963175 -0.036064316 -0.022310596
000100 ed e3 e6 bd 2e 9e 37 bd 46 60 0b be 1a 8b dd bc
       -0.11273942 -0.044828586 -0.13610944 -0.027043868
000110 fe ed 67 bd cf cb b0 bc a4 6c 84 3d 1c ad af bd
       -0.05662345 -0.021581559 0.06466034 -0.0857794
000120 1c e9 af bd ca 8e dd bd 3c 65 da bb 82 b2 0f be
       -0.08589384 -0.108182505 -0.0066649 -0.14032939
000130 b6 7e 30 bd 5f bd a5 bc 89 dd f3 3c f9 d1 3f bd
       -0.04308959 -0.0202319 0.029768722 -0.046831105
000140 b6 3d 3f 3b 86 77 d9 bb 41 de 34 bd 58 c1 03 bb
       0.002918107 -0.0066365628 -0.04415727 -0.0020104256
000150 58 4f 11 3b 95 a8 44 be ea 7c 2c bd 1f 66 d6 bc
       0.0022172537 -0.19204934 -0.042111315 -0.026171742
000160 23 23 a8 bb de b5 9c bd 85 a2 48 bd 8f 20 be 3b
       -0.0051311417 -0.07651876 -0.048983116 0.005802221
000170 04 92 f1 3d 57 a2 10 be 2d 2c 75 bd 2c c0 14 bd
       0.117954284 -0.14124428 -0.059856582 -0.036316082
000180 e1 a6 9f 3d c6 ca 22 3d 4b 6d 58 bd 08 ff 10 be
       0.077955015 0.03974416 -0.052838605 -0.14159787
000190 91 9a b7 be e3 fa 3d b7 43 47 a4 3c db 43 8a 3d
       -0.35860112 -1.1323692e-05 0.020053511 0.06751224
0001a0 79 13 bf 3d ad f3 98 3d f0 74 f4 bd cf 0e 3a be
       0.09329886 0.074683525 -0.119363666 -0.18169712
0001b0 6a f1 1d bf 0b f2 dc 3c c8 aa 85 3d 5e bd 54 3d
       -0.61696494 0.026970884 0.065267146 0.051938407
0001c0 32 30 f4 bb 7f ac 59 bd ce f4 76 bc 6e 2e 50 bd
       -0.0074520344 -0.05314302 -0.015073014 -0.05082553
0001d0 2e cb b1 bd 55 34 98 3d a3 59 db bc fa fd 8a bd
       -0.086813316 0.074318565 -0.02677614 -0.067867234
0001e0 9a 9b 67 bd ab 9d 87 bd 82 01 91 bd 8e f2 70 bd
       -0.056544878 -0.0662187 -0.07080366 -0.05882507
0001f0 08 83 0b be 83 be aa 3c 89 9e 1f be 12 f2 c3 bb
       -0.13624203 0.020842796 -0.1558782 -0.0059797848
000200 33 81 3b bd 5d a3 7f bd bb 54 99 bb 10 b1 9b 3d
       -0.04577751 -0.062411655 -0.00467929 0.07602131
000210 77 8d 4f 3d 4c 81 6d 3d 33 a7 97 bc 00 6b 15 bd
       0.05067202 0.057984635 -0.018512344 -0.036478996
000220 c4 63 96 bd 8b 5a da bc 2a 3d 4d 3c e0 17 30 3d
       -0.073432475 -0.026654502 0.01252679 0.04299152
000230 55 65 52 3d 7a 2b 15 3d a5 aa f1 bc 23 dc a6 bd
       0.05136617 0.036418416 -0.029500315 -0.081474565
000240 6e 16 99 bc 74 f9 1d 3c e7 c1 d4 3c 78 7e 12 be
       -0.018687453 0.009641994 0.025971366 -0.14306056
000250 dd aa 37 be cd 1b 92 bd c8 62 36 c0 11 b3 c3 bc
       -0.17936273 -0.07134209 -2.8497791 -0.023889096
000260 22 b0 10 bd a3 ea 07 bd 4d 41 60 be 04 14 79 bd
       -0.035324223 -0.03318275 -0.2189991 -0.060810104
000270 d6 bf 9b be d5 c1 eb be 8c 30 41 3d c1 49 10 bd
       -0.30419797 -0.4604632 0.04716544 -0.035226587
000280 de 6c 5b bd 02 0e 81 bc 9a 0e 3d bd 05 31 88 3c
       -0.05357062 -0.01575375 -0.046156503 0.016624937
000290 40 ba 33 3c 09 9a 33 3d 7f 67 44 bd de 76 4c bd
       0.010969698 0.04384807 -0.047950264 -0.049918048
0002a0 62 a4 c8 bc 8b 16 90 bd 0d d1 2a bd 60 2b 9e 3d
       -0.024492446 -0.0703555 -0.041703273 0.07723117
0002b0 d4 9b 30 3d 82 0e 8b 3c 27 0e aa bc 8d 06 93 bd
       0.04311736 0.016974691 -0.020758701 -0.07178984
0002c0 97 94 6f bc 0e f2 86 be 60 71 84 3c 06 80 74 bd
       -0.014622829 -0.26356548 0.016167343 -0.059692405
0002d0 cf 6f d1 bd 9a bf 12 be 32 a9 28 be dc e0 ef bc
       -0.10226404 -0.14330903 -0.16470793 -0.029282026
0002e0 db c7 8d bd 5f ad cc bc 09 49 b6 bc 97 a5 b0 3c
       -0.06922885 -0.024985014 -0.022251623 0.021563334
0002f0 26 d1 d4 bd 2e 09 97 3b 51 33 5c bd e7 db 24 bd
       -0.103914544 0.0046092486 -0.053759877 -0.040248778
000300 da 70 c6 bb 84 f8 c4 bc 05 de 4e bc 02 17 e8 ba
       -0.0060559334 -0.024044283 -0.012626176 -0.0017707052
000310 e0 51 38 3b c0 47 3a 3d 5e f5 47 bd ac 63 43 bd
       0.0028124973 0.045478582 -0.048817985 -0.047702476
000320 75 9c ae 3b 93 a0 5a 3b ae bb a7 3b d9 4f 88 3d
       0.0053287097 0.003335987 0.0051188087 0.06655855
000330 4d 98 a0 3d 9a ac 34 3d f5 da 16 bb 44 f1 55 bd
       0.07841549 0.04410992 -0.0023018692 -0.052232042
000340 07 45 a3 bc 74 e8 2d 3c 04 db 94 bd 60 9b b4 bd
       -0.019930376 0.010614503 -0.072683364 -0.08818698
000350 41 49 55 be 0b e9 c6 bc 21 83 8d 3d 66 15 d5 bc
       -0.20828725 -0.024281045 0.069097765 -0.02601118
000360 66 cf e8 3c 44 fe 79 3c ad e9 26 3d cd 61 c8 bd
       0.028419208 0.015258376 0.040750194 -0.09784279
000370 2e 91 be be fc 64 21 3c 3f b3 0c 3d 56 5b 9a bc
       -0.37220138 0.009850737 0.03435063 -0.01884238
000380 ed 54 fd 3c 6f f3 85 bc 5b 05 cd 3a cf a1 08 3c
       0.030924285 -0.01635143 0.0015641855 0.008339359
000390 60 53 75 3d f5 30 82 3c 83 aa a4 bc 0f 5f f1 bb
       0.059893966 0.015892485 -0.020100838 -0.007366068
0003a0 4d b4 48 3b f0 db 14 bd 97 34 63 bc 10 62 21 bd
       0.0030625046 -0.03634256 -0.013867519 -0.03940016
0003b0 d2 4d 2e 3c 89 0f ad 3c ee 61 69 3b e1 46 b1 bc
       0.010638671 0.021125572 0.003561135 -0.021640243
0003c0 2e 98 80 bc b7 9d 88 38 7b 4a 61 bd 20 c3 09 bd
       -0.015697565 6.514362e-05 -0.05500267 -0.03363335
0003d0 74 e1 8d bd 09 c7 41 bd 7b 98 0b bd a9 3d ae 3c
       -0.069277674 -0.047308955 -0.034080964 0.021269636
0003e0 2a 96 84 3c ad 3d 30 bc b7 15 29 bd 78 6d c6 3d
       0.016184885 -0.010756892 -0.041280475 0.09688848
0003f0 d3 9f 0e bd 8d 34 62 bd 98 f5 0a bd 9b ce fc bc
       -0.03482039 -0.055225898 -0.033925623 -0.030860236

fc1.bias f4 [256]
000000 f6 7d bc be 68 48 ad be 99 56 7e bd f9 51 bd be
       -0.3681485 -0.33844304 -0.062094305 -0.36976603
000010 7c 9e ad bc bf c8 cc be 28 30 dd be 37 da 64 3f
       -0.021193735 -0.39996907 -0.43200803 0.8939547
000020 38 4d 26 bd 24 a4 08 be bc e8 da be 7d 58 dd be
       -0.040600985 -0.13343865 -0.42755687 -0.43231574
000030 7f e5 ca be 33 66 e9 bc e8 f6 26 bf 5e 19 ff be
       -0.39628217 -0.028491115 -0.652205 -0.4982404
000040 aa a5 00 be 6c e9 cc be 70 77 ac be 1d ae 70 be
       -0.12563196 -0.40021837 -0.33684874 -0.23503919
000050 c0 17 a1 3e 5a 41 f9 be da f2 5c bf 15 2c ba be
       0.31463432 -0.48682672 -0.8630806 -0.36361757
000060 08 b1 c9 be a6 50 d4 bd 7b b9 c9 be 24 d5 0d bf
       -0.39392877 -0.10366945 -0.39399323 -0.5540335
000070 4a 2b bf be 0f c2 d1 bd ee d2 4a bf 1c a6 bc be
       -0.37337714 -0.10242092 -0.79228103 -0.3684548
000080 0d 6f a4 bd 13 91 4f be 64 ff 77 be d5 bf 9b be
       -0.08028994 -0.20270185 -0.24218518 -0.30419794
000090 c2 d0 a0 bf bf 50 ab be d7 ec b8 be 29 70 c1 be
       -1.2563708 -0.33460042 -0.36118194 -0.37780884
0000a0 9a a0 d8 be 36 02 dd bc 3c 40 9a be 46 88 be be
       -0.4231003 -0.026978593 -0.30127132 -0.37213343
0000b0 93 e3 5e bf fe a7 c5 be 4d 38 ca be cc 4c 88 bf
       -0.87066 -0.3860473 -0.3949608 -1.0648437
0000c0 86 01 51 be 56 38 b1 be 4c e0 b2 be ef 23 21 be
       -0.20410737 -0.34613293 -0.3493675 -0.15736364
0000d0 ed 5c 4a bf bf 3b bf bd ee 00 8a bf 01 8f 93 bd
       -0.79048043 -0.093375675 -1.0781534 -0.0720501
0000e0 a4 52 be bd c0 90 27 3f 93 03 2b be 35 79 bc be
       -0.09293106 0.65455246 -0.16700582 -0.36811224
0000f0 e4 16 50 bf 89 f7 8f be dc f0 11 bf af 0b d0 be
       -0.8128493 -0.28118542 -0.5700815 -0.40633914
000100 b5 40 bc bd da 5a c1 be 97 2d ff bc 6a c4 32 bf
       -0.091920294 -0.37764627 -0.031149669 -0.69830954
000110 f2 37 b8 bd c7 3d 78 bd 44 81 a7 be 1b af b7 3f
       -0.08995046 -0.06060579 -0.3271581 1.4350313
000120 fb 64 92 bd a6 ab e6 be fb 9f 32 bf dc 1a f6 be
       -0.07148167 -0.45052832 -0.6977536 -0.48067367
000130 0c 2c c6 be be ea a8 be 6b 1a aa 3f 55 a7 29 bf
       -0.3870548 -0.32991594 1.3289312 -0.66270953
000140 ee 45 5f be c2 d2 1e bf 1c 6e ac be 3c ff c6 be
       -0.2180402 -0.6204034 -0.33677757 -0.38866603
000150 19 62 ac be e6 f0 06 bf 96 77 e1 be ab 87 ae be
       -0.33668593 -0.5271133 -0.4403655 -0.3408788
000160 10 b0 00 3e 36 5f 9d bd 3b f4 7b bf b9 51 76 bd
       0.12567163 -0.07684176 -0.9841954 -0.06013653
000170 76 d2 f4 be 5c 9d 13 bf 62 04 67 bd 40 41 b6 be
       -0.4781682 -0.57661986 -0.056400664 -0.35596657
000180 f4 e6 88 bd 3b 8a f1 be 8a 0f 0d bd 12 84 0b bf
       -0.06684676 -0.47175774 -0.034438647 -0.544984
000190 68 59 8f bd d5 ce bf bd a1 25 bc be 5d cd 39 bf
       -0.06999475 -0.09365622 -0.3674746 -0.72578984
0001a0 ea 76 c2 be ef 6e 53 bd 9a 6b e3 be 0d b2 68 bd
       -0.3798135 -0.051619466 -0.4441803 -0.056810427
0001b0 ca a5 29 bf 23 20 a4 be 9e 8c b7 be 66 ac b0 be
       -0.662686 -0.32055768 -0.3584947 -0.3450653
0001c0 3f 11 b3 bd d8 7c ff be 8e 57 d3 bc 1d c9 97 bd
       -0.08743524 -0.49899936 -0.025798585 -0.07411406
0001d0 b1 6a 9b be e7 9e e6 be c4 7c e0 bd 51 f9 be be
       -0.30354837 -0.45043108 -0.10961297 -0.37299588
0001e0 2c 3f 29 bc a9 c0 b5 be fd f4 80 bd f4 e0 88 be
       -0.010330003 -0.3549855 -0.06296728 -0.26734126
0001f0 b0 23 92 bd 2a 06 b6 be 2b 3b 0c be 34 14 b1 be
       -0.07135713 -0.35551578 -0.13694446 -0.34585726
000200 52 34 91 bd 51 e1 04 be 4e b6 04 bd 7c 04 85 bd
       -0.070900574 -0.12976576 -0.03240042 -0.06494996
000210 5a 6d f9 be 87 f0 8f bd 8e 16 14 be e0 36 92 bd
       -0.4871624 -0.07028299 -0.14461729 -0.07139373
000220 97 b6 f6 be 9b b7 80 bd ea 53 c7 be 4e 18 ad be
       -0.4818618 -0.0628502 -0.3893121 -0.33807606
000230 8a 10 af bd 22 5f cc be 60 9f 3d bf 45 0c d1 be
       -0.085480765 -0.3991633 -0.7407131 -0.40829673
000240 08 67 97 3f c6 2c eb bc 33 21 a3 be 3d b0 b6 be
       1.1828318 -0.028707873 -0.31861266 -0.35681334
000250 55 c7 e2 be 9f 75 d5 be a3 97 dc be ad 62 dc be
       -0.44292703 -0.416913 -0.4308444 -0.43044034
000260 ac 21 b1 be fe 62 7c 3f ef a2 c0 be 6d c1 ae be
       -0.34596002 0.9858855 -0.37624308 -0.34131947
000270 8e 28 95 be 71 56 b2 be 8f 05 c8 bd 40 cb 6a bd
       -0.29132503 -0.34831575 -0.09766685 -0.05732274
000280 22 c2 d4 be 37 36 b3 be 75 a8 ce be 92 55 31 bf
       -0.41554362 -0.350023 -0.40362898 -0.69271195
000290 15 0b d4 be 09 12 6e bf a8 34 98 bf 54 6c 2d bf
       -0.41414705 -0.9299627 -1.189107 -0.6774342
0002a0 48 32 3c bf 7c d9 49 bf b3 b7 ce be ef dc 36 be
       -0.73514223 -0.7884748 -0.40374526 -0.17857717
0002b0 7d c1 1b bf d3 89 a7 be ce 4e d7 be 4a 97 4a bd
       -0.60842115 -0.3272234 -0.4205231 -0.049460687
0002c0 df 74 c8 be dc 98 1d bf f1 83 ba be c9 f0 c0 be
       -0.39151666 -0.6156137 -0.36428788 -0.37683704
0002d0 1a e0 59 bc 3b e9 8d bf d2 d1 b4 be ba 15 8a bf
       -0.013298059 -1.1086801 -0.3531633 -1.078788
0002e0 92 5d 82 bd 80 08 68 be 74 fd 48 bf ba c9 d0 bd
       -0.06365503 -0.22659492 -0.7851174 -0.10194726
0002f0 7f e7 cc be 0d 88 fb be bb 48 3d bf 44 83 07 bf
       -0.40020368 -0.49127236 -0.739391 -0.5293467
000300 8f 2e bf be cb 32 64 be 91 7d cb bd 40 d6 ed be
       -0.3734021 -0.22285001 -0.09936059 -0.46452522
000310 cb 33 01 bf 92 5d e5 be 58 04 2f bd 59 a0 bd be
       -0.50469655 -0.4479795 -0.042728752 -0.37036398
000320 b0 0e a9 bf b2 4c e0 be bc 04 e1 be 26 3a 98 bd
       -1.3207607 -0.43808514 -0.43948925 -0.07432966
000330 c1 fd 9c bd 88 19 85 bd 22 02 be bd a6 3a 23 bf
       -0.07665587 -0.0649901 -0.092777506 -0.63761365
000340 05 c7 3b bf 94 74 cf be be 23 aa bd 83 cf 9b be
       -0.73350555 -0.4051863 -0.083075985 -0.30431756
000350 93 65 71 bf 88 4e 13 bf bb 5a 81 bf 03 46 ae be
       -0.94295615 -0.57541704 -1.0105814 -0.3403779
000360 6e e1 bc be 51 e1 ac bd 3d 02 fa be a4 9f fb be
       -0.3689074 -0.08441413 -0.48829833 -0.49145234
000370 eb da 2d be e3 00 b4 be a5 f1 f9 be 69 c0 af bd
       -0.16978042 -0.35156927 -0.48817173 -0.08581621
000380 9e 05 ad be fb 61 60 bd ab f2 47 bf 79 58 0a bd
       -0.33793348 -0.05478094 -0.78104657 -0.03377578
000390 01 60 ae be 05 02 d3 be 8d 6b b2 bf 5e 8f 14 bd
       -0.3405762 -0.41212478 -1.3939072 -0.036269538
0003a0 2c 27 19 bf 68 8f 5c 3f 90 c3 71 bd fb b8 ea be
       -0.59825397 0.8615632 -0.059024394 -0.45844254
0003b0 e8 a1 ab bc 68 9d d5 bc 15 77 58 bf 14 12 42 bf
       -0.020951226 -0.026076034 -0.84556705 -0.75808835
0003c0 3f 71 ba be 81 fb 31 bd e0 7d bf bd 00 ea a6 be
       -0.36414525 -0.043452743 -0.093501806 -0.32600403
0003d0 b6 9f ce bd 9f 74 2d bf 1d cc 4b bd 37 cf 40 be
       -0.10089056 -0.67756075 -0.049755204 -0.18829046
0003e0 33 dc c5 be bf 64 0e be 8f 32 66 bf 06 6e 91 be
       -0.3864456 -0.13905619 -0.89920896 -0.28404254
0003f0 dd d8 29 bd 6a 31 99 bc dd a6 b6 be 57 7c ea be
       -0.041466583 -0.01870032 -0.35674182 -0.4579799
