rl_cartpole/target_net0222_adam_lr2e-05.pth (torch_old, 687773 bytes, 22 tensors)

conv1.weight f4 [16, 1, 5, 5]
-0.105276 0.0016974794 -0.21554804 -0.16279955 0.13848396 0.030200163 -0.0050871703 0.13530871
0.06841193 -0.04530787 -0.04333853 -0.16877756 -0.12254855 -0.16165821 0.036819838 0.11643998
0.060118858 0.030044436 -0.14459956 0.087133735 0.20490389 0.1551318 -0.031518087 -0.15312873
-0.089035794 -0.12138566 -0.16247864 -0.081511036 -0.16659026 0.115131125 -0.060291346 -0.13442697
-0.16219173 -0.013629872 0.03314381 -0.066274665 0.1415978 0.07857698 0.09478626 -0.018543001
0.04897741 -0.016072752 0.13761918 -0.058458198 -0.036123734 0.008595372 -0.063169844 -0.019533394
-0.14005116 -0.12706713 -0.1929272 0.026207482 0.11386528 0.16524513 0.20503365 -0.023516279
-0.17519622 -0.08418256 -0.15072985 -0.13152681 -0.10602516 0.15144393 -0.04546246 -0.12480176
0.09738857 0.09819747 0.11117969 -0.20428959 -0.060359433 -0.101248324 0.1744509 0.052990455
0.15723121 -0.060131013 0.0420632 0.1418901 -0.038572945 -0.20866482 0.10089788 0.15041679
0.17553774 -0.17404497 -0.13879019 0.12631243 -0.10916977 -0.10348165 -0.132903 -0.18458226
-0.10396286 -0.12545456 -0.066337 0.16346426 0.1356884 0.11455777 0.18831216 -0.07429908
0.011230744 0.10798732 0.12325333 0.0021677862 0.16791609 0.11365292 0.0021667138 0.15657386
-0.14404976 -0.00019567307 -0.088672705 0.012421162 0.19774333 -0.12739271 0.18887658 -0.0073474497
0.07603926 -0.18010364 0.013655741 -0.21991481 -0.07649743 -0.16501513 -0.09236212 0.10647033
-0.11161014 0.08904235 0.0495492 -0.05311801 0.054578107 -0.015510251 0.12521198 -0.2023256
0.16880865 0.03792051 0.14297475 -0.04515017 -0.040088117 0.017149242 0.10981991 -0.008835735
-0.077959836 -0.011977037 0.14203902 0.19321486 0.061684288 0.15138212 -0.07755447 -0.07489197
-0.05764727 0.13512678 -0.06906056 0.008480161 -0.06430423 -0.11028849 -0.18519424 -0.09485754
0.120757654 0.029827006 0.2072254 0.1435351 0.1426868 0.1819197 0.13661347 0.0007763973
-0.13986574 -0.004908178 -0.12660044 0.04005247 -0.16823387 -0.09622633 -0.026350828 0.05247271
0.08801334 -0.15826878 0.16720942 -0.039236773 -0.015051924 -0.014470869 -0.10007263 0.12557474
0.07796589 0.20577273 0.03754753 -0.026372612 -0.073371924 0.17101517 0.08007401 -0.10773617
0.017539073 -0.002227298 0.07819355 0.045302797 -0.17295969 -0.059816834 0.103868775 0.07334155
0.054419845 -0.14503415 -0.007235447 -0.02056247 -0.08885933 -0.09340804 -0.039625056 -0.16044296
-0.06606924 0.15591654 -0.105450146 0.0068587274 -0.13587578 0.15220675 -0.10712345 -0.15687695
0.030912017 0.048682116 -0.047740337 -0.19463974 0.12910476 0.0016243546 0.15606488 0.13913131
-0.024022084 0.17012617 0.16927639 0.12617937 -0.120933734 0.1516771 -0.021283427 -0.020449936
0.07638519 0.03551782 -0.050268684 0.16978753 -0.048353136 -0.04382665 0.030815661 0.0028879726
0.100368604 0.13472527 -0.06609503 -0.08588791 -0.20323953 -0.069260105 -0.013024203 0.1649561
0.06389548 0.039766498 0.13451587 0.15388466 -0.06947038 -0.20157868 0.06753811 -0.117029704
0.052592274 -0.025969157 0.05932205 0.027302826 0.012522553 -0.11952855 0.09762968 0.042505115
00000000: f29a d7bd f57d de3a a0b8 5cbe edb4 26be
00000010: bdce 0d3e 5566 f73c 47b2 a6bb 5e8e 0a3e
00000020: 8e1b 8c3d bf94 39bd be83 31bd 06d4 2cbe
00000030: bcfa fabd bb89 25be 66d0 163d 1678 ee3d
00000040: 313f 763d c01f f63c e811 14be 2c73 b23d
00000050: 53d2 513e dfda 1e3e 1c19 01bd c7cd 1cbe
00000060: 6658 b6bd 0b99 f8bd cd60 26be 42ef a6bd
00000070: a396 2abe dec9 eb3d 0ff4 76bd 39a7 09be
00000080: 9715 26be d44f 5fbc cec1 073d 03bb 87bd
00000090: 04ff 103e f8ec a03d 4c1f c23d 7ee7 97bc
000000a0: 899c 483d 01ab 83bc 0bec 0c3e dd71 6fbd
000000b0: 7bf6 13bd 9ad3 0c3c 315f 81bd 7f04 a0bc
000000c0: 9269 0fbe e31d 02be b58e 45be 13b1 d63c
000000d0: 3332 e93d 0536 293e 57f4 513e 36a5 c0bc
000000e0: a366 33be e867 acbd ed58 1abe f7ae 06be
000000f0: b823 d9bd 1e14 1b3e d836 3abd 1198 ffbd
00000100: a973 c73d c11b c93d 2db2 e33d 4a31 51be
00000110: 743b 77bd 485b cfbd 42a3 323e 850c 593d
00000120: 3801 213e f04b 76bd 764a 2c3d a34b 113e
00000130: aafe 1dbd 3bac 55be 8ca3 ce3d dc06 1a3e
00000140: 2ac0 333e d838 32be 041f 0ebe 0c58 013e
00000150: 6694 dfbd 30ee d3bd b917 08be 2203 3dbe
00000160: 7bea d4bd 2977 00be b1db 87bd 2d63 273e
00000170: e6f1 0a3e 449d ea3d e7d4 403e 1e2a 98bd
00000180: 2801 383c 7528 dd3d 3e6c fc3d 6b11 0e3b
00000190: 32f2 2b3e ddc2 e83d 6dff 0d3b e654 203e
000001a0: c881 13be 972d 4db9 099a b5bd 2182 4b3c
000001b0: 3a7d 4a3e 3c73 02be dd68 413e e0c2 f0bb
000001c0: 79ba 9b3d 176d 38be 54bc 5f3c 5931 61be
000001d0: afaa 9cbd baf9 28be 5a28 bdbd 1e0d da3d
000001e0: db93 e4bd d65b b63d 1af4 4a3d 4592 59bd
000001f0: 4b8d 5f3d b51e 7ebc 9237 003e 712e 4fbe
00000200: 2ddc 2c3e 8952 1b3d f967 123e 62ef 38bd
00000210: 7033 24bd 917c 8c3c 43e9 e03d c2c3 10bc
00000220: 68a9 9fbd 563b 44bc ad72 113e 1eda 453e
00000230: aaa8 7c3d ea03 1b3e e1d4 9ebd f660 99bd
00000240: 8b1f 6cbd ad5e 0a3e 9f6f 8dbd 60f0 0a3c
00000250: f0b1 83bd efde e1bd 8fa3 3dbe ac44 c2bd
00000260: ca4f f73d c457 f43c e532 543e defa 123e
00000270: 7d1c 123e 2849 3a3e 67e4 0b3e 2487 4b3a
00000280: f738 0fbe c8d4 a0bb 8ca3 01be 0f0e 243d
00000290: 8045 2cbe 4f12 c5bd b1dd d7bc a0ed 563d
000002a0: 5740 b43d 3611 22be f238 2b3e bdb6 20bd
000002b0: 589c 76bc 3917 6dbc e1f2 ccbd aa96 003e
000002c0: 95ac 9f3d 16b6 523e 70cb 193d 600b d8bc
000002d0: 0544 96bd 9a1e 2f3e d8fd a33d c8a4 dcbd
000002e0: 1aae 8f3c dcf7 11bb f123 a03d 6d8f 393d
000002f0: 581c 31be 7f02 75bd 27b9 d43d 1834 963d
00000300: 58e7 5e3d d583 14be 5417 edbb a072 a8bc
00000310: e1fb b5bd b74c bfbd e24d 22bd 294b 24be
00000320: 4f4f 87bd 96a8 1f3e 3ff6 d7bd 2dbf e03b
00000330: 0523 0bbe 16dc 1b3e 8a63 dbbd 5aa4 20be
00000340: 333b fd3c e666 473d 5f8b 43bd a44f 47be
00000350: 0a34 043e 4ce8 d43a 79cf 1f3e 7078 0e3e
00000360: f6c9 c4bc 8e35 2e3e ca56 2d3e 2a35 013e
00000370: 1bac f7bd 3e51 1b3e 955a aebc a086 a7bc
00000380: d76f 9c3d 227b 113d 89e6 4dbd c8dc 2d3e
00000390: f00d 46bd 9383 33bd 2071 fc3c 2444 3d3b
000003a0: 0e8e cd3d 6cf5 093e d55c 87bd 00e6 afbd
000003b0: 061e 50be 3ed8 8dbd 7763 55bc 40ea 283e
000003c0: a2db 823d 32e2 223d 87be 093e f193 1d3e
000003d0: 7d46 8ebd a46a 4ebe 6c51 8a3d 45ad efbd
000003e0: ff6a 573d 45bd d4bc aefb 723d 2daa df3c
000003f0: 652b 4d3c 62cb f4bd 12f2 c73d d819 2e3d

conv1.bias f4 [16]
0.17402962 -0.16502327 -0.19940197 -0.021256266 0.020962927 -0.19337599 -0.056981217 0.10284806
-0.15687805 -0.08011811 0.15753634 0.0667689 -0.11397634 -0.10449177 0.13126008 0.07469191
00000000: d234 323e dcfb 28be 0830 4cbe 9f21 aebc
00000010: 72ba ab3c 5b04 46be 2365 69bd 01a2 d23d
00000020: a4a4 20be f714 a4bd 3551 213e 22be 883d
00000030: 6d6c e9bd c8ff d5bd 0b69 063e 12f8 983d

bn1.weight f4 [16]
0.4784183 0.39517143 0.6428937 0.4815165 0.16769066 0.78877234 0.28095436 0.41855142
0.27254423 0.82168454 0.5899643 0.9515662 0.77785784 0.5385731 0.26148432 0.32858622
00000000: 3ef3 f43e e953 ca3e ae94 243f 5589 f63e
00000010: 1ab7 2b3e fcec 493f 40d9 8f3e 5f4c d63e
00000020: eb8a 8b3e eb59 523f e607 173f d899 733f
00000030: b121 473f eddf 093f 46e1 853e 743c a83e

bn1.bias f4 [16]
0.11121662 0.049309388 -0.00049028464 0.00020900907 -7.777278e-05 -0.00011558358 0.08188264 0.15636161
5.28983e-05 0.00060832914 6.611404e-06 -5.6173867e-05 0.00018138558 0.00022156093 -0.06093073 -0.000115331
00000000: 8ac5 e33d a4f8 493d 7286 00ba 7229 5b39
00000010: f119 a3b8 7665 f2b8 16b2 a73d 421d 203e
00000020: 1edf 5d38 4778 1f3a 87d7 dd36 3b9c 6bb8
00000030: 5232 3e39 cf52 6839 8092 79bd dcdd f1b8

bn1.running_mean f4 [16]
0.17400461 -0.16501461 -0.19943939 -0.02119838 0.020941565 -0.19338442 -0.05693841 0.10284071
-0.1568555 -0.080089375 0.15750162 0.06677756 -0.11397141 -0.10445539 0.13128006 0.074703544
00000000: 442e 323e 97f9 28be d739 4cbe 3aa8 adbc
00000010: a58d ab3c 9106 46be 4038 69bd 269e d23d
00000020: ba9e 20be e605 a4bd 1b48 213e acc2 883d
00000030: d869 e9bd b5ec d5bd 486e 063e 2cfe 983d

bn1.running_var f4 [16]
0.00021501971 6.780682e-05 8.3521336e-05 0.00012363782 3.5346402e-05 0.0001150448 9.935023e-05 0.00022194788
7.482932e-05 0.00010278552 0.00019005622 7.662743e-05 6.553969e-05 3.4424913e-05 0.00019864092 5.9435668e-05
00000000: ea76 6139 8233 8e38 2d28 af38 c6a4 0139
00000010: e940 1438 3544 f138 405a d038 aeba 6839
00000020: afed 9c38 8e8e d738 d449 4739 0ab3 a038
00000030: 5a72 8938 7863 1038 444a 5039 904a 7938

conv2.weight f4 [32, 16, 5, 5]
-0.022138266 -0.021668607 0.014206674 0.029649604 -0.027681801 0.015782034 -0.019475391 -0.029503297
-0.033251807 -0.03859049 0.053872924 -0.036177788 -0.027218092 -0.010817243 0.015978359 -0.021519784
-0.037111502 -0.020967048 0.027660733 -0.023888312 -0.057775598 -0.01505371 0.002147743 -0.015936015
0.013298306 0.04517184 -0.080782495 0.0008021341 0.0036791465 0.025087243 -0.03813445 -5.9188233e-06
0.045804307 0.02383682 0.027013162 0.039768472 -0.027450444 0.0011828331 0.011638184 0.016093312
-0.025921993 -0.02812636 0.03178118 -0.023224153 -0.0005976725 -0.019752877 -0.037268993 0.007921076
-0.002487647 0.023967702 0.009966098 0.0010939658 -0.017923815 0.004154862 0.005633505 0.066736095
-0.023898706 -0.0009734015 0.00788185 0.029400704 0.0040035085 0.009884859 0.047843814 0.0059318016
0.012838604 -0.03446321 -0.02018063 0.05171435 -0.0046379766 0.041343067 -0.048796665 0.04156537
-0.035206527 0.017869744 -0.00995675 0.045136984 -0.0015388892 0.004187512 -0.0044524916 0.008986451
-0.011410398 -0.038668662 -0.023378586 -0.00325423 -0.0041488074 0.022394039 -0.013592835 -0.008915197
-0.039639205 0.030430414 -0.018140573 -0.044524837 -0.022494227 0.039772782 0.016056024 -0.010000391
-0.024795461 -0.024851711 -0.0448283 0.02622068 0.016224464 -0.041813362 -0.04961909 0.031448133
-0.027067441 0.091837 -0.016852217 0.0001925379 0.032532655 0.022139352 0.044526752 0.018028017
0.02093779 0.03834862 -0.030038102 -0.0035308884 0.009997886 0.02863803 0.0015341341 0.07558918
0.0027538065 0.008375519 0.015391271 -0.0065885684 0.030174274 0.007106533 0.023977613 0.005129969
-0.012727045 -0.000986393 0.017458644 0.027513713 0.016652025 -0.03564297 0.05159406 -0.010589823
0.016874611 -0.058753632 0.020272024 0.0111787375 -0.024785565 -0.040379927 0.0027739801 -0.04729626
-0.031054277 -0.032832533 0.0067817215 -0.023280466 0.031674985 0.028948354 -0.0023344732 0.052047238
0.041582156 -0.009454881 -0.02259617 -0.039272845 -0.04806657 0.034149557 -0.0052252575 0.032746945
0.036856633 0.038655374 0.034975983 -0.012905056 -0.044857107 0.009794113 -0.026479052 0.0026006
-0.022169568 -0.04969989 0.014900968 -0.031298578 -0.041655187 -0.050912965 0.022653766 -0.020281864
-0.0026176118 -0.026914993 -0.043457527 -0.026864894 -0.025793664 0.010579697 0.04854046 0.008438159
-0.04837618 -0.047112178 -0.041536923 0.045965306 -0.016320143 0.013634347 -0.005170548 -0.056857772
0.0005462947 -0.04240241 -0.04375243 0.031081308 0.04068576 -0.052128874 0.0021712894 -0.032583192
0.0039766277 -0.0392741 -0.05336844 -0.055556286 0.033206172 0.05075398 0.03881911 -0.009091421
-0.0066856304 0.004899741 -0.035719596 0.03358196 -0.0024447832 0.029321143 -0.010039089 -0.0008951444
0.044512387 -0.026248503 0.020271992 -0.05254051 0.05152118 0.017499747 0.044489656 -0.0033377141
-0.042601172 -0.009247632 0.013723173 -0.016179122 0.028175825 0.034016103 0.028003141 0.0176603
0.03415275 -0.036577683 -0.008413087 -0.0025356442 -0.046013974 0.012837923 0.034897983 -0.018883046
0.034657616 -0.02642121 -0.029418 0.008363865 0.012880281 0.030741958 0.013786553 -0.06264433
0.014261523 -0.02340101 -0.04031106 0.03214426 0.005387162 -0.026977241 -0.030523311 0.025240172
00000000: 4f5b b5bc 5d82 b1bc 1cc3 683c bae3 f23c
00000010: f2c4 e2bc 5349 813c db8a 9fbc e6b0 f1bc
00000020: 0c33 08bd 1011 1ebd dba9 5c3d 292f 14bd
00000030: 7af8 debc ce3a 31bc 0ce5 823c 424a b0bc
00000040: 3b02 18bd 16c3 abbc c398 e23c 6cb1 c3bc
00000050: 1ba6 6cbd d6a3 76bc 26c1 0c3b 3f8c 82bc
00000060: 23e1 593c 1b06 393d 4b71 a5bd 4f46 523a
00000070: d61d 713b c383 cd3c de32 1cbd 4e9a c6b6
00000080: 4c9d 3b3d 6f45 c33c b54a dd3c 44e4 223d
00000090: c1df e0bc 4b09 9b3a 15ae 3e3c 1fd6 833c
000000a0: 5c5a d4bc 4169 e6bc fc2c 023d 9440 bebc
000000b0: 1fad 1cba c9d0 a1bc 5fa7 18bd 67c7 013c
000000c0: cb07 23bb ea57 c43c d848 233c 6763 8f3a
000000d0: f7d4 92bc 8225 883b 4499 b83b efac 883d
000000e0: 38c7 c3bc de2b 7fba e022 013c bfd9 f03c
000000f0: dd2f 833b 1bf4 213c e0f7 433d 8f5f c23b
00000100: 0259 523c 4b29 0dbd d951 a5bc 6dd2 533d
00000110: 2bfa 97bb 5957 293d 03df 47bd 7340 2a3d
00000120: b834 10bd 9263 923c a321 23bc 8fe1 383d
00000130: 8eb4 c9ba 6637 893b 35e6 91bb e83b 133c
00000140: aef2 3abc 0863 1ebd 7384 bfbc eb44 55bb
00000150: b8f2 87bb b473 b73c 7bb4 5ebc 0c11 12bc
00000160: b85c 22bd 3449 f93c 8a9b 94bc ad5f 36bd
00000170: d045 b8bc c9e8 223d ec87 833c aed8 23bc
00000180: da1f cbbc d195 cbbc e19d 37bd c0cc d63c
00000190: 2be9 843c 7d44 2bbd 633d 4bbd c2cf 003d
000001a0: 8abc ddbc 0915 bc3d a90d 8abc 00e4 4939
000001b0: f640 053d 965d b53c af61 363d 7eaf 933c
000001c0: ba85 ab3c 7113 1d3d 7712 f6bc 7a66 67bb
000001d0: 2cce 233c 4d9a ea3c 0015 c93a 80ce 9a3d
000001e0: 3579 343b 7939 093c ab2b 7c3c ebe4 d7bb
000001f0: 0a30 f73c ebdd e83b b36c c43c 4d19 a83b
00000200: 1985 50bc db49 81ba 6e05 8f3c 7064 e13c
00000210: d469 883c 5dfe 11bd 4b54 533d f080 2dbc
00000220: a03c 8a3c a6a7 70bd 8411 a63c 0627 373c
00000230: 190b cbbc 6c65 25bd aacb 353b b9b9 41bd
00000240: 8a65 febc 687b 06bd 3439 de3b adb6 bebc
00000250: a1bd 013d 1925 ed3c f6fd 18bb 7c2f 553d
00000260: 0d52 2a3d a5e8 1abc 9a1b b9bc 90dc 20bd
00000270: 74e1 44bd 68e0 0b3d a338 abbb a921 063d
00000280: fbf6 163d 1955 1e3d fa42 0f3d ba6f 53bc
00000290: 16bc 37bd 7d77 203c 99ea d8bc d46e 2a3b
000002a0: f49c b5bc 1d92 4bbd 3123 743c f032 00bd
000002b0: a19e 2abd 1d8a 50bd 6494 b93c 2726 a6bc
000002c0: 3d8c 2bbb d57c dcbc 8500 32bd c413 dcbc
000002d0: 3c4d d3bc 7756 2d3c 5dd2 463d 3440 0a3c
000002e0: 1a26 46bd b3f8 40bd 9f22 2abd 1e46 3c3d
000002f0: d2b1 85bc 9962 5f3c b36d a9bb b2e3 68bd
00000300: 3735 0f3a 26ae 2dbd bf35 33bd 3a9e fe3c
00000310: 1da6 263d 1685 55bd 314c 0e3b f475 05bd
00000320: 5f4e 823b e1dd 20bd de98 5abd fd8e 63bd
00000330: 3203 083d 68e3 4f3d c900 1f3d 2ff4 14bc
00000340: 2213 dbbb 028e a03b b64e 12bd 3d8d 093d
00000350: a838 20bb e532 f03c fe7a 24bc 20a8 6aba
00000360: 9f52 363d 1a07 d7bc 7311 a63c b834 57bd
00000370: df07 533d a15b 8f3c c93a 363d 8dbd 5abb
00000380: 917e 2ebd 6183 17bc 29d7 603c 148a 84bc
00000390: fdd0 e63c 7854 0b3d d866 e53c 55ac 903c
000003a0: c1e3 0b3d 7bd2 15bd 0bd7 09bc 0d2d 26bb
000003b0: 2679 3cbd 2756 523c 30f1 0e3d 9eb0 9abc
000003c0: 25f5 0d3d 4b71 d8bc 04fe f0bc 9808 093c
000003d0: d007 533c 8fd6 fb3c ffe0 613c ac4b 80bd
000003e0: 2aa9 693c 7ab3 bfbc 361d 25bd b3a9 033d
000003f0: ca86 b03b 60ff dcbc 060c fabc 7ac4 ce3c

conv2.bias f4 [32]
0.046498854 -0.04246854 -0.047597725 -0.022794204 0.025688566 0.033626124 -0.025561446 -0.029894883
0.030851044 -0.0056845536 0.027289825 -0.018446034 -0.028797185 0.042982355 -0.03432539 0.03532711
0.020231856 0.04031681 -0.04951739 -0.0216822 -0.004034208 0.0215456 -0.01893669 0.03360105
-0.015252778 -0.0026962813 -0.050691854 -0.043842137 0.025469536 -0.022866735 -0.016997166 -0.02263818
00000000: 9575 3e3d 7ef3 2dbd d5f5 42bd e9ba babc
00000010: d470 d23c 8cbb 093d 3d66 d1bc 1de6 f4bc
00000020: 54bb fc3c 7e45 babb e98e df3c 231c 97bc
00000030: 13e8 ebbc 440e 303d c898 0cbd 29b3 103d
00000040: 47bd a53c 3d23 253d bfd2 4abd de9e b1bc
00000050: 6431 84bb 6680 b03c 1e21 9bbc 41a1 093d
00000060: cae6 79bc 18b4 30bb 43a2 4fbd d093 33bd
00000070: 7da5 d03c 0553 bbbc a43d 8bbc b473 b9bc

bn2.weight f4 [32]
0.35840425 0.66801244 0.45444113 0.28531256 0.8396249 0.35517776 0.37197468 0.2421377
0.7884638 0.6353039 0.8770107 0.9041112 0.5471386 0.21238801 0.37598285 0.89461887
0.30507782 0.70954305 0.07135333 0.2067253 0.7090018 0.1229405 0.30082053 0.5522094
0.90260243 0.3327177 0.19276999 1.0000614 0.38113436 0.7029754 0.43542466 0.19605358
00000000: c380 b73e dd02 2b3f 82ac e83e 7d14 923e
00000010: a8f1 563f dcd9 b53e 7773 be3e f2f2 773e
00000020: c3d8 493f 47a3 223f c683 603f d573 673f
00000030: 4611 0c3f 3e7c 593e d380 c03e be05 653f
00000040: 2933 9c3e 9da4 353f b221 923d ccaf 533e
00000050: 2481 353f 3bc8 fb3d 2605 9a3e 985d 0d3f
00000060: f410 673f f959 aa3e 7f65 453e 0302 803f
00000070: 0b24 c33e 32f6 333f fbef de3e 45c2 483e

bn2.bias f4 [32]
0.007236474 -0.037970737 -0.005861411 -0.0036410205 -0.015395903 0.013171916 -0.01614331 -0.009901998
0.038902678 0.03479605 0.023986492 0.043055043 0.052028105 -0.018266115 -0.005420308 -0.019570407
0.04719624 -0.033528242 0.023048649 -0.018969763 -0.041102 0.03029163 0.0035861374 -0.030101934
0.022214575 -0.009131463 -0.011329476 0.04552429 0.026457727 -0.03766178 0.010341014 0.03637184
00000000: f21f ed3b 3487 1bbd 1411 c0bb 309e 6ebb
00000010: 193f 7cbc 05cf 573c fa3e 84bc fd3b 22bc
00000020: 6a58 1f3d 4e86 0e3d 527f c43c 7c5a 303d
00000030: 6c1b 553d d2a2 95bc d79c b1bb 1e52 a0bc
00000040: d850 413d e954 09bd 85d0 bc3c 7a66 9bbc
00000050: 925a 28bd 2726 f83c 6705 6b3b 5598 f6bc
00000060: 57fb b53c 229c 15bc 449f 39bc ae77 3a3d
00000070: e0bd d83c 3d43 1abd 5b6d 293c a3fa 143d

bn2.running_mean f4 [32]
-0.072959654 -0.17081907 -0.097769946 -0.10485662 0.34313485 -0.07159007 -0.10012461 -0.09205554
-0.0031681077 -0.18085757 -0.14785424 -0.19438452 -0.20261714 0.010930173 -0.10573522 -0.12218619
-0.108249374 -0.06025546 -0.12053942 -0.037279673 0.29556748 -0.0193952 -0.119827606 -0.071536
-0.11715772 0.01562395 -0.04589561 -0.26082128 -0.03891616 0.059828527 -0.10491854 -0.0331715
00000000: df6b 95bd 32eb 2ebe 9c3b c8bd 11bf d6bd
00000010: 5faf af3e d19d 92bd 220e cdbd 9d87 bcbd
00000020: 07a0 4fbb ba32 39be 1a67 17be bc0c 47be
00000030: de7a 4fbe 7814 333c b58b d8bd c13c fabd
00000040: d9b1 ddbd 6ece 76bd 5fdd f6bd 92b2 18bd
00000050: 9f54 973e afe2 9ebc 2d68 f5bd 7781 92bd
00000060: 63f0 efbd 99fb 7f3c 09fd 3bbd 5e8a 85be
00000070: 8d66 1fbd c20e 753d 88df d6bd d7de 07bd

bn2.running_var f4 [32]
0.049671296 0.066248156 0.05815667 0.037317865 0.36271933 0.063010775 0.03581241 0.02208913
0.15050647 0.18042561 0.14418678 0.24612816 0.15349601 0.029713424 0.049879424 0.0792637
0.10375623 0.094871946 0.01614737 0.036180973 0.26871642 0.034159746 0.047368832 0.07197178
0.22539282 0.037367806 0.038559936 0.18449992 0.041289315 0.058021523 0.112698436 0.0604145
00000000: 2174 4b3d 1dad 873d b035 6e3d 9eda 183d
00000010: 59b6 b93e cb0b 813d 09b0 123d 43f4 b43c
00000020: 5e1e 1a3e 7ec1 383e b3a5 133e 0509 7c3e
00000030: 0f2e 1d3e 9169 f33c 5e4e 4c3d 0255 a23d
00000040: 257e d43d 394c c23d 7d47 843c 8032 143d
00000050: 3395 893e 17eb 0b3d d205 423d f165 933d
00000060: 60cd 663e fc0e 193d 06f1 1d3d 8ced 3c3e
00000070: fc1e 293d faa7 6d3d 70ce e63d 3275 773d

conv3.weight f4 [32, 32, 5, 5]
0.0022851732 -0.021318331 -0.0043027657 0.039123848 0.0056811455 0.015322397 0.006934595 -0.005555278
-0.0051892614 -0.03818074 0.037747625 0.016706977 0.0030477236 -0.055580746 0.026597032 -0.0028958288
0.0006713109 -0.026453013 0.0004974864 -0.02044291 -6.1096514e-05 -0.0057674106 -0.04327347 0.0068193167
-0.062156606 -0.034021165 -0.032698814 -0.024386477 0.019924268 0.001663002 -0.0059953653 0.010722472
-0.013703274 -0.032782678 0.0043912 -0.0007623233 -0.020917783 -0.008651688 -0.009416182 0.017355355
-0.040980667 -0.006663929 0.02441141 -0.0018631602 0.006703909 -0.0032791754 -0.003928637 0.0031198019
-0.012276959 -0.018658217 -0.002089078 -0.017678617 0.020418027 -0.004885555 0.011687789 0.029904976
0.011858223 -0.0018249082 0.0193034 -0.012520912 -0.010578323 -0.02983916 0.011779072 -0.004502453
-0.0039173136 -0.02066991 -0.0023508894 -0.020376612 -0.0024574231 0.0069789374 -0.03405838 -0.016723283
-0.030888876 0.0343804 0.004002727 -0.012551856 -0.0032277966 0.014592283 -0.02722812 0.017205164
0.016612967 0.024324724 0.046245363 -0.03883277 -0.0042740703 -0.015593289 0.0257068 0.034678906
-0.0031002967 -0.04673195 0.0023877094 -0.0049135583 -0.0054294644 0.0009148972 -0.018256145 -0.0030161538
0.021097997 -0.007577547 -0.0158008 0.017095046 0.00920301 0.004740282 -0.013079722 -0.01578554
-0.014860796 0.018274251 -0.011678198 0.021021845 -0.012781635 0.043629102 -0.0010479904 -0.021077268
0.030774403 0.0004860631 0.020575892 0.0154526895 -0.020848157 0.019384656 -0.005759433 -0.011579633
0.012664934 -0.021798946 0.009736428 0.008392158 -0.003636075 -0.04667556 0.026585037 0.003254515
0.008025024 0.030766658 -0.046841532 0.005418793 -0.017596763 -0.012602128 0.004887467 -0.016312366
-0.009597015 0.0073530497 -0.05905762 -0.011999196 -0.037711684 -0.044684835 -0.024116723 -0.024305552
-0.039183255 -0.041187774 0.011413444 -0.02614202 -0.0059503107 -0.021845777 -0.014309905 0.0013578512
-0.004266648 0.0533922 0.02239186 -0.018907923 -0.0074449293 -0.02365931 0.0010721674 0.013186805
0.01843368 -0.003877629 0.008745518 0.010796629 -0.020230727 0.021169862 0.019531194 0.008998885
-0.0011450694 -0.00011358397 -0.03147322 -0.048516165 0.019220904 -0.011026698 -0.037948344 -0.012320671
0.0037788893 -0.014217461 -0.021366779 0.032018192 -0.011486566 0.005696352 -0.012722958 0.018889338
-0.00011607332 -0.010396092 -0.029711712 -0.00027492232 0.010393554 -0.014867236 0.025226526 -0.0059032026
-0.019453743 -0.036911152 -0.022920152 -0.0115497755 0.01759206 0.016732596 0.025787324 -0.05276324
0.028390944 -0.0373684 -0.04018212 0.044787697 0.008478928 0.04608674 -0.038543068 -0.054938983
0.014811162 -0.01045095 0.03617113 -0.06645032 -0.00021296696 -0.0008870519 0.076988325 0.031885546
-0.07355029 -0.018697739 0.002398711 0.0346091 -0.03716305 -0.05432953 -0.041354146 0.008232638
0.026813336 0.01856659 -0.026050586 0.0036005394 0.021853741 -0.017089758 0.029594298 -0.011729447
-0.005042917 -0.016716767 -0.022317007 -0.017788779 -0.020607544 0.026447564 0.032313522 0.0065558944
-0.02342305 -0.050865553 0.012840613 0.016816007 0.01726543 -0.01764758 -0.026545677 0.01079702
0.00013556644 -0.010645513 0.0077717607 0.0061008763 -0.008652143 -0.021182708 -0.03412399 -0.0096004605
00000000: d8c2 153b c8a3 aebc 37fe 8cbb 5440 203d
00000010: e728 ba3b cb0a 7b3c 993b e33b 0d09 b6bb
00000020: ae0a aabb 6863 1cbd 419d 1a3d 12dd 883c
00000030: 51bc 473b a3a8 63bd 05e2 d93c f2c7 3dbb
00000040: e9fa 2f3a fdb3 d8bc bf69 023a e477 a7bc
00000050: f120 80b8 8cfc bcbb 863f 31bd 9374 df3b
00000060: ed97 7ebd c759 0bbd 31ef 05bd 26c6 c7bc
00000070: 3838 a33c 16f9 d93a c574 c4bb 4fad 2f3c
00000080: b283 60bc 2147 06bd 0ee4 8f3b a7d6 47ba
00000090: c55b abbc cfbf 0dbc 5446 1abc d12c 8e3c
000000a0: 58db 27bd 175d dabb 70fa c73c 4835 f4ba
000000b0: 77ac db3b 6fe7 56bb ccbb 80bb 9775 4c3b
000000c0: 4c25 49bc 1ed9 98bc eae8 08bb bfd2 90bc
000000d0: b543 a73c 0117 a0bb 247e 3f3c 48fb f43c
000000e0: fe48 423c c231 efba 2a22 9e3c 8324 4dbc
000000f0: b450 2dbc 4171 f4bc 02fd 403c 5089 93bb
00000100: cf5c 80bb f153 a9bc 6111 1abb daec a6bc
00000110: b80c 21bb 92af e43b cd80 0bbd 44ff 88bc
00000120: ab0a fdbc 76d2 0c3d 4f29 833b 4da6 4dbc
00000130: 7189 53bb 7914 6f3c 820d dfbc d8f1 8c3c
00000140: eb17 883c a544 c73c c76b 3d3d 1c0f 1fbd
00000150: 800d 8cbb ff7a 7fbc 1197 d23c 780b 0e3d
00000160: 592e 4bbb 006a 3fbd 1e7b 1c3b ea01 a1bb
00000170: a6e9 b1bb b6d5 6f3a e98d 95bc aaaa 45bb
00000180: b5d5 ac3c 124d f8bb ae70 81bc e90a 8c3c
00000190: 39c8 163c 5e54 9b3b 554c 56bc ad50 81bc
000001a0: b27a 73bc e2b3 953c ea55 3fbc 0136 ac3c
000001b0: 106a 51bc 6eb4 323d b95c 89ba 3caa acbc
000001c0: 9a1a fc3c 49d6 fe39 c68e a83c 472d 7d3c
000001d0: c1c9 aabc 92cc 9e3c a0b9 bcbb 80b8 3dbc
000001e0: 9580 4f3c b493 b2bc 8a85 1f3c 437f 093c
000001f0: 374b 6ebb df2e 3fbd ddc8 d93c b349 553b
00000200: 647b 033c 5c0a fc3c e8dc 3fbd 2190 b13b
00000210: 1627 90bc 2879 4ebc 0b27 a03b 83a1 85bc
00000220: cc3c 1dbc daf1 f03b 67e6 71bd 4798 44bc
00000230: 9177 1abd 7207 37bd 6f90 c5bc 701c c7bc
00000240: 9f7e 20bd 83b4 28bd 74ff 3a3c ca27 d6bc
00000250: d3fa c2bb eaf5 b2bc 1774 6abc edf9 b13a
00000260: 3dcf 8bbb c8b1 5a3d 226f b73c cae4 9abc
00000270: 98f4 f3bb 2bd1 c1bc f887 8c3a 780d 583c
00000280: 3b02 973c d21f 7ebb 5c49 0f3c 58e4 303c
00000290: e9ba a5bc 6b6c ad3c e2ff 9f3c 0f70 133c
000002a0: 2716 96ba ee33 eeb8 10ea 00bd e3b8 46bd
000002b0: 2875 9d3c 53a9 34bc b96f 1bbd a4dc 49bc
000002c0: 3ea7 773b 5bf0 68bc 6209 afbc 8225 033d
000002d0: 2632 3cbc 77a8 ba3b f473 50bc d0bd 9a3c
000002e0: 646c f3b8 5f54 2abc fa65 f3bc 7323 90b9
000002f0: ba49 2a3c b595 73bc dca7 ce3c a76f c1bb
00000300: 755d 9fbc 2630 17bd 0bc3 bbbc 453b 3dbc
00000310: 391d 903c cc12 893c f03f d33c 441e 58bd
00000320: 2094 e83c 9b0f 19bd 0296 24bd 4e73 373d
00000330: 34eb 0a3c 73c5 3c3d 56df 1dbd b307 61bd
00000340: 84aa 723c 763a 2bbc 2e28 143d 1b17 88bd
00000350: e24f 5fb9 0c89 68ba 0eac 9d3d 6b9a 023d
00000360: 89a1 96bd 002c 99bc b133 1d3b 46c2 0d3d
00000370: 4838 18bd a488 5ebd f762 29bd 30e2 063c
00000380: a4a7 db3c f618 983c 0a68 d5bc 07f7 6b3b
00000390: 9e06 b33c d2ff 8bbc be6f f23c de2c 40bc
000003a0: 0e3f a5bb 9af1 88bc 28d2 b6bc c6b9 91bc
000003b0: 27d1 a8bc 90a8 d83c 2f5b 043d d4d2 d63b
000003c0: b2e1 bfbc 6658 50bd 6f61 523c b9c1 893c
000003d0: 3b70 8d3c a891 90bc 5276 d9bc fce5 303c
000003e0: d726 0e39 856a 2ebc 41aa fe3b dce9 c73b
000003f0: b8c1 0dbc 5c87 adbc 99c5 0bbd 404b 1dbc

conv3.bias f4 [32]
0.026196443 -0.026917946 -0.014610529 -0.0023035754 -0.01626126 0.006350696 0.0031379065 0.0081602335
-0.02048782 -0.011896932 0.0396125 0.012522089 -0.030895406 -0.022659654 0.000573914 -0.02176229
0.034809683 -0.009306786 0.003214177 0.012961461 0.017362243 0.030661048 -0.03271138 -0.0012179065
0.01980423 0.02324357 0.012644626 0.008095581 0.030711422 0.001054815 -0.0014975636 -0.03313934
00000000: ec99 d63c 0683 dcbc 0061 6fbc 95f7 16bb
00000010: 5536 85bc 8019 d03b 56a5 4d3b 80b2 053c
00000020: 13d6 a7bc 59eb 42bc b840 223d 7329 4d3c
00000030: 5d18 fdbc bda0 b9bc b772 163a d446 b2bc
00000040: 9994 0e3d 7d7b 18bc f1a4 523b 4f5c 543c
00000050: 433b 8e3c e12c fb3c 5efc 05bd 29a2 9fba
00000060: 7b3c a23c 4d69 be3c 682b 4f3c 54a3 043c
00000070: 8596 fb3c b841 8a3a e549 c4ba 1ebd 07bd

bn3.weight f4 [32]
1.1117017 0.39089507 0.43992803 0.22737186 0.42804804 0.5811904 0.906382 0.1643721
0.69964665 0.5046998 0.26584372 0.19663557 0.3517403 0.28351137 0.7796404 0.6526579
0.80657256 0.6498993 0.34111992 0.5687077 0.32745826 0.5664033 0.45605442 0.76344246
1.0334433 0.31837955 1.000317 0.6354244 0.6217281 0.8999977 0.5212558 0.894786
00000000: 3e4c 8e3f 6623 c83e 3f3e e13e 2bd4 683e
00000010: 1d29 db3e e5c8 143f a708 683f 2951 283e
00000020: 0b1c 333f 0234 013f ab1c 883e d65a 493e
00000030: 4e17 b43e 6728 913e 8396 473f 9714 273f
00000040: 8a7b 4e3f cd5f 263f 45a7 ae3e d496 113f
00000050: 9ca8 a73e cfff 103f f77f e93e f770 433f
00000060: df47 843f a502 a33e 630a 803f 2cab 223f
00000070: 9329 1f3f 4066 663f 0571 053f b210 653f

bn3.bias f4 [32]
0.14966774 0.14145745 0.1495857 0.13758868 0.14178167 0.13176996 0.16759223 0.1329169
0.14388953 0.14189254 0.14420956 0.13593017 0.14745581 0.14262326 0.14538468 0.14883222
0.12892438 0.18594293 0.13880758 0.13883276 0.14016494 0.14935309 0.137744 0.16151732
0.1427508 0.15264793 0.15540195 0.14278437 0.14088148 0.14137311 0.14295788 0.14355898
00000000: 8042 193e 39da 103e fe2c 193e 0ce4 0c3e
00000010: 372f 113e b4ee 063e 4c9d 2b3e 5e1b 083e
00000020: c757 133e 474c 113e acab 133e 4731 0b3e
00000030: a8fe 163e d50b 123e b9df 143e 7967 183e
00000040: c104 043e d367 3e3e 9323 0e3e 2d2a 0e3e
00000050: 6687 0f3e 04f0 183e c30c 0d3e cc64 253e
00000060: 442d 123e bd4f 1c3e b021 1f3e 1136 123e
00000070: 3c43 103e 1dc4 103e 8d63 123e 2001 133e

bn3.running_mean f4 [32]
-0.0125815235 -0.17866877 -0.7430246 -0.49201155 0.01727409 -0.685697 -0.58961296 -0.47250673
-0.3192775 -0.08850252 -0.1546896 -0.5568918 -0.7417653 -0.8464444 -0.08465907 -0.7833245
-0.67843187 -0.30872428 -0.21823275 -0.6821038 -0.28580466 -0.570335 -0.2391405 -0.5070195
-0.2292917 0.008328436 -0.19448516 -0.7259055 -0.094518095 -0.12089895 -0.2254046 -0.24209914
00000000: bc22 4ebc f2f4 36be dc36 3ebf f0e8 fbbe
00000010: 6482 8d3c d789 2fbf e0f0 16bf 67ec f1be
00000020: 5778 a3be cf40 b5bd f366 1ebe 7690 0ebf
00000030: 55e4 3dbf 95b0 58bf bc61 adbd f487 48bf
00000040: b6ad 2dbf 1c11 9ebe 6878 5fbe 5b9e 2ebf
00000050: fd54 92be 7901 12bf 3fe1 74be 08cc 01bf
00000060: 72cb 6abe fe73 083c 1e27 47be f1d4 39bf
00000070: b492 c1bd de99 f7bd 77d0 66be d6e8 77be

bn3.running_var f4 [32]
0.017018668 0.024731513 0.030431468 0.02290709 0.03363893 0.028985938 0.025918394 0.023597186
0.020336363 0.026057268 0.022308439 0.022947816 0.029491482 0.029431479 0.030000243 0.026352385
0.023184117 0.02454249 0.016464949 0.027917234 0.032518104 0.036039986 0.02506471 0.024110707
0.022486573 0.029634558 0.02085855 0.029080432 0.015771728 0.015788725 0.011785771 0.015863353
00000000: bc6a 8b3c be99 ca3c 6a4b f93c a6a7 bb3c
00000010: fac8 093d eb73 ed3c d052 d43c e34e c13c
00000020: 7298 a63c 0d76 d53c 30c0 b63c 0ffd bb3c
00000030: 1f98 f13c 491a f13c 12c3 f53c f5e0 d73c
00000040: 9eec bd3c 550d c93c 80e1 863c afb2 e43c
00000050: b431 053d aa9e 133d 8254 cd3c d183 c53c
00000060: c335 b83c 2cc4 f23c 8ddf aa3c 163a ee3c
00000070: b633 813c 5b57 813c 1b19 413c ddf3 813c

fc1.weight f4 [256, 512]
0.0959359 0.17052796 0.19585964 0.20468655 0.25225207 0.1856666 0.16308565 0.100693054
0.12605949 0.16763684 0.17969887 0.13737799 0.25858313 0.19322091 0.18883578 0.14412142
0.1561642 0.120283134 0.13381743 0.17735438 0.20604067 0.23322655 0.13609 0.16490279
0.1367454 0.12044606 0.17636666 0.17094126 0.22764596 0.17288473 0.18948467 0.096589714
-0.016467543 0.001089123 -0.16309957 0.15795825 0.18904087 0.17695232 -0.065912254 -0.024137542
0.03797791 -0.0052546337 0.059301432 0.12761627 0.16770825 0.14526176 -0.08997736 0.037643407
0.11057093 0.09873151 0.15644184 0.1894952 0.13902566 0.18676133 0.13331336 0.11823691
0.10201386 0.10090303 0.19932823 0.17456578 0.212502 0.13290718 0.110532574 0.11939646
0.15190639 0.103993185 0.15886876 0.18480243 0.16158828 0.16380632 0.15660788 0.17033577
0.10010296 0.16923371 0.14964433 0.13638805 0.16537122 0.19921297 0.19417004 0.114711985
0.01820201 -0.02015545 0.094491735 0.018605242 0.13862436 0.11329504 0.03991558 0.022447264
0.043779735 0.016798258 0.10866926 0.123985454 0.17687076 0.15979202 0.12762295 0.06439683
-0.022282505 0.012563322 -0.16381772 0.15944208 0.17418201 0.14553033 -0.12500794 -0.01113594
-0.00036792085 -0.033653732 0.081577316 0.15697783 0.12812449 0.1268956 -0.1153965 0.029179523
0.1521368 0.18210636 0.12449969 0.19151032 0.20433204 0.16888656 0.16820875 0.16263491
0.15982738 0.15999684 0.16685742 0.16131115 0.17280579 0.21572922 0.19830462 0.12703703
0.12840816 0.11971664 0.17778552 0.19237278 0.18735564 0.1727755 0.1646477 0.10625635
0.121208504 0.17974354 0.146996 0.18971251 0.22109495 0.20620959 0.1799018 0.15830973
0.13017018 0.1530263 0.15603787 0.19342713 0.2057146 0.14420177 0.17550355 0.16302033
0.12334423 0.17019464 0.2032988 0.2391357 0.15657268 0.19513255 0.18127115 0.14590175
0.1585006 0.1677033 0.17421634 0.18390101 0.22386418 0.18200982 0.16839997 0.13489479
0.13034727 0.15295108 0.18227117 0.21956661 0.17716578 0.22357099 0.13977197 0.16958265
0.122576796 0.120309666 0.13486962 0.20300807 0.18085618 0.22478631 0.18160865 0.1885812
0.15120232 0.17228557 0.21149413 0.2046692 0.1519345 0.18837288 0.18319511 0.15185416
-0.023424521 0.015855815 -0.06793973 0.13842186 0.15661371 0.1938653 0.012034218 -0.048940644
0.037229955 0.030137083 0.04982199 0.15105966 0.14549415 0.11926568 -0.05633505 0.048370562
-0.00041307442 0.009117301 0.01841615 0.1490914 0.12989011 0.13475621 -0.08003642 0.0501278
0.017221015 -0.0127658155 0.11162488 0.1578857 0.11834661 0.13133538 0.021655014 0.014162296
0.13057448 0.15743276 0.15509231 0.1814875 0.14493842 0.20044824 0.15519401 0.1785459
0.118187286 0.13573202 0.17258531 0.13477166 0.18625571 0.17483023 0.18434753 0.17068315
0.030824725 -0.027211333 0.00545815 0.15772767 0.10786228 0.14715981 -0.11625031 -0.006923793
-0.022062263 -0.025798628 0.1532655 0.14462475 0.1137793 0.16104834 0.017282045 -0.014786294
00000000: 0b7a c43d e29e 2e3e 6e8f 483e 5a99 513e
00000010: 2f27 813e 631f 3e3e edff 263e 2938 ce3d
00000020: bd15 013e fea8 2b3e fb02 383e d1ac 0c3e
00000030: 0265 843e b4db 453e 2b5e 413e 9194 133e
00000040: 82e9 1f3e 0157 f63d 7007 093e 639c 353e
00000050: 53fc 523e f1d2 6e3e 2d5b 0b3e 47dc 283e
00000060: fc06 0c3e 6dac f63d 7699 343e 3a0b 2f3e
00000070: 061c 693e b208 313e 4508 423e d4d0 c53d
00000080: f1e6 86bc e7c0 8e3a 9303 27be cfbf 213e
00000090: ee93 413e fd32 353e 01fd 86bd 18bc c5bc
000000a0: ba8e 1b3d 102f acbb 0fe6 723d d7ad 023e
000000b0: b6bb 2b3e 80bf 143e 0d46 b8bd f92f 1a3d
000000c0: 0373 e23d bf33 ca3d 4a32 203e 080b 423e
000000d0: be5c 0e3e 5d3e 3f3e 4c83 083e 3126 f23d
000000e0: a5ec d03d 3fa6 ce3d b31c 4c3e 5fc1 323e
000000f0: 209a 593e d218 083e e75e e23d 2286 f43d
00000100: 598d 1b3e 61fa d43d 7eae 223e d93c 3d3e
00000110: 6677 253e d8bc 273e d15d 203e 806c 2e3e
00000120: c802 cd3d 9a4b 2d3e 5d3c 193e 4fa9 0b3e
00000130: 1357 293e 7cfe 4b3e 83d4 463e 1eee ea3d
00000140: 621c 953c 0b1d a5bc e284 c13d 056a 983c
00000150: 8bf3 0d3e 3b07 e83d 857e 233d 53e3 b73c
00000160: 6152 333d 809c 893c fd8d de3d 16ec fd3d
00000170: 9c1d 353e 85a0 233e 97af 023e 7ce2 833d
00000180: cd89 b6bc 64d6 4d3c d5bf 27be c944 233e
00000190: c55c 323e e705 153e 1502 00be 8573 36bc
000001a0: 80e5 c0b9 7fd8 09bd 0212 a73d ccbe 203e
000001b0: 1133 033e ecf0 013e 0055 ecbd e509 ef3c
000001c0: c0c9 1b3e 177a 3a3e b2f9 fe3d 481b 443e
000001d0: 6b3c 513e 99f0 2c3e ea3e 2c3e c489 263e
000001e0: caa9 233e 36d6 233e acdc 2a3e c02e 253e
000001f0: 00f4 303e 1fe8 5c3e 5e10 4b3e ff15 023e
00000200: 6e7d 033e ff2d f53d 680d 363e 5ffd 443e
00000210: 28da 3f3e 10ec 303e 6899 283e ee9c d93d
00000220: 2a3c f83d b10e 383e 1f86 163e ff43 423e
00000230: b766 623e 9b28 533e 2d38 383e f21b 223e
00000240: 554b 053e edb2 1c3e 64c8 1f3e c311 463e
00000250: d9a6 523e a1a9 133e 34b7 333e cdee 263e
00000260: e69b fc3d 8147 2e3e 902d 503e fddf 743e
00000270: 9754 203e d4d0 473e 259f 393e 4567 153e
00000280: fb4d 223e 6aba 2b3e c565 323e 8c50 3c3e
00000290: a73c 653e c860 3a3e 0b71 2c3e dc21 0a3e
000002a0: c179 053e 359f 1c3e 4ba5 3a3e 12d6 603e
000002b0: f26a 353e cbef 643e 6220 0f3e 13a7 2d3e
000002c0: 8b09 fb3d ea64 f63d 431b 0a3e 59e1 4f3e
000002d0: 5d32 393e 622e 663e 9ef7 393e 6e1b 413e
000002e0: c8d4 1a3e a16b 303e eb91 583e ce94 513e
000002f0: b894 1b3e d2e4 403e 8097 3b3e a87f 1b3e
00000300: c8e4 bfbc 0ee4 813c fc23 8bbd 76be 0d3e
00000310: 585f 203e a084 463e 2b2b 453c fc75 48bd
00000320: 707e 183d 0be2 f63c 2512 4c3d 62af 1a3e
00000330: 6bfc 143e 9141 f43d 95bf 66bd 3620 463d
00000340: e991 d8b9 bb60 153c 77dd 963c 6aab 183e
00000350: ea01 053e 88fd 093e 22ea a3bd cf52 4d3d
00000360: 1613 8d3c b627 51bc 969b e43d caac 213e
00000370: b55f f23d c87c 063e db65 b13c fa08 683c
00000380: 51b5 053e 0e36 213e 85d0 1e3e dcd7 393e
00000390: bd6a 143e 4e42 4d3e 2eeb 1e3e bdd4 363e
000003a0: 2d0c f23d 56fd 0a3e 34ba 303e 9501 0a3e
000003b0: d1b9 3e3e b206 333e 99c5 3c3e 90c7 2e3e
000003c0: 2284 fc3c 4dea debc 48da b23b 5d83 213e
000003d0: e6e6 dc3d 10b1 163e a414 eebd fce0 e2bb
000003e0: ebbb b4bc a557 d3bc a2f1 1c3e 8318 143e
000003f0: 1f05 e93d dbe9 243e 1393 8d3c 3642 72bc

fc1.bias f4 [256]
0.11003399 0.1742684 0.14752787 0.14515078 0.10050303 0.118197136 0.098244965 0.096074864
0.10725909 0.01574039 -0.0013081261 -0.04655188 0.12605065 0.0429564 0.15784158 0.1687638
-0.03989451 0.08814906 0.07495982 0.106364496 0.12989847 0.09518884 0.017820952 0.0448883
0.18059509 0.080801055 0.053030528 0.022671446 0.074333675 0.029537655 0.09671562 0.1436527
0.16275613 0.01857355 0.08538575 0.1699079 0.13140361 0.1135127 0.13263522 -0.02920879
0.1693713 0.029936822 0.14662412 0.09389927 0.15400316 0.13447884 0.13548817 0.15128227
0.094558164 0.14930432 0.06924892 0.18324353 0.18002409 0.16013163 0.10829284 0.024170443
0.043334838 0.17364198 0.054368906 0.1461867 0.14203706 0.030291818 0.037951145 0.10024955
0.12731095 0.11317933 0.11513557 0.101238616 0.018311711 0.11588252 0.055891387 0.14854601
0.09337019 0.15991756 0.032994214 0.00938967 0.0856131 0.09273662 0.18707694 0.18840805
0.043616902 0.061713904 0.09236531 0.15373737 0.067029275 0.16481432 0.13890003 0.05250285
0.10349756 0.12618499 0.029837077 0.097174115 0.00797808 0.105134696 0.050578725 0.043350115
0.10814712 0.117045455 0.04875959 0.01711363 0.08273111 0.09393251 0.0132168615 0.08699892
0.06865861 0.018232087 0.15040502 0.028161656 0.17086382 0.15429854 0.066710666 0.08178025
0.1569533 0.12092942 0.016579963 0.10643875 0.10733003 0.15073283 0.10240669 0.108673014
0.1240976 0.16090818 0.06485332 0.13114034 0.021979649 0.15846826 0.11951579 0.09969985
0.132731 -0.044459116 0.15834749 0.13582581 0.022031335 0.031756755 0.13219574 0.12174747
0.02297765 0.051976155 0.1655843 0.14566457 0.09285812 0.1229007 0.016981918 0.060405277
0.15421537 0.045657292 0.09679246 0.03271052 0.15330432 0.120422624 0.1608628 0.11911987
0.010471076 0.12725705 0.17276461 0.029292308 0.13647191 0.16534118 0.07056145 0.1274889
0.15810639 0.100225106 0.115079165 0.12489134 0.046449512 0.15555823 0.15995088 0.16568783
0.12363062 0.047851935 0.11635473 0.13914545 0.14244257 0.049561143 0.15598375 0.16479741
0.15168133 0.09146669 0.18125346 0.11365575 0.15416057 0.08063749 0.114816144 0.064115405
0.09820954 0.063274994 0.15055683 0.14944193 0.11869738 0.12431646 0.1659703 0.06690773
0.16133569 0.077618755 0.1541499 0.17781949 0.10301339 0.17203298 0.07726226 0.13919866
0.12158907 0.15301734 -0.06331031 0.055889204 0.085095815 0.10101752 0.015762974 0.13368171
0.17615964 0.117163226 0.12394368 0.1328388 0.15765172 0.13035965 0.13783395 0.03269405
-0.060115483 0.014671326 0.05814194 0.048961565 0.09154751 0.16160169 0.033439543 0.067375876
0.040927317 0.07611407 0.004181914 0.14000854 0.0894796 0.11758406 0.03534012 0.16999033
0.17828165 0.13866349 -0.055070847 0.124065004 0.16012646 0.0032936507 0.07166362 0.07947406
0.15700668 0.17277075 0.06407588 0.094592415 0.17042145 0.11773609 -0.064666905 0.09007216
0.16226937 0.16111512 0.093083315 0.15919428 0.03587198 0.074924126 0.11582986 0.1177032
00000000: 8059 e13d 6a73 323e 8c11 173e 68a2 143e
00000010: 88d4 cd3d 5711 f23d a834 c93d e6c2 c43d
00000020: a7aa db3d fef1 803c 6e75 abba 2fad 3ebd
00000030: 6c13 013e 0df3 2f3d 39a1 213e 6bd0 2c3e
00000040: 6d68 23bd 7f87 b43d 8984 993d a1d5 d93d
00000050: 1b04 053e 5ef2 c23d 3ffd 913c cbdc 373d
00000060: ebed 383e 067b a53d 8a36 593d 78b9 b93c
00000070: 413c 983d f4f8 f13c d712 c63d b219 133e
00000080: 8ba9 263e 8f27 983c b9de ae3d 56fc 2d3e
00000090: ab8e 063e 5979 e83d 87d1 073e 4647 efbc
000000a0: ac6f 2d3e 113e f53c a224 163e 434e c03d
000000b0: 01b3 1d3e d2b4 093e 69bd 0a3e bde9 1a3e
000000c0: b6a7 c13d 3be3 183e 61d2 8d3d 31a4 3b3e
000000d0: 3c58 383e 8cf9 233e a3c8 dd3d 1801 c63c
000000e0: df7f 313d 34cf 313e eeb1 5e3d f7b1 153e
000000f0: 2a72 113e 8c26 f83c a972 1b3d a34f cd3d
00000100: cd5d 023e 91ca e73d 33cc eb3d 3156 cf3d
00000110: 7102 963c d153 ed3d 5eee 643d 721c 183e
00000120: df38 bf3d 6ec1 233e f124 073d 21d7 193c
00000130: ec55 af3d b2ec bd3d 1991 3f3e 0aee 403e
00000140: a3a7 323d b8c7 7c3d 062a bd3d 546d 1d3e
00000150: a546 893d 16c5 283e cf3b 0e3e 3a0d 573d
00000160: 87f6 d33d a336 013e e36c f43c 3903 c73d
00000170: 7eb6 023c dc50 d73d a32b 4f3d e48f 313d
00000180: 3d7c dd3d 87b5 ef3d 23b8 473d e231 8c3c
00000190: ee6e a93d b05f c03d 898b 583c 7d2c b23d
000001a0: e39c 8c3d 755b 953c c603 1a3e 46b3 e63c
000001b0: edf6 2e3e 7000 1e3e 9a9f 883d 677c a73d
000001c0: 5eb8 203e d8a9 f73d b4d2 873c 8ffc d93d
000001d0: d9cf db3d b559 1a3e 99ba d13d f58f de3d
000001e0: e226 fe3d 1dc5 243e d1d1 843d a749 063e
000001f0: aa0e b43c 8145 223e b2c4 f43d 6f2f cc3d
00000200: a3ea 073e c31a 36bd d825 223e ec15 0b3e
00000210: 0f7b b43c 5f13 023d 525e 073e bd56 f93d
00000220: a03b bc3c f3e4 543d ee8e 293e 1829 153e
00000230: 662c be3d 5db3 fb3d aa1d 8b3c 866b 773d
00000240: a2ea 1d3e 2403 3b3d 203b c63d 77fb 053d
00000250: cffb 1c3e 23a0 f63d 38b9 243e 1ef5 f33d
00000260: e08e 2b3c ac4f 023e 35e9 303e 6cf6 ef3c
00000270: 4bbf 0b3e 334f 293e 8682 903d 738c 023e
00000280: a4e6 213e d242 cd3d a0ae eb3d 08c7 ff3d
00000290: d841 3e3d a84a 1f3e 2aca 233e 12aa 293e
000002a0: 0d32 fd3d 6400 443d 644b ee3d 257c 0e3e
000002b0: 77dc 113e a000 4b3d 34ba 1f3e a7c0 283e
000002c0: 5a52 1b3e e352 bb3d 829a 393e 59c4 e83d
000002d0: 45dc 1d3e 4525 a53d ba24 eb3d f04e 833d
000002e0: 1522 c93d 5296 813d 922b 1a3e 4e07 193e
000002f0: 9d17 f33d a199 fe3d 1ef4 293e ec06 893d
00000300: 2f35 253e 95f6 9e3d 79d9 1d3e 5016 363e
00000310: aff8 d23d 6a29 303e ad3b 9e3d 188a 0e3e
00000320: b103 f93d 94b0 1c3e d6a8 81bd 14ec 643d
00000330: b746 ae3d 46e2 ce3d 5a21 813c dce3 083e
00000340: 3163 343e 46f3 ef3d 2fd6 fd3d e506 083e
00000350: 746f 213e 007d 053e 5824 0d3e 32ea 053d
00000360: a73b 76bd 0060 703c 3e26 6e3d ec8b 483d
00000370: 437d bb3d ea7a 253e e7f7 083d 5dfc 893d
00000380: 67a3 273d b2e1 9b3d 7008 893b 665e 0f3e
00000390: 1541 b73d e9cf f03d cdc0 103d f211 2e3e
000003a0: 778f 363e cdfd 0d3e f891 61bd cb15 fe3d
000003b0: 31f8 233e 4ada 573b 60c4 923d 4cc3 a23d
000003c0: 5cc6 203e d1ea 303e 373a 833d abb9 c13d
000003d0: f682 2e3e 9f1f f13d 1570 84bd c177 b83d
000003e0: f129 263e 5dfb 243e 77a2 be3d d303 233e
000003f0: 7fee 123d d271 993d 3538 ed3d 600e f13d

fc2.weight f4 [2, 256]
0.1927136 0.17408593 0.18302792 0.17902175 0.20587294 0.1261055 0.18846229 -0.2456876
0.19429064 -0.21528664 -0.023775961 0.06374726 0.17216082 -0.21900472 0.18113881 0.08874989
-0.03232087 0.07726021 0.11589038 0.19750844 0.15041967 -0.21412694 0.123548806 -0.17919505
0.16960818 -0.2085565 0.20958477 -0.26661184 -0.22364862 -0.2035966 -0.12780353 0.20196176
0.1459491 -0.26330706 -0.20213108 0.15647607 0.14748326 0.110058054 0.19132185 -0.07832148
0.160808 -0.25357407 0.09669271 0.17871647 0.13883416 0.2038591 0.1702329 0.21962002
0.20040622 0.18040654 -0.24491936 0.1803534 0.194218 0.0903602 0.09107359 -0.26102367
-0.24481708 0.19456661 -0.2647423 0.13342465 0.14046171 -0.24221341 -0.059985466 0.10968052
0.14250065 0.16771455 0.16018245 0.18502936 -0.25089496 0.17904711 -0.056913078 0.15169457
0.21319401 0.20666881 -0.19897914 -0.26998112 -0.24023141 0.15921484 0.16011506 0.14414705
-0.24698803 -0.2040603 0.18433127 0.16995896 -0.25618005 0.13077149 0.20230368 0.16238225
-0.03628326 0.18613347 -0.23838568 0.1833225 0.15366867 0.11270336 -0.27100036 -0.21827924
0.11045961 0.030192895 -0.1786779 -0.26996022 -0.17537074 -0.21847238 -0.21139193 -0.12341845
-0.26105157 -0.22125973 0.14603442 -0.25026336 0.11656498 0.16832595 -0.24519299 0.15049173
0.12226451 0.14718 -0.23470156 0.11552797 0.17911139 0.17368622 0.19001697 0.20621665
0.2040601 0.19113241 -0.18832763 0.15088266 -0.16944121 0.17981145 0.10722169 0.18929149
0.19844563 -0.053058103 0.15381125 0.18458866 -0.20375475 -0.22236167 0.17180717 0.18270302
-0.2822206 -0.14522098 0.19693393 0.20755585 -0.2729644 0.20493376 -0.24467628 -0.1921683
0.19049175 -0.23941436 0.1579562 -0.24866384 0.17915818 0.12681293 0.18934822 0.17564993
-0.009923993 0.12853695 0.12609357 -0.17044152 0.1106547 0.1126572 -0.2585429 0.16998164
0.19485174 0.088656396 0.16361317 0.21333098 -0.26035926 0.150573 0.116305776 0.1566736
0.17639288 0.18342829 0.15774511 0.18272828 0.14175715 -0.23134373 0.17735435 0.09272418
0.2017274 -0.19916709 0.19470781 0.18910825 0.19906415 -0.2564316 0.13677642 -0.18091315
0.1350852 -0.24314548 0.110715464 0.20002523 0.18033947 0.1932198 0.20754318 -0.21600421
0.18063763 -0.24117021 0.20092562 0.18441679 0.13360316 0.10655168 -0.19114865 0.17201467
0.116298266 0.18091649 -0.05868095 -0.09737998 -0.25652674 0.142566 -0.19085906 0.09526666
0.123808965 0.15200353 0.10481718 0.08979419 0.16472208 0.10282912 0.12212561 -0.257834
-0.03901372 -0.2670847 -0.20788582 -0.22838476 -0.044275284 0.16898045 -0.2299538 0.16608973
-0.2626389 -0.11874085 -0.23503622 0.15449607 -0.24355538 0.104116395 -0.24527562 0.0897708
0.17193694 0.18492886 -0.058638673 0.16956086 0.15420483 0.17366742 -0.2626765 -0.118443236
0.14890756 0.13638791 -0.2191496 0.15603665 0.19634756 0.124211535 -0.081416115 -0.2031791
0.17552996 0.18021652 0.14218552 0.17079663 -0.23611833 0.12986897 0.12827267 0.17096911
00000000: b756 453e 9543 323e ac6b 3b3e 7a51 373e
00000010: 5bd0 523e cd21 013e 42fc 403e 8895 7bbe
00000020: 20f4 463e 1a74 5cbe cec5 c2bc ec8d 823d
00000030: ed4a 303e c642 60be 747c 393e 81c2 b53d
00000040: e362 04bd 9a3a 9e3d f057 ed3d a73f 4a3e
00000050: 9d07 1a3e 1844 5bbe 2807 fd3d e87e 37be
00000060: c4ad 2d3e d68f 55be 649d 563e 5981 88be
00000070: 2504 65be a17b 50be eede 02be 10cf 4e3e
00000080: ae73 153e 2fd0 86be 73fb 4ebe 433b 203e
00000090: da05 173e 1e66 e13d e0e9 433e 0367 a0bd
000000a0: daaa 243e 76d4 81be d406 c63d 7301 373e
000000b0: 8b2a 0e3e 71c0 503e 8951 2e3e 12e4 603e
000000c0: 4a37 4d3e 7ebc 383e 24cc 7abe 90ae 383e
000000d0: 15e1 463e c50e b93d ca84 ba3d e5a4 85be
000000e0: 54b1 7abe 783c 473e 4e8c 87be 79a0 083e
000000f0: 32d5 0f3e cb06 78be 52b3 75bd 2ea0 e03d
00000100: b1eb 113e 5dbd 2b3e de06 243e 5678 3d3e
00000110: 4e75 80be 2058 373e b01d 69bd d255 1b3e
00000120: 884f 5a3e fda0 533e 30c1 4bbe f73a 8abe
00000130: 39ff 75be 3709 233e 34f5 233e 499b 133e
00000140: 6eea 7cbe 2ff5 50be 56c1 3c3e b909 2e3e
00000150: 082a 83be f6e8 053e b228 4f3e 8847 263e
00000160: c19d 14bd c699 3e3e 601b 74be e5b8 3b3e
00000170: 525b 1d3e 05d1 e63d 8fc0 8abe 9884 5fbe
00000180: a638 e23d 1757 f73c 57f7 36be 3a38 8abe
00000190: 6394 33be 39b7 5fbe 2077 58be d0c2 fcbd
000001a0: 8da8 85be e991 62be 0c8a 153e 8522 80be
000001b0: 9fb9 ee3d a35d 2c3e df13 7bbe 811a 1a3e
000001c0: d165 fa3d 5bb6 163e 9b55 70be ee99 ec3d
000001d0: fa68 373e cdda 313e cf93 423e 752a 533e
000001e0: 21f5 503e 37b8 433e f5d8 40be fc80 1a3e
000001f0: ff81 2dbe 7e20 383e 0c97 db3d a1d5 413e
00000200: 5535 4b3e 7453 59bd b280 1d3e cf04 3d3e
00000210: 16a5 50be c7b2 63be 38ee 2f3e 8016 3b3e
00000220: 387f 90be cfb4 14be 0ca9 493e 8589 543e
00000230: fdc1 8bbe 28da 513e 6b8c 7abe c4c7 44be
00000240: 4510 433e 0a29 75be 45bf 213e bca1 7ebe
00000250: 3e75 373e 40db 013e 80e4 413e 93dd 333e
00000260: 3e98 22bc 319f 033e ac1e 013e 3988 2ebe
00000270: ee9e e23d d1b8 e63d bc5f 84be ab0f 2e3e
00000280: 3787 473e 7c91 b53d 368a 273e 7073 5a3e
00000290: cf4d 85be cf2f 1a3e b931 ee3d 0b6f 203e
000002a0: 56a0 343e a0d4 3b3e ef87 213e 1f1d 3b3e
000002b0: c928 113e 5fe5 6cbe 619c 353e 2de6 bd3d
000002c0: a191 4e3e 75f2 4bbe 7c61 473e 98a5 413e
000002d0: 79d7 4b3e 014b 83be 1e0f 0c3e 4c41 39be
000002e0: c653 0a3e 21fb 78be cabe e23d 6ad3 4c3e
000002f0: e9aa 383e 69db 453e 3386 543e 3530 5dbe
00000300: 12f9 383e 53f5 76be 72bf 4d3e c1d7 3c3e
00000310: 44cf 083e c437 da3d 79bc 43be 9d24 303e
00000320: c92d ee3d 2c42 393e 705b 70bd 286f c7bd
00000330: 7957 83be d2fc 113e 8f70 43be 2b1b c33d
00000340: 8e8f fd3d d0a6 1b3e 64aa d63d 04e6 b73d
00000350: e8ac 283e 1398 d23d fe1c fa3d d102 84be
00000360: dacc 1fbd 53bf 88be 05e0 54be b2dd 69be
00000370: 005a 35bd 3609 2d3e 0279 6bbe 6d13 2a3e
00000380: 9b78 86be 672e f3bd 56ad 70be 3834 1e3e
00000390: 9566 79be fa3a d53d 8829 7bbe c1d9 b73d
000003a0: 3d10 303e fe5d 3d3e 1b2f 70bd 5da1 2d3e
000003b0: dfe7 1d3e dfd5 313e 897d 86be 5e92 f2bd
000003c0: 397b 183e 46a9 0b3e c168 60be 12c8 1f3e
000003d0: 560f 493e 9e62 fe3d 7ebd a6bd 2f0e 50be
000003e0: 20be 333e ae8a 383e 1599 113e 50e5 2e3e
000003f0: 01c9 71be 5ffc 043e e959 033e 8712 2f3e

fc2.bias f4 [2]
0.06502635 0.07266246
00000000: 892c 853d 0ed0 943d
