rl_cartpole/target_net0222_adam_lr0.01.pth (torch_old, 687773 bytes, 22 tensors)

conv1.weight f4 [16, 1, 5, 5]
00000000: ae9d b33f 7c45 9040 8863 413f dd1a e73f
00000010: 23ee 96bd bd39 88c0 8512 51c0 0876 a2bf
00000020: f471 6b3e fb82 323f a0ad 883f f260 b1be
00000030: 8deb bb3f ba91 25c0 8aa6 d0be a982 5440
00000040: 6bfb a3bf b966 f9bf 6415 4040 e39e 553f
00000050: fb0d c1bf 4804 6e3f 6c37 7a3f ff0d 48c0
00000060: 1bab 21bf dcd4 30c0 90ba 26be 2f7b 4ebf
00000070: a655 4abe 5233 9e3f c5b8 8f3e 5b6e 59bf
00000080: 560d ea3f 8b51 6cbf f334 42be 9704 c03e
00000090: 6517 12bf 5a58 f2bf e30c 5e3f e173 27c0
000000a0: 9330 1ac0 bc3a f73e e742 3140 3701 dd3f
000000b0: 22fd 1fc0 e70e ac40 3999 16bf 33a8 7ec0
000000c0: a695 92bf 6647 5e40 815d 473f 1080 c63f
000000d0: 1950 263d c22e b13f 9e1d ef3d f2d5 ca3e
000000e0: 646e 8c3e e420 5ac0 e9bb 53bf aff3 473f
000000f0: 1525 063f 788e 23c0 7768 14c0 89f6 92bd
00000100: a154 0e40 97bd 31c0 3776 aebf 2656 23bf
00000110: 0e61 efbf f910 9ebf a485 f3bf 3d07 33bf
00000120: 4f8f 1e40 9e22 5bc0 24ae 84bf 4239 b33e
00000130: 82c2 21be d6b5 ac3d c54b 1d3f c9a9 49c0
00000140: dd15 2b3f 3943 fc3f a634 cabc c192 c6c0
00000150: f694 a4bf d8cf 03bf c8f2 f6be fe4f 093f
00000160: 5cbf 2cc0 c8dd 6c3f 53da ecbf 9958 80bf
00000170: e84a 833e c263 9640 6a2d 7c3f ae37 89be
00000180: 5beb a13e a92c 8abf 4471 0640 c98c bd3e
00000190: 029e 1b40 e7d1 e23e 0223 af3f 008a febd
000001a0: e92c 193f edd3 a5bf 7f8c 983d 0d80 283f
000001b0: 87bc c03f 5dff 3c3f 4d97 9d3e 571f d1bc
000001c0: 0599 2a3f 47f3 ac3e ffdb 3d3e 904c 12bf
000001d0: d725 4bbe 2b74 913f 662f f8bf f0de a9c0
000001e0: 5ac2 2e40 b071 35bf 0c05 41be 3e47 a7bf
000001f0: c546 dc3e 5351 3f40 c162 70be b82e b63f
00000200: d8b1 3d40 13d3 c63f 72e6 5abf d87f 8f40
00000210: 730f 2640 7d42 cdbf a226 2c3c aff8 f8be
00000220: 4d92 40c0 c853 993e ef45 0640 06d9 ea3f
00000230: 4ac5 9fbf c262 5f3f ff47 88c0 69fb 53c0
00000240: 3557 123f f8fd 843f e2cc db3e a57e ef3e
00000250: 0cd6 2a3e cba2 74bf a5cf c3be c124 023f
00000260: 0236 03bf fb3c 1ebe 62ff 28be 3e92 ccbe
00000270: 773b 923c 01e8 3fbe 3b69 ad3c 078e 25bf
00000280: a618 81bf 6f02 bfbe 7645 26be e000 ddbe
00000290: abd9 1b3e 5bd9 15bf d27e fbbe cf05 343e
000002a0: bcf8 20bf 59dd afbe 9d51 37be a5e1 66bf
000002b0: 7ff7 4a3f f995 cbbe bc81 babd c0e1 fbbf
000002c0: 348d ee3e 7b5d 6e3e 4f93 563f 2e25 a7bf
000002d0: 4723 8ac0 4b94 b3bf 1c84 19c0 2e3f 3b40
000002e0: c5a3 3a40 2956 96bf f88b b63f acf9 363f
000002f0: 6c48 8040 e93f 8abe ebcc e83f 0e56 d4be
00000300: ff4d 85bf 41b5 debf 6ba3 17bf dcfb 813f
00000310: 2a86 00c0 1591 3240 2055 40c0 4e5a d93e
00000320: b833 dabe 47f1 8a3d bfc0 023f 5b7a 41be
00000330: d3f1 f5be e395 15bf 3c9e e93e 07a4 6f3e
00000340: 595b babd cab1 4bbf 20d6 933e 7e50 87be
00000350: 7504 93bf e99b 493f a1bf 443f f4d3 4b3e
00000360: 8ea7 aebe 6e36 8ebf 11b2 65bf c88d e1bc
00000370: 2d7a 8cbe 2375 46bf c604 71be 760a 5abf
00000380: 7b19 2d3f 2e5c 4bbf 5b12 aabe 54d6 9fbe
00000390: acfb d2c0 14eb f4bf f059 31be 9608 bfbf
000003a0: 7ad5 abbf 80fd 8bc0 1bf1 0fbf d4ea 063e
000003b0: 66c1 debf 9780 e6be fa7f 16c0 f333 cdbf
000003c0: 8abc 01c0 e2f0 5dc0 ec63 81bf 4531 47bf
000003d0: 00bd cfbe 19bf c1bf 3926 cabf 986d 51be
000003e0: d6c4 263f 8424 32be c785 e83d 58ba 243f
000003f0: d6fd 9f3d 02fd ec3e 8f44 a53f 6e9c a43f
1.4032495 4.508482 0.755425 1.8055073 -0.0736964 -4.257048 -3.2667553 -1.269227
0.22992688 0.6973111 1.0677986 -0.34644276 1.4681259 -2.5870194 -0.4075206 3.3204749
-1.2811102 -1.9484473 3.0013056 0.83445567 -1.5082392 0.9297528 0.9774082 -3.1258543
-0.6315171 -2.762992 -0.16282105 -0.80656713 -0.19759235 1.2359412 0.28070655 -0.84934014
1.828532 -0.92311925 -0.18965511 0.37503502 -0.5706695 -1.8933213 0.86738414 -2.6164477
-2.4092147 0.48286998 2.7697084 1.7265996 -2.499825 5.376819 -0.5882755 -3.979016
-1.1451919 3.4731078 0.7787705 1.5507832 0.04060373 1.3842394 0.11675571 0.39616352
0.2742797 -3.4082575 -0.82708603 0.78106207 0.5240033 -2.5555706 -2.318876 -0.07175929
2.2239153 -2.7771966 -1.3629826 -0.6380333 -1.8701494 -1.234893 -1.9025159 -0.6993292
2.4774969 -3.4239879 -1.0365644 0.35004622 -0.15796855 0.0843312 0.6144374 -3.1509879
0.66830236 1.9708015 -0.024683308 -6.2054143 -1.2857959 -0.5148902 -0.48232102 0.53637683
-2.6991796 0.9252591 -1.8504127 -1.0027038 0.25643086 4.6996775 0.98506796 -0.26800293
0.31624874 -1.0794879 2.1006632 0.37021473 2.431519 0.44300768 1.3682559 -0.12428665
0.5983415 -1.29553 0.074486725 0.6582039 1.5057534 0.73827153 0.30779496 -0.02552764
0.6663974 0.33779356 0.18540953 -0.57148075 -0.19838654 1.1363577 -1.9389465 -5.308464
2.7306123 -0.708766 -0.18849581 -1.3068616 0.43022743 2.9893386 -0.23475172 1.4233007
2.9639797 1.5533165 -0.8550788 4.484356 2.594693 -1.6035916 0.010507258 -0.4862723
-3.0089295 0.29946733 2.0980184 1.834748 -1.2482083 0.8726007 -4.2587886 -3.3122199
0.5716432 1.0390005 0.4292975 0.4677631 0.16683215 -0.955609 -0.38244358 0.5083733
-0.51254284 -0.1545295 -0.16503671 -0.39955324 0.01785062 -0.18740846 0.021168342 -0.6466984
-1.0085647 -0.37306544 -0.16237435 -0.4316473 0.15219752 -0.58534783 -0.49120194 0.17580341
-0.6287954 -0.34348562 -0.17902227 -0.90188056 0.792839 -0.39762858 -0.09106776 -1.9678268
0.46592104 0.23277847 0.83818525 -1.3058221 -4.3168063 -1.402963 -2.3986883 2.9257312
2.9162457 -1.1745044 1.4261465 0.7147472 4.0088406 -0.27001885 1.8187536 -0.41471905
-1.0414428 -1.7399064 -0.5923373 1.0154986 -2.0081887 2.790105 -3.0051956 0.4245171
-0.42617583 0.06784301 0.5107536 -0.18894331 -0.4803606 -0.58431834 0.45628536 0.23402415
-0.090994544 -0.7956816 0.28874302 -0.26428598 -1.1485735 0.78753525 0.768549 0.19905072
-0.3411221 -1.1110361 -0.8972483 -0.027533427 -0.27436963 -0.77522486 -0.23536977 -0.8517221
0.67617005 -0.7943753 -0.3321713 -0.31218207 -6.5932217 -1.913424 -0.17319465 -1.4924495
-1.3424523 -4.374695 -0.5622727 0.13175517 -1.740277 -0.4501998 -2.351561 -1.6031479
-2.0271325 -3.4678273 -1.0108619 -0.77809554 -0.40573883 -1.5136443 -1.5792915 -0.20451963
0.651441 -0.17396742 0.11353641 0.6434684 0.07812087 0.4628678 1.2911547 1.2860239

conv1.bias f4 [16]
00000000: 4eb0 55bf 6521 373d 9def ae3e 0664 313e
00000010: 5af6 ab3d a766 cfbe 94aa 903e 47fd 7abf
00000020: 1e43 843e 8149 0f3f f04d 3b40 8c0f a93f
00000030: 2572 f23f 460f 363e e7fa a73f bd6e 533f
-0.83472145 0.044709582 0.34167185 0.17323312 0.08396597 -0.40508005 0.2825514 -0.9804272
0.25832456 0.55971533 2.926632 1.320787 1.8941084 0.17779264 1.3123444 0.8259085

bn1.weight f4 [16]
00000000: 2c0f 4e40 5175 ec3f 67c7 c939 18f5 2140
00000010: 285b 2e3c afc0 e83f c016 283c 0313 223f
00000020: 4446 94ba 1f27 a73f a97a 4540 2fe6 d13f
00000030: 86e7 e33f ec94 53ba c61f c23f 0d7c 273f
3.219676 1.8473302 0.00038486274 2.5305843 0.0106418505 1.8183802 0.01025933 0.6331026
-0.0011312445 1.3058814 3.0856116 1.6398371 1.780503 -0.00080712023 1.5165946 0.6542366

bn1.bias f4 [16]
00000000: f57d 4140 42f7 bd3f acbe 48bf 37cb 6fc0
00000010: f16a 5cbf dc86 a53f 6961 33bf df91 353f
00000020: 8236 09be 12ca 4cc0 9130 8340 7833 37c0
00000030: e082 39c0 e595 5bbe bee3 10c0 87ef 003f
3.0233128 1.4841082 -0.7841594 -3.7467782 -0.8610068 1.2931781 -0.7007051 0.70925707
-0.133997 -3.1998334 4.0996785 -2.8625164 -2.898613 -0.21443899 -2.2639003 0.5036549

bn1.running_mean f4 [16]
00000000: 95ea 55bf 9fca 2d3d 4bda ae3e 2c00 323e
00000010: ef44 ab3d f152 cfbe abaa 903e 5f97 7abf
00000020: ee3f 843e 02db 0c3f f654 3b40 5155 a93f
00000030: a410 f23f 60e4 353e a65f a73f e257 523f
-0.8356107 0.042429563 0.3415092 0.17382878 0.083627574 -0.40492967 0.2825521 -0.97887224
0.25830024 0.5502168 2.9270606 1.3229162 1.8911328 0.177629 1.3076065 0.8216535

bn1.running_var f4 [16]
00000000: 05cd 803b 565a 053c e4a1 f83c efa1 573c
00000010: 0b03 8d3c 7e29 183c b080 803b b27e dd3c
00000020: eb3b 673b c2c8 cd3d b9f5 243b c270 693d
00000030: 2838 123d 45d0 cb3a b406 a93d 9a68 b03d
0.00393069 0.008139214 0.030350633 0.013161167 0.017213365 0.009287236 0.0039215907 0.027037952
0.0035283517 0.10048057 0.0025170876 0.0569923 0.035698086 0.001554974 0.08253232 0.08613701

conv2.weight f4 [32, 16, 5, 5]
00000000: 0d55 e33e 0bdb 0b3f d7e1 40bf 3f1a da3f
00000010: 06ac bfbf 948f 71c0 b327 bdc0 5ceb b4bf
00000020: 8f08 86c0 8318 803d 5756 f83f eb07 5a3f
00000030: b2a5 dc3f 1c20 57be fd2f 6240 974b cebd
00000040: 946b 593e 9e04 5ebe 75c6 23c0 bcc2 44be
00000050: 1828 843f 09ea 49bf 2625 c8bf 74ca 19bf
00000060: a847 04c0 fc62 9bc0 f1b7 4940 d699 09c0
00000070: 9212 9b3f f122 833f fcf6 90bf 82a2 0f3f
00000080: fc9a a73d 4d38 8c3e a78a 07c0 c8bc 4cbf
00000090: 9a40 30bf d9fc 38be 6f21 8a3f 4686 98bf
000000a0: 53e5 053f 1464 82c0 61f1 b83e ad6c 59c0
000000b0: 6f71 c5bf f00b 21bf 2884 0ebf f2b9 4d3f
000000c0: 8994 76be d046 aabf 57f4 eabf 6116 89c0
000000d0: f1a3 323c 667d 30c0 b187 1c3f 7f40 58c0
000000e0: 1a66 0ec0 78ea f93e a8b5 24c0 1bf4 4fbe
000000f0: cef5 62c0 64e6 febe d608 583e efba 7ebf
00000100: fd85 d7bf 39ce 85c0 0c1d b0be e3b8 313f
00000110: 6805 b8be c45f 91c0 c37f 26bf 29dc f4bd
00000120: bc8a e4bd 5b5f 88bf e6b4 cfc0 46b5 533f
00000130: 6b85 0340 f4b0 843f 83d6 8b40 75b5 db3f
00000140: 479a adc0 1557 37c0 855f 3640 646d 13bf
00000150: decb 0fc0 a1d0 1abe 78e4 24c0 eb22 413f
00000160: c1fc 193b 53f2 bcbf bf9b 93be 6263 81bf
00000170: 9aa5 bf3e cca5 4ec0 acd7 a8c0 51b9 543f
00000180: 5d1c 70be f2a3 a03f 58a9 553e e7c9 25c0
00000190: f587 5bc0 0f07 4ac0 74d3 a9bf 4221 b6bf
000001a0: 0cc1 87bf c3a1 82be b9d1 b2c0 b4c3 993f
000001b0: da9b 87bf 243a 8bbf 879c 40bf c7d3 cbbf
000001c0: b53a d83f 378f eebf 8488 1cc0 c2cc acbe
000001d0: 6928 3a3f 9cef d63d c8d5 4fc0 354e 20c0
000001e0: 489a f3bf 7e13 7cbf 6ace eebe 9cde 28c0
000001f0: afc6 b0bf 4bea 86c0 6d08 3bbf 9386 2dc0
00000200: e909 c63c ccfb f6bf d72a 1cc0 4ac8 e83d
00000210: c754 4ec0 88ce ce3f d096 e33e 89a3 8a40
00000220: f043 dd3f bb17 d9bd 468f 3b3f 2fde 8ebf
00000230: e164 1dc0 ee8b 913f adfc e0bf 3c8d d5bf
00000240: 5e17 d1be 25b8 1440 0dd5 9bbf aedf 67bf
00000250: fd6e 10c0 d8a2 75bf b384 4ebf 9456 97bf
00000260: e3b5 2dbf 6b9a 1fbe a92c bfbf 0aa2 a5bf
00000270: a0db 14c0 fd9d 72be 0f20 d5be f4ed ffbe
00000280: 984d f83e b104 cfbe b343 253e c141 babe
00000290: 8388 6fbd 3a33 e23e 95cd fc3e 354d 9ebe
000002a0: fe71 06bf fe76 dcbd 20f6 7a3e 5525 01bf
000002b0: c484 bf3e 9a8b 0fbf 4b3d 143d 4098 3ec0
000002c0: 88ca d13f 908c 1cc0 b9d8 5b40 a33d 40c0
000002d0: 9aeb b2be 79f5 f7bd efea 9cc0 2966 0a40
000002e0: 7a84 7abf 06c7 a6bf b4e3 f3bf fb95 853e
000002f0: 05de 2cc0 847d b6bf 1256 3e3f a9b2 28bf
00000300: 3e37 21c0 191a 62c0 e219 dd3f 9d65 8b3f
00000310: 63a5 75bf e4a3 92bf e8c8 6cc0 4aac 0140
00000320: c421 8ebf dbdb 76bf 343f 8abe 5cc1 2cbf
00000330: f9a2 9f3d 3816 cabf 7739 d9bd 6cbf 1cbe
00000340: 013b eebe 95ae 26be 9d15 e2be ef4c 9c3e
00000350: 9f1a e73e 9b1b f3be 1a0a ee3d 825b 8dbe
00000360: 0566 423f 49fa 76bd 694c 293e 1cb5 89bf
00000370: 7c8d 3ebc fbd4 0c3f f937 22be 1b64 ebbd
00000380: 1c1e 5dbe b35c b23f 0bf3 853f 437e ba3f
00000390: cf38 1640 a042 343f 6294 a4bf 3a7e 7ec0
000003a0: 0594 bd3f 1914 99bf d3d8 77bf 245d 79bf
000003b0: 8249 b2c0 2cd7 8abf b77b 8bc0 beb1 d9bf
000003c0: d156 a23e f7d3 03c0 b83d 27bf b4a8 43c0
000003d0: cf2a 5bc0 f2c5 753f fb6a 17c0 4f82 a7bf
000003e0: f166 12c0 b735 eec0 b1fd 14be 9abf 0a40
000003f0: 62f8 a2be 6494 f03f 448c 6abf 756e c2bf
0.44400826 0.5463111 -0.75344604 1.703926 -1.4974372 -3.7743883 -5.911096 -1.4134326
-4.1885448 0.06254675 1.9401349 0.8516833 1.7238066 -0.21008343 3.534179 -0.10073011
0.21232444 -0.21681449 -2.5589879 -0.1921491 1.0324736 -0.78872734 -1.5636337 -0.60074544
-2.0668736 -4.855833 3.151852 -2.1500144 1.2115042 1.0245038 -1.1325374 0.5610734
0.08183858 0.27386704 -2.1178377 -0.7997556 -0.68848574 -0.18065204 1.0791453 -1.1915977
0.52303046 -4.0747166 0.36121657 -3.397258 -1.5425242 -0.6290884 -0.55670404 0.80361855
-0.24080099 -1.330286 -1.8355817 -4.283982 0.0109033445 -2.7576537 0.6114455 -3.3789365
-2.2249818 0.48811698 -2.5735874 -0.20307963 -3.5462527 -0.4978515 0.2109712 -0.9950399
-1.6837765 -4.1814237 -0.3439716 0.6942274 -0.35941625 -4.54294 -0.650387 -0.11956055
-0.11159274 -1.06541 -6.4908323 0.82698476 2.0550182 1.0366502 4.3699355 1.7164751
-5.4250827 -2.86469 2.84958 -0.5758879 -2.246818 -0.15118648 -2.5764446 0.75443906
0.00234966 -1.4761451 -0.28829762 -1.0108454 0.3743103 -3.2288694 -5.276327 0.8309527
-0.2344832 1.2550032 0.20865381 -2.5904481 -3.4301732 -3.1566808 -1.3267655 -1.42289
-1.0605788 -0.2551404 -5.588101 1.2012849 -1.0594437 -1.0877118 -0.7523884 -1.5924004
1.6892916 -1.8637456 -2.4458323 -0.33749968 0.7271791 0.104949206 -3.2474232 -2.5047734
-1.9031458 -0.9846724 -0.46641856 -2.638587 -1.3810633 -4.2161 -0.7305973 -2.7113388
0.024174647 -1.9295592 -2.4401147 0.11366327 -3.2239244 1.6156778 0.44450998 4.332463
1.7286358 -0.10600229 0.7326549 -1.1161555 -2.4592822 1.1370828 -1.757711 -1.6683726
-0.4083814 2.3237393 -1.2174393 -0.90575683 -2.2567742 -0.95951605 -0.8067123 -1.1823297
-0.6785566 -0.1558625 -1.4935504 -1.2940075 -2.3259048 -0.2369308 -0.4162602 -0.4998623
0.484967 -0.40433267 0.16139106 -0.3637829 -0.058479797 0.44179708 0.49375597 -0.3091828
-0.5251769 -0.107648835 0.24507952 -0.5044759 0.3740598 -0.5607239 0.036191266 -2.9780426
1.6389933 -2.4460793 3.4351027 -3.003762 -0.34945375 -0.12107367 -4.9036784 2.1624854
-0.97858393 -1.3029487 -1.9053864 0.2609099 -2.701051 -1.4257054 0.7435008 -0.65897614
-2.5189967 -3.5328429 1.7273524 1.0890385 -0.95955485 -1.1456265 -3.6997623 2.0261407
-1.1104054 -0.9642922 -0.27001345 -0.67482543 0.077947564 -1.5788031 -0.10606664 -0.15307397
-0.4652939 -0.16277535 -0.44157115 0.30527446 0.45137498 -0.47482 0.116230205 -0.27608877
0.7593692 -0.060297284 0.16533054 -1.0758395 -0.011630412 0.5501248 -0.15841664 -0.11493703
-0.21593517 1.393454 1.0464796 1.4569782 2.3472173 0.7041416 -1.2857783 -3.9764543
1.4810797 -1.1959258 -0.9681522 -0.97407746 -5.571473 -1.0846915 -4.358852 -1.7007368
0.3170686 -2.0598123 -0.6532855 -3.0571718 -3.4244878 0.96005166 -2.3659046 -1.3086642
-2.287533 -7.444057 -0.145499 2.1679444 -0.31830126 1.8795285 -0.9162028 -1.5189959

conv2.bias f4 [32]
00000000: 0a35 85bd 8daa 4abe 78ce d4bd 7ca9 93bd
00000010: c555 f83d 7dda b43d 99e5 32bd dfc6 8f3e
00000020: 8266 5bbd 4e44 97bd d834 81bd 9453 a73d
00000030: 9cf2 51bc d173 c03c cec4 2bbd 6fd9 c8bd
00000040: 55e1 b5bb 2554 46bc 1b0d 6c3c ce10 35bd
00000050: b7d8 ffbd 94d5 f93d 8483 493d 39cc 21be
00000060: fad9 253d 0c2f 1dbe 6558 263e 1aff cb3b
00000070: cf09 babd b301 20bd f3db 60bd e1a4 7d3d
-0.06504257 -0.19791622 -0.10390943 -0.07210061 0.12125734 0.08830736 -0.043675993 0.28081414
-0.053564556 -0.07386075 -0.06308907 0.08170238 -0.01281419 0.023492726 -0.041935734 -0.09807097
-0.0055505433 -0.012105023 0.014407421 -0.04420548 -0.12492507 0.1219894 0.04919769 -0.15800561
0.04049108 -0.15349978 0.16244657 0.006225479 -0.09083902 -0.03906412 -0.05489726 0.06192482

bn2.weight f4 [32]
00000000: 72cd 1d40 060e a440 3c4a 8640 6669 a03f
00000010: 9491 8a40 46c7 6240 b73f 893f 75b3 bc40
00000020: 5e9c 7d40 a421 1d40 8420 6040 fea1 7040
00000030: 9831 88bb fc1f 1c40 0aa7 a53f f14f 6b40
00000040: d8b6 6040 015f 853f ba04 0c40 cb6f a73f
00000050: 7f17 653f 4e31 6a3f e783 d93f 9a1e 8240
00000060: e711 a03f 6505 d13f 0e59 8640 b750 923f
00000070: 3c90 8140 274e 7f40 46a4 9040 dc83 8140
2.4656644 5.126712 4.196562 1.2532165 4.330271 3.5434127 1.0722569 5.8969064
3.962669 2.4551783 3.5019846 3.7598872 -0.0041563027 2.4394522 1.2941601 3.6767542
3.51116 1.0419618 2.1877885 1.3080992 0.8948898 0.91481483 1.6993378 4.0662355
1.2505463 1.6329771 4.198371 1.1430882 4.0488567 3.989145 4.520053 4.047346

bn2.bias f4 [32]
00000000: f37f 9b3f b853 aebf 43e8 0ebf eaf5 6f3d
00000010: 04d5 b1be 7366 95bf f9f3 67c0 2bb9 1cbf
00000020: c954 83bf 47ea 90bf fb11 93be d20e 0dbf
00000030: 1106 0dbe 5db5 babf 061c 33c0 c2cb 6bbf
00000040: 2a68 2dbf 2d1d b6bf baf5 a4bd 88c9 46bf
00000050: cea4 a43c 1f4e 13c0 978c be3e a09c 55bf
00000060: b2fa e4bf a69f 20bf 669a 85bf 39dc f1bf
00000070: 71e2 8abf 1f25 42bf 1bc6 17bf 57b9 42bf
1.2148422 -1.3619299 -0.55823153 0.05858413 -0.3473283 -1.167189 -3.624266 -0.61220044
-1.0260249 -1.1321496 -0.28724656 -0.5510074 -0.13771845 -1.4586598 -2.7985854 -0.92107785
-0.67737067 -1.4227654 -0.08054681 -0.7765126 0.020098116 -2.3016431 0.37216637 -0.83442116
-1.7889006 -0.62743604 -1.0437744 -1.8895332 -1.0850354 -0.7583789 -0.5928666 -0.76064056

bn2.running_mean f4 [32]
00000000: 3e01 3dc3 e6af 41c3 abb4 81c3 4978 1ec2
00000010: 1fae 93c3 e4d2 dec2 ee8b c542 5c5e 48c3
00000020: fa3d 27c3 3161 e9c2 a7f2 5fc3 2669 45c3
00000030: 2367 aa41 dafd 0dc3 908a ee41 04c6 07c3
00000040: 126c 1fc2 0461 b7c1 29a2 2ac3 ad67 9cc0
00000050: 5626 69c2 ee30 1242 5895 2fc2 6b09 0bc3
00000060: 5c14 7942 4236 45c2 950f 15c3 5bde 95c2
00000070: f1b0 35c3 3d88 95c2 713c 70c3 5f2d 38c3
-189.00485 -193.6871 -259.41147 -39.617466 -295.36032 -111.411896 98.7733 -200.36859
-167.2421 -116.68983 -223.94786 -197.41074 21.30036 -141.99161 29.817657 -135.7735
-39.855537 -22.92237 -170.63344 -4.8876557 -58.287437 36.547783 -43.895844 -139.03679
62.269882 -49.302986 -149.06087 -74.93429 -181.69118 -74.76609 -240.2361 -184.17723

bn2.running_var f4 [32]
00000000: 98ba c145 e7d1 a445 3033 ec45 2b44 5b45
00000010: 3c6c b745 ce33 8945 c87d 4145 9479 c045
00000020: cc14 8f45 6d3e 6c45 6a89 ab45 038e d545
00000030: 6fb4 1543 6606 5b45 0099 6c45 0eeb bb45
00000040: e097 7645 613b 2945 e84e 8c45 3afc 3f45
00000050: df8b 3e45 845b 9645 98c7 5245 013f 7545
00000060: 5685 2f45 e6c0 6f45 066a 9a45 1ff3 4745
00000070: 1a34 c145 a2f9 8c45 6b89 b945 18b9 9b45
6199.324 5274.238 7558.3984 3508.2605 5869.5293 4390.4756 3095.8613 6159.1973
4578.5996 3779.9016 5489.177 6833.7515 149.70482 3504.4 3785.5625 6013.382
3945.4922 2707.7112 4489.8633 3071.7642 3048.742 4811.4395 3372.4746 3923.9377
2808.3335 3836.0562 4941.253 3199.195 6182.5127 4511.204 5937.1772 4983.1367

conv3.weight f4 [32, 32, 5, 5]
00000000: c5c1 f8bd 1f62 c7bd 2c18 b93d 53df a7bd
00000010: 1ef7 5b3c 5b65 51bd 5263 3dbd 475f 9b3d
00000020: ab9f 84bd af78 efbc 5f2c e2bd f94b 85bd
00000030: 2e12 883d c69d 0cbd 9efc c4bc e759 07be
00000040: b408 97bd 082a de3b fefd 78bd e383 fabc
00000050: f107 42bd 7198 c23d f42d a6bc c91e 83bd
00000060: 9c2a d1bc 4f4c 89bd 9751 56bd b4aa 823b
00000070: 7c1d a63d 03b4 69bd a614 21bd d336 6bbd
00000080: f1eb acb7 a669 c83d 2e66 96bd 2b78 89bd
00000090: 8dfd 93bd f448 1abd 4bb1 123e b1ea 26bd
000000a0: d8c8 57bd eaf9 51bd 4bc9 2abd 8595 fb3d
000000b0: e552 873a a9fe cebd d7f2 4fbd 9815 00bd
000000c0: aa47 bcbc 819f 5fbd 22e1 6e3c 0740 443d
000000d0: 857b 023d 28f4 ea3c 76bf d7bc bdb7 903d
000000e0: 4852 883d 8a64 a83c 62cc 053d a360 2c3d
000000f0: 824e 213d f854 af3d bd49 af3d 3c5e 353c
00000100: a542 f73b f380 04bc 3a9e f03c cd81 9f3d
00000110: d869 903c f852 2ebc 9ed0 f53c 2b84 9a3b
00000120: f13c 933d ce47 f03c 2267 813a b6cf c33c
00000130: 13fc b23d 174a 013e ebd7 71bd 2e87 07bd
00000140: 88d1 24bd d5ee ea3d 8c7f 1dbc 668e 213c
00000150: 25cc 6abd 5fae bcbd eeb4 053e 4537 63bd
00000160: 54e3 c9bc 5f4b 0dbd 1a99 aabd e024 153e
00000170: 374f 90bd 8be5 2cbd aadd 82bd 8522 03bd
00000180: 2dde cb3d 07d7 03bd afc7 9bbd 0484 83bd
00000190: d3bc 8e3d e9e8 6fbd 2c2c b03c a954 c33d
000001a0: c1e7 d93c 5a81 8ebc 001f b1bd 0625 c33d
000001b0: 5d18 d03d 5e8f d93c cf2e 923c 37a6 8abd
000001c0: 9d72 ad3d 8d8f 433d 04a2 d23c e81b 6c3d
000001d0: 80f9 333c 7860 903d 5654 8e3d 953b 7f3d
000001e0: b660 fabb 90ef be3c 530d 933d 16fd 363d
000001f0: ae68 3a3d 620a cbbd efb6 29bd 9dca b93d
00000200: 5e2a 2f3c 301f 82bd ea90 a3bd a582 443d
00000210: 7b7d 5b3d 766f 4cbd af9f dbbd 0fec ccbd
00000220: d5c5 963c aaa6 413d 9271 1bbd 67d6 cabd
00000230: 46de e93c 8351 463c e902 c73d 0dfb c9bd
00000240: 3ce4 41bd e6f6 b9bd c897 153d b081 623d
00000250: 7016 e2bd 260b 86bc 2280 9dbd 0d43 9cbd
00000260: 6cba c73d 44c8 7ebc eb10 a3bd 114b 46bd
00000270: 2134 11bc e01a ff3d 66fa babb e319 dbbd
00000280: fa98 5cbd c9b8 cbbc a785 003e 67c2 15bd
00000290: c20b 0dbd 3193 90bd 62b5 6abd 6cf8 f43d
000002a0: a1b1 71bc 2559 92bd 9708 f33b 9c15 3fbc
000002b0: 3bb2 e73d 0f88 b2bc 9e7d a2bd e260 cfbd
000002c0: c4cf 0fbc ea3c 423d 3425 3fbd 7609 74bd
000002d0: c820 51bd 656d a1bc c08b c33d 747b 3fbd
000002e0: 45f6 2ebd 1d19 8cbd f2a2 5bbd dbdc a43d
000002f0: 22ac 81bd 06f9 6dbd 2175 1ebd cf0c cc3d
00000300: cd06 8dbd e124 023c 2c15 d7bc 81de 90bd
00000310: 4cc5 263b 7610 cabd 7780 97bd ddb7 81bd
00000320: 80df 41bd 61b0 6fbc baf1 ff3b a90a 253d
00000330: ec73 82ba afbb 86bd f7d5 803c 5a84 a33b
00000340: 3b56 dd3d d53c 4bbd f289 8ebd 4d9a ac3b
00000350: ec6d 3ebc 391e eb3d 2cc6 a8bd 4f9f a4bd
00000360: 5a4c 24bd 4a06 dc3d 7cbb 903d 9861 4fbd
00000370: a8fb 303c a0e0 aabc f56f 053e b6f4 c03d
00000380: f885 aabd cc8b 87bd 5813 84bb 0164 b43d
00000390: 23eb e03d 717d 00bd b066 85bd 3975 1a3d
000003a0: 5e5a 7a3d 6496 f93c aa1c 97bc 0d2c 1cbd
000003b0: 5526 a43d 6c53 273e 0aec 103c a9af 38bd
000003c0: f83c d6bb d6ef c33d fadc 2e3e 4f2b 8fbd
000003d0: a840 40bd 450a 4ebd 74c0 9abc 58aa 3dbd
000003e0: cca3 8abd 2ecd 85bc 4b6d f33a 5230 7a3c
000003f0: 11b1 ae3c 91e5 9b3d 44de d5bd c11e d0bc
-0.121463336 -0.09735512 0.090378135 -0.081968926 0.013425617 -0.05112205 -0.046237297 0.07586532
-0.06475767 -0.029232351 -0.11043619 -0.06508631 0.066440925 -0.034330152 -0.024046239 -0.13217889
-0.07374707 0.006779913 -0.0607891 -0.030580467 -0.047370855 0.09501732 -0.020285584 -0.06402356
-0.025533013 -0.06704008 -0.052323904 0.0039876346 0.081110924 -0.05705644 -0.039326333 -0.05742533
-2.0613867e-05 0.09785776 -0.07343708 -0.06712373 -0.07226095 -0.03766723 0.14325444 -0.040751163
-0.052681774 -0.051263727 -0.041695874 0.12284378 0.0010324387 -0.10107166 -0.0507687 -0.031270593
-0.02298339 -0.054595474 0.014580043 0.047912624 0.03185608 0.028680876 -0.026336413 0.07066295
0.06656319 0.020555753 0.032665618 0.042084347 0.03938151 0.085611284 0.08558986 0.0110698305
0.0075457864 -0.0080873845 0.029372323 0.077884294 0.017628595 -0.0106398985 0.030006703 0.0047154627
0.07189358 0.029331114 0.0009872655 0.023902755 0.087394856 0.1262592 -0.059043806 -0.0330879
-0.040238887 0.11471335 -0.009612929 0.009860611 -0.057323594 -0.09212946 0.130573 -0.05547263
-0.024644531 -0.034495708 -0.08329983 0.14564848 -0.07046359 -0.042211097 -0.06389935 -0.032015342
0.09954486 -0.032187488 -0.07606446 -0.06421664 0.06969609 -0.05857173 0.021505438 0.09537632
0.026599767 -0.017395664 -0.08648491 0.09528546 0.10160897 0.02655762 0.017844586 -0.06769984
0.084691264 0.047744323 0.02571202 0.0576438 0.010984778 0.0704965 0.069496796 0.06231268
-0.0076409234 0.023307592 0.07180276 0.044674955 0.045509987 -0.0991409 -0.041434225 0.090718485
0.0106912535 -0.06353605 -0.079866245 0.047976155 0.053586464 -0.049910985 -0.107238166 -0.10005962
0.01840488 0.047278084 -0.037950106 -0.09904175 0.028548371 0.012104395 0.09717352 -0.09862337
-0.047336802 -0.09080295 0.036521703 0.05529946 -0.11039436 -0.016362738 -0.07690455 -0.076299764
0.09752354 -0.015550677 -0.07962211 -0.048411433 -0.008862526 0.12456298 -0.0057061194 -0.10698297
-0.053856827 -0.024868386 0.12550984 -0.03656235 -0.03443504 -0.070593245 -0.057301886 0.11961445
-0.014751823 -0.07145909 0.0074167955 -0.011662867 0.11313292 -0.021793393 -0.07934116 -0.10125901
-0.0087775625 0.047421373 -0.04666634 -0.059579335 -0.051056653 -0.019705484 0.095481396 -0.046748593
-0.04271533 -0.068407275 -0.053622194 0.08049937 -0.0633166 -0.058098815 -0.03868592 0.099633805
-0.06886063 0.007943363 -0.026255213 -0.07073689 0.0025447188 -0.09866421 -0.073975496 -0.06333897
-0.047332287 -0.014629454 0.0078107985 0.04029337 -0.000995276 -0.065787666 0.015727026 0.004990143
0.10807463 -0.04961856 -0.06959905 0.0052674175 -0.011622887 0.11480374 -0.08240923 -0.08038198
-0.040111877 0.10743387 0.0706701 -0.050630182 0.010802187 -0.020859063 0.1303099 0.09421675
-0.08326334 -0.06618461 -0.0040306263 0.08808137 0.10982349 -0.03136963 -0.06513727 0.03770945
0.061121337 0.03046722 -0.018446285 -0.038127948 0.08015124 0.16340417 0.008845339 -0.045089398
-0.0065380298 0.095672294 0.17076483 -0.06990682 -0.04693666 -0.050302763 -0.018890597 -0.04630503
-0.06769523 -0.016333189 0.0018572 0.0152703095 0.021324666 0.07612146 -0.104427844 -0.02540529

conv3.bias f4 [32]
00000000: 1fdf 12bb 5168 0bbd 968c 83bd ea28 7d3d
00000010: cb18 93bc b948 9cbc d080 b9bd 3f0d 18be
00000020: 811f 21bc 2eb3 e3bb b7ea edbb 49f4 8cbc
00000030: 0489 30bd 069e 073c 10e9 8cbc e786 2abd
00000040: d57d 103c 3170 f33c a73d 963d 63d0 193c
00000050: 652a adbd f51f cfba 0044 023d 3398 64bc
00000060: 1f5e 273c a2e8 89bc 48f6 ae3d 113e 073e
00000070: 5935 783c 3489 3dbe 27e6 453d fe79 a43c
-0.0022410823 -0.03403503 -0.06423299 0.061806597 -0.017956158 -0.019077646 -0.09057772 -0.14848803
-0.009834171 -0.00694885 -0.007260646 -0.017206328 -0.04309942 0.008277422 -0.017200977 -0.04163256
0.008819063 0.029716583 0.07335978 0.009388062 -0.08455352 -0.0015802371 0.03180313 -0.013952303
0.010215311 -0.01683456 0.08543068 0.1320727 0.015149438 -0.1850937 0.048315194 0.020077702

bn3.weight f4 [32]
00000000: 8b2b 533b ce71 1240 3301 2340 40e6 6f3d
00000010: bd0b d13e 8690 e43f 34bc fa3f c964 113f
00000020: b167 17bb e436 d63f 8197 8e3d df5c c63f
00000030: d00e 153e 4f70 e63f 4ab0 653d a9a1 01bd
00000040: 8943 b33d a5f9 b53c 4799 c33f 85e1 0b3f
00000050: c956 7d3f 2f24 f53d ccd5 723e dd6c 783c
00000060: 5744 df3f cef8 793e 43fc 4a3e 543c 1440
00000070: 3932 da3d 9b17 d63f d00e 0640 7d31 2a3e
0.0032221999 2.288196 2.5469482 0.058569193 0.40829268 1.7856605 1.9588685 0.5679441
-0.0023102576 1.6735501 0.06962491 1.5497092 0.14556432 1.8003024 0.056076325 -0.03164831
0.08753116 0.022213766 1.5281152 0.5464099 0.9896055 0.11969792 0.2371437 0.015162674
1.7442731 0.24411318 0.19822793 2.3161821 0.106541105 1.6725954 2.094654 0.16620441

bn3.bias f4 [32]
00000000: de0e 9abd 502b f9bf 12c1 e4bf 97fb 2fbf
00000010: 0202 9cbf bf79 0bc0 4c68 23c0 aaf7 99bf
00000020: e9bf eabd f2bc 2ac0 6794 05be c0fb acbf
00000030: 5b4b cebe 6691 37c0 204c ebbd edd5 10bf
00000040: 904e 3fbf 2700 e7bd 50ef 69c0 d55b 8dbf
00000050: 6dc1 13c0 d09d abbe 7a75 c7be 0f40 6bbd
00000060: a707 16c0 d2a0 0dbf c6d5 903e e401 31c0
00000070: b3df 84be bbad 28c0 f460 36c0 570e abbe
-0.07522367 -1.9466343 -1.787142 -0.6874327 -1.2188113 -2.1793058 -2.5532408 -1.2028706
-0.11462385 -2.6677823 -0.13044892 -1.3514328 -0.40291867 -2.8682494 -0.11489129 -0.56576425
-0.7472925 -0.11279326 -3.6552315 -1.104365 -2.3086808 -0.3351884 -0.38956815 -0.057434138
-2.344217 -0.5532352 0.28288096 -2.7657404 -0.2595192 -2.6356037 -2.8496675 -0.33409378

bn3.running_mean f4 [32]
00000000: 0b73 30bf 52d5 35c2 15a5 2ac2 dcf3 6ac1
00000010: 5104 15c0 5075 a541 1828 8dc1 76ec f9c1
00000020: 4944 e8c0 9201 c63f f922 33c1 956e 1fc3
00000030: e939 42c1 811c 6341 abbe 0cc1 914b 8b40
00000040: 426b 9ac1 4968 f7c0 6466 0242 6e43 72c1
00000050: cd3f 68c2 ea88 7fc1 fe58 b8c1 15c3 68c1
00000060: b8d3 4bc2 3062 81c1 be0b a1c1 0433 56c2
00000070: ffd9 30c0 0910 89c2 5c7d d3c1 09e9 bac0
-0.6892554 -45.45832 -42.661213 -14.684536 -2.3283885 20.682281 -17.644577 -31.24046
-7.2583356 1.5469229 -11.196038 -159.43196 -12.139138 14.194459 -8.79655 4.3529744
-19.302372 -7.73148 32.59999 -15.141462 -58.062305 -15.970926 -23.043453 -14.547627
-50.956757 -16.172943 -20.130733 -53.54982 -2.7633054 -68.53132 -26.43621 -5.8409467

bn3.running_var f4 [32]
00000000: a86b 4240 a7bb 1146 6358 3646 df5d 1445
00000010: 1ca6 0645 9bfe 3446 834f e645 517f d044
00000020: 7929 a941 1225 af45 ae43 cd41 98b7 2a46
00000030: d7c4 9742 f3dc a745 1eaa 9141 1030 9944
00000040: 3624 d444 258a d641 633d 7b45 4c6a f944
00000050: 4f0b 0546 de93 8c43 8819 e242 f750 6f41
00000060: a9ab da45 8f7e 3844 fd3c c745 d763 df45
00000070: a331 8b43 5c72 ee45 0db6 a045 c711 2243
3.0378208 9326.913 11670.097 2373.867 2154.3818 11583.651 7369.939 1667.9786
21.14525 5604.634 25.658047 10925.898 75.88445 5371.6187 18.208065 1225.502
1697.1316 26.817453 4019.8367 1995.3218 8514.827 281.1552 113.049866 14.957267
6997.4575 737.9775 6375.6235 7148.48 278.3878 7630.295 5142.7563 162.06944

fc1.weight f4 [256, 512]
00000000: 0623 2d3d ca54 0dbc cd76 68bc d204 97bc
00000010: 2ce6 9dbc 5417 02bc c539 5b3c da98 353d
00000020: c67e 383d d10f 3abc 87cd 6ebc 2f5f 64bd
00000030: c1be 36bd 055a d5bd cf04 c73c daf1 8dbc
00000040: 4601 c9bd b82e 72bd 88f8 aebd 1f18 45bd
00000050: 617e 23bd 4f5c 7fbc 3959 8ebe e08e f0bd
00000060: b231 d6bd d39d a4bd 329e 09be 0016 44bd
00000070: b93f aebd 749b 08be 08cd 03be f5af d3bd
00000080: 2a82 06bd 889f 8fbd cc8c 7ebd 890b 0ebe
00000090: 101a d03c 0d40 e3bd 587b 23be faad 16bd
000000a0: 2ef1 94bc 10e7 0abd 0ba4 f9bd 8dce 51bd
000000b0: 04d7 b2bd 8e01 82bd 5887 fbbd 9a4c 72bd
000000c0: 106a 94bd 4e53 11bb aa3f 9dbd eaf9 dabc
000000d0: 5ec9 5ebe b6f8 9d3d 6287 6cbe 585f 67bc
000000e0: c305 76bb c9d9 4dbd dba1 68bd e28e 0bbe
000000f0: a3a1 9abc c3be 50bd 2db8 13bd b6c4 b6bc
00000100: ede3 e6bd 2e9e 37bd 4660 0bbe 1a8b ddbc
00000110: feed 67bd cfcb b0bc a46c 843d 1cad afbd
00000120: 1ce9 afbd ca8e ddbd 3c65 dabb 82b2 0fbe
00000130: b67e 30bd 5fbd a5bc 89dd f33c f9d1 3fbd
00000140: b63d 3f3b 8677 d9bb 41de 34bd 58c1 03bb
00000150: 584f 113b 95a8 44be ea7c 2cbd 1f66 d6bc
00000160: 2323 a8bb deb5 9cbd 85a2 48bd 8f20 be3b
00000170: 0492 f13d 57a2 10be 2d2c 75bd 2cc0 14bd
00000180: e1a6 9f3d c6ca 223d 4b6d 58bd 08ff 10be
00000190: 919a b7be e3fa 3db7 4347 a43c db43 8a3d
000001a0: 7913 bf3d adf3 983d f074 f4bd cf0e 3abe
000001b0: 6af1 1dbf 0bf2 dc3c c8aa 853d 5ebd 543d
000001c0: 3230 f4bb 7fac 59bd cef4 76bc 6e2e 50bd
000001d0: 2ecb b1bd 5534 983d a359 dbbc fafd 8abd
000001e0: 9a9b 67bd ab9d 87bd 8201 91bd 8ef2 70bd
000001f0: 0883 0bbe 83be aa3c 899e 1fbe 12f2 c3bb
00000200: 3381 3bbd 5da3 7fbd bb54 99bb 10b1 9b3d
00000210: 778d 4f3d 4c81 6d3d 33a7 97bc 006b 15bd
00000220: c463 96bd 8b5a dabc 2a3d 4d3c e017 303d
00000230: 5565 523d 7a2b 153d a5aa f1bc 23dc a6bd
00000240: 6e16 99bc 74f9 1d3c e7c1 d43c 787e 12be
00000250: ddaa 37be cd1b 92bd c862 36c0 11b3 c3bc
00000260: 22b0 10bd a3ea 07bd 4d41 60be 0414 79bd
00000270: d6bf 9bbe d5c1 ebbe 8c30 413d c149 10bd
00000280: de6c 5bbd 020e 81bc 9a0e 3dbd 0531 883c
00000290: 40ba 333c 099a 333d 7f67 44bd de76 4cbd
000002a0: 62a4 c8bc 8b16 90bd 0dd1 2abd 602b 9e3d
000002b0: d49b 303d 820e 8b3c 270e aabc 8d06 93bd
000002c0: 9794 6fbc 0ef2 86be 6071 843c 0680 74bd
000002d0: cf6f d1bd 9abf 12be 32a9 28be dce0 efbc
000002e0: dbc7 8dbd 5fad ccbc 0949 b6bc 97a5 b03c
000002f0: 26d1 d4bd 2e09 973b 5133 5cbd e7db 24bd
00000300: da70 c6bb 84f8 c4bc 05de 4ebc 0217 e8ba
00000310: e051 383b c047 3a3d 5ef5 47bd ac63 43bd
00000320: 759c ae3b 93a0 5a3b aebb a73b d94f 883d
00000330: 4d98 a03d 9aac 343d f5da 16bb 44f1 55bd
00000340: 0745 a3bc 74e8 2d3c 04db 94bd 609b b4bd
00000350: 4149 55be 0be9 c6bc 2183 8d3d 6615 d5bc
00000360: 66cf e83c 44fe 793c ade9 263d cd61 c8bd
00000370: 2e91 bebe fc64 213c 3fb3 0c3d 565b 9abc
00000380: ed54 fd3c 6ff3 85bc 5b05 cd3a cfa1 083c
00000390: 6053 753d f530 823c 83aa a4bc 0f5f f1bb
000003a0: 4db4 483b f0db 14bd 9734 63bc 1062 21bd
000003b0: d24d 2e3c 890f ad3c ee61 693b e146 b1bc
000003c0: 2e98 80bc b79d 8838 7b4a 61bd 20c3 09bd
000003d0: 74e1 8dbd 09c7 41bd 7b98 0bbd a93d ae3c
000003e0: 2a96 843c ad3d 30bc b715 29bd 786d c63d
000003f0: d39f 0ebd 8d34 62bd 98f5 0abd 9bce fcbc
0.04226973 -0.008626172 -0.014188481 -0.018434916 -0.019274794 -0.007940132 0.013380473 0.044335224
0.045042776 -0.01135631 -0.014575369 -0.055754837 -0.04461551 -0.104175605 0.024294285 -0.017327238
-0.09814696 -0.059126586 -0.08543497 -0.048118707 -0.039915446 -0.015585973 -0.27802446 -0.11746001
-0.104586974 -0.08037915 -0.13439253 -0.047872543 -0.08508248 -0.1334055 -0.12871182 -0.103362955
-0.032838978 -0.0701285 -0.062145993 -0.13871588 0.025403053 -0.11096201 -0.1596502 -0.03678701
-0.01818141 -0.033911765 -0.12189492 -0.051222373 -0.08732417 -0.06347953 -0.12281674 -0.059155084
-0.07246792 -0.0022174898 -0.076781586 -0.026730496 -0.21756503 0.077134535 -0.2309852 -0.014121853
-0.0037540055 -0.050256524 -0.056794982 -0.13628724 -0.018875903 -0.050963175 -0.036064316 -0.022310596
-0.11273942 -0.044828586 -0.13610944 -0.027043868 -0.05662345 -0.021581559 0.06466034 -0.0857794
-0.08589384 -0.108182505 -0.0066649 -0.14032939 -0.04308959 -0.0202319 0.029768722 -0.046831105
0.002918107 -0.0066365628 -0.04415727 -0.0020104256 0.0022172537 -0.19204934 -0.042111315 -0.026171742
-0.0051311417 -0.07651876 -0.048983116 0.005802221 0.117954284 -0.14124428 -0.059856582 -0.036316082
0.077955015 0.03974416 -0.052838605 -0.14159787 -0.35860112 -1.1323692e-05 0.020053511 0.06751224
0.09329886 0.074683525 -0.119363666 -0.18169712 -0.61696494 0.026970884 0.065267146 0.051938407
-0.0074520344 -0.05314302 -0.015073014 -0.05082553 -0.086813316 0.074318565 -0.02677614 -0.067867234
-0.056544878 -0.0662187 -0.07080366 -0.05882507 -0.13624203 0.020842796 -0.1558782 -0.0059797848
-0.04577751 -0.062411655 -0.00467929 0.07602131 0.05067202 0.057984635 -0.018512344 -0.036478996
-0.073432475 -0.026654502 0.01252679 0.04299152 0.05136617 0.036418416 -0.029500315 -0.081474565
-0.018687453 0.009641994 0.025971366 -0.14306056 -0.17936273 -0.07134209 -2.8497791 -0.023889096
-0.035324223 -0.03318275 -0.2189991 -0.060810104 -0.30419797 -0.4604632 0.04716544 -0.035226587
-0.05357062 -0.01575375 -0.046156503 0.016624937 0.010969698 0.04384807 -0.047950264 -0.049918048
-0.024492446 -0.0703555 -0.041703273 0.07723117 0.04311736 0.016974691 -0.020758701 -0.07178984
-0.014622829 -0.26356548 0.016167343 -0.059692405 -0.10226404 -0.14330903 -0.16470793 -0.029282026
-0.06922885 -0.024985014 -0.022251623 0.021563334 -0.103914544 0.0046092486 -0.053759877 -0.040248778
-0.0060559334 -0.024044283 -0.012626176 -0.0017707052 0.0028124973 0.045478582 -0.048817985 -0.047702476
0.0053287097 0.003335987 0.0051188087 0.06655855 0.07841549 0.04410992 -0.0023018692 -0.052232042
-0.019930376 0.010614503 -0.072683364 -0.08818698 -0.20828725 -0.024281045 0.069097765 -0.02601118
0.028419208 0.015258376 0.040750194 -0.09784279 -0.37220138 0.009850737 0.03435063 -0.01884238
0.030924285 -0.01635143 0.0015641855 0.008339359 0.059893966 0.015892485 -0.020100838 -0.007366068
0.0030625046 -0.03634256 -0.013867519 -0.03940016 0.010638671 0.021125572 0.003561135 -0.021640243
-0.015697565 6.514362e-05 -0.05500267 -0.03363335 -0.069277674 -0.047308955 -0.034080964 0.021269636
0.016184885 -0.010756892 -0.041280475 0.09688848 -0.03482039 -0.055225898 -0.033925623 -0.030860236

fc1.bias f4 [256]
00000000: f67d bcbe 6848 adbe 9956 7ebd f951 bdbe
00000010: 7c9e adbc bfc8 ccbe 2830 ddbe d826 6b3f
00000020: 384d 26bd 24a4 08be bce8 dabe 7d58 ddbe
00000030: 7fe5 cabe 3366 e9bc e8f6 26bf 5e19 ffbe
00000040: aaa5 00be 6ce9 ccbe 7077 acbe 1dae 70be
00000050: dfe4 a73e 5a41 f9be daf2 5cbf 152c babe
00000060: 08b1 c9be a650 d4bd 7bb9 c9be 24d5 0dbf
00000070: 4a2b bfbe 0fc2 d1bd a91f f3be 1ca6 bcbe
00000080: 0d6f a4bd 1391 4fbe 64ff 77be d5bf 9bbe
00000090: c2d0 a0bf bf50 abbe d7ec b8be 2970 c1be
000000a0: 9aa0 d8be 3602 ddbc 51c2 d9bc 4688 bebe
000000b0: 93e3 5ebf fea7 c5be 4d38 cabe cc4c 88bf
000000c0: 8601 51be 5638 b1be 4ce0 b2be 648e 6fbe
000000d0: ed5c 4abf bf3b bfbd cce6 52bf 018f 93bd
000000e0: a452 bebd f243 283f 9303 2bbe 3579 bcbe
000000f0: e416 50bf 89f7 8fbe dcf0 11bf af0b d0be
00000100: b540 bcbd da5a c1be 972d ffbc 6ac4 32bf
00000110: f237 b8bd c73d 78bd 4481 a7be e3d7 ba3f
00000120: fb64 92bd a6ab e6be 121a c3be dc1a f6be
00000130: 0c2c c6be beea a8be 3b5b b13f 55a7 29bf
00000140: ee45 5fbe c2d2 1ebf 1c6e acbe 3cff c6be
00000150: 1962 acbe e6f0 06bf 9677 e1be ab87 aebe
00000160: ec8f a43d 365f 9dbd 3bf4 7bbf b951 76bd
00000170: 76d2 f4be 5c9d 13bf 6204 67bd 4041 b6be
00000180: f4e6 88bd 3b8a f1be 8a0f 0dbd 1284 0bbf
00000190: 6859 8fbd d5ce bfbd a125 bcbe 7430 30bf
000001a0: ea76 c2be ef6e 53bd 9a6b e3be 0db2 68bd
000001b0: caa5 29bf 2320 a4be 9e8c b7be 6f72 b1be
000001c0: 3f11 b3bd d87c ffbe 8e57 d3bc 1dc9 97bd
000001d0: b16a 9bbe e79e e6be f061 12bc 9f4a c2be
000001e0: 2c3f 29bc a9c0 b5be fdf4 80bd f4e0 88be
000001f0: b023 92bd b2e2 1cbd 2b3b 0cbe 3414 b1be
00000200: 5234 91bd 51e1 04be 4eb6 04bd 7c04 85bd
00000210: c517 e9be 87f0 8fbd 8e16 14be e036 92bd
00000220: 97b6 f6be 9bb7 80bd ea53 c7be 4e18 adbe
00000230: 8a10 afbd 225f ccbe 609f 3dbf 450c d1be
00000240: a66d 923f c62c ebbc 3321 a3be 3db0 b6be
00000250: 55c7 e2be 9f75 d5be a397 dcbe 63c5 febe
00000260: ac21 b1be 66fc 843f efa2 c0be 6dc1 aebe
00000270: a43d 89be 7156 b2be 8f05 c8bd 40cb 6abd
00000280: 22c2 d4be 3736 b3be 75a8 cebe 9255 31bf
00000290: 150b d4be 49b0 68bf a834 98bf 546c 2dbf
000002a0: 4832 3cbf 7cd9 49bf b3b7 cebe 3a3f 1dbe
000002b0: 7dc1 1bbf d389 a7be ce4e d7be 4a97 4abd
000002c0: df74 c8be dc98 1dbf f183 babe c9f0 c0be
000002d0: ce15 3bbd 9e89 71bf d2d1 b4be ba15 8abf
000002e0: 925d 82bd 7a12 71be 74fd 48bf bac9 d0bd
000002f0: 7fe7 ccbe da84 03bf bb48 3dbf 1e9e c3be
00000300: 8f2e bfbe cb32 64be 917d cbbd 40d6 edbe
00000310: cb33 01bf 9ed1 6bbe 5804 2fbd 59a0 bdbe
00000320: b00e a9bf b24c e0be bc04 e1be 263a 98bd
00000330: c1fd 9cbd 8819 85bd 2202 bebd a63a 23bf
00000340: 05c7 3bbf 9474 cfbe 45af 68be 83cf 9bbe
00000350: 9365 71bf 884e 13bf bb5a 81bf 0346 aebe
00000360: f5b8 a8be 51e1 acbd 3d02 fabe a49f fbbe
00000370: b371 6bbe e300 b4be a5f1 f9be 69c0 afbd
00000380: 9e05 adbe fb61 60bd abf2 47bf 7958 0abd
00000390: 0160 aebe 0502 d3be 8d6b b2bf 5e8f 14bd
000003a0: 2c27 19bf 5b5e 6b3f 90c3 71bd fbb8 eabe
000003b0: 9244 18be 689d d5bc 1577 58bf 1412 42bf
000003c0: 3f71 babe 81fb 31bd e07d bfbd 00ea a6be
000003d0: b69f cebd d31a 32bf 1dcc 4bbd c8c3 55be
000003e0: 33dc c5be bf64 0ebe eb17 66bf 066e 91be
000003f0: ddd8 29bd 6a31 99bc dda6 b6be 577c eabe
-0.3681485 -0.33844304 -0.062094305 -0.36976603 -0.021193735 -0.39996907 -0.43200803 0.91856146
-0.040600985 -0.13343865 -0.42755687 -0.43231574 -0.39628217 -0.028491115 -0.652205 -0.4982404
-0.12563196 -0.40021837 -0.33684874 -0.23503919 0.32791802 -0.48682672 -0.8630806 -0.36361757
-0.39392877 -0.10366945 -0.39399323 -0.5540335 -0.37337714 -0.10242092 -0.47485092 -0.3684548
-0.08028994 -0.20270185 -0.24218518 -0.30419794 -1.2563708 -0.33460042 -0.36118194 -0.37780884
-0.4231003 -0.026978593 -0.026581915 -0.37213343 -0.87066 -0.3860473 -0.3949608 -1.0648437
-0.20410737 -0.34613293 -0.3493675 -0.23394161 -0.79048043 -0.093375675 -0.8238342 -0.0720501
-0.09293106 0.65728676 -0.16700582 -0.36811224 -0.8128493 -0.28118542 -0.5700815 -0.40633914
-0.091920294 -0.37764627 -0.031149669 -0.69830954 -0.08995046 -0.06060579 -0.3271581 1.4597133
-0.07148167 -0.45052832 -0.38105828 -0.48067367 -0.3870548 -0.32991594 1.3855966 -0.66270953
-0.2180402 -0.6204034 -0.33677757 -0.38866603 -0.33668593 -0.5271133 -0.4403655 -0.3408788
0.080352634 -0.07684176 -0.9841954 -0.06013653 -0.4781682 -0.57661986 -0.056400664 -0.35596657
-0.06684676 -0.47175774 -0.034438647 -0.544984 -0.06999475 -0.09365622 -0.3674746 -0.68823934
-0.3798135 -0.051619466 -0.4441803 -0.056810427 -0.662686 -0.32055768 -0.3584947 -0.34657618
-0.08743524 -0.49899936 -0.025798585 -0.07411406 -0.30354837 -0.45043108 -0.008934483 -0.37947556
-0.010330003 -0.3549855 -0.06296728 -0.26734126 -0.07135713 -0.03830213 -0.13694446 -0.34585726
-0.070900574 -0.12976576 -0.03240042 -0.06494996 -0.45525947 -0.07028299 -0.14461729 -0.07139373
-0.4818618 -0.0628502 -0.3893121 -0.33807606 -0.085480765 -0.3991633 -0.7407131 -0.40829673
1.1439712 -0.028707873 -0.31861266 -0.35681334 -0.44292703 -0.416913 -0.4308444 -0.4975997
-0.34596002 1.0389526 -0.37624308 -0.34131947 -0.2680484 -0.34831575 -0.09766685 -0.05732274
-0.41554362 -0.350023 -0.40362898 -0.69271195 -0.41414705 -0.9089399 -1.189107 -0.6774342
-0.73514223 -0.7884748 -0.40374526 -0.1535615 -0.60842115 -0.3272234 -0.4205231 -0.049460687
-0.39151666 -0.6156137 -0.36428788 -0.37683704 -0.04567509 -0.9435061 -0.3531633 -1.078788
-0.06365503 -0.23542204 -0.7851174 -0.10194726 -0.40020368 -0.5137459 -0.739391 -0.3820657
-0.3734021 -0.22285001 -0.09936059 -0.46452522 -0.50469655 -0.23029181 -0.042728752 -0.37036398
-1.3207607 -0.43808514 -0.43948925 -0.07432966 -0.07665587 -0.0649901 -0.092777506 -0.63761365
-0.73350555 -0.4051863 -0.2272311 -0.30431756 -0.94295615 -0.57541704 -1.0105814 -0.3403779
-0.3295361 -0.08441413 -0.48829833 -0.49145234 -0.22992592 -0.35156927 -0.48817173 -0.08581621
-0.33793348 -0.05478094 -0.78104657 -0.03377578 -0.3405762 -0.41212478 -1.3939072 -0.036269538
-0.59825397 0.9194085 -0.059024394 -0.45844254 -0.14869907 -0.026076034 -0.84556705 -0.75808835
-0.36414525 -0.043452743 -0.093501806 -0.32600403 -0.10089056 -0.6957218 -0.049755204 -0.20875466
-0.3864456 -0.13905619 -0.89880246 -0.28404254 -0.041466583 -0.01870032 -0.35674182 -0.4579799

fc2.weight f4 [2, 256]
00000000: 0616 8cbd e73c 3d3d ef20 083d f640 533b
00000010: 5838 8b3c f052 863e 1483 adbb cb71 423d
00000020: 53b7 9b3d 3028 73bc c413 9dbd f4ed 723c
00000030: 5304 413d 2082 b63c 2553 fcbd 5daf 9c3e
00000040: 508f 69bd 4310 fe3b c666 2d3d 8f15 83bb
00000050: c776 65be 15c9 853e 7451 a0bd 62f7 35be
00000060: 7f7f c53d abec 9dbc 1fba 47bd dad2 583e
00000070: b4b9 8dbe f5fe 8f3b 4ef1 ba3d 9834 093d
00000080: 5b01 88ba 7ed2 c8bc 8d8e 4dbc b974 9ebe
00000090: cf27 273e e336 463d 6e44 e5bc e56b 903b
000000a0: 75b3 7bbe 97c5 603c 93ab 643c 4bb8 e23c
000000b0: 1527 483e b8a6 253b 2f4d be3e 2e61 0e3e
000000c0: e5b6 8d3d dbbd b13c 8a30 76bc 9957 e93e
000000d0: 306f 1cbd fb5a a03c a0b3 5dbe c4f3 093d
000000e0: 7794 723d 98ee dabe 8d81 6fbc 2f99 9abc
000000f0: 2892 b2bd 888d 87bc 9c56 a13e faa8 423d
00000100: e388 383d 7837 9dbe 7e88 d23c f75c 16be
00000110: fb66 043d 4fb7 8e3c 0071 d2bc 2653 443f
00000120: 1a14 5e3d bcb7 d13d d11c 323c d86e cbbc
00000130: 4b79 4dbd d396 8c3d 7de6 e4bd 4966 0dbe
00000140: 19fa 063b 2128 5b3d 1004 8a3c 4223 113d
00000150: 0213 99bd 03c3 8ebe 5b2d 97be 03e8 97be
00000160: 4c68 a6be db19 383d 874b 043e b94e 1abb
00000170: 597d aa3d ff44 3a3e 1e0f 893c 8136 c03c
00000180: 964d da3c 8dbe 90be 244b 9f3c f16d 003e
00000190: e9ea 3cbd 2d47 fd3a 4a94 e13c 40ab afbb
000001a0: ae8b 74bc 4116 6f3b bc6b a53e f919 963c
000001b0: a94a 723d 5024 9fbd e204 873b 10a6 1c3d
000001c0: d199 503c 6cfd 0f3e 3bab cc3c fc51 123d
000001d0: 12fa 91bd a627 a93b 9809 8abe c3cb 42be
000001e0: 54a8 553c 6777 95be 8542 e4bc 5a15 1e3c
000001f0: 8a1b 8f3c 5ea8 3c3c 3d58 353d cff3 98be
00000200: 907c 203d a747 e73c 0190 f93b 65c5 0d3b
00000210: 314f 753e 4cac a9ba 0ee5 8f3e 973b 9a3d
00000220: 6819 493d ff76 94bc 37cb 9a3e d689 0c3e
00000230: 9e1b ef3c 2e39 123d 92f7 98be d11d 85bd
00000240: 0a75 a9bd b7b2 4c3c c7e7 c53c 7596 87bd
00000250: b4e5 a53e 9597 16bc 0ff7 60be 3ad4 74bd
00000260: 3b9f ccbb 208d 1b3f 30da 47bb d891 86be
00000270: f1f4 0fbf ec00 c6bd 893d d83d e4cf 9a3c
00000280: 87a8 12bd 54ed 513d 392f 053d 996a 83be
00000290: 0ade 803b 1b95 24be 98c8 95be ea2a 42be
000002a0: 6b0e 95be ee8e 93be 75fb 94be b3a1 07bf
000002b0: 53aa 9a3e 0120 70be b2ac 70be ceae 373d
000002c0: d709 833b 1c63 a4bd 5b2c ffbc 9a2e 0dbe
000002d0: 1519 d1be 68e8 9f3e 9f68 a03c e61b 20be
000002e0: b33b 483d 6c1b d6be 5ef4 30be 975f 633d
000002f0: bbee 7e3d 6903 c73d f92b 8a3b 9dce 0a3e
00000300: 26be bd3c 52da 00bf 16c6 cd3c ef4e 963d
00000310: b716 61b8 2a15 51bf d774 2e3c c925 9f3e
00000320: 8539 983d 3084 a9bd 8734 cb3d 4dbf 1c3c
00000330: 6a77 623d be17 1c3d c82e e23c 4a13 dabd
00000340: 09c4 abbc 33e2 873e 122f 18be 2d0d b8be
00000350: 04fb 6fbe 6ae5 8d3e 907c 093d e21c 4c3d
00000360: d1fc ab3e 7524 14bb d887 6bbe 165b a03d
00000370: ee77 28bf a95a 39bc e2a1 c63d 9f88 9b3c
00000380: dfe8 e83c a48e 4a3c 744f afbe 3e69 1a3c
00000390: a9ce 6dba 6671 9c3d 8836 1cbe 77e1 2a3c
000003a0: dc43 1d3e 4c83 c93e 5c81 bc3c 1e67 6a3d
000003b0: 7a95 123f 787f 7c3c 5aee 82bd 40c9 9e3d
000003c0: d6b7 8c3e 0d73 213c 157d 513d ecad 8f3b
000003d0: ee84 583c 7ae0 c13e e628 103d 8d07 dd3e
000003e0: c097 b6bb 8ee9 0a3a 4823 04be 62c8 033e
000003f0: 3387 933c 5f1b 403d 2b3f 213d 1ab7 4a3e
-0.06840138 0.04620066 0.033234533 0.0032234765 0.01699464 0.2623515 -0.0052951667 0.047471803
0.07603326 -0.014841124 -0.076697856 0.01482724 0.047123265 0.022278845 -0.12320546 0.30602542
-0.05702144 0.0077534034 0.04233434 -0.0040003727 -0.22408591 0.26129976 -0.07828036 -0.1777015
0.096434586 -0.019277891 -0.048761483 0.21174183 -0.27680743 0.004394407 0.091280565 0.033497423
-0.001037638 -0.024514433 -0.012546194 -0.30948427 0.1632378 0.048392188 -0.027986731 0.0044073933
-0.24580176 0.013718984 0.013956922 0.027675768 0.19546159 0.0025276374 0.3716826 0.13904259
0.0691965 0.021696975 -0.015026221 0.45574644 -0.038191974 0.019574633 -0.21650553 0.03367974
0.05922362 -0.42760158 -0.01461829 -0.018871872 -0.08719283 -0.01654698 0.3151139 0.04752443
0.04505242 -0.30706382 0.02569985 -0.14683901 0.032324772 0.017421393 -0.025688648 0.76689374
0.05421839 0.10240123 0.010871128 -0.024833128 -0.050164502 0.06864705 -0.11176775 -0.1380855
0.0020595847 0.053505067 0.01684764 0.035434015 -0.074743286 -0.27883157 -0.2952679 -0.29669198
-0.32501447 0.044946533 0.12919436 -0.0023545458 0.083246894 0.18190382 0.016730841 0.02346349
0.026648324 -0.2827038 0.01944501 0.1254194 -0.046122465 0.001932358 0.02753653 -0.0053609908
-0.01492588 0.003648177 0.32308757 0.018322932 0.059153233 -0.07770598 0.004120455 0.038244307
0.012731985 0.14061517 0.024983993 0.035722718 -0.07127775 0.005162197 -0.26960444 -0.19023041
0.013040621 -0.2919266 -0.02786375 0.009648645 0.017469186 0.011514751 0.044273604 -0.2987351
0.039181292 0.028232409 0.0076160436 0.002163255 0.2395599 -0.0012945025 0.28104442 0.07530897
0.049096495 -0.018123148 0.30233166 0.13724455 0.029187974 0.035699062 -0.2987638 -0.06499828
-0.082742766 0.012493781 0.024158372 -0.06620494 0.32401812 -0.009191413 -0.21969245 -0.059772708
-0.0062445677 0.60762215 -0.003049504 -0.26283145 -0.56233126 -0.096681446 0.10558612 0.018897958
-0.03580525 0.051251724 0.03251574 -0.25667265 0.003932719 -0.16072504 -0.29254603 -0.18961683
-0.29112563 -0.28819984 -0.29098096 -0.5298111 0.30208072 -0.23449709 -0.23503378 0.04484444
0.0039989757 -0.08026716 -0.03114908 -0.13787308 -0.4083945 0.31232 0.019581137 -0.15635642
0.04888506 -0.41817796 -0.17280719 0.055511083 0.06223939 0.09717447 0.0042166677 0.13555379
0.023161959 -0.5033313 0.025118869 0.07339274 -5.3665335e-05 -0.8167292 0.010647974 0.31083515
0.07432846 -0.08277166 0.09922128 0.009567094 0.055289663 0.03810858 0.027610198 -0.1064821
-0.0209675 0.26539764 -0.14861706 -0.35947552 -0.23435599 0.27714092 0.033566058 0.049832232
0.3359132 -0.0022604738 -0.23001039 0.07829873 -0.65808 -0.011313119 0.096988454 0.018986044
0.028431354 0.01236311 -0.34240305 0.009424506 -0.0009071627 0.076388165 -0.15255177 0.010429732
0.15357918 0.39357984 0.023010902 0.057227246 0.57259333 0.01541125 -0.06393118 0.07753229
0.27484006 0.00985409 0.05114468 0.004384747 0.013215287 0.37866575 0.035195254 0.43169823
-0.005572289 0.00052990846 -0.12904084 0.12869409 0.018008804 0.046901103 0.039366882 0.1979641

fc2.bias f4 [2]
00000000: 57ce 7f40 284a 6f40
3.996969 3.7389011
