mnist_gan/MNIST_GAN_FC/save/D--100.ckpt (torch_old, 436322 bytes, 5 tensors)

0.weight f4 [128, 784]
00000000: 813d 68ba 1522 1bbd 7548 853a 3d29 3bbc
00000010: 4827 b2bc 7b90 b2ba e52d 07bd 5cab 61bc
00000020: 9a5d 46bc a153 0dbd bf13 bbbc a3a6 a73b
00000030: 4b57 6abc dd05 6d3c 6ffd c5ba 9f42 803c
00000040: e239 edbc 94f3 1037 e01c dfbc 3368 b6bc
00000050: 0382 a73b 2978 4cbd 95c4 0ebc 3b8b 8dbc
00000060: 5699 333b 2742 cfbc 7eab 3bbd 69fa ba3c
00000070: 7581 0ebd 37c5 b5bb 8d1a 503b 988b f73a
00000080: cb0f 58bd 766a b6bb 8794 3ebd 0660 b03b
00000090: 8c70 92bc 3166 1abc bb74 01bc a9be 22bc
000000a0: 91cb 25bd be34 9abc 9a85 ab3b 9dc1 7b3c
000000b0: 4a1e 7bbc 0a53 2ebc 7e64 a6bc 25e0 0bbd
000000c0: 7055 44bd 05d1 1dbd 10c7 4cbc b4b4 7b3c
000000d0: 4723 50bd 0606 19bc 47d3 163c 65cf 2f3c
000000e0: 42ea 66bb cf97 85bb bfb4 4bbb 82b6 26bd
000000f0: d649 58bd 3d8e 0abd 7599 0a3c 9f40 92bc
00000100: 59be e0bc 7639 d6bb 1e05 16bc 2528 463c
00000110: 531b cebc c9a4 1ebd 2dc1 cbbc 20ff 143d
00000120: 93dd 0b3d 9a12 a9bc 7178 7e3c 3188 27bc
00000130: eaba 35bd b808 3a3c cc65 933c 3f8a 2fbd
00000140: 4cac a8ba 0d1e 26bd 76c8 2dbd bc2c 4cbd
00000150: 1aed ed3b 4f39 e3bc 3c13 19bd bb99 cebc
00000160: c2be 7e3c 618b 3cbd ffc0 8cbc 2d93 f3bc
00000170: 5216 033c d6ea fdbc 26bc a9b9 9322 303d
00000180: b5e0 773b b984 5a3c 6586 b6b9 2e32 a73c
00000190: fea1 f4bb 7404 d0bc 716d a0bc 55f4 2d3d
000001a0: 8b7e 813b cff2 59bc 285e 2dbc 3d6f 22bd
000001b0: 61bb efbc 2ff3 0abd 70e1 c7bc cbc0 fbbb
000001c0: 0ddb 22bd 6d57 0ebc 8de6 d33b 40db fabc
000001d0: d4a2 45bd d2e8 c23c 6e6c 4c36 fe51 12bc
000001e0: aec8 ebbc 60df fbbc 3145 d8bc 5647 acbc
000001f0: 8f19 973b e724 1ebd ad03 19bc 5d53 66bd
00000200: 77d1 26bd f953 f5bc 40ad 81bc f11a 503b
00000210: cdcc efbc 84e4 6ebc 0681 823c e987 15bd
00000220: d98d b8bb 9b39 efbc 4d29 08bd a863 1cbb
00000230: b058 98bc 3957 0dbd 8509 66bd 9b9d 863b
00000240: d675 33bd 5828 903c 91ae b1bb c6b7 c33c
00000250: 2931 f03c c76c 8e3c b11e 893b 88be 59bd
00000260: ed4e 03bc 84e4 1cbd 3cfa 34bd 42e3 5bba
00000270: 75d2 943a f6f7 1c3c 402f 4cbd d5ca dabc
00000280: 470b 34bd c6ee b4bc d241 f7bb ff17 0e3d
00000290: 0410 91bc 6550 24bd 3e31 39bc 7fa1 943b
000002a0: 6383 883c 498b 1fbc 453c 17bd ee5e c1bc
000002b0: 6386 a2bc e3ea 053c 64c2 dcbb f302 1abc
000002c0: aa11 24bd caff 81bc 7517 26bc 83ba d5bc
000002d0: c12c 6fbd 0ccf 103c 0600 5cbd cda2 2dbd
000002e0: ec8e 96bd 3ccb 3e3c 5854 d8bc 228e efbc
000002f0: cae6 4cbb 084e bc3b 8f6e a7bc a29c a03c
00000300: 8a03 9dbb 9360 4dbd 59b5 19bd 696d 05bd
00000310: c4b0 56bc a7c5 883c 6a8d 1fbd 292c c53c
00000320: 2b75 5cbc dc67 00bd 5502 44bc 1783 0cbc
00000330: 526e 20bc 35c5 19bd bb95 2bbb 07be 5dbd
00000340: 0e8a 923c 7e60 9abd 34a1 96bd 1b33 88bd
00000350: 9333 41bd ce0b a6bc 0ca2 e7bc 3cc0 eabc
00000360: 37c9 dcbc ff64 c7bc caec 343b d1e4 773c
00000370: 74bd 223c 979d c7bc be2b 10bd 7f87 ddbc
00000380: 7502 26bd cf36 3ebd 37f0 21bd 407c fcbb
00000390: 5d12 aebc 725d e1bc 0987 823c 7cf7 c9bc
000003a0: 35fa 26bd c6e2 e23c b18a aabc ccdb 6fbd
000003b0: 1abb d2bc b19a 83bd 5f92 acbb 50b1 57bd
000003c0: 8a17 cfbb d2a5 90bd 0489 5dbc bcc3 f13c
000003d0: 599f 073d 1603 36bd da1f 03bc 8d26 63bc
000003e0: 0043 4ebc 0f5a c7bc d81b 09bc 8b4e 08bb
000003f0: bac7 0fbd 7c3c d6ba 2ece 25bd 4f4e f83c
-0.00088592625 -0.0378743 0.0010168689 -0.011423406 -0.021747246 -0.0013623381 -0.033002753 -0.013773765
-0.012107277 -0.034503583 -0.022836564 0.0051163 -0.014303039 0.01446673 -0.0015105436 0.015656767
-0.028958265 8.639781e-06 -0.027235448 -0.022266483 0.005111934 -0.04991928 -0.008713861 -0.017278304
0.0027404628 -0.025300099 -0.045817845 0.022824483 -0.03479143 -0.0055471915 0.0031754107 0.0018886207
-0.052749436 -0.0055668904 -0.046528365 0.0053825406 -0.017875932 -0.009423778 -0.007901366 -0.009933152
-0.04047734 -0.018823978 0.0052344324 0.015365985 -0.015327046 -0.010639915 -0.02031159 -0.034149308
-0.047933042 -0.038529415 -0.012498632 0.015362907 -0.050814893 -0.009339815 0.009205646 0.010730599
-0.0035234843 -0.004076935 -0.0031083075 -0.040701397 -0.05280479 -0.033827055 0.008459439 -0.01785308
-0.027434515 -0.0065376116 -0.0091564935 0.012094532 -0.025159514 -0.03873137 -0.024872387 0.03637612
0.034146857 -0.020638753 0.015531645 -0.010225342 -0.04436771 0.011354618 0.017992876 -0.04285645
-0.0012868731 -0.040556002 -0.042427503 -0.04984735 0.0072609307 -0.027737288 -0.03737186 -0.025219789
0.01554841 -0.04603136 -0.017181871 -0.029733265 0.008000927 -0.030995768 -0.00032374373 0.043001723
0.0037823145 0.013337308 -0.00034813877 0.02040967 -0.0074656 -0.025392748 -0.019583436 0.04246934
0.0039518527 -0.013302519 -0.010581531 -0.039656866 -0.029264154 -0.033923324 -0.02439949 -0.007682895
-0.039759684 -0.008687836 0.006466693 -0.030622125 -0.048250988 0.023792658 3.0461483e-06 -0.008930681
-0.028782215 -0.030746162 -0.02640018 -0.02103011 0.004611201 -0.03860941 -0.009339255 -0.056231845
-0.040727105 -0.029947268 -0.015829682 0.003175434 -0.029272461 -0.01458085 0.015930664 -0.036506567
-0.005632144 -0.029202273 -0.033242512 -0.002386311 -0.018596977 -0.03450701 -0.056161422 0.0041081435
-0.04381355 0.017597362 -0.0054224213 0.023891341 0.029320316 0.017385853 0.004184567 -0.05316022
-0.008014423 -0.038303867 -0.044183955 -0.0008388051 0.0011354225 0.009580603 -0.04984975 -0.026708046
-0.043956067 -0.022086512 -0.007545688 0.034690853 -0.017707832 -0.040115733 -0.011303244 0.0045358534
0.016664213 -0.009737798 -0.036922712 -0.023604836 -0.019839471 0.008173677 -0.0067370404 -0.009400117
-0.04005591 -0.01586904 -0.0101374285 -0.026089912 -0.05839229 0.008838426 -0.05371096 -0.042391587
-0.07351479 0.011645135 -0.026407406 -0.029242579 -0.003126549 0.0057466067 -0.02043846 0.019605938
-0.0047916817 -0.05014093 -0.037526462 -0.032575045 -0.013103668 0.01669581 -0.038953222 0.024068909
-0.013455669 -0.031349048 -0.011963447 -0.008576176 -0.009791927 -0.037541587 -0.0026181776 -0.054136302
0.017888095 -0.07537936 -0.07354966 -0.066503726 -0.047168326 -0.0202693 -0.028275512 -0.028656118
-0.026951415 -0.02434015 0.0027606958 0.015130238 0.009932864 -0.024367137 -0.035197966 -0.027042149
-0.040529687 -0.04643899 -0.039535727 -0.0077052414 -0.02124899 -0.027510379 0.01593353 -0.024654143
-0.04076596 0.027696025 -0.020818086 -0.058559224 -0.025723983 -0.064259894 -0.005266472 -0.052659333
-0.0063199447 -0.07062878 -0.013521437 0.029512279 0.03311095 -0.044436537 -0.0080031995 -0.013864172
-0.012589216 -0.024334935 -0.008368455 -0.0020798768 -0.035102583 -0.001634493 -0.04047983 0.030310778

0.bias f4 [128]
00000000: df43 903c c2c8 3abd a2b0 e1bd 36e1 32be
00000010: 71c5 bebe 7b49 1b3d fba3 a2bc 4e3c 173e
00000020: c4ee d13e fa59 47be 45af dfbd b329 73be
00000030: f972 6dbe 6876 e13e 6b48 efbc 43b3 20be
00000040: bd31 80bd 7adf 83bd 8eda 8ebe ef28 79bc
00000050: 8b4c 793e 8ed2 e23e 5f17 183e 04da 46bd
00000060: 5cad 83bf 5561 2bbe ff26 3d3f efd9 a9be
00000070: 0178 acbe 17c6 8fbd f7c3 a4be 54a3 bcbc
00000080: 6b67 babe 2aba 3cbe 4009 2ebe 5c73 04bf
00000090: 8bd2 813d 6561 0b3d 8bcf dcbe 1c91 6a3e
000000a0: f82d 143f f2c2 483f e953 fa3e 88e4 5a3d
000000b0: c9b5 83bd df34 433d 4d74 373e 388c 973f
000000c0: b9c8 963d 9cea 7b3d 0a65 873d 131e 4bbd
000000d0: b216 073d d2cc 1d3f e612 86be b3d1 10bf
000000e0: 9c96 3fbe 398d 09bd 961d 1a3d cd47 ecbe
000000f0: 17f0 313e 8f62 633c c4a2 863f eab2 76be
00000100: 7ce3 efbd 0cbd c638 bc6a 14be c210 78be
00000110: 9b58 f43d 03a1 60bd 3a98 c73d 2b19 2ebe
00000120: a4c6 36bd 5ce3 5f3e 2799 853e caec 05bd
00000130: 7989 6cbf a173 d53d b930 92be 5a46 38be
00000140: 510f 5dbe c68b c23e be47 14be 931e 4d3f
00000150: fee6 c3be 09d6 83bd 5644 bc3e 38b7 103e
00000160: 5e68 643d 039f 0dbf 1730 00be 1759 fcbe
00000170: 2526 9f3e 9fdb 8f3d bcab eabe beea 783e
00000180: 8192 2b3e 7d1c dcbe 48fa 50bf 87dd 093f
00000190: 6d15 f2bd feef 323e 6d93 1fbe e0eb db3e
000001a0: 7429 27be 1082 77be 6838 883e 6e7d 64bd
000001b0: 1bf6 5c3e 99ac a3bc a1e2 2ebd fd76 3b3e
000001c0: 6c6a 563e c6cc 7bba bb7d 8b3e 37d6 393e
000001d0: d4d4 88be 4af1 a7bd fe5d 66be 9fc3 b13d
000001e0: 14c7 183e 5cef 3e3e 695c bf3e e759 45be
000001f0: 6797 833c 4f03 14bf 262d edbd 3f98 85be
0.017610488 -0.045601614 -0.11020018 -0.17468724 -0.3726001 0.037911873 -0.019853583 0.14769098
0.41002476 -0.19467917 -0.10922102 -0.23746376 -0.2318839 0.4403565 -0.029209336 -0.15693383
-0.06259487 -0.06439109 -0.2790112 -0.015207513 0.24345605 0.44301265 0.14852665 -0.04854776
-1.028728 -0.16736348 0.7388763 -0.33174083 -0.33685306 -0.070202045 -0.3218076 -0.0230271
-0.36407027 -0.18430391 -0.16995716 -0.51738524 0.06338986 0.03402843 -0.43127093 0.22906917
0.5788264 0.7842246 0.48892143 0.0534406 -0.06431157 0.047657844 0.17915459 1.1839666
0.073625036 0.061503038 0.066110685 -0.049589228 0.03298063 0.61640656 -0.26186293 -0.56569976
-0.18709797 -0.033581946 0.03762587 -0.4614853 0.17376743 0.013878479 1.0518422 -0.24091688
-0.11713311 9.4765885e-05 -0.14493841 -0.24225143 0.11930963 -0.054841053 0.09745832 -0.17001788
-0.044623032 0.21864074 0.26093408 -0.032696523 -0.92397267 0.10422445 -0.28552797 -0.17995587
-0.21587874 0.37997264 -0.14480492 0.8012478 -0.3826217 -0.06437308 0.36770886 0.14132392
0.055763595 -0.5532076 -0.12518345 -0.4928672 0.3108379 0.07024311 -0.45834148 0.24308297
0.16755106 -0.42990485 -0.816319 0.5385365 -0.11820493 0.17474362 -0.15583582 0.42953396
-0.16324407 -0.24170709 0.26605535 -0.05578368 0.21578257 -0.019979762 -0.0426966 0.18307109
0.20939034 -0.0009605404 0.27244362 0.18148123 -0.26724875 -0.08200319 -0.22496793 0.0867989
0.14919692 0.18645996 0.3737519 -0.19272576 0.016063405 -0.5781755 -0.11580877 -0.26092717

2.weight f4 [64, 128]
00000000: b860 f13d 4a8f 4f3c ae24 09be fb23 65bd
00000010: 5544 f0be 412c 8bbe 9b70 e6bd f085 e4be
00000020: 465d 54be 2125 e6bd 8b78 89be bc76 273f
00000030: a0b2 e4bd 1593 04bf 396c dabc dbee 8fbe
00000040: 873a 39bf e8bf 0c3e 1731 a2bd f184 0d3e
00000050: 5aaf 20be be09 5a3e 0443 cebe 138b 47be
00000060: b343 8c3d db81 8f3e 5304 45bd 618b 8c3e
00000070: 5d04 9e3e 659f 82be 77af cdbd 3d39 89be
00000080: 162f b63e 9a0a c6be 0ae3 4b3d d256 de3d
00000090: 13ce 3a3d 63f6 973e ecd8 1b3e c052 f23e
000000a0: eb2c b3be 3243 e93d bfb1 663d 1e33 eabc
000000b0: 8fe0 26be 73ce 763d 015b bdbe 8900 393c
000000c0: 965c 7ebe 6eee 5fbc 1b1d c0bd d90b 763e
000000d0: fdec 1abe e72f 1e3e e6e0 2bbf df0d 4abe
000000e0: 33b3 493f 34bc 093e 5425 23bd 76ac 06be
000000f0: 16c2 883e 339a 06bf 3754 683e 82be c9bb
00000100: c011 963e 0ccb 22be ba87 d5be 336f ff3d
00000110: 47b6 a4bd 696c 32be 6320 bbbe 3246 2ebe
00000120: 25d5 ccbe c0ea f13d aa85 153e 7c63 18bf
00000130: e5d4 f03e 2588 adbd 3bf7 daba 7e3c 5cbe
00000140: 2252 f53e 3451 01be c670 67be a8ad d03d
00000150: 2bfa b13e 9a9c bb3d 7aaf 6e3e 8497 83be
00000160: 8a29 48be e1a2 87bd 874d b13e 9bbd 663e
00000170: 9d60 e0be 92fa 4c3e af6a 2e3e 308d dd3e
00000180: 964e a1be 86a2 19bf 40e1 febb db79 2bbe
00000190: c426 3dbe 1def 0a3f b5e4 2bbe 2fc8 d33c
000001a0: 13e2 f13a 77f1 383e 6886 1bbf e946 0cbd
000001b0: 02e1 8dbd 3457 b9bd 83dd 46bd 0bc8 96be
000001c0: 259e 05be c4f4 f8be 65ae 4abe c37b ddbe
000001d0: 39ff f43e 3aa2 6e3e bc23 013f ad77 82be
000001e0: 2771 a1bd f3ee a43e 9a96 c0bd ed2e 043e
000001f0: bed9 0ebf 3b81 97be b90e d8be 7b94 1ebf
00000200: c2b5 77bc ad72 0abe 0e87 1f3e 5e41 7cbd
00000210: 66de d83e 44b4 953e ed70 663e bec4 113e
00000220: fa9e 503e ef2a 3b3d 3da9 383e bff9 e53d
00000230: 1799 483d 5c8e cc3d d6b9 293d d1d4 2b3e
00000240: 4f5a d43d a61c 73be 5ae0 ad3d 7757 393d
00000250: 238f a7bc b309 85be 6ee6 413d 62c1 113e
00000260: f985 5a3c 540c 4dbe 6541 85bd 84a3 d0bd
00000270: c2ea 01bd 8c5e abbe a38d 243e 4532 6f3e
00000280: ec9a 0a3d b374 afbb f31a a5bd 70af 323e
00000290: 8d7c c2bc fa15 44be 8dba 20bd 01c8 9cbd
000002a0: 31ed dc3d b889 413d e908 81bd 2f6b 4a3e
000002b0: 8cfb 523d 7d3d 883e b8c4 fb3c 3e0d 96bd
000002c0: 41ec 293b e3be 28bd 4b9b ec3c 61bb 393e
000002d0: 1435 953d 02d2 cd3d 7077 a63e 5563 f93c
000002e0: 3915 083e ecec f93d e57d 5b3e f94c 513e
000002f0: c531 4cbd c665 3bbd 314f a63d ae12 1d3e
00000300: 9983 4f3d 8a65 263e 63fd e73d 94f4 0abe
00000310: 6598 433c a795 493e d5a4 61bd 465d 23be
00000320: de2d 763e 4eeb 33be 91f7 49bd b4fc bc3e
00000330: d35b 013e 9ec7 d53d f73c f73a 9b1d 0e3f
00000340: 8345 3bbe 79bd e43e 99ca cd3e 5d19 96bd
00000350: 30b9 c4bd b013 dcbe b4b1 3d3f 449e e13d
00000360: 1fb1 1fbc e8d7 8c3e fb70 0a3e 1219 813e
00000370: 2d5f fa3c f5d7 733e 4a51 d53d c3e1 103b
00000380: a30e 4e3d af35 083e 4a62 04be f8f9 2d3e
00000390: 912e b03e 2e5c b13d d583 163f 7215 30bd
000003a0: 6e07 b8bb b497 27be b824 b03e 7a71 383e
000003b0: c9fe 68be 7d57 db3d 9ffa bf3c a005 0940
000003c0: 1595 953d ac55 453e dc39 623d eb73 043d
000003d0: 5a2f 6d3d 063d 293e 3fb9 4ebe 4ec3 b33e
000003e0: 18d1 c83e def2 073f 9b6c e03d 3350 743d
000003f0: a3f5 403e 577f 9ebd 8675 ae3e 3a59 923e
0.11786026 0.01266844 -0.13392898 -0.055942517 -0.46927133 -0.271822 -0.112519465 -0.44633436
-0.20738706 -0.112375505 -0.2684978 0.6541555 -0.111668825 -0.5178693 -0.026662933 -0.2811192
-0.7235493 0.13745081 -0.079195194 0.13820244 -0.15691891 0.21292779 -0.40285504 -0.19486646
0.0684885 0.2802876 -0.048099827 0.27450088 0.30862704 -0.25512233 -0.10043233 -0.26801482
0.355828 -0.38679963 0.04977707 0.108564034 0.045606684 0.29680166 0.15219468 0.47328758
-0.34995207 0.113897696 0.056321856 -0.028588828 -0.162966 0.06025548 -0.36983493 0.0112916315
-0.24840006 -0.013667686 -0.093805514 0.24027957 -0.15129466 0.15447961 -0.6714004 -0.19731854
0.7878906 0.134507 -0.03983052 -0.13151726 0.26710576 -0.5257904 0.22688375 -0.0061567435
0.29310417 -0.15897769 -0.41705114 0.124723814 -0.08042579 -0.17424168 -0.36548147 -0.17018965
-0.40006366 0.11812353 0.1460177 -0.595268 0.47037426 -0.08473233 -0.001670576 -0.21507451
0.47914225 -0.12628633 -0.22601613 0.10189372 0.34761176 0.09160729 0.23309126 -0.25701535
-0.19547096 -0.066228636 0.3462946 0.22533266 -0.4382371 0.2001746 0.17032884 0.4327178
-0.3150527 -0.60013616 -0.0077783167 -0.16745703 -0.18471819 0.5427111 -0.16786464 0.02585229
0.0018454216 0.18060862 -0.6075196 -0.034247313 -0.069276825 -0.09049836 -0.048551094 -0.29449496
-0.13048609 -0.4862424 -0.19793089 -0.43258485 0.4785097 0.23304072 0.5044515 -0.2548193
-0.0788291 0.32213554 -0.09403725 0.12908526 -0.55801 -0.29590783 -0.42198732 -0.61945313
-0.015119018 -0.13520308 0.15578863 -0.061585777 0.42357177 0.29239094 0.22504015 0.14235207
0.20373145 0.04569524 0.1803331 0.11229276 0.048974123 0.099880904 0.041436993 0.16780402
0.103687875 -0.23741397 0.08490057 0.04524943 -0.020453995 -0.25983962 0.047338895 0.14233926
0.013337606 -0.20024234 -0.06506614 -0.10187438 -0.031718023 -0.3347057 0.16069655 0.2335902
0.03383915 -0.005354488 -0.08061781 0.17449737 -0.023741031 -0.19149008 -0.03924041 -0.07655335
0.10787428 0.04725048 -0.063005276 0.1976745 0.051509425 0.26609412 0.030733451 -0.073267445
0.0025928172 -0.04119767 0.028882643 0.18137886 0.072855145 0.100498214 0.32513 0.030442873
0.13289346 0.122033924 0.21434744 0.20439519 -0.04985215 -0.045751356 0.08120573 0.15339157
0.05066261 0.16249672 0.113276266 -0.13569862 0.011938189 0.19685994 -0.055088837 -0.1595355
0.24040934 -0.1757023 -0.049308363 0.36911547 0.12632684 0.104384646 0.0018862773 0.55513924
-0.18288235 0.44675806 0.40193632 -0.073290564 -0.09605634 -0.4298377 0.7409928 0.11016515
-0.009746819 0.27508473 0.13519661 0.2521444 0.030562961 0.2381285 0.10415895 0.002210722
0.050306927 0.13301729 -0.1292812 0.16989887 0.34410527 0.0866016 0.5879491 -0.0429892
-0.00561612 -0.16366464 0.34403014 0.18012038 -0.22753443 0.107100464 0.023434935 2.1409683
0.07303826 0.19270962 0.05523096 0.03233711 0.057906486 0.16527185 -0.20187853 0.35109943
0.39222026 0.5310496 0.10958215 0.059646796 0.18843703 -0.07739132 0.34074038 0.285837

2.bias f4 [64]
00000000: 54c9 02bf ddfb 963f d7bd f73e a543 e73e
00000010: 5880 e83e 6b96 5f3f 3566 6bbe 4216 c53e
00000020: 3a9e abbb c682 f4bd b825 ec3d 5dc0 333e
00000030: 0623 94be 2ece 15be bf21 36be 250f 57be
00000040: 0b26 883e f2b6 07bf e444 013f 083a 833f
00000050: 03fd 3ebd 8776 00bf 2cc7 903e ce7a 04bf
00000060: ba5f ee3e 6bde 2cbf f65f 1fbe 9dea a6bd
00000070: e8fb 7a3f 9528 92bf 9116 b63e 4914 003d
00000080: 1411 383e 21b6 24bf a32c 1c3e 0a47 efbe
00000090: aa77 80bf c2c5 babe 3c3d cdbf 332c 393f
000000a0: 11d7 bbbd 7b3c d5be b5c0 033f a1e3 2c3f
000000b0: e2cb 1e3f 6c71 713f feee 863e 5241 fdbe
000000c0: 26b6 223f 0be7 d8bf ed91 2fbf faaa 913f
000000d0: 36ed 803f 9dd5 da3e 5244 6d3d b255 5cbf
000000e0: 06a5 353d 18f8 81bf f31b 8b3f 623d 04bd
000000f0: 8ea4 6bbf f97e df3d 6758 acbe 2214 e13d
-0.5108845 1.1795613 0.48387024 0.45168796 0.4541042 0.87338895 -0.22988208 0.38493544
-0.005237368 -0.119390056 0.11530632 0.1755385 -0.2893297 -0.14629433 -0.1778631 -0.21001871
0.26591524 -0.5301353 0.50495744 1.0252085 -0.04662801 -0.5018086 0.28276956 -0.51749885
0.4655741 -0.6752688 -0.1556395 -0.08150218 0.9804063 -1.1418635 0.35564092 0.031269345
0.17975265 -0.64340407 0.15251403 -0.46733886 -1.0036519 -0.36479002 -1.6034312 0.7233307
-0.0917188 -0.41647705 0.5146592 0.67534834 0.6202985 0.94313693 0.26354212 -0.49463898
0.63559186 -1.6945509 -0.6858204 1.1380303 1.0072391 0.427411 0.057926483 -0.8606826
0.04434683 -1.0153837 1.0867904 -0.0322851 -0.92047966 0.1091289 -0.33661196 0.10990168

4.weight f4 [1, 64]
00000000: 283d 433f 531c 1dbe 34fb 393f ea75 413f
00000010: 5b81 2abf ada4 02bf e479 f13e 9933 503f
00000020: afc1 1fbf 88e9 703f 83ac 08bf 13ef 11bf
00000030: ab99 4c3f cd6d 6a3f d348 0f3f 4e2a 343f
00000040: 1b9e 4f3f cc52 443f 450c 14bf e609 71bd
00000050: e22e d73e d32d 123f 8911 4e3f fa8f 273f
00000060: a1ab 24bf 8fe5 433f 952b 4d3f b7e7 213f
00000070: 0645 c9be 880f 203f d8e6 883f 6fb7 243f
00000080: 7e43 603f 3c1d 053f 9794 8bbe 0886 1b3f
00000090: 48d9 033f 00c5 443f 7d9b 0e3f 1e8c 1ebf
000000a0: 5d26 c13e 1c43 443f 8366 6ebf 44aa 0bbf
000000b0: 5e6e d4be d311 c3be c7bb 4fbf bcc5 2f3f
000000c0: 5fd6 0fbf 0dfc f43e 3a9d 793f abd5 e0bd
000000d0: a8e3 64be f944 f5be 1f5e cabd 6bbb 293f
000000e0: efd5 83bd 1096 f43e fac5 7bbe 960a 0c3f
000000f0: 0d97 ee3e e9d6 293f 42aa 323f fe36 1b3f
0.7626519 -0.15342836 0.7264893 0.7557055 -0.6660363 -0.51032525 0.47163308 0.8132873
-0.6240491 0.9410634 -0.5338823 -0.57005423 0.7992198 0.9157379 0.55970496 0.7037705
0.81100625 0.7668884 -0.5783122 -0.05884733 0.42027956 0.5710117 0.80495507 0.65454066
-0.64324385 0.76522154 0.80144626 0.63244194 -0.39310473 0.625237 1.0695448 0.643424
0.87602985 0.51997733 -0.27261803 0.6075139 0.5150342 0.768631 0.55706006 -0.6193255
0.3772458 0.766649 -0.9312517 -0.5455668 -0.41490453 -0.38099536 -0.811459 0.68661094
-0.5618648 0.4784855 0.97505534 -0.10978254 -0.22352469 -0.47904184 -0.098812334 0.663016
-0.06437289 0.4777074 -0.24587241 0.5470365 0.46599618 0.6634355 0.6979104 0.60630786
