mnist_gan/MNIST_GAN_FC/save/D--20.ckpt (torch_old, 436322 bytes, 5 tensors)

0.weight f4 [128, 784]
000000 81 3d 68 ba 15 22 1b bd 75 48 85 3a 3d 29 3b bc
       -0.00088592625 -0.0378743 0.0010168689 -0.011423406
000010 48 27 b2 bc 7b 90 b2 ba e5 2d 07 bd 5c ab 61 bc
       -0.021747246 -0.0013623381 -0.033002753 -0.013773765
000020 9a 5d 46 bc a1 53 0d bd bf 13 bb bc a3 a6 a7 3b
       -0.012107277 -0.034503583 -0.022836564 0.0051163
000030 4b 57 6a bc dd 05 6d 3c 6f fd c5 ba 9f 42 80 3c
       -0.014303039 0.01446673 -0.0015105436 0.015656767
000040 e2 39 ed bc 94 f3 10 37 e0 1c df bc 33 68 b6 bc
       -0.028958265 8.639781e-06 -0.027235448 -0.022266483
000050 03 82 a7 3b 29 78 4c bd 95 c4 0e bc 3b 8b 8d bc
       0.005111934 -0.04991928 -0.008713861 -0.017278304
000060 56 99 33 3b 27 42 cf bc 7e ab 3b bd 69 fa ba 3c
       0.0027404628 -0.025300099 -0.045817845 0.022824483
000070 75 81 0e bd 37 c5 b5 bb 8d 1a 50 3b 98 8b f7 3a
       -0.03479143 -0.0055471915 0.0031754107 0.0018886207
000080 cb 0f 58 bd 76 6a b6 bb 87 94 3e bd 06 60 b0 3b
       -0.052749436 -0.0055668904 -0.046528365 0.0053825406
000090 8c 70 92 bc 31 66 1a bc bb 74 01 bc a9 be 22 bc
       -0.017875932 -0.009423778 -0.007901366 -0.009933152
0000a0 91 cb 25 bd be 34 9a bc 9a 85 ab 3b 9d c1 7b 3c
       -0.04047734 -0.018823978 0.0052344324 0.015365985
0000b0 4a 1e 7b bc 0a 53 2e bc 7e 64 a6 bc 25 e0 0b bd
       -0.015327046 -0.010639915 -0.02031159 -0.034149308
0000c0 70 55 44 bd 05 d1 1d bd 10 c7 4c bc b4 b4 7b 3c
       -0.047933042 -0.038529415 -0.012498632 0.015362907
0000d0 47 23 50 bd 06 06 19 bc 47 d3 16 3c 65 cf 2f 3c
       -0.050814893 -0.009339815 0.009205646 0.010730599
0000e0 42 ea 66 bb cf 97 85 bb bf b4 4b bb 82 b6 26 bd
       -0.0035234843 -0.004076935 -0.0031083075 -0.040701397
0000f0 d6 49 58 bd 3d 8e 0a bd 75 99 0a 3c 9f 40 92 bc
       -0.05280479 -0.033827055 0.008459439 -0.01785308
000100 59 be e0 bc 76 39 d6 bb 1e 05 16 bc 25 28 46 3c
       -0.027434515 -0.0065376116 -0.0091564935 0.012094532
000110 53 1b ce bc c9 a4 1e bd 2d c1 cb bc 20 ff 14 3d
       -0.025159514 -0.03873137 -0.024872387 0.03637612
000120 93 dd 0b 3d 9a 12 a9 bc 71 78 7e 3c 31 88 27 bc
       0.034146857 -0.020638753 0.015531645 -0.010225342
000130 ea ba 35 bd b8 08 3a 3c cc 65 93 3c 3f 8a 2f bd
       -0.04436771 0.011354618 0.017992876 -0.04285645
000140 4c ac a8 ba 0d 1e 26 bd 76 c8 2d bd bc 2c 4c bd
       -0.0012868731 -0.040556002 -0.042427503 -0.04984735
000150 1a ed ed 3b 4f 39 e3 bc 3c 13 19 bd bb 99 ce bc
       0.0072609307 -0.027737288 -0.03737186 -0.025219789
000160 c2 be 7e 3c 61 8b 3c bd ff c0 8c bc 2d 93 f3 bc
       0.01554841 -0.04603136 -0.017181871 -0.029733265
000170 52 16 03 3c d6 ea fd bc 26 bc a9 b9 93 22 30 3d
       0.008000927 -0.030995768 -0.00032374373 0.043001723
000180 b5 e0 77 3b b9 84 5a 3c 65 86 b6 b9 2e 32 a7 3c
       0.0037823145 0.013337308 -0.00034813877 0.02040967
000190 fe a1 f4 bb 74 04 d0 bc 71 6d a0 bc 55 f4 2d 3d
       -0.0074656 -0.025392748 -0.019583436 0.04246934
0001a0 8b 7e 81 3b cf f2 59 bc 28 5e 2d bc 3d 6f 22 bd
       0.0039518527 -0.013302519 -0.010581531 -0.039656866
0001b0 61 bb ef bc 2f f3 0a bd 70 e1 c7 bc cb c0 fb bb
       -0.029264154 -0.033923324 -0.02439949 -0.007682895
0001c0 0d db 22 bd 6d 57 0e bc 8d e6 d3 3b 40 db fa bc
       -0.039759684 -0.008687836 0.006466693 -0.030622125
0001d0 d4 a2 45 bd d2 e8 c2 3c 6e 6c 4c 36 fe 51 12 bc
       -0.048250988 0.023792658 3.0461483e-06 -0.008930681
0001e0 ae c8 eb bc 60 df fb bc 31 45 d8 bc 56 47 ac bc
       -0.028782215 -0.030746162 -0.02640018 -0.02103011
0001f0 8f 19 97 3b e7 24 1e bd ad 03 19 bc 5d 53 66 bd
       0.004611201 -0.03860941 -0.009339255 -0.056231845
000200 77 d1 26 bd f9 53 f5 bc 40 ad 81 bc f1 1a 50 3b
       -0.040727105 -0.029947268 -0.015829682 0.003175434
000210 cd cc ef bc 84 e4 6e bc 06 81 82 3c e9 87 15 bd
       -0.029272461 -0.01458085 0.015930664 -0.036506567
000220 d9 8d b8 bb 9b 39 ef bc 4d 29 08 bd a8 63 1c bb
       -0.005632144 -0.029202273 -0.033242512 -0.002386311
000230 b0 58 98 bc 39 57 0d bd 85 09 66 bd 9b 9d 86 3b
       -0.018596977 -0.03450701 -0.056161422 0.0041081435
000240 d6 75 33 bd 58 28 90 3c 91 ae b1 bb c6 b7 c3 3c
       -0.04381355 0.017597362 -0.0054224213 0.023891341
000250 29 31 f0 3c c7 6c 8e 3c b1 1e 89 3b 88 be 59 bd
       0.029320316 0.017385853 0.004184567 -0.05316022
000260 ed 4e 03 bc 84 e4 1c bd 3c fa 34 bd 42 e3 5b ba
       -0.008014423 -0.038303867 -0.044183955 -0.0008388051
000270 75 d2 94 3a f6 f7 1c 3c 40 2f 4c bd d5 ca da bc
       0.0011354225 0.009580603 -0.04984975 -0.026708046
000280 47 0b 34 bd c6 ee b4 bc d2 41 f7 bb ff 17 0e 3d
       -0.043956067 -0.022086512 -0.007545688 0.034690853
000290 04 10 91 bc 65 50 24 bd 3e 31 39 bc 7f a1 94 3b
       -0.017707832 -0.040115733 -0.011303244 0.0045358534
0002a0 63 83 88 3c 49 8b 1f bc 45 3c 17 bd ee 5e c1 bc
       0.016664213 -0.009737798 -0.036922712 -0.023604836
0002b0 63 86 a2 bc e3 ea 05 3c 64 c2 dc bb f3 02 1a bc
       -0.019839471 0.008173677 -0.0067370404 -0.009400117
0002c0 aa 11 24 bd ca ff 81 bc 75 17 26 bc 83 ba d5 bc
       -0.04005591 -0.01586904 -0.0101374285 -0.026089912
0002d0 c1 2c 6f bd 0c cf 10 3c 06 00 5c bd cd a2 2d bd
       -0.05839229 0.008838426 -0.05371096 -0.042391587
0002e0 ec 8e 96 bd 3c cb 3e 3c 58 54 d8 bc 22 8e ef bc
       -0.07351479 0.011645135 -0.026407406 -0.029242579
0002f0 ca e6 4c bb 08 4e bc 3b 8f 6e a7 bc a2 9c a0 3c
       -0.003126549 0.0057466067 -0.02043846 0.019605938
000300 8a 03 9d bb 93 60 4d bd 59 b5 19 bd 69 6d 05 bd
       -0.0047916817 -0.05014093 -0.037526462 -0.032575045
000310 c4 b0 56 bc a7 c5 88 3c 6a 8d 1f bd 29 2c c5 3c
       -0.013103668 0.01669581 -0.038953222 0.024068909
000320 2b 75 5c bc dc 67 00 bd 55 02 44 bc 17 83 0c bc
       -0.013455669 -0.031349048 -0.011963447 -0.008576176
000330 52 6e 20 bc 35 c5 19 bd bb 95 2b bb 07 be 5d bd
       -0.009791927 -0.037541587 -0.0026181776 -0.054136302
000340 0e 8a 92 3c 7e 60 9a bd 34 a1 96 bd 1b 33 88 bd
       0.017888095 -0.07537936 -0.07354966 -0.066503726
000350 93 33 41 bd ce 0b a6 bc 0c a2 e7 bc 3c c0 ea bc
       -0.047168326 -0.0202693 -0.028275512 -0.028656118
000360 37 c9 dc bc ff 64 c7 bc ca ec 34 3b d1 e4 77 3c
       -0.026951415 -0.02434015 0.0027606958 0.015130238
000370 74 bd 22 3c 97 9d c7 bc be 2b 10 bd 7f 87 dd bc
       0.009932864 -0.024367137 -0.035197966 -0.027042149
000380 75 02 26 bd cf 36 3e bd 37 f0 21 bd 40 7c fc bb
       -0.040529687 -0.04643899 -0.039535727 -0.0077052414
000390 5d 12 ae bc 72 5d e1 bc 09 87 82 3c 7c f7 c9 bc
       -0.02124899 -0.027510379 0.01593353 -0.024654143
0003a0 35 fa 26 bd c6 e2 e2 3c b1 8a aa bc cc db 6f bd
       -0.04076596 0.027696025 -0.020818086 -0.058559224
0003b0 1a bb d2 bc b1 9a 83 bd 5f 92 ac bb 50 b1 57 bd
       -0.025723983 -0.064259894 -0.005266472 -0.052659333
0003c0 8a 17 cf bb d2 a5 90 bd 04 89 5d bc bc c3 f1 3c
       -0.0063199447 -0.07062878 -0.013521437 0.029512279
0003d0 59 9f 07 3d 16 03 36 bd da 1f 03 bc 8d 26 63 bc
       0.03311095 -0.044436537 -0.0080031995 -0.013864172
0003e0 00 43 4e bc 0f 5a c7 bc d8 1b 09 bc 8b 4e 08 bb
       -0.012589216 -0.024334935 -0.008368455 -0.0020798768
0003f0 ba c7 0f bd 7c 3c d6 ba 2e ce 25 bd 4f 4e f8 3c
       -0.035102583 -0.001634493 -0.04047983 0.030310778

0.bias f4 [128]
000000 df 43 90 3c 2b 6d b2 be 83 e3 8d 3e 97 25 e5 bd
       0.017610488 -0.34848914 0.2771264 -0.1118881
000010 45 8e ca bd 5a 42 fb 3d 2e 2e 4e 3e 90 66 1a 3e
       -0.09890417 0.12268515 0.20134804 0.15078187
000020 35 7a 58 3e 66 b6 cb be ac 3d be 3d 57 d5 c2 bd
       0.21140368 -0.39787596 0.09289107 -0.095133476
000030 b6 eb 5d bc 53 68 84 3e 6b 48 ef bc 32 f0 10 3e
       -0.013544967 0.25860843 -0.029209336 0.14154127
000040 4d 46 47 3e 4f 52 34 bd 9a 46 3a bd bd 59 15 be
       0.19460411 -0.044023808 -0.045477487 -0.14585014
000050 53 72 83 3d a6 19 41 3d 6c a5 7d 3e 5b 71 6d 3e
       0.0641829 0.0471436 0.24770135 0.23187773
000060 7c ef e1 be 81 16 51 3d 56 62 c4 3e f8 4f b6 be
       -0.44128025 0.051046852 0.38356274 -0.35607886
000070 79 a6 9e be 63 c1 0d bd 1d c5 e7 bb 31 f2 85 be
       -0.30986384 -0.034608256 -0.0070730583 -0.2616134
000080 22 32 93 be 03 9e 89 3d 1a 4f 19 be 31 9d 10 bf
       -0.28749186 0.067195915 -0.14971581 -0.56489855
000090 8b d2 81 3d e2 e2 8d 3d e1 bd 9f bd 49 bd 29 3e
       0.06338986 0.0692804 -0.077998884 0.16576113
0000a0 4e 53 6f 3e c2 e4 05 3f 97 82 15 3e 51 95 5c 3e
       0.23371622 0.5230218 0.14600597 0.21541335
0000b0 43 01 8f 3b 12 f9 51 3e 9e 47 8b 3e a4 2e e3 3e
       0.004364164 0.20505169 0.27203077 0.4437152
0000c0 49 7f 9b 3d 9c ea 7b 3d 1e 38 09 3e 7c ac 0e bd
       0.07592637 0.061503038 0.13400313 -0.034832463
0000d0 c4 22 01 3e d4 a7 68 3e ba d4 12 3d 44 25 82 be
       0.12610918 0.22720271 0.035847403 -0.25419056
0000e0 b0 13 80 3d 54 8f c5 3d 27 4f d0 3e ef 50 11 be
       0.06253755 0.09646478 0.40685388 -0.1419103
0000f0 85 0a c9 bc 7a 02 4a 3e 0a db a7 3e 43 e5 53 bc
       -0.024541149 0.19727507 0.327843 -0.012933078
000100 dd 8f 43 bd 66 af 12 3d dc 98 41 be f7 ae 24 be
       -0.04774462 0.035811804 -0.18905967 -0.16082369
000110 70 12 ce 3d 6d f8 0b 3e 61 60 88 bd d0 61 cf be
       0.100621104 0.13668986 -0.06659008 -0.40504313
000120 7b a3 07 3e a2 d3 0b be 64 4e 80 3e 72 ca 63 ba
       0.13245957 -0.1365495 0.25059807 -0.00086895295
000130 77 dd 1a bf 9c 97 06 3d 1d 2c 1c be 2d 95 ab bd
       -0.6049418 0.03285943 -0.15251203 -0.083780624
000140 fe 34 f5 bd 51 cc 1d 3e 65 29 17 bc 6c 9b f5 3e
       -0.11972998 0.15409972 -0.009226178 0.4797014
000150 ef c2 e4 bc 9d c6 78 bd 0a dc 33 3e 2f 27 7f 3e
       -0.027924983 -0.060736287 0.17564407 0.24917291
000160 67 d1 48 3e a1 8c ce bd d9 17 a5 3d 24 c0 63 be
       0.1961113 -0.100854166 0.08061189 -0.22241265
000170 b5 32 d4 3d 2f 4d b3 3b 1f c4 85 38 e1 1e 4e 3e
       0.10361234 0.0054718475 6.3784646e-05 0.20128967
000180 3c 16 66 3e d2 db 71 3d 91 71 f5 be 16 f4 a6 3e
       0.22469419 0.059047528 -0.47938207 0.32608098
000190 f1 49 c8 3c fa 43 b6 3e fe d1 3a 3d ad 3c 08 3f
       0.02444932 0.35598737 0.04561042 0.53217584
0001a0 14 a3 3a bd bd 8b 37 be 5f a7 95 3e ec d0 1a 3e
       -0.04556568 -0.179244 0.29229257 0.1511876
0001b0 78 50 5b bc 50 43 c7 3d a1 e2 2e bd aa a1 8b 3e
       -0.013385884 0.09729636 -0.0426966 0.27271777
0001c0 e8 aa c7 3e f8 4a bb 3d f4 48 c6 3e 88 18 a2 3e
       0.3899758 0.091451585 0.38727534 0.3165934
0001d0 a0 70 23 be 95 53 9f 3b 58 d0 0a 3e 50 c5 02 3e
       -0.15960932 0.0048622587 0.1355604 0.12770581
0001e0 85 f3 8f 3e 54 c1 24 3e e0 11 9a 3e 80 42 e7 bd
       0.28115478 0.16089374 0.30091763 -0.11291981
0001f0 fb 20 29 3d 32 11 6e be fd 14 b3 3d 10 70 0e 3e
       0.04129122 -0.23248747 0.087442376 0.13909936

2.weight f4 [64, 128]
000000 b8 60 f1 3d 43 ac 2a 3d 36 77 90 be c9 73 90 3e
       0.11786026 0.041668188 -0.2821595 0.28213337
000010 a5 4e c0 be 79 e7 54 3d f5 55 aa bc f0 ea 5f be
       -0.3756 0.051978562 -0.02079294 -0.21866965
000020 c9 ff 37 be 6c 1e 9c 3e 40 be 44 be 75 20 3d be
       -0.17968668 0.3049196 -0.192132 -0.18469413
000030 3a b3 11 be b0 55 6b be 39 6c da bc 07 54 01 be
       -0.14228526 -0.22981906 -0.026662933 -0.1262971
000040 dc c4 8e be 09 7f 36 3e ea 47 21 3d 70 8c b1 3d
       -0.27884567 0.17821898 0.039375223 0.086693645
000050 af 3a f2 3d 5e 03 a1 3e 02 0e 81 be 25 cd 30 be
       0.11827599 0.3144788 -0.25206 -0.17265756
000060 d2 d8 a9 3c 12 c8 79 3e 89 45 ce 3c 19 17 43 3e
       0.02073327 0.24392727 0.025179641 0.1905178
000070 61 32 42 3e 85 69 5b bc cc eb 6d bd de 1b 9a 3d
       0.1896453 -0.013391857 -0.0580862 0.075248465
000080 cc d5 92 3e 4d 45 35 bd 7c 5e 5f 3d af 32 5e 3d
       0.2867874 -0.044255544 0.054533467 0.054247554
000090 13 ce 3a 3d a3 7c 9b 3e ee 94 4e 3e bf eb 8a 3e
       0.045606684 0.30368528 0.20174 0.27132985
0000a0 ba 37 82 be 12 cc 61 3d ad 7b 41 be 68 9b a5 be
       -0.2543314 0.055126257 -0.18894835 -0.32345128
0000b0 d7 58 d8 bd aa f7 00 be c7 13 55 be 43 00 a3 3d
       -0.1056382 -0.12594476 -0.20808326 0.07959034
0000c0 47 89 65 3e 6e ee 5f bc e1 4a 0a be 40 fc 23 bd
       0.22415648 -0.013667686 -0.13505127 -0.040035486
0000d0 14 b8 28 be c4 89 d3 3d e3 d5 4c be 70 24 2c 3e
       -0.1647647 0.10329011 -0.20003466 0.16810775
0000e0 70 c7 9d 3e bd e1 a8 bc d6 94 b4 3d 9a 18 cb 38
       0.3081622 -0.020615453 0.08817451 9.684377e-05
0000f0 ff 1e 44 3e 2d 5d d5 be a9 01 bb bd 23 fc 9e be
       0.19152449 -0.4167265 -0.09131176 -0.3105174
000100 bc b4 95 3e 18 6f 02 be c3 5f 93 bd 43 d6 1e 3e
       0.29239452 -0.12737691 -0.071959995 0.15511422
000110 48 4d 8e 3e 1d ea 37 be 71 57 5c 3e 86 ae b9 3c
       0.27793336 -0.17960401 0.21517731 0.022666227
000120 7d 79 9f be 8e bf 02 3e d6 48 bb 3e 0d 70 a0 be
       -0.31147376 0.12768385 0.36579007 -0.31335488
000130 38 c3 8b bd 7a 82 04 be 61 ac d4 3d ba 76 9b be
       -0.068243444 -0.12940398 0.10384441 -0.3036402
000140 c1 f7 27 3e 13 b7 6c be 7c 1d 93 be 5e 7e ce bd
       0.16403104 -0.23116712 -0.28733432 -0.100826964
000150 f3 2a bd 3e 2c 8e aa bd ed d7 c3 be e9 d1 9e bb
       0.3694683 -0.083278984 -0.38250676 -0.0048468006
000160 b7 bf 4c 3c 61 b0 71 3c 05 9d 18 3d bf 0a 0e 3e
       0.01249688 0.014751525 0.03725912 0.13871287
000170 79 ec 36 be 9b f8 15 be a7 76 a0 3d fa 81 f8 3e
       -0.17863645 -0.14645617 0.07835131 0.48536664
000180 95 58 a4 bd 85 f5 18 be 0c 7a f5 3d ec 25 e6 bd
       -0.08024708 -0.14937408 0.11986169 -0.11237702
000190 c9 da c8 be f1 10 61 be b0 59 98 be 2c 39 1d 3d
       -0.3922942 -0.21979119 -0.29755926 0.0383846
0001a0 cb 38 cd 3c 4b 97 f7 3e 40 1e c0 be 00 d0 b8 be
       0.025051495 0.48357615 -0.3752308 -0.3609619
0001b0 61 35 92 3e 9a 15 fb bc 83 dd 46 bd 5d e5 45 bd
       0.2855635 -0.030649949 -0.048551094 -0.04831444
0001c0 11 1f 0e be ab 41 7d be 87 bc b1 bd 31 2a 00 be
       -0.13879038 -0.24732082 -0.08678537 -0.12516095
0001d0 f8 fb c7 3e 08 c0 f0 be 1c 22 26 3e 8f 5c 39 be
       0.39059424 -0.47021508 0.16223949 -0.18101715
0001e0 fc f3 c6 be fd ad a6 be c5 10 3e bc fc 9d ed 3a
       -0.3885802 -0.32554618 -0.011600678 0.0018128748
0001f0 fc 01 83 be a4 55 d5 3d 3a 77 d2 bd 04 c9 5c be
       -0.2558745 0.10416725 -0.10276647 -0.21561056
000200 c2 b5 77 bc 6b 80 32 be df 25 86 3e 88 cc 28 be
       -0.015119018 -0.174318 0.26200768 -0.16484272
000210 42 6c 8b 3e 5d 4a 3f 3e 48 ec c5 3d 21 7d 92 3d
       0.27231032 0.18680711 0.09664208 0.07152773
000220 ee fe 2c 3e 18 f1 94 be e2 9c 47 3e 03 e6 c4 3e
       0.16894123 -0.2909019 0.1949344 0.38456735
000230 b2 36 89 3d b8 ca 24 3e d6 b9 29 3d d8 e8 86 3d
       0.066998854 0.16092956 0.041436993 0.0658738
000240 54 7c 2e 3d 2d f7 be be 23 22 8a 3d e1 be 55 bd
       0.042599037 -0.37297955 0.06744792 -0.05218399
000250 7c 48 03 be 6e ad 39 be 7b 58 09 3d 3c e5 8d 3d
       -0.1282062 -0.18132564 0.033531647 0.069284886
000260 39 62 e5 3d dc 9b 98 be be b1 dc bc 08 14 70 be
       0.11200375 -0.2980641 -0.026940223 -0.23445141
000270 7c 15 58 be 65 2b 4c 3d a2 63 ee 3d e0 a4 44 be
       -0.21101946 0.04984607 0.11640097 -0.1920352
000280 e7 e0 b4 bd fa 07 0d be 89 7f 7c be c3 b5 00 be
       -0.08831959 -0.13772574 -0.24658026 -0.12569337
000290 8d 7c c2 bc 4f 25 00 bf a6 e5 43 be 56 b4 61 be
       -0.023741031 -0.5005693 -0.19130573 -0.22041449
0002a0 73 15 cb 3d f9 2d 0d bd 3a 82 47 bd 5d dd 69 3e
       0.099162005 -0.03446767 -0.048708178 0.2283835
0002b0 6f b8 e4 3d ad 99 fa 3d f4 b8 b9 3d f0 ca 63 3c
       0.111679904 0.122363426 0.0906848 0.013903365
0002c0 25 2b 27 be e3 be 28 bd 0e 2f c6 3d 33 ad 15 bc
       -0.16325052 -0.04119767 0.09676944 -0.009135532
0002d0 66 1c 13 3d 3b 7a e3 3c 49 b4 88 3e 49 16 19 be
       0.035915755 0.027768245 0.26700047 -0.14949907
0002e0 0a 8b a5 be 8d 0d 02 3e b3 68 dc 3d 14 86 08 3e
       -0.3233264 0.12700482 0.10762157 0.13332397
0002f0 8d 54 03 be 37 f8 0e 3e f5 05 50 3d e6 f5 57 3e
       -0.12825222 0.13961874 0.05078693 0.21089897
000300 43 b3 2f be c1 4c 09 3e 89 5f 25 bd c3 7a 4a be
       -0.17158227 0.13408186 -0.040374313 -0.19773392
000310 83 84 28 be 2d 18 89 3e 8a 5b 14 be 87 b4 4a be
       -0.16456799 0.26776257 -0.14488044 -0.19795428
000320 ab b8 06 3e 6b 05 a2 be fe 85 6f be ef 2f 91 3e
       0.13156383 -0.3164476 -0.23390958 0.28356883
000330 ce ff 5c bd 92 3d 66 3e 06 71 d3 bd ce 6d 48 3e
       -0.05395489 0.22484425 -0.10324292 0.19573137
000340 8a 23 c2 be 59 1f 4e 3e 62 db 0e 3e c1 bb 57 3c
       -0.3791774 0.20129146 0.13950875 0.013167323
000350 cb b1 a3 be 7d 5e c5 be c5 9c 94 3e e9 2a 9c 3d
       -0.31971583 -0.3854865 0.29025856 0.07625372
000360 af 20 e0 3c bd 52 0f 3e 97 d0 3c 3e 38 c3 1f 3e
       0.027359335 0.13996406 0.18438946 0.15601814
000370 61 6f bf 3d e0 bc 66 3e af 87 4f 3d 99 c0 95 be
       0.09347416 0.22532988 0.050666507 -0.29248503
000380 46 21 f5 ba b6 e0 87 3d 13 e3 40 be 88 56 00 3e
       -0.0018701933 0.06634657 -0.18836622 0.12533009
000390 44 be 69 3e 4b 75 03 3e 84 40 81 3e 27 32 83 3d
       0.22826487 0.12837712 0.25244534 0.0640605
0003a0 e5 26 13 be 3f 79 8a be 3d ed 81 3e a9 8c 46 3e
       -0.14370306 -0.27045628 0.2537631 0.19389595
0003b0 1b 14 9a be a2 2e c6 3d 9f fa bf 3c 49 08 0f 3e
       -0.30093464 0.09676863 0.023434935 0.13968004
0003c0 d5 26 f8 3d 2d e0 a4 3d c8 0e 96 3c a6 4f 82 3d
       0.121167816 0.08050571 0.018317595 0.06362848
0003d0 94 ac 7f be b8 b9 58 3e 6c 8e e2 be 1d d0 6c 3e
       -0.24968177 0.21164596 -0.44249284 0.23126264
0003e0 8f a1 4e 3e 10 c9 d3 3e 3b de f4 3d cd be 3f be
       0.20178817 0.41364336 0.119564496 -0.18725128
0003f0 bf c0 95 3e 03 fa 50 be 01 f5 95 3d 92 d1 84 3e
       0.29248616 -0.20407872 0.073221214 0.2594114

2.bias f4 [64]
000000 ce e7 5b be 8c 4b f9 3e 68 3d bb bd fd 68 3a 3e
       -0.21475145 0.4869045 -0.09142572 0.18204112
000010 de c2 2f 3e 1a 18 a5 3e 53 18 4e be ba 6a 4b 3e
       0.1716418 0.3224495 -0.20126466 0.19864932
000020 df 43 50 bd 44 0c 8f bd e3 ef 01 3e 24 b5 23 3e
       -0.050845977 -0.06984761 0.12689166 0.15987068
000030 79 67 23 be 69 70 04 be 8e 09 6e be fb 6d a2 be
       -0.1595744 -0.12933506 -0.23245832 -0.31724533
000040 56 28 eb 3d 60 f9 da be 0b 2a 78 3e 6d 63 c0 3e
       0.11482303 -0.42768383 0.24234788 0.37575856
000050 9a da e1 3e 05 87 b3 be 0a 14 b0 bd 6a b1 bf be
       0.44112092 -0.3506395 -0.08597572 -0.37440044
000060 24 ea bd 3e 0f 45 b3 be 35 79 24 be 68 76 93 be
       0.37092698 -0.35013625 -0.16061862 -0.28801274
000070 9b 5a fa 3e 3d 11 d1 be 49 60 07 3d 5f 8c c1 3c
       0.4889725 -0.40833464 0.03305081 0.023626504
000080 8d 22 2b 3c 84 2f d5 be 6f 89 a6 3c c7 64 fd be
       0.010445249 -0.41637814 0.020329205 -0.4949095
000090 28 ce 0e bf d1 9a c1 bd fe b4 3f bf 7d 12 9f 3e
       -0.5578332 -0.09453357 -0.7488555 0.31068793
0000a0 87 b8 85 be b2 55 8e be 6f fa 79 3e aa f2 c2 3e
       -0.26117346 -0.27799755 0.24411939 0.38075763
0000b0 2d cb ac 3e 48 7b bd 3e bd 47 e3 3d 6d 75 d8 bd
       0.3374876 0.3700812 0.11097667 -0.10569272
0000c0 87 5e bd 3e 47 17 36 bf c4 a8 3b bf 77 ca ea 3e
       0.3698618 -0.7112927 -0.7330439 0.45857593
0000d0 02 1f d5 3e c7 a1 cb 3e c1 24 8c 3d 06 53 33 bf
       0.4162522 0.39771864 0.06842948 -0.7004856
0000e0 f6 ab 76 3d 4f f2 bc be b5 89 e1 3e 97 79 8f bd
       0.06022259 -0.36903617 0.44050375 -0.07005613
0000f0 b9 f9 fc be 26 50 e4 3c e1 bc cd be 57 90 be 3d
       -0.49409273 0.027870249 -0.40183166 0.093048744

4.weight f4 [1, 64]
000000 96 14 fc 3e fa 24 4b be 50 9c d7 3e 5c b4 27 3f
       0.49234456 -0.19838324 0.42111444 0.6550958
000010 24 fa 6a be 7f 17 89 be 5c 8e a1 3e 47 bd 4e 3f
       -0.22946984 -0.2677574 0.31553924 0.80757564
000020 76 e0 cd bd 9e cc 1a 3e cd 06 16 bf f3 5c 31 bf
       -0.10052578 0.15117118 -0.5860413 -0.69282454
000030 23 bb f3 3e fb 84 ca 3e ac 9d f4 3e 0a 11 21 3f
       0.4760371 0.3955458 0.47776544 0.62916625
000040 76 69 49 3f 7a ef fa 3e 8a f3 b6 be 84 92 20 be
       0.78676546 0.4901083 -0.3573268 -0.15680891
000050 4b 0c a5 bd 18 fb af 3e 89 3e 42 3f b3 8b 2d 3f
       -0.08058985 0.34371257 0.7587667 0.6779129
000060 09 b5 87 be 68 88 6b 3e 6b af 40 3e 12 a4 d9 3e
       -0.26505306 0.23001254 0.18816917 0.42507988
000070 ce 7e e8 bd 20 f1 bd 3e 8a 93 23 3f 2e a7 3b 3f
       -0.11352311 0.37098026 0.63897 0.7330197
000080 a2 6a 21 3f b7 41 01 3f ea 62 63 bd b9 87 fb 3e
       0.63053334 0.504909 -0.055514254 0.49126986
000090 f7 37 ef 3e 3c 8e 12 3f db 9b 23 3f 40 e5 f5 bd
       0.46722385 0.5724828 0.6390969 -0.120066166
0000a0 d9 1a 21 3f df 15 df 3e f7 2b 75 be b6 93 c5 bd
       0.6293159 0.43571374 -0.23942553 -0.09647314
0000b0 bb 06 ec be 5a 87 5f be 26 a7 16 bf 76 64 2b 3f
       -0.46098885 -0.21828976 -0.588488 0.66950166
0000c0 8e c2 49 be 67 1f ed 3e 42 34 37 3f ff ad 46 be
       -0.19703123 0.4631302 0.71564114 -0.19402312
0000d0 ce 77 f5 bd 0e 01 4a be ce b9 cd bd 6c 5b 22 3f
       -0.119857416 -0.19726965 -0.10045205 0.6342075
0000e0 81 5a a4 bd eb ea 0a 3f 8a 0b 43 be 44 32 3a 3f
       -0.08025075 0.54264706 -0.1904737 0.7273295
0000f0 25 d7 f5 3e 23 93 4f 3e 58 d3 b4 3e 9c cf f8 3e
       0.48015705 0.20270972 0.35317492 0.48595893
