mnist_gan/MNIST_GAN_FC/save/D--30.ckpt (torch_old, 436322 bytes, 5 tensors)

0.weight f4 [128, 784]
00000000: 813d 68ba 1522 1bbd 7548 853a 3d29 3bbc
00000010: 4827 b2bc 7b90 b2ba e52d 07bd 5cab 61bc
00000020: 9a5d 46bc a153 0dbd bf13 bbbc a3a6 a73b
00000030: 4b57 6abc dd05 6d3c 6ffd c5ba 9f42 803c
00000040: e239 edbc 94f3 1037 e01c dfbc 3368 b6bc
00000050: 0382 a73b 2978 4cbd 95c4 0ebc 3b8b 8dbc
00000060: 5699 333b 2742 cfbc 7eab 3bbd 69fa ba3c
00000070: 7581 0ebd 37c5 b5bb 8d1a 503b 988b f73a
00000080: cb0f 58bd 766a b6bb 8794 3ebd 0660 b03b
00000090: 8c70 92bc 3166 1abc bb74 01bc a9be 22bc
000000a0: 91cb 25bd be34 9abc 9a85 ab3b 9dc1 7b3c
000000b0: 4a1e 7bbc 0a53 2ebc 7e64 a6bc 25e0 0bbd
000000c0: 7055 44bd 05d1 1dbd 10c7 4cbc b4b4 7b3c
000000d0: 4723 50bd 0606 19bc 47d3 163c 65cf 2f3c
000000e0: 42ea 66bb cf97 85bb bfb4 4bbb 82b6 26bd
000000f0: d649 58bd 3d8e 0abd 7599 0a3c 9f40 92bc
00000100: 59be e0bc 7639 d6bb 1e05 16bc 2528 463c
00000110: 531b cebc c9a4 1ebd 2dc1 cbbc 20ff 143d
00000120: 93dd 0b3d 9a12 a9bc 7178 7e3c 3188 27bc
00000130: eaba 35bd b808 3a3c cc65 933c 3f8a 2fbd
00000140: 4cac a8ba 0d1e 26bd 76c8 2dbd bc2c 4cbd
00000150: 1aed ed3b 4f39 e3bc 3c13 19bd bb99 cebc
00000160: c2be 7e3c 618b 3cbd ffc0 8cbc 2d93 f3bc
00000170: 5216 033c d6ea fdbc 26bc a9b9 9322 303d
00000180: b5e0 773b b984 5a3c 6586 b6b9 2e32 a73c
00000190: fea1 f4bb 7404 d0bc 716d a0bc 55f4 2d3d
000001a0: 8b7e 813b cff2 59bc 285e 2dbc 3d6f 22bd
000001b0: 61bb efbc 2ff3 0abd 70e1 c7bc cbc0 fbbb
000001c0: 0ddb 22bd 6d57 0ebc 8de6 d33b 40db fabc
000001d0: d4a2 45bd d2e8 c23c 6e6c 4c36 fe51 12bc
000001e0: aec8 ebbc 60df fbbc 3145 d8bc 5647 acbc
000001f0: 8f19 973b e724 1ebd ad03 19bc 5d53 66bd
00000200: 77d1 26bd f953 f5bc 40ad 81bc f11a 503b
00000210: cdcc efbc 84e4 6ebc 0681 823c e987 15bd
00000220: d98d b8bb 9b39 efbc 4d29 08bd a863 1cbb
00000230: b058 98bc 3957 0dbd 8509 66bd 9b9d 863b
00000240: d675 33bd 5828 903c 91ae b1bb c6b7 c33c
00000250: 2931 f03c c76c 8e3c b11e 893b 88be 59bd
00000260: ed4e 03bc 84e4 1cbd 3cfa 34bd 42e3 5bba
00000270: 75d2 943a f6f7 1c3c 402f 4cbd d5ca dabc
00000280: 470b 34bd c6ee b4bc d241 f7bb ff17 0e3d
00000290: 0410 91bc 6550 24bd 3e31 39bc 7fa1 943b
000002a0: 6383 883c 498b 1fbc 453c 17bd ee5e c1bc
000002b0: 6386 a2bc e3ea 053c 64c2 dcbb f302 1abc
000002c0: aa11 24bd caff 81bc 7517 26bc 83ba d5bc
000002d0: c12c 6fbd 0ccf 103c 0600 5cbd cda2 2dbd
000002e0: ec8e 96bd 3ccb 3e3c 5854 d8bc 228e efbc
000002f0: cae6 4cbb 084e bc3b 8f6e a7bc a29c a03c
00000300: 8a03 9dbb 9360 4dbd 59b5 19bd 696d 05bd
00000310: c4b0 56bc a7c5 883c 6a8d 1fbd 292c c53c
00000320: 2b75 5cbc dc67 00bd 5502 44bc 1783 0cbc
00000330: 526e 20bc 35c5 19bd bb95 2bbb 07be 5dbd
00000340: 0e8a 923c 7e60 9abd 34a1 96bd 1b33 88bd
00000350: 9333 41bd ce0b a6bc 0ca2 e7bc 3cc0 eabc
00000360: 37c9 dcbc ff64 c7bc caec 343b d1e4 773c
00000370: 74bd 223c 979d c7bc be2b 10bd 7f87 ddbc
00000380: 7502 26bd cf36 3ebd 37f0 21bd 407c fcbb
00000390: 5d12 aebc 725d e1bc 0987 823c 7cf7 c9bc
000003a0: 35fa 26bd c6e2 e23c b18a aabc ccdb 6fbd
000003b0: 1abb d2bc b19a 83bd 5f92 acbb 50b1 57bd
000003c0: 8a17 cfbb d2a5 90bd 0489 5dbc bcc3 f13c
000003d0: 599f 073d 1603 36bd da1f 03bc 8d26 63bc
000003e0: 0043 4ebc 0f5a c7bc d81b 09bc 8b4e 08bb
000003f0: bac7 0fbd 7c3c d6ba 2ece 25bd 4f4e f83c
-0.00088592625 -0.0378743 0.0010168689 -0.011423406 -0.021747246 -0.0013623381 -0.033002753 -0.013773765
-0.012107277 -0.034503583 -0.022836564 0.0051163 -0.014303039 0.01446673 -0.0015105436 0.015656767
-0.028958265 8.639781e-06 -0.027235448 -0.022266483 0.005111934 -0.04991928 -0.008713861 -0.017278304
0.0027404628 -0.025300099 -0.045817845 0.022824483 -0.03479143 -0.0055471915 0.0031754107 0.0018886207
-0.052749436 -0.0055668904 -0.046528365 0.0053825406 -0.017875932 -0.009423778 -0.007901366 -0.009933152
-0.04047734 -0.018823978 0.0052344324 0.015365985 -0.015327046 -0.010639915 -0.02031159 -0.034149308
-0.047933042 -0.038529415 -0.012498632 0.015362907 -0.050814893 -0.009339815 0.009205646 0.010730599
-0.0035234843 -0.004076935 -0.0031083075 -0.040701397 -0.05280479 -0.033827055 0.008459439 -0.01785308
-0.027434515 -0.0065376116 -0.0091564935 0.012094532 -0.025159514 -0.03873137 -0.024872387 0.03637612
0.034146857 -0.020638753 0.015531645 -0.010225342 -0.04436771 0.011354618 0.017992876 -0.04285645
-0.0012868731 -0.040556002 -0.042427503 -0.04984735 0.0072609307 -0.027737288 -0.03737186 -0.025219789
0.01554841 -0.04603136 -0.017181871 -0.029733265 0.008000927 -0.030995768 -0.00032374373 0.043001723
0.0037823145 0.013337308 -0.00034813877 0.02040967 -0.0074656 -0.025392748 -0.019583436 0.04246934
0.0039518527 -0.013302519 -0.010581531 -0.039656866 -0.029264154 -0.033923324 -0.02439949 -0.007682895
-0.039759684 -0.008687836 0.006466693 -0.030622125 -0.048250988 0.023792658 3.0461483e-06 -0.008930681
-0.028782215 -0.030746162 -0.02640018 -0.02103011 0.004611201 -0.03860941 -0.009339255 -0.056231845
-0.040727105 -0.029947268 -0.015829682 0.003175434 -0.029272461 -0.01458085 0.015930664 -0.036506567
-0.005632144 -0.029202273 -0.033242512 -0.002386311 -0.018596977 -0.03450701 -0.056161422 0.0041081435
-0.04381355 0.017597362 -0.0054224213 0.023891341 0.029320316 0.017385853 0.004184567 -0.05316022
-0.008014423 -0.038303867 -0.044183955 -0.0008388051 0.0011354225 0.009580603 -0.04984975 -0.026708046
-0.043956067 -0.022086512 -0.007545688 0.034690853 -0.017707832 -0.040115733 -0.011303244 0.0045358534
0.016664213 -0.009737798 -0.036922712 -0.023604836 -0.019839471 0.008173677 -0.0067370404 -0.009400117
-0.04005591 -0.01586904 -0.0101374285 -0.026089912 -0.05839229 0.008838426 -0.05371096 -0.042391587
-0.07351479 0.011645135 -0.026407406 -0.029242579 -0.003126549 0.0057466067 -0.02043846 0.019605938
-0.0047916817 -0.05014093 -0.037526462 -0.032575045 -0.013103668 0.01669581 -0.038953222 0.024068909
-0.013455669 -0.031349048 -0.011963447 -0.008576176 -0.009791927 -0.037541587 -0.0026181776 -0.054136302
0.017888095 -0.07537936 -0.07354966 -0.066503726 -0.047168326 -0.0202693 -0.028275512 -0.028656118
-0.026951415 -0.02434015 0.0027606958 0.015130238 0.009932864 -0.024367137 -0.035197966 -0.027042149
-0.040529687 -0.04643899 -0.039535727 -0.0077052414 -0.02124899 -0.027510379 0.01593353 -0.024654143
-0.04076596 0.027696025 -0.020818086 -0.058559224 -0.025723983 -0.064259894 -0.005266472 -0.052659333
-0.0063199447 -0.07062878 -0.013521437 0.029512279 0.03311095 -0.044436537 -0.0080031995 -0.013864172
-0.012589216 -0.024334935 -0.008368455 -0.0020798768 -0.035102583 -0.001634493 -0.04047983 0.030310778

0.bias f4 [128]
00000000: df43 903c f9b3 82be 0e38 103e a63b 26bc
00000010: a8ac 35be d4f0 eb3d 11c1 c53d cf3c 973d
00000020: 94d7 743e 5b84 a0be fa46 9b3d 6346 12be
00000030: 42a2 2f3c 6f71 d23e 6b48 efbc 858c 0c3c
00000040: cb4e e73d 5158 adbd 6c38 4bbe ba40 ddbc
00000050: 526e 063e 9744 5b3e c172 383e 87e8 103e
00000060: 690d 20bf c787 16bc 1462 143f da6d f1be
00000070: ec51 88be 65b8 34bd aa0c 0ebe d020 2dbe
00000080: 2f53 b1be 0c56 e13d 263c 0abe 9fe4 1abf
00000090: 8bd2 813d b79d e53d 94d3 bcbd 896f 643e
000000a0: c1fd a73e 8355 233f a3a6 893e 3d52 4c3e
000000b0: b6d5 4b3d ac17 213e ff7a 863e a787 333f
000000c0: 214e 0e3e 9cea 7b3d 4b06 bf3d a1e4 a73c
000000d0: b329 663e e720 cb3e 5751 333c 40aa 8cbe
000000e0: edd7 403d c510 273e 50c5 bb3e 2620 8bbe
000000f0: 5ec4 143d 55d5 393e bff1 013f 47ac e5bd
00000100: 3053 05bd cd78 9abd b17e 93bd e93a 8abd
00000110: 2d14 ae3d ae7c 513d f4ae 3a3c 5699 d9be
00000120: 5767 2a3d 35ee 17be 0888 413e 4cff cabc
00000130: a740 38bf 0160 30bd f4c5 08be cac9 f1bd
00000140: dac8 f7bd 138b f13d 8126 90bd a7ae 063f
00000150: 28f7 a9bd 7892 82bd 3170 0f3e 4b9b 6c3e
00000160: eb05 293e b88b a9be 7b21 713b 15a7 d1be
00000170: b0a1 b73d 5f2c 0b3a 5b9c 33be e72a 4e3e
00000180: 7337 8c3e 5f0f 58bd da08 21bf ebbc b83e
00000190: fd7c 2bbd fe3f 6c3e f81f 04bd 8c93 153f
000001a0: 71e1 2ebd d907 b8bd 74e0 893e c046 a23d
000001b0: 44a7 d93d 77ac 0bbc a1e2 2ebd b9aa 8a3e
000001c0: 7b17 dd3e 96fa f03c 12b3 b13e 42a1 683e
000001d0: 4b9d 92be 1d11 af3c 22e4 913d 9b17 bb3d
000001e0: e2ab 733e e701 9c3d 380c 893e 4f6a 2cbd
000001f0: 75b3 a53d ba80 5bbe 346e 803d 57da 873c
0.017610488 -0.25527933 0.14083883 -0.010146057 -0.17741644 0.11520544 0.09655965 0.07384645
0.23910362 -0.3135098 0.07581897 -0.14284663 0.010719838 0.41102168 -0.029209336 0.008578424
0.112943254 -0.08464111 -0.19845742 -0.027008403 0.13128021 0.21412884 0.18012525 0.14151202
-0.6252046 -0.009187645 0.57962155 -0.47154123 -0.26625 -0.044121165 -0.13872018 -0.16907048
-0.34633777 0.1100274 -0.13499507 -0.605051 0.06338986 0.11211722 -0.09220043 0.22308172
0.32810786 0.63802356 0.26884946 0.19953246 0.049764358 0.15731686 0.26265714 0.70128864
0.13896991 0.061503038 0.09327372 0.020494761 0.22476844 0.3967354 0.010944686 -0.2747364
0.047080923 0.16314991 0.36673975 -0.27172965 0.036320083 0.18147786 0.507595 -0.112145
-0.032550037 -0.07542572 -0.07201899 -0.067495175 0.08499942 0.051144294 0.011394251 -0.424998
0.04160246 -0.14836963 0.18899548 -0.024779938 -0.7197365 -0.043060306 -0.13356763 -0.11806066
-0.12098856 0.117941044 -0.07038594 0.5261025 -0.082990944 -0.06375593 0.14007641 0.23106115
0.16506164 -0.3311441 0.0036793638 -0.40947786 0.08966386 0.0005309041 -0.17540114 0.20133553
0.27386054 -0.052749034 -0.6290413 0.36081633 -0.041867245 0.23071286 -0.03225705 0.58428264
-0.042695466 -0.08985872 0.26929057 0.07923651 0.106276065 -0.008525006 -0.0426966 0.27083376
0.43181977 0.029416364 0.34706932 0.22717765 -0.2863563 0.021370465 0.07123591 0.09135362
0.23796037 0.0761755 0.26767135 -0.04209357 0.08090869 -0.21435824 0.062710196 0.016583605

2.weight f4 [64, 128]
00000000: b860 f13d e56d eaba 6ac7 62be 0a11 b73e
00000010: 5e6c c0be d2b7 b8bd baa1 f6bd 2b99 b0be
00000020: 33ec 54be a342 983e b368 66be c75d 39be
00000030: a84d 24bd a5b9 b6be 396c dabc 74b1 24be
00000040: 5454 acbe 8d76 833c d91a 843c 67c9 1a3e
00000050: f8ba 553d 3ff1 fa3d 2c70 9ebe 9fb4 19be
00000060: fef5 293d c752 423e cf34 abbd c2e4 d53d
00000070: 9f25 3c3e 8569 5bbc 1bd6 e1bc 8cab 05bd
00000080: e3bb ab3e 9da4 373d 6026 50be 2ab8 f43d
00000090: 13ce 3a3d 7ce6 b13e 8d61 003e 5de1 8d3e
000000a0: bb24 b4be b1d2 433c 4b77 79bd f368 82be
000000b0: 6860 70be c12d 06be 6206 76be e6ad d13d
000000c0: 0356 243e 6eee 5fbc b71c 55be 0138 1bbe
000000d0: 7036 6ebe bb05 e43d 2d81 19be f471 fa3d
000000e0: 3416 aa3e d8d8 87bc eec6 073d 30be bebc
000000f0: f1c6 723e 24c4 e7be 7fe4 e43c acaf b3be
00000100: 2012 9d3e 0b80 41be 88da 8dbe 92df 443e
00000110: 1171 e23d 201b 0bbe 2e84 3c3d 2dd2 84be
00000120: 827a 93be faa7 d73c 4e6e 673e ee02 b5be
00000130: aa72 abbd 144f bf3c 7eb2 2ebc be58 a7be
00000140: 81e3 0e3e d9f6 60be fa64 9dbe 00c4 bebc
00000150: 2c07 9f3e 4d07 38be 5165 d4be b8df fcbd
00000160: e3eb 81bd 87ed 643c fc40 6c3d 2037 f73d
00000170: f4e9 0abe bf81 79bd e3b0 da3d 9fc0 ee3e
00000180: 3c3d 07be fb55 b0be 2d77 633d f138 07be
00000190: 959d 0abf 5c5f c4be f5f3 b2be bb99 da3d
000001a0: 0f81 c63d b5f4 cd3e e4ed c0be 0037 9ebe
000001b0: fad2 c23e 5142 483e 83dd 46bd fa39 533d
000001c0: e5e2 32bc e82c b6be 6306 19bd 9267 4bbe
000001d0: f365 ab3e 0c96 05bf abab 803e 21f7 4fbe
000001e0: c2d6 cbbe 7545 8ebe 8df0 3fbd c8bf 763b
000001f0: 9590 9ebe 2fc8 023e 77ee 33be 64ca d6be
00000200: c2b5 77bc e9b6 26be df6d 243e 5c20 6cbd
00000210: 1d23 9a3e 066e 2d3e e8b0 ef3d 471d 3a3d
00000220: c699 5e3d 135b 68be 0c81 f63d e930 1d3e
00000230: aeb9 c13d 1368 4e3e d6b9 293d 68b5 aa3d
00000240: 810c 84ba e795 a2be bb4f 9e3d 785c 573b
00000250: 8109 a6bd 006d 06be 532e 273d 13c6 fa3d
00000260: 862e 163e c977 88be 33e9 afbb c7de 5cbe
00000270: e3ef a9bd d5b3 8e3d af15 103e cefd 3ebd
00000280: ba5d acbd a1da 9dbd 8556 91be 6170 a9bd
00000290: 8d7c c2bc 84c7 d9be e860 14be b93d 1dbe
000002a0: db7d a83d 8e06 163d 0543 5cbd 1d4c 3f3e
000002b0: 240d b83d a259 453e d8db 253e 91fe 84bc
000002c0: be0b 7cbd e3be 28bd 3215 1e3e 822c 863e
000002d0: da00 273d 3112 c03b 9c72 923e 71a4 d5bd
000002e0: cadc 78be bc4c 0a3e 5298 3d3e 190c 193e
000002f0: b0d8 e2bd 0497 ba3d 5461 633c 9c1d 2e3e
00000300: 3127 babd 7fa3 f73d 3ad5 893d 2581 03be
00000310: 9061 6ebe c524 9a3e 5a2e 19be a100 12be
00000320: 289e 2c3e 744a 7bbe 815a 1abe ae44 943e
00000330: cf5b 873c aa24 473e 216a 833c 2436 923e
00000340: e27b 5abe 9d9d 723e e4af 303e 63f0 91bd
00000350: 92d9 40be 566f bebe 5190 8b3e 160f 913d
00000360: 4376 17bc 3812 293e a8f6 0f3e b04a 293e
00000370: 9ac3 b33c 456c 643e 68d7 9b3d f418 64bd
00000380: c3d8 51bc 0a77 f43d e851 dcbd a406 d33d
00000390: f441 5c3e 42a2 9a3c 65c9 b23e 8896 573d
000003a0: e09a 3cbe ac22 59be 1c74 b63e 12e9 373e
000003b0: 8aa4 b9be 6c72 863d 9ffa bf3c 6116 863e
000003c0: 41c9 c83c dab3 9d3d 630a 9a3d 3c0e 9b3d
000003d0: 788f 20be eb75 533e 2cbb e1be 86ae 943e
000003e0: 0b87 723e 081b 013f 6890 3d3e 21c1 d5bd
000003f0: 65a1 e03e 73db 58be 47f4 a73d 1328 9c3e
0.11786026 -0.0017885534 -0.22146383 0.35755187 -0.37582678 -0.09019436 -0.12042566 -0.34491858
-0.20793228 0.2973834 -0.22500877 -0.1810218 -0.04011312 -0.3568851 -0.026662933 -0.16083318
-0.33658087 0.01604774 0.016126083 0.15115891 0.05218026 0.12253045 -0.30944955 -0.15010308
0.041494362 0.1897689 -0.08359682 0.10444023 0.18373726 -0.013391857 -0.027567914 -0.032634303
0.33541784 0.04483472 -0.20327139 0.11949189 0.045606684 0.34746158 0.12537213 0.27711
-0.35184273 0.011952088 -0.060904782 -0.25470695 -0.23474276 -0.13103391 -0.24025872 0.102382466
0.16048436 -0.013667686 -0.20811735 -0.15158083 -0.23262954 0.111339055 -0.14990683 0.12228766
0.33220065 -0.016582891 0.0331487 -0.023284048 0.23708703 -0.4526683 0.027940987 -0.35094965
0.3067789 -0.18896501 -0.2770579 0.1922591 0.11056722 -0.13584566 0.046024494 -0.259416
-0.28804404 0.026325215 0.22600672 -0.35353798 -0.0837148 0.023353137 -0.010662673 -0.32684892
0.13953973 -0.21969165 -0.30741102 -0.02328682 0.3106016 -0.17971535 -0.41483548 -0.123473585
-0.0634382 0.013972647 0.05767916 0.12071061 -0.13565809 -0.06091475 0.1067827 0.46631333
-0.13206953 -0.34440598 0.055533577 -0.13205315 -0.541467 -0.38354003 -0.3495175 0.10673853
0.09692585 0.4022576 -0.37681496 -0.30901337 0.38051587 0.19556548 -0.048551094 0.051568963
-0.010918354 -0.35581136 -0.037359606 -0.19863728 0.3347622 -0.5218208 0.25130972 -0.20309116
-0.39812285 -0.27787367 -0.046860266 0.0037650932 -0.30969682 0.12771676 -0.17571436 -0.41951287
-0.015119018 -0.16280712 0.16057537 -0.057648048 0.30104914 0.16936502 0.11703664 0.045438077
0.05434587 -0.22690992 0.120363325 0.15350689 0.09459244 0.20156889 0.041436993 0.08335382
-0.0010074527 -0.3175499 0.07730051 0.0032861512 -0.081072815 -0.13127518 0.040815663 0.12244811
0.14666185 -0.2665389 -0.0053683757 -0.21569358 -0.08297708 0.06967894 0.14070772 -0.046628766
-0.084163144 -0.07707716 -0.28386322 -0.08273388 -0.023741031 -0.4253503 -0.14490092 -0.15355577
0.0822713 0.036627345 -0.053774852 0.18681379 0.089868814 0.19272473 0.16197145 -0.016234668
-0.061534636 -0.04119767 0.15437773 0.26205832 0.040772296 0.0058615436 0.28603065 -0.10431755
-0.24302974 0.13505834 0.18515137 0.14946021 -0.11076486 0.09110835 0.013878185 0.17003483
-0.090895064 0.12091731 0.06730123 -0.12842233 -0.23279405 0.30106178 -0.14959088 -0.14258052
0.16857207 -0.2454012 -0.15073587 0.28958648 0.01652327 0.1944758 0.016041817 0.2855693
-0.2133632 0.23692937 0.17254597 -0.07125928 -0.18832996 -0.37194318 0.27258542 0.070829555
-0.009244504 0.16510856 0.14058936 0.16532397 0.021943856 0.22306927 0.07609445 -0.05568786
-0.012808028 0.119367674 -0.1075781 0.10304001 0.21509534 0.018876199 0.34919277 0.052633792
-0.18418455 -0.21204633 0.3563546 0.17960003 -0.36258346 0.06564793 0.023434935 0.2618895
0.024510028 0.077003196 0.07521512 0.07571074 -0.15679729 0.20650451 -0.44088113 0.290394
0.23684327 0.5043187 0.18512118 -0.10437227 0.43873134 -0.21177463 0.08200889 0.30499324

2.bias f4 [64]
00000000: 9f09 29be 20d1 113f 56b1 a63d 62eb 793e
00000010: 276b 7e3e 4cf6 b93e e5e5 b0bd 0d70 953e
00000020: df43 50bd 6391 303d a810 193e 1747 1d3e
00000030: 3c67 c0bd 7ad4 cdbd 0a45 42be f461 82be
00000040: 7fe9 593e 5183 01bf 300e 9e3e a7c7 e83e
00000050: 04aa de3e b37f e3be 9191 003d 7220 cbbe
00000060: e556 cf3e 5365 cabe 4356 02be 71f0 46be
00000070: 5053 023f e55e 1dbf 0174 353e 0b97 ab3d
00000080: 4a60 b03d 9746 e8be 6f89 a63c 5ab5 e9be
00000090: 9dd0 10bf 0def 76bd cbf4 77bf 2dd9 b23e
000000a0: 94b2 45be 14b1 91be 8f42 7e3e 57bb e43e
000000b0: 3f4a b13e 81c0 db3e 31b3 403e 78f2 2bbe
000000c0: daeb d23e 210e 57bf 9d35 46bf 484d 0a3f
000000d0: 39be fa3e f71f cd3e c124 8c3d b928 50bf
000000e0: 06a5 353d 4dcc e8be 7ed5 0c3f ddbd 39bd
000000f0: 392b 25bf 3059 6c3e 6ae8 d8be cc2c 2d3e
-0.16507576 0.56959724 0.08139293 0.24406198 0.24845563 0.36320722 -0.08637599 0.2918705
-0.050845977 0.0431074 0.1494776 0.1535915 -0.093946904 -0.10050292 -0.18971649 -0.25465357
0.21280478 -0.50591 0.308702 0.45464823 0.43489087 -0.44433364 0.031388823 -0.3967319
0.40495983 -0.3953043 -0.12728219 -0.19427659 0.50908375 -0.6147292 0.17720033 0.083784185
0.08612116 -0.45366356 0.020329205 -0.45646173 -0.5656832 -0.06028657 -0.968579 0.34931317
-0.19306403 -0.28455412 0.24830078 0.4467418 0.34626958 0.42920306 0.18818356 -0.16791713
0.41195565 -0.84005934 -0.7742556 0.5402417 0.48973253 0.4006345 0.06842948 -0.8131214
0.04434683 -0.4546837 0.55013263 -0.045347083 -0.6451908 0.23080897 -0.42364818 0.1691162

4.weight f4 [1, 64]
00000000: 8f25 ea3e 4004 1fbe 4d6e 383f a8ea 4c3f
00000010: 91fe ddbe aaec cdbe 8ee1 143f 8b87 733f
00000020: 76e0 cdbd 9f9a 043f ed02 40bf 7b41 56bf
00000030: faa0 1f3f 2ce1 313f 62b6 213f 1092 533f
00000040: fa6a 553f adee c43e 1ee1 04bf 5d30 d1bd
00000050: 3f5b 373c afba 173f 7475 593f f764 173f
00000060: 34d0 f2be 600e 923e bb32 053f 924a 463f
00000070: d666 4dbc f7e6 0f3f 7613 3b3f 4c04 883f
00000080: aa21 5b3f 519a 113f ea62 63bd cf66 1a3f
00000090: e7f3 1b3f 2ee8 513f 23a3 313f aa44 49be
000000a0: 41c4 0d3f 5aaa 293f ebad f2be c18f a9be
000000b0: 3039 05bf d3ad b9be a53c 36bf b3ad 2c3f
000000c0: 650d d1be 807b 043f d2a9 363f 44dc 0fbe
000000d0: 815b 67bd 19e1 90be ceb9 cdbd f9a0 643f
000000e0: efd5 83bd 3a02 243f f327 4dbe fc39 3b3f
000000f0: a59c 9f3e 4190 1e3f 403e f33e 423a 193f
0.4573178 -0.15528965 0.72043306 0.8004556 -0.4335828 -0.40219623 0.5815667 0.951287
-0.10052578 0.51798433 -0.75004464 -0.83693665 0.62355006 0.6948421 0.6316892 0.8264475
0.8336636 0.38463345 -0.51906 -0.10214303 0.011191188 0.5926923 0.84944844 0.59138435
-0.4742447 0.28526592 0.52030534 0.77457535 -0.012536725 0.562118 0.7307657 1.0626311
0.8559824 0.56876093 -0.055514254 0.60313123 0.6091904 0.81994903 0.6938955 -0.196551
0.55377585 0.6627556 -0.47398314 -0.33117488 -0.52040386 -0.3626543 -0.71186286 0.67452544
-0.40830532 0.51750946 0.71352875 -0.14048868 -0.05648375 -0.28296736 -0.10045205 0.89308125
-0.06437289 0.640659 -0.2003477 0.7313535 0.31174198 0.61938864 0.4750843 0.5985452
