mnist_gan/MNIST_GAN_FC/save/D--50.ckpt (torch_old, 436322 bytes, 5 tensors)

0.weight f4 [128, 784]
000000 81 3d 68 ba 15 22 1b bd 75 48 85 3a 3d 29 3b bc
       -0.00088592625 -0.0378743 0.0010168689 -0.011423406
000010 48 27 b2 bc 7b 90 b2 ba e5 2d 07 bd 5c ab 61 bc
       -0.021747246 -0.0013623381 -0.033002753 -0.013773765
000020 9a 5d 46 bc a1 53 0d bd bf 13 bb bc a3 a6 a7 3b
       -0.012107277 -0.034503583 -0.022836564 0.0051163
000030 4b 57 6a bc dd 05 6d 3c 6f fd c5 ba 9f 42 80 3c
       -0.014303039 0.01446673 -0.0015105436 0.015656767
000040 e2 39 ed bc 94 f3 10 37 e0 1c df bc 33 68 b6 bc
       -0.028958265 8.639781e-06 -0.027235448 -0.022266483
000050 03 82 a7 3b 29 78 4c bd 95 c4 0e bc 3b 8b 8d bc
       0.005111934 -0.04991928 -0.008713861 -0.017278304
000060 56 99 33 3b 27 42 cf bc 7e ab 3b bd 69 fa ba 3c
       0.0027404628 -0.025300099 -0.045817845 0.022824483
000070 75 81 0e bd 37 c5 b5 bb 8d 1a 50 3b 98 8b f7 3a
       -0.03479143 -0.0055471915 0.0031754107 0.0018886207
000080 cb 0f 58 bd 76 6a b6 bb 87 94 3e bd 06 60 b0 3b
       -0.052749436 -0.0055668904 -0.046528365 0.0053825406
000090 8c 70 92 bc 31 66 1a bc bb 74 01 bc a9 be 22 bc
       -0.017875932 -0.009423778 -0.007901366 -0.009933152
0000a0 91 cb 25 bd be 34 9a bc 9a 85 ab 3b 9d c1 7b 3c
       -0.04047734 -0.018823978 0.0052344324 0.015365985
0000b0 4a 1e 7b bc 0a 53 2e bc 7e 64 a6 bc 25 e0 0b bd
       -0.015327046 -0.010639915 -0.02031159 -0.034149308
0000c0 70 55 44 bd 05 d1 1d bd 10 c7 4c bc b4 b4 7b 3c
       -0.047933042 -0.038529415 -0.012498632 0.015362907
0000d0 47 23 50 bd 06 06 19 bc 47 d3 16 3c 65 cf 2f 3c
       -0.050814893 -0.009339815 0.009205646 0.010730599
0000e0 42 ea 66 bb cf 97 85 bb bf b4 4b bb 82 b6 26 bd
       -0.0035234843 -0.004076935 -0.0031083075 -0.040701397
0000f0 d6 49 58 bd 3d 8e 0a bd 75 99 0a 3c 9f 40 92 bc
       -0.05280479 -0.033827055 0.008459439 -0.01785308
000100 59 be e0 bc 76 39 d6 bb 1e 05 16 bc 25 28 46 3c
       -0.027434515 -0.0065376116 -0.0091564935 0.012094532
000110 53 1b ce bc c9 a4 1e bd 2d c1 cb bc 20 ff 14 3d
       -0.025159514 -0.03873137 -0.024872387 0.03637612
000120 93 dd 0b 3d 9a 12 a9 bc 71 78 7e 3c 31 88 27 bc
       0.034146857 -0.020638753 0.015531645 -0.010225342
000130 ea ba 35 bd b8 08 3a 3c cc 65 93 3c 3f 8a 2f bd
       -0.04436771 0.011354618 0.017992876 -0.04285645
000140 4c ac a8 ba 0d 1e 26 bd 76 c8 2d bd bc 2c 4c bd
       -0.0012868731 -0.040556002 -0.042427503 -0.04984735
000150 1a ed ed 3b 4f 39 e3 bc 3c 13 19 bd bb 99 ce bc
       0.0072609307 -0.027737288 -0.03737186 -0.025219789
000160 c2 be 7e 3c 61 8b 3c bd ff c0 8c bc 2d 93 f3 bc
       0.01554841 -0.04603136 -0.017181871 -0.029733265
000170 52 16 03 3c d6 ea fd bc 26 bc a9 b9 93 22 30 3d
       0.008000927 -0.030995768 -0.00032374373 0.043001723
000180 b5 e0 77 3b b9 84 5a 3c 65 86 b6 b9 2e 32 a7 3c
       0.0037823145 0.013337308 -0.00034813877 0.02040967
000190 fe a1 f4 bb 74 04 d0 bc 71 6d a0 bc 55 f4 2d 3d
       -0.0074656 -0.025392748 -0.019583436 0.04246934
0001a0 8b 7e 81 3b cf f2 59 bc 28 5e 2d bc 3d 6f 22 bd
       0.0039518527 -0.013302519 -0.010581531 -0.039656866
0001b0 61 bb ef bc 2f f3 0a bd 70 e1 c7 bc cb c0 fb bb
       -0.029264154 -0.033923324 -0.02439949 -0.007682895
0001c0 0d db 22 bd 6d 57 0e bc 8d e6 d3 3b 40 db fa bc
       -0.039759684 -0.008687836 0.006466693 -0.030622125
0001d0 d4 a2 45 bd d2 e8 c2 3c 6e 6c 4c 36 fe 51 12 bc
       -0.048250988 0.023792658 3.0461483e-06 -0.008930681
0001e0 ae c8 eb bc 60 df fb bc 31 45 d8 bc 56 47 ac bc
       -0.028782215 -0.030746162 -0.02640018 -0.02103011
0001f0 8f 19 97 3b e7 24 1e bd ad 03 19 bc 5d 53 66 bd
       0.004611201 -0.03860941 -0.009339255 -0.056231845
000200 77 d1 26 bd f9 53 f5 bc 40 ad 81 bc f1 1a 50 3b
       -0.040727105 -0.029947268 -0.015829682 0.003175434
000210 cd cc ef bc 84 e4 6e bc 06 81 82 3c e9 87 15 bd
       -0.029272461 -0.01458085 0.015930664 -0.036506567
000220 d9 8d b8 bb 9b 39 ef bc 4d 29 08 bd a8 63 1c bb
       -0.005632144 -0.029202273 -0.033242512 -0.002386311
000230 b0 58 98 bc 39 57 0d bd 85 09 66 bd 9b 9d 86 3b
       -0.018596977 -0.03450701 -0.056161422 0.0041081435
000240 d6 75 33 bd 58 28 90 3c 91 ae b1 bb c6 b7 c3 3c
       -0.04381355 0.017597362 -0.0054224213 0.023891341
000250 29 31 f0 3c c7 6c 8e 3c b1 1e 89 3b 88 be 59 bd
       0.029320316 0.017385853 0.004184567 -0.05316022
000260 ed 4e 03 bc 84 e4 1c bd 3c fa 34 bd 42 e3 5b ba
       -0.008014423 -0.038303867 -0.044183955 -0.0008388051
000270 75 d2 94 3a f6 f7 1c 3c 40 2f 4c bd d5 ca da bc
       0.0011354225 0.009580603 -0.04984975 -0.026708046
000280 47 0b 34 bd c6 ee b4 bc d2 41 f7 bb ff 17 0e 3d
       -0.043956067 -0.022086512 -0.007545688 0.034690853
000290 04 10 91 bc 65 50 24 bd 3e 31 39 bc 7f a1 94 3b
       -0.017707832 -0.040115733 -0.011303244 0.0045358534
0002a0 63 83 88 3c 49 8b 1f bc 45 3c 17 bd ee 5e c1 bc
       0.016664213 -0.009737798 -0.036922712 -0.023604836
0002b0 63 86 a2 bc e3 ea 05 3c 64 c2 dc bb f3 02 1a bc
       -0.019839471 0.008173677 -0.0067370404 -0.009400117
0002c0 aa 11 24 bd ca ff 81 bc 75 17 26 bc 83 ba d5 bc
       -0.04005591 -0.01586904 -0.0101374285 -0.026089912
0002d0 c1 2c 6f bd 0c cf 10 3c 06 00 5c bd cd a2 2d bd
       -0.05839229 0.008838426 -0.05371096 -0.042391587
0002e0 ec 8e 96 bd 3c cb 3e 3c 58 54 d8 bc 22 8e ef bc
       -0.07351479 0.011645135 -0.026407406 -0.029242579
0002f0 ca e6 4c bb 08 4e bc 3b 8f 6e a7 bc a2 9c a0 3c
       -0.003126549 0.0057466067 -0.02043846 0.019605938
000300 8a 03 9d bb 93 60 4d bd 59 b5 19 bd 69 6d 05 bd
       -0.0047916817 -0.05014093 -0.037526462 -0.032575045
000310 c4 b0 56 bc a7 c5 88 3c 6a 8d 1f bd 29 2c c5 3c
       -0.013103668 0.01669581 -0.038953222 0.024068909
000320 2b 75 5c bc dc 67 00 bd 55 02 44 bc 17 83 0c bc
       -0.013455669 -0.031349048 -0.011963447 -0.008576176
000330 52 6e 20 bc 35 c5 19 bd bb 95 2b bb 07 be 5d bd
       -0.009791927 -0.037541587 -0.0026181776 -0.054136302
000340 0e 8a 92 3c 7e 60 9a bd 34 a1 96 bd 1b 33 88 bd
       0.017888095 -0.07537936 -0.07354966 -0.066503726
000350 93 33 41 bd ce 0b a6 bc 0c a2 e7 bc 3c c0 ea bc
       -0.047168326 -0.0202693 -0.028275512 -0.028656118
000360 37 c9 dc bc ff 64 c7 bc ca ec 34 3b d1 e4 77 3c
       -0.026951415 -0.02434015 0.0027606958 0.015130238
000370 74 bd 22 3c 97 9d c7 bc be 2b 10 bd 7f 87 dd bc
       0.009932864 -0.024367137 -0.035197966 -0.027042149
000380 75 02 26 bd cf 36 3e bd 37 f0 21 bd 40 7c fc bb
       -0.040529687 -0.04643899 -0.039535727 -0.0077052414
000390 5d 12 ae bc 72 5d e1 bc 09 87 82 3c 7c f7 c9 bc
       -0.02124899 -0.027510379 0.01593353 -0.024654143
0003a0 35 fa 26 bd c6 e2 e2 3c b1 8a aa bc cc db 6f bd
       -0.04076596 0.027696025 -0.020818086 -0.058559224
0003b0 1a bb d2 bc b1 9a 83 bd 5f 92 ac bb 50 b1 57 bd
       -0.025723983 -0.064259894 -0.005266472 -0.052659333
0003c0 8a 17 cf bb d2 a5 90 bd 04 89 5d bc bc c3 f1 3c
       -0.0063199447 -0.07062878 -0.013521437 0.029512279
0003d0 59 9f 07 3d 16 03 36 bd da 1f 03 bc 8d 26 63 bc
       0.03311095 -0.044436537 -0.0080031995 -0.013864172
0003e0 00 43 4e bc 0f 5a c7 bc d8 1b 09 bc 8b 4e 08 bb
       -0.012589216 -0.024334935 -0.008368455 -0.0020798768
0003f0 ba c7 0f bd 7c 3c d6 ba 2e ce 25 bd 4f 4e f8 3c
       -0.035102583 -0.001634493 -0.04047983 0.030310778

0.bias f4 [128]
000000 df 43 90 3c 37 45 40 be 3b a6 6a 3c 3e f0 9c bd
       0.017610488 -0.18776403 0.014321859 -0.0766301
000010 4e 03 7a be 31 59 95 3d 14 10 77 3d 6c fb c8 3d
       -0.24415323 0.072924025 0.060318068 0.0981358
000020 71 e7 94 3e 6c a7 9a be 5e dd ab 3c f3 73 62 be
       0.29082826 -0.30205858 0.02097958 -0.22114544
000030 e9 d1 7b bd 32 90 fa 3e 6b 48 ef bc c0 8f de bd
       -0.061479483 0.48938137 -0.029209336 -0.10867262
000040 1f b9 cb 3c c8 e6 02 bc 95 18 8d be d4 7c b6 bc
       0.024868546 -0.007989593 -0.27557817 -0.02227632
000050 85 49 5b 3e b7 e3 bd 3e 8a 90 33 3e df d7 ab 3c
       0.21414764 0.37087795 0.17535606 0.020976959
000060 b1 b0 3a bf 82 fd 35 be c7 8c 2f 3f 1a 6b e7 be
       -0.7292586 -0.17772487 0.68574184 -0.451989
000070 07 14 94 be 13 f9 04 3d d0 aa 85 be 24 7d 86 bd
       -0.2892153 0.0324641 -0.26106882 -0.065668374
000080 2a f3 be be 11 a3 ca bc 51 92 33 be 8f 22 16 bf
       -0.37294894 -0.02473596 -0.17536284 -0.5864648
000090 8b d2 81 3d 42 1b 15 3e 91 d4 e9 bd 56 4a 6c 3e
       0.06338986 0.1456118 -0.11417497 0.23075232
0000a0 48 8c f9 3e 68 4b 31 3f 2d 3e c3 3e 7c ee 10 3e
       0.4873984 0.69255686 0.38133374 0.14153475
0000b0 c7 cb 87 3d 1b 2e cb 3d a7 1c 63 3e e9 26 74 3f
       0.06630664 0.09920903 0.22178899 0.9537187
0000c0 c8 07 dd 3d 9c ea 7b 3d 08 95 b6 3d 1a bf d1 bb
       0.107925 0.061503038 0.08915144 -0.006400955
0000d0 62 23 27 3e 9d 4d f5 3e a6 ef 9d bd c8 52 91 be
       0.16322091 0.47910777 -0.07711725 -0.2838347
0000e0 3f a2 ea bc 5e 12 04 3e aa d3 6d 3e 57 60 bf be
       -0.028641818 0.12897632 0.23225275 -0.3737819
0000f0 97 c1 06 3e 9a ab da 3d 12 14 45 3f b5 49 1f be
       0.13159786 0.10677262 0.7698375 -0.15555461
000100 7e 8b e1 bb 5c 16 9f bd 1b 28 b2 3b 8a 94 e9 bd
       -0.006883084 -0.077679366 0.00543691 -0.11405285
000110 6a d8 2d 3e 4c 0d 2d bd 15 96 84 3d 84 f4 9c be
       0.16977087 -0.04224901 0.064739384 -0.306553
000120 87 16 52 bd 82 5e 90 3d f0 b1 3a 3e 96 de 57 bc
       -0.051291015 0.07049276 0.1823194 -0.013175627
000130 86 93 41 bf 79 8b 38 bd f6 a9 f7 bd ee 0b 20 be
       -0.7561573 -0.045054886 -0.12092964 -0.15629551
000140 75 5b 26 be 15 5a 5e 3e 2c c5 16 be d6 00 19 3f
       -0.16245826 0.21714051 -0.14723653 0.597669
000150 96 4d 32 be 77 46 1b be fd bd 75 3e 84 99 3f 3e
       -0.17412409 -0.15163599 0.23998256 0.18710905
000160 18 78 06 3e da 32 fa be 66 ff 13 bd cc 7d 0c bf
       0.1313175 -0.48866922 -0.03613224 -0.5487945
000170 3c d7 0c 3e 91 69 d2 3c 73 57 bf be 02 b8 10 3e
       0.1375398 0.025685104 -0.37371406 0.14132693
000180 f8 33 8f 3e f9 79 53 be f4 9b 38 bf f6 e8 d9 3e
       0.27969337 -0.20651998 -0.72112966 0.42560548
000190 ee db 87 bd ac c5 3a 3e ca 0c a0 bd bc e0 00 3f
       -0.06633745 0.18239468 -0.07814939 0.5034292
0001a0 37 c7 67 bd 97 a7 0c be dd 06 62 3e b3 0d 73 3d
       -0.05658647 -0.13735805 0.2207293 0.059339236
0001b0 de da 41 3e c7 a5 8a bd a1 e2 2e bd 79 84 73 3e
       0.18931147 -0.06769901 -0.0426966 0.23781003
0001c0 89 7f d7 3e 44 62 40 3c e8 1e a1 3e d9 f8 3d 3e
       0.4208949 0.011742178 0.31468892 0.18551959
0001d0 d5 3c 8e be 9a d8 0c bd c7 1c 91 bd 39 33 ab 3d
       -0.27780786 -0.034386255 -0.07085567 0.08359379
0001e0 ba 96 4c 3e 61 11 b6 3d dd fb 8d 3e 71 c2 c2 bd
       0.19979373 0.088900335 0.2773122 -0.09509743
0001f0 b5 8d b7 3d 66 0c b2 be 90 1e a1 3c 98 5b a4 bd
       0.08962575 -0.34775084 0.019667894 -0.080252826

2.weight f4 [64, 128]
000000 b8 60 f1 3d 34 99 98 3c 26 a6 75 be de ce 0f bd
       0.11786026 0.01862774 -0.23989162 -0.035109393
000010 8b d3 a1 be 0e 61 32 bc 9e dc 1a be 08 50 14 bf
       -0.31606707 -0.010887397 -0.15123221 -0.5793462
000020 3f 3e 1e bd e0 d6 91 3e e4 ba 63 be cf c7 14 be
       -0.03863358 0.2848425 -0.22239262 -0.14529346
000030 81 83 5e bd 47 ca 14 bf 39 6c da bc 62 2f 51 be
       -0.05432463 -0.5812115 -0.026662933 -0.20428231
000040 73 e9 cb be ca 03 56 3d 26 c9 19 3d 02 18 50 3e
       -0.39826545 0.052249707 0.037545346 0.20321658
000050 62 fc 30 be 84 ee 40 3e be 57 c9 be 3d 35 91 be
       -0.17283776 0.18840986 -0.39324754 -0.2836093
000060 57 a5 c3 3d 12 8b 23 3e ef 1e 15 be 85 c3 76 3e
       0.095530204 0.1597102 -0.14562581 0.24098022
000070 bf f9 5b 3e 8d 18 b2 bd 86 5a 6b bb ec 3b bd 3d
       0.2148199 -0.08696089 -0.003591211 0.09239945
000080 a8 a5 61 3e 39 b3 7b bd ca 00 63 be e0 ea 1e 3e
       0.22035849 -0.061450217 -0.2216827 0.15519285
000090 13 ce 3a 3d cf 45 a8 3d d7 61 7d 3e cd 57 fc 3e
       0.045606684 0.0821644 0.24744354 0.49285737
0000a0 32 58 fc be bb ba e5 3c 97 7b cc 3c 5b a7 3a be
       -0.49286038 0.028043142 0.024961276 -0.18227904
0000b0 27 0e cd be f6 90 6d 3d 9c 24 c9 be cb 2c ab bc
       -0.4004986 0.057999574 -0.39285743 -0.020895382
0000c0 c8 ad 20 be 6e ee 5f bc c6 79 1b be 01 6f a0 3d
       -0.15691292 -0.013667686 -0.15183172 0.07833672
0000d0 ee 19 34 be 98 af 24 3e 76 b2 b3 be eb 97 7c 3e
       -0.17588016 0.16082609 -0.35097092 0.24667327
0000e0 cc d1 fd 3e 85 cd 3b 3e b5 cb 51 be 52 55 be bb
       0.49574125 0.18340118 -0.20487864 -0.005808511
0000f0 a3 67 1d 3e 7f 08 32 bf 80 24 be 3c c5 13 dd bd
       0.15371566 -0.69544214 0.023210764 -0.10794786
000100 c4 bb c4 3e 63 bf 40 be 50 ac dd be dc f2 e1 3d
       0.38424504 -0.18823008 -0.43295527 0.1103265
000110 58 75 98 ba f5 3b 25 be 55 65 67 be f1 34 ad be
       -0.0011631651 -0.16136153 -0.22597249 -0.33829454
000120 5f 1b 8a be 50 ad a0 be ab 00 ee 3d 6a 4d df be
       -0.26974007 -0.31382227 0.11621221 -0.4361375
000130 9f 34 99 3e d4 bd a5 3d 1b a9 10 be c8 0c 84 be
       0.2992296 0.080928475 -0.14127009 -0.25791
000140 28 a4 24 3e db e0 93 be a6 46 bd bd 74 59 46 be
       0.16078246 -0.2888249 -0.09241991 -0.19370061
000150 f0 c7 c6 3e b0 01 fd bc 22 80 cb be fc a2 3d be
       0.38824415 -0.030884594 -0.39746195 -0.18519205
000160 b4 eb b9 be 27 16 ce 3c 20 d6 14 3e 24 6f 16 3e
       -0.3631264 0.025157047 0.14534807 0.14690834
000170 70 ab 83 be 94 fb 1a 3e 28 e8 bc 3d 43 72 15 3f
       -0.25716734 0.15135032 0.09223968 0.58377475
000180 36 7b be bd bc e3 67 be 31 17 9c 3d 79 43 45 be
       -0.09300844 -0.22645468 0.07621611 -0.1926402
000190 25 e6 c3 be 33 d0 33 3d 2e 2a 8c bd ec 6c 89 3c
       -0.38261524 0.043899726 -0.06843983 0.01677557
0001a0 c2 53 39 3d eb 68 ae 3e bf 4c cd be ed da 91 be
       0.045245893 0.3406442 -0.40097615 -0.2848734
0001b0 05 69 11 3e e7 74 9e bc 83 dd 46 bd 9a e2 33 ba
       0.14200218 -0.019342853 -0.048551094 -0.00068620744
0001c0 5d be e8 3c d6 c2 bb be be f4 fa bd f6 4c 5b bd
       0.028411085 -0.36672086 -0.12253712 -0.053540193
0001d0 db 15 b9 3e a5 af 29 be 61 aa ad 3e 72 27 8d be
       0.36149487 -0.1657091 0.3391905 -0.27569157
0001e0 5a 5f 8c be 52 c0 37 be d0 63 3c be 9d 0c 29 bd
       -0.27416497 -0.17944458 -0.1839745 -0.041271795
0001f0 2d 1c 93 be 91 6b 87 3d 53 b7 8d be ec 42 16 bf
       -0.28732434 0.066123135 -0.27678928 -0.58695865
000200 c2 b5 77 bc a1 c1 f3 bd eb 79 4f 3e 19 ff 12 3c
       -0.015119018 -0.11902166 0.20261352 0.008971953
000210 6d 64 ac 3e 46 96 65 3e d0 5e 31 3e b3 c9 c8 3c
       0.3367037 0.22420606 0.17321324 0.02451024
000220 c7 9d e5 3d c6 9e 0e bd 0f 0d 16 3e cc df 4f 3d
       0.11211734 -0.034819387 0.14653419 0.05075054
000230 de ae c0 3d 8c e3 ca 3d d6 b9 29 3d da de 10 3e
       0.09408353 0.09906682 0.041436993 0.14147511
000240 a1 df 3b 3d cf eb 66 be c9 01 d0 3d 6c 10 83 3c
       0.045867566 -0.22550891 0.101565905 0.015999041
000250 f8 9b a6 3c 9c 31 34 be b4 8e 67 3d ce 2c e4 3d
       0.020338044 -0.1759705 0.056532577 0.11141358
000260 a6 c7 9c 3d b5 de 46 be aa 6a 3a bc bd 08 42 be
       0.076552674 -0.19420893 -0.01137797 -0.18948646
000270 f8 d7 83 bd fe 2f 34 be ef ae 39 3e 0e 0b b3 3d
       -0.06437677 -0.17596433 0.18133138 0.08742343
000280 cd 2e 9d bd 14 01 4a bd c5 93 17 be 63 7f d5 3b
       -0.07674942 -0.049317434 -0.14802463 0.00651543
000290 8d 7c c2 bc 05 58 ad be c1 ba dd bd 23 f9 9d bd
       -0.023741031 -0.33856216 -0.10826636 -0.07713535
0002a0 93 cb ad 3d 85 d3 6a 3d 8c 30 ae bd 58 98 70 3e
       0.08486094 0.057330627 -0.08505353 0.23495615
0002b0 fd 52 ca 3d 5f 83 79 3e ce 7b c1 3c 61 ea c4 bc
       0.0987911 0.2436652 0.023618605 -0.024037542
0002c0 7e 07 5f bc e3 be 28 bd fd b5 8c 3d 2b 3b 04 3e
       -0.013612626 -0.04119767 0.06870649 0.12913196
0002d0 15 7c b3 3b a7 52 d0 3d 0d 72 a7 3e 6e 84 07 3c
       0.005477438 0.10172015 0.327042 0.00827132
0002e0 2d b8 08 be c7 40 00 3e 9e 0e 89 3e 97 77 1b 3e
       -0.13351507 0.1252471 0.26768965 0.15182339
0002f0 7e e4 de bd 48 cf dd 3c 10 25 a6 3c 91 f9 ef 3d
       -0.10883425 0.027076378 0.020281345 0.11717523
000300 15 be 90 bc b7 4c 27 3e 84 06 9e 3d 64 17 97 bd
       -0.017668763 0.16337858 0.077160865 -0.07377508
000310 fe 19 85 bd 84 85 3b 3e ab be 50 bd 8b 36 ce bd
       -0.06499098 0.18312651 -0.050963085 -0.10068997
000320 49 45 37 3e 7d 43 1d be 74 8a 09 be bc 1e b2 3e
       0.17897524 -0.15357776 -0.13431722 0.34789073
000330 f6 fc 9a 3d 56 32 34 3e 71 3e 44 3d 30 7c 97 3e
       0.0756778 0.17597327 0.04791111 0.29586935
000340 24 5a 17 be bf ff 96 3e fb 41 90 3e 98 6c 21 3b
       -0.1478048 0.29491994 0.2817534 0.0024631377
000350 e0 f2 11 be 44 65 c9 be 86 93 fa 3e 25 34 f3 3d
       -0.14252806 -0.39335072 0.48940676 0.1187518
000360 a6 0f d3 3b b6 57 72 3e 61 47 fc 3d f1 0e 4d 3e
       0.0064410744 0.23666272 0.12318302 0.20025231
000370 c8 dc 61 bd 09 71 a9 3e 17 a2 db 3d 53 d4 d4 bc
       -0.055142194 0.3309405 0.107242756 -0.02598015
000380 b3 bc 1a 3d 00 32 1f 3e ad 96 93 bd 21 3b 17 3e
       0.037777614 0.15546417 -0.072064735 0.1476865
000390 03 d1 4b 3e 24 ae 61 3d a1 89 d5 3e 9f 7d 82 3d
       0.1990395 0.055097714 0.41706565 0.063716166
0003a0 9d 91 df bd 6e 2e 59 be eb 30 be 3e 87 80 51 3e
       -0.109164454 -0.21209118 0.37146696 0.20459186
0003b0 de 0d c2 be 30 18 14 3e 9f fa bf 3c 0f 0a 25 3f
       -0.37901205 0.14462352 0.023434935 0.64468473
0003c0 d4 b7 83 3d 2b 09 bd 3d 1f d9 5f 3d 8f c8 e5 3d
       0.06431547 0.09230264 0.054650422 0.11219894
0003d0 cb 66 aa bd 39 8c 77 3e 70 8d c2 be 79 44 9a 3e
       -0.083203875 0.24174584 -0.37998533 0.30130365
0003e0 08 44 9d 3e 93 f0 00 3f 88 f2 4c 3e 65 a9 d1 bd
       0.30715966 0.5036709 0.20014393 -0.102373876
0003f0 20 9a ba 3e 9c 0d b8 bd cf b0 61 3e fe ab b4 3e
       0.36445713 -0.08986971 0.22040103 0.3528747

2.bias f4 [64]
000000 14 77 76 be 5d 7d 49 3f de 91 89 3e 2e f0 b9 3e
       -0.24068862 0.78706914 0.268691 0.36316055
000010 29 01 ad 3e eb 3b 15 3f 06 81 e7 bd 3c 0a cc 3e
       0.33789948 0.5829455 -0.11303906 0.39851558
000020 29 4f 57 bd 7f b6 e6 bc 03 ec 1b 3e 22 78 28 3e
       -0.052565727 -0.028163193 0.1522675 0.16452077
000030 71 9e e1 bd ab ce 0b bd 29 21 32 be f8 1e 70 be
       -0.110165484 -0.03413264 -0.17395462 -0.23449314
000040 35 8d 83 3e 58 fc f4 be c4 d3 b4 3e a6 bf 29 3f
       0.2569367 -0.47848773 0.35317814 0.6630806
000050 d0 54 60 3e 4b 4d e7 be 8c 0c 12 3e ba d8 e7 be
       0.21907353 -0.45176157 0.14262599 -0.45282537
000060 d5 fd b6 3e 9a c8 13 bf 04 79 bb bd 0b 07 f9 bd
       0.35740533 -0.5772797 -0.09153941 -0.121595465
000070 da a4 2c 3f bf 7d 5b bf 72 cd 9c 3e d7 79 93 3d
       0.67439044 -0.8573875 0.30625492 0.072009735
000080 23 19 04 3e aa 48 0e bf 11 04 9c 3c 0b 77 e2 be
       0.12900214 -0.55579627 0.019044908 -0.44231448
000090 da 12 2c bf e3 30 16 be d1 05 9c bf ae 65 ec 3e
       -0.67216265 -0.14667086 -1.2189275 0.46171325
0000a0 82 2f 23 be a1 63 8c be 9a 13 c3 3e 67 fc fb 3e
       -0.15936092 -0.2741976 0.38100892 0.49216005
0000b0 a8 8b f1 3e b0 6a 21 3f 4d 06 37 3e c5 86 85 be
       0.47176862 0.6305342 0.17873497 -0.26079383
0000c0 6a 1a e1 3e d1 9f 95 bf 78 57 45 bf 9f 36 41 3f
       0.43965465 -1.1689397 -0.7708659 0.7547397
0000d0 0a 3f 2b 3f 14 c9 a9 3e 52 44 6d 3d 6b 18 51 bf
       0.66893065 0.33161223 0.057926483 -0.81677884
0000e0 06 a5 35 3d f5 1a 25 bf 37 de 42 3f d1 a2 2a bc
       0.04434683 -0.6449426 0.7612032 -0.010414795
0000f0 c0 05 3c bf c6 69 87 3e 8d d3 d2 be da 95 28 3e
       -0.73446274 0.26447886 -0.41177025 0.16463414

4.weight f4 [1, 64]
000000 39 0c 13 3f 94 d0 1b be 82 7a 62 3f 7d 7b 53 3f
       0.57440525 -0.15216285 0.8846818 0.82610303
000010 71 15 4c bf ba db e2 be 62 4b f3 3e 36 06 57 3f
       -0.79720217 -0.44308263 0.4751845 0.8399385
000020 26 03 cd bd a2 ec 21 3f 90 ad 38 bf cf 82 1b bf
       -0.10010366 0.632517 -0.72139835 -0.60746473
000030 2b 7f 3e 3f e9 3e 73 3f 42 61 36 3f 6d 47 3a 3f
       0.7441279 0.9501787 0.71242154 0.7276524
000040 2d 23 6a 3f 5a 48 0e 3f d7 37 f6 be 2d 3b ae bd
       0.91459924 0.5557915 -0.48089477 -0.08507381
000050 0d ee 92 3e a7 18 21 3f 16 9f 63 3f 6e 71 44 3f
       0.28697243 0.6292824 0.8891462 0.7673558
000060 70 53 2a bf 70 25 11 3f 59 1e 6f 3f 6d a4 47 3f
       -0.66533566 0.5669775 0.9340568 0.7798527
000070 7f e8 78 be 58 49 2f 3f a1 1a 6f 3f a3 af 58 3f
       -0.2430744 0.6847129 0.9340001 0.84643
000080 57 49 79 3f 41 70 27 3f 03 be 5f bd 10 5b 1a 3f
       0.9737753 0.6540566 -0.05462457 0.602952
000090 95 b9 0a 3f 72 29 69 3f b5 93 21 3f 61 3f 0f bf
       0.54189426 0.91078866 0.6311601 -0.55956084
0000a0 5f 8e 01 3f 6f 46 2e 3f 21 43 40 bf 67 1d 01 bf
       0.50607866 0.68076223 -0.7510243 -0.5043549
0000b0 79 67 ea be 23 91 da be ed 6f 1f bf fe 78 0d 3f
       -0.45782068 -0.42688856 -0.6228016 0.55262744
0000c0 4a 97 0f bf b6 6a 0a 3f 6a f0 52 3f 93 40 00 be
       -0.56090224 0.5406908 0.8239809 -0.12524633
0000d0 40 d0 fb bc 00 9e d3 be 1f 5e ca bd 94 d8 46 3f
       -0.03073895 -0.41331482 -0.098812334 0.7767422
0000e0 ef d5 83 bd 26 fc fd 3e 01 46 4b be 03 fc 3c 3f
       -0.06437289 0.49606436 -0.19850923 0.7382204
0000f0 97 cf f3 3e cb 4e 46 3f 81 18 3f 3f 02 02 1e 3f
       0.47619316 0.7746398 0.74646765 0.61721814
