mnist_gan/MNIST_GAN_FC/save/D--60.ckpt (torch_old, 436322 bytes, 5 tensors)

0.weight f4 [128, 784]
000000 81 3d 68 ba 15 22 1b bd 75 48 85 3a 3d 29 3b bc
       -0.00088592625 -0.0378743 0.0010168689 -0.011423406
000010 48 27 b2 bc 7b 90 b2 ba e5 2d 07 bd 5c ab 61 bc
       -0.021747246 -0.0013623381 -0.033002753 -0.013773765
000020 9a 5d 46 bc a1 53 0d bd bf 13 bb bc a3 a6 a7 3b
       -0.012107277 -0.034503583 -0.022836564 0.0051163
000030 4b 57 6a bc dd 05 6d 3c 6f fd c5 ba 9f 42 80 3c
       -0.014303039 0.01446673 -0.0015105436 0.015656767
000040 e2 39 ed bc 94 f3 10 37 e0 1c df bc 33 68 b6 bc
       -0.028958265 8.639781e-06 -0.027235448 -0.022266483
000050 03 82 a7 3b 29 78 4c bd 95 c4 0e bc 3b 8b 8d bc
       0.005111934 -0.04991928 -0.008713861 -0.017278304
000060 56 99 33 3b 27 42 cf bc 7e ab 3b bd 69 fa ba 3c
       0.0027404628 -0.025300099 -0.045817845 0.022824483
000070 75 81 0e bd 37 c5 b5 bb 8d 1a 50 3b 98 8b f7 3a
       -0.03479143 -0.0055471915 0.0031754107 0.0018886207
000080 cb 0f 58 bd 76 6a b6 bb 87 94 3e bd 06 60 b0 3b
       -0.052749436 -0.0055668904 -0.046528365 0.0053825406
000090 8c 70 92 bc 31 66 1a bc bb 74 01 bc a9 be 22 bc
       -0.017875932 -0.009423778 -0.007901366 -0.009933152
0000a0 91 cb 25 bd be 34 9a bc 9a 85 ab 3b 9d c1 7b 3c
       -0.04047734 -0.018823978 0.0052344324 0.015365985
0000b0 4a 1e 7b bc 0a 53 2e bc 7e 64 a6 bc 25 e0 0b bd
       -0.015327046 -0.010639915 -0.02031159 -0.034149308
0000c0 70 55 44 bd 05 d1 1d bd 10 c7 4c bc b4 b4 7b 3c
       -0.047933042 -0.038529415 -0.012498632 0.015362907
0000d0 47 23 50 bd 06 06 19 bc 47 d3 16 3c 65 cf 2f 3c
       -0.050814893 -0.009339815 0.009205646 0.010730599
0000e0 42 ea 66 bb cf 97 85 bb bf b4 4b bb 82 b6 26 bd
       -0.0035234843 -0.004076935 -0.0031083075 -0.040701397
0000f0 d6 49 58 bd 3d 8e 0a bd 75 99 0a 3c 9f 40 92 bc
       -0.05280479 -0.033827055 0.008459439 -0.01785308
000100 59 be e0 bc 76 39 d6 bb 1e 05 16 bc 25 28 46 3c
       -0.027434515 -0.0065376116 -0.0091564935 0.012094532
000110 53 1b ce bc c9 a4 1e bd 2d c1 cb bc 20 ff 14 3d
       -0.025159514 -0.03873137 -0.024872387 0.03637612
000120 93 dd 0b 3d 9a 12 a9 bc 71 78 7e 3c 31 88 27 bc
       0.034146857 -0.020638753 0.015531645 -0.010225342
000130 ea ba 35 bd b8 08 3a 3c cc 65 93 3c 3f 8a 2f bd
       -0.04436771 0.011354618 0.017992876 -0.04285645
000140 4c ac a8 ba 0d 1e 26 bd 76 c8 2d bd bc 2c 4c bd
       -0.0012868731 -0.040556002 -0.042427503 -0.04984735
000150 1a ed ed 3b 4f 39 e3 bc 3c 13 19 bd bb 99 ce bc
       0.0072609307 -0.027737288 -0.03737186 -0.025219789
000160 c2 be 7e 3c 61 8b 3c bd ff c0 8c bc 2d 93 f3 bc
       0.01554841 -0.04603136 -0.017181871 -0.029733265
000170 52 16 03 3c d6 ea fd bc 26 bc a9 b9 93 22 30 3d
       0.008000927 -0.030995768 -0.00032374373 0.043001723
000180 b5 e0 77 3b b9 84 5a 3c 65 86 b6 b9 2e 32 a7 3c
       0.0037823145 0.013337308 -0.00034813877 0.02040967
000190 fe a1 f4 bb 74 04 d0 bc 71 6d a0 bc 55 f4 2d 3d
       -0.0074656 -0.025392748 -0.019583436 0.04246934
0001a0 8b 7e 81 3b cf f2 59 bc 28 5e 2d bc 3d 6f 22 bd
       0.0039518527 -0.013302519 -0.010581531 -0.039656866
0001b0 61 bb ef bc 2f f3 0a bd 70 e1 c7 bc cb c0 fb bb
       -0.029264154 -0.033923324 -0.02439949 -0.007682895
0001c0 0d db 22 bd 6d 57 0e bc 8d e6 d3 3b 40 db fa bc
       -0.039759684 -0.008687836 0.006466693 -0.030622125
0001d0 d4 a2 45 bd d2 e8 c2 3c 6e 6c 4c 36 fe 51 12 bc
       -0.048250988 0.023792658 3.0461483e-06 -0.008930681
0001e0 ae c8 eb bc 60 df fb bc 31 45 d8 bc 56 47 ac bc
       -0.028782215 -0.030746162 -0.02640018 -0.02103011
0001f0 8f 19 97 3b e7 24 1e bd ad 03 19 bc 5d 53 66 bd
       0.004611201 -0.03860941 -0.009339255 -0.056231845
000200 77 d1 26 bd f9 53 f5 bc 40 ad 81 bc f1 1a 50 3b
       -0.040727105 -0.029947268 -0.015829682 0.003175434
000210 cd cc ef bc 84 e4 6e bc 06 81 82 3c e9 87 15 bd
       -0.029272461 -0.01458085 0.015930664 -0.036506567
000220 d9 8d b8 bb 9b 39 ef bc 4d 29 08 bd a8 63 1c bb
       -0.005632144 -0.029202273 -0.033242512 -0.002386311
000230 b0 58 98 bc 39 57 0d bd 85 09 66 bd 9b 9d 86 3b
       -0.018596977 -0.03450701 -0.056161422 0.0041081435
000240 d6 75 33 bd 58 28 90 3c 91 ae b1 bb c6 b7 c3 3c
       -0.04381355 0.017597362 -0.0054224213 0.023891341
000250 29 31 f0 3c c7 6c 8e 3c b1 1e 89 3b 88 be 59 bd
       0.029320316 0.017385853 0.004184567 -0.05316022
000260 ed 4e 03 bc 84 e4 1c bd 3c fa 34 bd 42 e3 5b ba
       -0.008014423 -0.038303867 -0.044183955 -0.0008388051
000270 75 d2 94 3a f6 f7 1c 3c 40 2f 4c bd d5 ca da bc
       0.0011354225 0.009580603 -0.04984975 -0.026708046
000280 47 0b 34 bd c6 ee b4 bc d2 41 f7 bb ff 17 0e 3d
       -0.043956067 -0.022086512 -0.007545688 0.034690853
000290 04 10 91 bc 65 50 24 bd 3e 31 39 bc 7f a1 94 3b
       -0.017707832 -0.040115733 -0.011303244 0.0045358534
0002a0 63 83 88 3c 49 8b 1f bc 45 3c 17 bd ee 5e c1 bc
       0.016664213 -0.009737798 -0.036922712 -0.023604836
0002b0 63 86 a2 bc e3 ea 05 3c 64 c2 dc bb f3 02 1a bc
       -0.019839471 0.008173677 -0.0067370404 -0.009400117
0002c0 aa 11 24 bd ca ff 81 bc 75 17 26 bc 83 ba d5 bc
       -0.04005591 -0.01586904 -0.0101374285 -0.026089912
0002d0 c1 2c 6f bd 0c cf 10 3c 06 00 5c bd cd a2 2d bd
       -0.05839229 0.008838426 -0.05371096 -0.042391587
0002e0 ec 8e 96 bd 3c cb 3e 3c 58 54 d8 bc 22 8e ef bc
       -0.07351479 0.011645135 -0.026407406 -0.029242579
0002f0 ca e6 4c bb 08 4e bc 3b 8f 6e a7 bc a2 9c a0 3c
       -0.003126549 0.0057466067 -0.02043846 0.019605938
000300 8a 03 9d bb 93 60 4d bd 59 b5 19 bd 69 6d 05 bd
       -0.0047916817 -0.05014093 -0.037526462 -0.032575045
000310 c4 b0 56 bc a7 c5 88 3c 6a 8d 1f bd 29 2c c5 3c
       -0.013103668 0.01669581 -0.038953222 0.024068909
000320 2b 75 5c bc dc 67 00 bd 55 02 44 bc 17 83 0c bc
       -0.013455669 -0.031349048 -0.011963447 -0.008576176
000330 52 6e 20 bc 35 c5 19 bd bb 95 2b bb 07 be 5d bd
       -0.009791927 -0.037541587 -0.0026181776 -0.054136302
000340 0e 8a 92 3c 7e 60 9a bd 34 a1 96 bd 1b 33 88 bd
       0.017888095 -0.07537936 -0.07354966 -0.066503726
000350 93 33 41 bd ce 0b a6 bc 0c a2 e7 bc 3c c0 ea bc
       -0.047168326 -0.0202693 -0.028275512 -0.028656118
000360 37 c9 dc bc ff 64 c7 bc ca ec 34 3b d1 e4 77 3c
       -0.026951415 -0.02434015 0.0027606958 0.015130238
000370 74 bd 22 3c 97 9d c7 bc be 2b 10 bd 7f 87 dd bc
       0.009932864 -0.024367137 -0.035197966 -0.027042149
000380 75 02 26 bd cf 36 3e bd 37 f0 21 bd 40 7c fc bb
       -0.040529687 -0.04643899 -0.039535727 -0.0077052414
000390 5d 12 ae bc 72 5d e1 bc 09 87 82 3c 7c f7 c9 bc
       -0.02124899 -0.027510379 0.01593353 -0.024654143
0003a0 35 fa 26 bd c6 e2 e2 3c b1 8a aa bc cc db 6f bd
       -0.04076596 0.027696025 -0.020818086 -0.058559224
0003b0 1a bb d2 bc b1 9a 83 bd 5f 92 ac bb 50 b1 57 bd
       -0.025723983 -0.064259894 -0.005266472 -0.052659333
0003c0 8a 17 cf bb d2 a5 90 bd 04 89 5d bc bc c3 f1 3c
       -0.0063199447 -0.07062878 -0.013521437 0.029512279
0003d0 59 9f 07 3d 16 03 36 bd da 1f 03 bc 8d 26 63 bc
       0.03311095 -0.044436537 -0.0080031995 -0.013864172
0003e0 00 43 4e bc 0f 5a c7 bc d8 1b 09 bc 8b 4e 08 bb
       -0.012589216 -0.024334935 -0.008368455 -0.0020798768
0003f0 ba c7 0f bd 7c 3c d6 ba 2e ce 25 bd 4f 4e f8 3c
       -0.035102583 -0.001634493 -0.04047983 0.030310778

0.bias f4 [128]
000000 df 43 90 3c 75 c5 22 be ae be 48 bd 43 2f 0f be
       0.017610488 -0.15895636 -0.04900997 -0.13982873
000010 24 aa 99 be 2c 98 a2 3d 0c 76 52 ba e8 0f f0 3d
       -0.3001262 0.07939181 -0.00080284546 0.11721784
000020 78 6a a0 3e 77 9d 9a be 22 06 59 bc 40 21 50 be
       0.3133123 -0.3019826 -0.013246091 -0.20325184
000030 1f a5 ef bd 78 b5 fd 3e 6b 48 ef bc a3 75 ff bd
       -0.11701416 0.49552512 -0.029209336 -0.12473609
000040 f9 ba 30 bc b8 44 42 3b 7e 0a 84 be 24 a1 03 bd
       -0.010786765 0.002964301 -0.25789255 -0.032136098
000050 6e 61 4f 3e 4d 8b c3 3e 6c 7b 38 3e 50 88 8a b9
       0.2025201 0.38192216 0.18015832 -0.00026422972
000060 cc 54 46 bf b3 92 6c be be 50 33 3f 65 1d e9 be
       -0.7747314 -0.23102836 0.7004508 -0.4553024
000070 72 21 98 be 8b c8 7c 3b 04 bc 91 be de c8 04 bd
       -0.29713017 0.0038571681 -0.28463757 -0.032418124
000080 7e 73 c3 be 16 4e c1 bd fe 85 4d be 9d 3f 0c bf
       -0.3817405 -0.09438722 -0.20070645 -0.54784566
000090 8b d2 81 3d db 7f ca 3d 36 ec 2a be d7 2d 4e 3e
       0.06338986 0.09887668 -0.1669167 0.20134674
0000a0 19 c3 0e 3f ce 89 33 3f 2c 75 c4 3e 2b 3d ce 3d
       0.55766445 0.7013215 0.38370645 0.100702606
0000b0 7e c9 83 3d 16 e5 a1 3d fe 80 50 3e 59 6e 81 3f
       0.06434916 0.07905023 0.20361707 1.01118
0000c0 dc 4d cc 3d 9c ea 7b 3d 6a f0 ab 3d 65 10 4d bd
       0.09975788 0.061503038 0.08395465 -0.050064463
0000d0 0e 4b 13 3e cb e7 f9 3e 25 5b 15 be d2 4f b3 be
       0.143841 0.48809657 -0.1458555 -0.35021836
0000e0 72 c6 23 bd a5 a6 a2 3d 61 6d 2a 3e b9 2c e7 be
       -0.039984174 0.07941941 0.16643287 -0.45151308
0000f0 b3 59 19 3e 03 e5 b4 3d e9 86 5a 3f b3 8f 1d be
       0.14975624 0.08832743 0.85362107 -0.15386848
000100 f3 13 74 bc 7b a7 2c bd a5 36 17 bd 6c 23 04 be
       -0.014897334 -0.04215191 -0.036917347 -0.12904137
000110 49 86 3e 3e 55 6c 26 bd 3d 6b 2f 3d e3 28 81 be
       0.18605913 -0.040630657 0.04282688 -0.25226507
000120 a2 45 65 bd 49 a6 ec 3d b7 aa 5c 3e a1 70 de bc
       -0.05597461 0.11555154 0.21549498 -0.027153315
000130 e7 07 49 bf 0b fb bd 3c 69 0b 0b be e4 14 32 be
       -0.78527683 0.023190996 -0.13578571 -0.17390782
000140 b5 89 5d be 3a 0a 8a 3e b9 32 1f be 34 2e 21 3f
       -0.21634562 0.26960927 -0.15546693 0.62961125
000150 05 d3 5f be a0 33 e1 bd fa db ac 3e d4 e7 5b 3e
       -0.21857841 -0.10996175 0.3376158 0.21475154
000160 d1 3c a8 3d 4f c3 fe be e7 05 80 bd e4 e6 0d bf
       0.08214725 -0.49758384 -0.06251126 -0.55430436
000170 9b d6 3f 3e c8 83 d7 3c 0f 7f c2 be fc 3a 2c 3e
       0.18734209 0.026307955 -0.37987563 0.16819376
000180 46 69 8d 3e b3 92 90 be 50 a3 3b bf 89 03 df 3e
       0.2761938 -0.28236923 -0.7329607 0.43557385
000190 9c e0 98 bd 61 9b 2c 3e 7d c4 e4 bd fd dc ff 3e
       -0.07464716 0.16856147 -0.1117029 0.49973288
0001a0 e3 2d 6b bd ae d7 0a be d1 76 77 3e dd 3e c7 3c
       -0.057416808 -0.13558838 0.24166419 0.024321968
0001b0 a7 e4 3c 3e d5 b4 5a bd a1 e2 2e bd 75 9d 75 3e
       0.18446599 -0.05339511 -0.0426966 0.23985846
0001c0 16 42 c1 3e 49 95 9b b8 c0 82 a1 3e 1e ab 51 3e
       0.37745732 -7.4187825e-05 0.31545067 0.20475432
0001d0 2d c8 86 be f5 cd 06 bd 5b 0f 03 be 3f 5f ba 3d
       -0.26324597 -0.03291126 -0.12798826 0.09100198
0001e0 93 e7 49 3e 2a 64 f0 3d 8c 24 a1 3e 90 9d b4 bd
       0.19717245 0.11737855 0.31473196 -0.08819115
0001f0 99 59 b1 3d 62 f1 d7 be 92 38 af bc 6d c5 00 be
       0.086596675 -0.42176348 -0.02138928 -0.12575312

2.weight f4 [64, 128]
000000 b8 60 f1 3d 0d 14 38 3c d2 d8 95 be 14 62 a4 3c
       0.11786026 0.011235249 -0.29266983 0.020066299
000010 74 42 e0 be 27 eb ea 3a f4 eb 03 be 08 d7 2b bf
       -0.438007 0.0017922864 -0.12882978 -0.67124987
000020 03 6b f4 bd 74 a9 bd 3e a7 76 a5 be fd 88 04 3e
       -0.11934473 0.37043345 -0.32317087 0.12942882
000030 22 95 0c be d7 bc 06 bf 39 6c da bc 6b 6e 5d be
       -0.13728765 -0.52631897 -0.026662933 -0.21624152
000040 9c 47 bf be 93 89 9b 3c 62 9e 49 bc db a7 6b 3e
       -0.3735932 0.018986499 -0.012305828 0.2301325
000050 11 1f 4a be a7 a4 c0 3d cf 4b ac be 9d 7a 54 be
       -0.19738413 0.09406405 -0.33651587 -0.20749898
000060 2b e0 f3 3d d9 b3 c5 3d 86 79 17 be b6 ce 54 3e
       0.11907991 0.09653444 -0.14792451 0.20781979
000070 9e e2 78 3e 7b c0 fe bd 42 9b e8 bc bd 02 d1 bc
       0.24305198 -0.124390565 -0.028394345 -0.025514001
000080 b4 ae 88 3e 92 ad 08 be 29 3a be bd cc c8 fe 3d
       0.26695788 -0.13347462 -0.09288437 0.12440643
000090 13 ce 3a 3d 4c d9 ec 3d 9b e5 44 3e f4 b4 0a 3f
       0.045606684 0.115648836 0.19228213 0.5418236
0000a0 bd 1f 0d bf ef 27 8b 3d 2c 53 02 bd 86 4d 87 be
       -0.55126554 0.06794726 -0.0318176 -0.26426333
0000b0 fc 52 c3 be d4 dd fb 3d 6f 85 b1 be f0 ad 25 bd
       -0.3814925 0.1229817 -0.34672114 -0.040449083
0000c0 f6 c1 a1 be 6e ee 5f bc ea e7 ab bd 7a 3d 45 3e
       -0.31593293 -0.013667686 -0.083938435 0.19261733
0000d0 e5 3b 22 be c8 7b 2b 3e a4 ec b1 be 98 ff 4b 3e
       -0.1584316 0.16746438 -0.34750855 0.1992172
0000e0 f6 f1 38 3f fa ae 20 3e bd 2c 17 be 1b d7 66 bd
       0.72244203 0.15691748 -0.1476316 -0.056357484
0000f0 4b 6c 22 3e 75 fd 1a bf ff c2 ea 3d 29 69 68 3c
       0.15861623 -0.60542995 0.11462974 0.014185228
000100 b1 3d c7 3e 1d d3 65 be 15 22 e9 be c2 b6 ad 3d
       0.38914254 -0.22443815 -0.45533815 0.08482124
000110 74 71 a0 3c 76 5f 31 be 0a 21 94 be 91 c3 ae be
       0.019585349 -0.17321572 -0.28931457 -0.3413358
000120 05 17 94 be 62 d5 30 be 04 5d b7 3d cd a9 dd be
       -0.28923813 -0.17268899 0.08953288 -0.4329361
000130 e8 26 df 3e 24 8a 48 3d 36 a2 95 bd 41 fd 97 be
       0.4358437 0.048959866 -0.0730633 -0.29685405
000140 9d 00 82 3e d1 86 b4 be 1e 59 53 bd 30 b7 e6 bd
       0.25391093 -0.35259107 -0.05159866 -0.11265409
000150 6d 47 ba 3e 39 41 e6 3d 9a 23 af be e0 64 20 be
       0.3638262 0.11242909 -0.3420685 -0.15663481
000160 ac e1 a7 be df 2f 6a bc 2c cb 44 3e eb f4 39 3e
       -0.3278936 -0.01429364 0.19218129 0.18159835
000170 c7 ec 6a be 10 e9 62 3e 21 7c ba 3d a6 bb e4 3e
       -0.22941886 0.22159219 0.09105707 0.44674414
000180 e3 e5 2e bd fb ac d2 be 35 aa 0e bd cb 2f 3f be
       -0.042699706 -0.411476 -0.03483029 -0.18670575
000190 b7 5d d0 be 1a 11 03 3e 97 ee e4 3c 6e 31 b4 3c
       -0.406965 0.12799492 0.0279458 0.021996226
0001a0 37 a2 fc 3c b1 35 cd 3e 21 73 d5 be 06 bc 43 be
       0.030839069 0.40080026 -0.416894 -0.19114694
0001b0 be 86 aa 39 83 ed 0c be 83 dd 46 bd f3 85 c4 bd
       0.00032525318 -0.13762479 -0.048551094 -0.09595861
0001c0 25 d7 ba bd 30 f3 be be 54 6b 37 be 25 09 08 be
       -0.09123067 -0.37294912 -0.17912036 -0.13284738
0001d0 be 74 c6 3e 17 d4 6c bd 46 57 c4 3e 29 c8 2d be
       0.38760942 -0.057819452 0.38347834 -0.16970886
0001e0 6c 3c 66 be 1e 15 8f 3c b8 d7 bd be 35 83 9c 39
       -0.22483987 0.017466124 -0.37078643 0.00029852396
0001f0 1f 21 45 be c2 24 ac 3d fe 13 db be 0e e7 14 bf
       -0.19250916 0.084054485 -0.4278869 -0.5816506
000200 c2 b5 77 bc 80 61 db bd f0 af 48 3e 40 35 fb 3c
       -0.015119018 -0.10711956 0.19598365 0.03066504
000210 18 48 b0 3e 98 cf 81 3e 44 8f 5d 3e 85 d4 90 bb
       0.34430003 0.25353694 0.21636683 -0.0044198656
000220 1c ad 0c 3e 10 9d 6a bc ad 4c 2e 3e 41 38 c7 3d
       0.13737911 -0.014319673 0.17021437 0.097275265
000230 33 52 be 3d 3e 5d 97 3d d6 b9 29 3d b8 37 14 3e
       0.09293022 0.073908314 0.041436993 0.1447438
000240 54 8d 89 3d 97 ba 65 be 17 ab cc 3d 13 85 52 3d
       0.06716409 -0.2243446 0.0999357 0.05139644
000250 13 64 41 3d 11 a6 4d be 67 7e 96 3d dd 2d 1a 3e
       0.04721458 -0.2008288 0.07348328 0.15056558
000260 b6 51 81 3d 01 14 37 be ba 81 e6 bb 91 b3 4a be
       0.06314413 -0.17878725 -0.0070345076 -0.19795062
000270 b6 96 7b bd d8 a0 5f be d9 41 3b 3e 84 1d 16 3e
       -0.061423026 -0.21838701 0.18286838 0.14659697
000280 65 23 fd ba 64 1c 3b bc 0b 98 b5 bd 26 74 02 3d
       -0.0019312917 -0.011420343 -0.088668905 0.03184905
000290 8d 7c c2 bc 60 bb 7d be 46 d7 97 bd a4 d2 9a bd
       -0.023741031 -0.24778509 -0.07414107 -0.07559708
0002a0 02 f7 d9 3d 7b 79 3b 3d 33 9f b5 bd 2b fc 5e 3e
       0.10642816 0.04577015 -0.088682555 0.21775882
0002b0 7a ca 37 3d a6 69 78 3e a8 8d 84 3d 3e 25 8e bd
       0.04487083 0.24259052 0.06472331 -0.06940697
0002c0 07 66 70 3c e3 be 28 bd 82 dd a1 3d b0 e8 01 3e
       0.014672763 -0.04119767 0.079035774 0.1268642
0002d0 9b a0 b5 3c 07 81 ec 3d b8 65 aa 3e a1 cd 5b 3c
       0.02217131 0.115480475 0.3328073 0.013415725
0002e0 fb c7 27 3c 66 a4 0d 3e df fa 7a 3e b1 fc 2e 3e
       0.01024055 0.13832244 0.24509762 0.17088582
0002f0 2d 21 ae bd dc 04 af 3b 14 0e 9e 3d 7f 86 0c 3e
       -0.085024215 0.0053411555 0.07717529 0.13723181
000300 15 3a da 3c 7b 99 2f 3e 3b 0f 88 3d 7f a1 b0 bd
       0.026639024 0.17148392 0.0664353 -0.08624553
000310 ab c4 dc bc cf f3 32 3e 17 f2 56 bd 99 c8 d2 bd
       -0.026949247 0.17475818 -0.05247697 -0.10292167
000320 6f 8a 1e 3e f0 04 12 be e2 4b 98 bd 75 29 b5 3e
       0.15482496 -0.14259696 -0.074363485 0.35383192
000330 aa 7f db 3d 2e 5c 34 3e 14 2e f4 3c 5c 39 a8 3e
       0.10717709 0.17613289 0.029807128 0.32856262
000340 34 bb 01 be d2 35 9a 3e 8f ef b4 3e 13 84 02 bd
       -0.12669069 0.30119187 0.3533902 -0.031864237
000350 da 95 d6 bd 0c fd c8 be 1f d6 1d 3f 51 0d fe 3d
       -0.10477801 -0.3925556 0.6165485 0.12404884
000360 13 97 74 bc 29 7d 81 3e 22 22 0f 3e 7e 9a 5b 3e
       -0.014928597 0.25290802 0.13977864 0.21445653
000370 df 12 da bc 04 30 ac 3e d3 72 df 3d 03 9a 15 ba
       -0.026620327 0.33630383 0.10910573 -0.00057068485
000380 04 9b 8c 3c 9a de d7 3d 10 0f d8 bd 1c 3c 04 3e
       0.017163761 0.10540505 -0.10549748 0.12913555
000390 c4 93 70 3e 7b 42 9f 3d 34 9b f8 3e 23 9d 06 3d
       0.23493868 0.07776352 0.4855591 0.0328647
0003a0 90 11 95 bd e9 21 53 be 49 22 bd 3e cd 06 51 3e
       -0.072787404 -0.20618404 0.3694022 0.2041275
0003b0 c2 a4 ac be 44 9f 18 3e 9f fa bf 3c 37 d4 68 3f
       -0.3371945 0.14904505 0.023434935 0.90948814
0003c0 e1 a0 a2 3d 1d c7 dc 3d 57 22 3d 3d d9 6c ae 3d
       0.079408415 0.10780165 0.046175327 0.08516855
0003d0 e1 c4 ef bc 97 48 5e 3e e2 56 95 be 85 c0 a1 3e
       -0.029268684 0.21707378 -0.2916785 0.31592193
0003e0 eb cf ab 3e e0 0c fb 3e d8 0d 3c 3e ec 7e e4 bd
       0.33557066 0.4903326 0.18364656 -0.11157021
0003f0 3e fe c2 3e 4a c5 b7 bd f4 a9 7e 3e 95 73 b0 3e
       0.38084596 -0.08973177 0.2486952 0.34463182

2.bias f4 [64]
000000 35 3c a5 be c3 2d 65 3f 98 5c a2 3e 13 97 c8 3e
       -0.32272497 0.8952295 0.31711268 0.3917776
000010 61 99 b3 3e 83 68 2f 3f 40 0c 30 be aa b5 c3 3e
       0.35077956 0.6851885 -0.17192173 0.38224536
000020 29 4f 57 bd 13 8e 62 bd 84 69 25 3e 37 f3 2e 3e
       -0.052565727 -0.055311274 0.16153532 0.17084967
000030 3e dc 21 be 79 6b 7d bd 39 7d 31 be f4 d9 5c be
       -0.15806672 -0.061870072 -0.17332925 -0.21567518
000040 2d 42 8a 3e 95 4b f6 be bd 1b c7 3e 38 21 44 3f
       0.27003613 -0.4810454 0.3888835 0.7661319
000050 4f 65 05 3e 8d 5b fa be 1d 09 32 3e ce 90 ef be
       0.13026927 -0.48897973 0.17386289 -0.46790165
000060 5a 79 ce 3e 68 7d 1f bf c8 fb 15 be 72 66 d7 bd
       0.4032696 -0.6230073 -0.14646828 -0.10517587
000070 0f 52 46 3f d6 ec 70 bf 0b 3a a2 3e 6d 11 7c 3d
       0.7746896 -0.9411138 0.31684908 0.061540056
000080 f9 e2 17 3e 7c a5 17 bf 11 04 9c 3c 14 ad dd be
       0.14832677 -0.59236884 0.019044908 -0.4329611
000090 77 98 40 bf f0 a4 49 be ba a7 a4 bf 19 4d 03 3f
       -0.7523264 -0.19691825 -1.2863686 0.51289517
0000a0 0a 41 0a be ce 76 8d be e8 0a f0 3e d2 2c 09 3f
       -0.13501373 -0.27629703 0.4688332 0.53584015
0000b0 a1 e5 04 3f 48 cf 3d 3f 79 a2 40 3e b1 21 9a be
       0.51912886 0.7414441 0.18811978 -0.3010383
0000c0 e2 bd f8 3e db ea a5 bf 31 cc 39 bf 5e 6a 5c 3f
       0.4858237 -1.2962297 -0.72577196 0.86099803
0000d0 7f 4d 40 3f 77 1c b2 3e 52 44 6d 3d 4e 6b 4d bf
       0.7511825 0.34787342 0.057926483 -0.8024186
0000e0 06 a5 35 3d 2c d0 39 bf 5e 6d 5b 3f aa f7 2f bb
       0.04434683 -0.7258327 0.85713756 -0.00268505
0000f0 5d 4b 42 bf 74 4a 77 3e 76 30 d6 be 90 fa fc 3d
       -0.75896245 0.24149495 -0.41833848 0.123524785

4.weight f4 [1, 64]
000000 98 43 22 3f 29 7b 1f be 30 5f 61 3f 34 a3 57 3f
       0.6338439 -0.15574326 0.8803587 0.84233403
000010 f7 54 61 bf 02 eb f9 be 5a 47 e6 3e 92 9c 4b 3f
       -0.8802027 -0.4881211 0.44976312 0.7953578
000020 26 03 cd bd 3a 37 42 3f 04 9c 21 bf af 5c 17 bf
       -0.10010366 0.7586552 -0.63128686 -0.591258
000030 f5 b3 4e 3f 1a ce 6e 3f db a5 2f 3f 7a fb 2e 3f
       0.8074334 0.93283236 0.6861245 0.6835247
000040 cc c1 5e 3f 15 07 22 3f c5 cc 03 bf 41 ec a5 bd
       0.8701446 0.63292056 -0.5148433 -0.081017025
000050 bc 5a be 3e 53 7a 1f 3f 7c d4 54 3f a6 95 34 3f
       0.371786 0.62296027 0.83136725 0.70540845
000060 2d e7 39 bf 75 8e 19 3f d5 39 66 3f 60 88 38 3f
       -0.7261837 0.59983 0.89931995 0.7208309
000070 ca 60 a3 be c9 0c 3b 3f 20 84 81 3f 74 cc 57 3f
       -0.31909782 0.73066384 1.0118446 0.84296346
000080 a7 ff 75 3f 13 34 37 3f 03 be 5f bd 26 f1 21 3f
       0.9609322 0.71563834 -0.05462457 0.6325859
000090 f6 41 12 3f 4a 40 5b 3f f1 48 12 3f b4 dc 09 bf
       0.571319 0.8564497 0.5714255 -0.5385239
0000a0 73 e4 dd 3e 71 de 3d 3f 7e 4f 5c bf 98 cd 0d bf
       0.43338355 0.74167544 -0.86058795 -0.55391836
0000b0 c1 1e dc be 08 7c cf be cd 63 21 bf 24 c1 1d 3f
       -0.42992213 -0.40524316 -0.6304291 0.61622834
0000c0 90 e5 0b bf 7a e2 06 3f 4d 0d 4c 3f f5 a2 f9 bd
       -0.5464716 0.52689326 0.79707795 -0.12189285
0000d0 a0 b5 a5 bc 45 67 ff be 1f 5e ca bd 1a cd 3b 3f
       -0.020228207 -0.49883476 -0.098812334 0.73359835
0000e0 ef d5 83 bd 88 1b ec 3e a4 35 5f be 0d 76 33 3f
       -0.06437289 0.46114755 -0.21797806 0.70102006
0000f0 97 c2 f4 3e 54 2d 3f 3f 24 65 40 3f 6a 6d 1d 3f
       0.4780471 0.7467854 0.7515433 0.6149508
