mnist_gan/MNIST_GAN_FC/save/D--70.ckpt (torch_old, 436322 bytes, 5 tensors)

0.weight f4 [128, 784]
-0.00088592625 -0.0378743 0.0010168689 -0.011423406 -0.021747246 -0.0013623381 -0.033002753 -0.013773765
-0.012107277 -0.034503583 -0.022836564 0.0051163 -0.014303039 0.01446673 -0.0015105436 0.015656767
-0.028958265 8.639781e-06 -0.027235448 -0.022266483 0.005111934 -0.04991928 -0.008713861 -0.017278304
0.0027404628 -0.025300099 -0.045817845 0.022824483 -0.03479143 -0.0055471915 0.0031754107 0.0018886207
-0.052749436 -0.0055668904 -0.046528365 0.0053825406 -0.017875932 -0.009423778 -0.007901366 -0.009933152
-0.04047734 -0.018823978 0.0052344324 0.015365985 -0.015327046 -0.010639915 -0.02031159 -0.034149308
-0.047933042 -0.038529415 -0.012498632 0.015362907 -0.050814893 -0.009339815 0.009205646 0.010730599
-0.0035234843 -0.004076935 -0.0031083075 -0.040701397 -0.05280479 -0.033827055 0.008459439 -0.01785308
-0.027434515 -0.0065376116 -0.0091564935 0.012094532 -0.025159514 -0.03873137 -0.024872387 0.03637612
0.034146857 -0.020638753 0.015531645 -0.010225342 -0.04436771 0.011354618 0.017992876 -0.04285645
-0.0012868731 -0.040556002 -0.042427503 -0.04984735 0.0072609307 -0.027737288 -0.03737186 -0.025219789
0.01554841 -0.04603136 -0.017181871 -0.029733265 0.008000927 -0.030995768 -0.00032374373 0.043001723
0.0037823145 0.013337308 -0.00034813877 0.02040967 -0.0074656 -0.025392748 -0.019583436 0.04246934
0.0039518527 -0.013302519 -0.010581531 -0.039656866 -0.029264154 -0.033923324 -0.02439949 -0.007682895
-0.039759684 -0.008687836 0.006466693 -0.030622125 -0.048250988 0.023792658 3.0461483e-06 -0.008930681
-0.028782215 -0.030746162 -0.02640018 -0.02103011 0.004611201 -0.03860941 -0.009339255 -0.056231845
-0.040727105 -0.029947268 -0.015829682 0.003175434 -0.029272461 -0.01458085 0.015930664 -0.036506567
-0.005632144 -0.029202273 -0.033242512 -0.002386311 -0.018596977 -0.03450701 -0.056161422 0.0041081435
-0.04381355 0.017597362 -0.0054224213 0.023891341 0.029320316 0.017385853 0.004184567 -0.05316022
-0.008014423 -0.038303867 -0.044183955 -0.0008388051 0.0011354225 0.009580603 -0.04984975 -0.026708046
-0.043956067 -0.022086512 -0.007545688 0.034690853 -0.017707832 -0.040115733 -0.011303244 0.0045358534
0.016664213 -0.009737798 -0.036922712 -0.023604836 -0.019839471 0.008173677 -0.0067370404 -0.009400117
-0.04005591 -0.01586904 -0.0101374285 -0.026089912 -0.05839229 0.008838426 -0.05371096 -0.042391587
-0.07351479 0.011645135 -0.026407406 -0.029242579 -0.003126549 0.0057466067 -0.02043846 0.019605938
-0.0047916817 -0.05014093 -0.037526462 -0.032575045 -0.013103668 0.01669581 -0.038953222 0.024068909
-0.013455669 -0.031349048 -0.011963447 -0.008576176 -0.009791927 -0.037541587 -0.0026181776 -0.054136302
0.017888095 -0.07537936 -0.07354966 -0.066503726 -0.047168326 -0.0202693 -0.028275512 -0.028656118
-0.026951415 -0.02434015 0.0027606958 0.015130238 0.009932864 -0.024367137 -0.035197966 -0.027042149
-0.040529687 -0.04643899 -0.039535727 -0.0077052414 -0.02124899 -0.027510379 0.01593353 -0.024654143
-0.04076596 0.027696025 -0.020818086 -0.058559224 -0.025723983 -0.064259894 -0.005266472 -0.052659333
-0.0063199447 -0.07062878 -0.013521437 0.029512279 0.03311095 -0.044436537 -0.0080031995 -0.013864172
-0.012589216 -0.024334935 -0.008368455 -0.0020798768 -0.035102583 -0.001634493 -0.04047983 0.030310778
00000000: 813d 68ba 1522 1bbd 7548 853a 3d29 3bbc
00000010: 4827 b2bc 7b90 b2ba e52d 07bd 5cab 61bc
00000020: 9a5d 46bc a153 0dbd bf13 bbbc a3a6 a73b
00000030: 4b57 6abc dd05 6d3c 6ffd c5ba 9f42 803c
00000040: e239 edbc 94f3 1037 e01c dfbc 3368 b6bc
00000050: 0382 a73b 2978 4cbd 95c4 0ebc 3b8b 8dbc
00000060: 5699 333b 2742 cfbc 7eab 3bbd 69fa ba3c
00000070: 7581 0ebd 37c5 b5bb 8d1a 503b 988b f73a
00000080: cb0f 58bd 766a b6bb 8794 3ebd 0660 b03b
00000090: 8c70 92bc 3166 1abc bb74 01bc a9be 22bc
000000a0: 91cb 25bd be34 9abc 9a85 ab3b 9dc1 7b3c
000000b0: 4a1e 7bbc 0a53 2ebc 7e64 a6bc 25e0 0bbd
000000c0: 7055 44bd 05d1 1dbd 10c7 4cbc b4b4 7b3c
000000d0: 4723 50bd 0606 19bc 47d3 163c 65cf 2f3c
000000e0: 42ea 66bb cf97 85bb bfb4 4bbb 82b6 26bd
000000f0: d649 58bd 3d8e 0abd 7599 0a3c 9f40 92bc
00000100: 59be e0bc 7639 d6bb 1e05 16bc 2528 463c
00000110: 531b cebc c9a4 1ebd 2dc1 cbbc 20ff 143d
00000120: 93dd 0b3d 9a12 a9bc 7178 7e3c 3188 27bc
00000130: eaba 35bd b808 3a3c cc65 933c 3f8a 2fbd
00000140: 4cac a8ba 0d1e 26bd 76c8 2dbd bc2c 4cbd
00000150: 1aed ed3b 4f39 e3bc 3c13 19bd bb99 cebc
00000160: c2be 7e3c 618b 3cbd ffc0 8cbc 2d93 f3bc
00000170: 5216 033c d6ea fdbc 26bc a9b9 9322 303d
00000180: b5e0 773b b984 5a3c 6586 b6b9 2e32 a73c
00000190: fea1 f4bb 7404 d0bc 716d a0bc 55f4 2d3d
000001a0: 8b7e 813b cff2 59bc 285e 2dbc 3d6f 22bd
000001b0: 61bb efbc 2ff3 0abd 70e1 c7bc cbc0 fbbb
000001c0: 0ddb 22bd 6d57 0ebc 8de6 d33b 40db fabc
000001d0: d4a2 45bd d2e8 c23c 6e6c 4c36 fe51 12bc
000001e0: aec8 ebbc 60df fbbc 3145 d8bc 5647 acbc
000001f0: 8f19 973b e724 1ebd ad03 19bc 5d53 66bd
00000200: 77d1 26bd f953 f5bc 40ad 81bc f11a 503b
00000210: cdcc efbc 84e4 6ebc 0681 823c e987 15bd
00000220: d98d b8bb 9b39 efbc 4d29 08bd a863 1cbb
00000230: b058 98bc 3957 0dbd 8509 66bd 9b9d 863b
00000240: d675 33bd 5828 903c 91ae b1bb c6b7 c33c
00000250: 2931 f03c c76c 8e3c b11e 893b 88be 59bd
00000260: ed4e 03bc 84e4 1cbd 3cfa 34bd 42e3 5bba
00000270: 75d2 943a f6f7 1c3c 402f 4cbd d5ca dabc
00000280: 470b 34bd c6ee b4bc d241 f7bb ff17 0e3d
00000290: 0410 91bc 6550 24bd 3e31 39bc 7fa1 943b
000002a0: 6383 883c 498b 1fbc 453c 17bd ee5e c1bc
000002b0: 6386 a2bc e3ea 053c 64c2 dcbb f302 1abc
000002c0: aa11 24bd caff 81bc 7517 26bc 83ba d5bc
000002d0: c12c 6fbd 0ccf 103c 0600 5cbd cda2 2dbd
000002e0: ec8e 96bd 3ccb 3e3c 5854 d8bc 228e efbc
000002f0: cae6 4cbb 084e bc3b 8f6e a7bc a29c a03c
00000300: 8a03 9dbb 9360 4dbd 59b5 19bd 696d 05bd
00000310: c4b0 56bc a7c5 883c 6a8d 1fbd 292c c53c
00000320: 2b75 5cbc dc67 00bd 5502 44bc 1783 0cbc
00000330: 526e 20bc 35c5 19bd bb95 2bbb 07be 5dbd
00000340: 0e8a 923c 7e60 9abd 34a1 96bd 1b33 88bd
00000350: 9333 41bd ce0b a6bc 0ca2 e7bc 3cc0 eabc
00000360: 37c9 dcbc ff64 c7bc caec 343b d1e4 773c
00000370: 74bd 223c 979d c7bc be2b 10bd 7f87 ddbc
00000380: 7502 26bd cf36 3ebd 37f0 21bd 407c fcbb
00000390: 5d12 aebc 725d e1bc 0987 823c 7cf7 c9bc
000003a0: 35fa 26bd c6e2 e23c b18a aabc ccdb 6fbd
000003b0: 1abb d2bc b19a 83bd 5f92 acbb 50b1 57bd
000003c0: 8a17 cfbb d2a5 90bd 0489 5dbc bcc3 f13c
000003d0: 599f 073d 1603 36bd da1f 03bc 8d26 63bc
000003e0: 0043 4ebc 0f5a c7bc d81b 09bc 8b4e 08bb
000003f0: bac7 0fbd 7c3c d6ba 2ece 25bd 4f4e f83c

0.bias f4 [128]
0.017610488 -0.1527759 -0.082564496 -0.1734557 -0.31080353 0.079016335 -0.046007663 0.11016116
0.3391204 -0.28592265 -0.055312607 -0.22351603 -0.1515696 0.4896791 -0.029209336 -0.11251064
-0.044615854 -0.0154580055 -0.24940608 -0.0071056834 0.20784776 0.42808387 0.1553071 0.011569186
-0.85117143 -0.24009755 0.7325369 -0.43623984 -0.30978948 -0.029307626 -0.32097715 -0.04711737
-0.3792878 -0.14826192 -0.21254025 -0.542515 0.06338986 0.11706499 -0.23418881 0.2355456
0.5827388 0.7301055 0.3959837 0.06768878 0.010066422 0.056160077 0.19458814 1.0717113
0.0640646 0.061503038 0.08651249 -0.013440577 0.14223802 0.53581905 -0.19588123 -0.41914085
-0.056226544 0.064829774 0.12891181 -0.4801351 0.1668917 0.046495922 0.9251052 -0.1541363
-0.047678303 -0.017884329 -0.06646362 -0.17192307 0.1458307 -0.018651405 0.054377515 -0.22852595
-0.07829789 0.1269077 0.21033683 -0.027706066 -0.80353534 0.06797767 -0.17634733 -0.17534213
-0.22471015 0.3039629 -0.17649806 0.67910874 -0.27746627 -0.10523957 0.3457615 0.22195871
0.09889068 -0.5150721 -0.08457876 -0.5430174 0.25351605 0.07987042 -0.40332994 0.23591314
0.24003722 -0.34523416 -0.7569437 0.455954 -0.077647224 0.18668453 -0.12719293 0.46893156
-0.07499075 -0.11224682 0.24109685 -0.011014591 0.16812044 -0.015281458 -0.0426966 0.2197273
0.31593576 0.014583377 0.33238894 0.2129591 -0.22831129 -0.0503278 -0.15773635 0.090704314
0.17858273 0.1490433 0.34575322 -0.12542295 0.072676875 -0.4794168 -0.0477988 -0.16950284
00000000: df43 903c 4971 1cbe 9317 a9bd 5f9e 31be
00000010: a421 9fbe 51d3 a13d 8872 3cbd 2d9c e13d
00000020: 30a1 ad3e 7464 92be 798f 62bd 63e1 64be
00000030: 1035 1bbe 38b7 fa3e 6b48 efbc fa6b e6bd
00000040: 1dbf 36bd 9343 7dbc 4f64 7fbe cbd6 e8bb
00000050: 0bd6 543e cf2d db3e d308 1f3e af8c 3d3c
00000060: 5fe6 59bf 22dc 75be 8a87 3b3f d45a dfbe
00000070: ba9c 9ebe 8c16 f0bc 1e57 a4be 25fe 40bd
00000080: 0332 c2be f9d1 17be 27a4 59be 43e2 0abf
00000090: 8bd2 813d c5bf ef3d 31cf 6fbe de32 713e
000000a0: 5f2e 153f 32e8 3a3f 60be ca3e 6aa0 8a3d
000000b0: a2ed 243c 1c08 663d 1d42 473e d62d 893f
000000c0: 4d34 833d 9cea 7b3d 762d b13d de35 5cbc
000000d0: d8a6 113e 702b 093f 1795 48be a199 d6be
000000e0: ce4d 66bd 79c5 843d 7501 043e 45d4 f5be
000000f0: a8e5 2a3e 8272 3e3d b2d3 6c3f e8d5 1dbe
00000100: 534a 43bd 2882 92bc 141e 88bd 9a0c 30be
00000110: a554 153e d5ca 98bc f5ba 5e3d b502 6abe
00000120: a55a a0bd 18f4 013e 8a62 573e d5f7 e2bc
00000130: 7eb4 4dbf e037 8b3d 6594 34be e38c 33be
00000140: 6b1a 66be 06a1 9b3e e8bb 34be 12da 2d3f
00000150: 0f10 8ebe d887 d7bd a707 b13e 2549 633e
00000160: 3287 ca3d c4db 03bf a137 adbd 3003 0bbf
00000170: dbcc 813e 1a93 a33d 4381 cebe 3793 713e
00000180: 51cc 753e 88c2 b0be 10c7 41bf cd72 e93e
00000190: 8205 9fbd 3b2a 3f3e dd3e 02be cc17 f03e
000001a0: c094 99bd a9e1 e5bd 18e2 763e 8b76 34bc
000001b0: c427 2c3e 155f 7abc a1e2 2ebd 3100 613e
000001c0: 55c2 a13e 1eef 6e3c e22e aa3e f311 5a3e
000001d0: 6fca 69be 8624 4ebd a385 21be 2fc3 b93d
000001e0: 64de 363e cf9e 183e 9106 b13e e06e 00be
000001f0: 9dd7 943d 1e76 f5be adc8 43bd 2792 2dbe

2.weight f4 [64, 128]
0.11786026 -0.07245501 -0.1201319 -0.024994994 -0.41786623 -0.044371266 -0.14784062 -0.5806213
-0.1664156 0.32383448 -0.41921577 0.268592 -0.17509152 -0.52987504 -0.026662933 -0.2386955
-0.49678713 0.1519745 -0.0338087 0.17447047 -0.23578267 0.06618544 -0.3293659 -0.19841038
0.108787045 0.180468 -0.064542696 0.20731254 0.28933233 -0.13415693 -0.077750124 -0.041058738
0.31698862 -0.2999558 -0.029132476 0.03112631 0.045606684 0.17066908 0.1750386 0.49452484
-0.46468094 0.09102291 -0.0911644 -0.26550758 -0.29873028 0.06668493 -0.38809982 -0.019846538
-0.333351 -0.013667686 -0.07443107 0.2103708 -0.15559687 0.16595282 -0.40511432 0.1835505
0.9226397 0.21009226 -0.17734171 -0.08482389 0.22567056 -0.54478043 0.13494585 0.117149
0.42403194 -0.18188167 -0.42971548 0.13945389 0.010733892 -0.15490566 -0.39080164 -0.343978
-0.25605637 -0.037458204 0.09729834 -0.44943118 0.4720244 0.07579461 -0.021624306 -0.24218364
0.3007742 -0.2457303 -0.028809067 -0.006346364 0.3029527 0.14779514 -0.18695013 -0.20186569
-0.34997416 -0.03360226 0.28755358 0.21480975 -0.25413835 0.1369073 0.11887368 0.4184181
-0.14296328 -0.3936186 -0.00785607 -0.15473455 -0.36820924 0.23622513 0.07434636 0.037005913
0.024300005 0.3331071 -0.44736418 -0.083491914 -0.053129673 -0.17235918 -0.048551094 -0.062961526
-0.24054901 -0.41464812 -0.20343517 -0.3069636 0.43564394 0.028954402 0.49242157 -0.17519735
-0.15052691 0.06996874 -0.20340878 0.08072681 -0.21045533 -0.10623856 -0.46465927 -0.5569578
-0.015119018 -0.12069483 0.19832669 -0.0008043852 0.37777668 0.27259418 0.23456685 0.03484553
0.17203404 0.015903305 0.19750783 0.120146595 0.071957275 0.04371613 0.041436993 0.15482877
0.09416927 -0.20307493 0.100184865 0.0533331 0.00221981 -0.1974108 0.09262218 0.16976364
0.04712355 -0.20698759 -0.043304693 -0.15708382 -0.06407397 -0.2543027 0.17271699 0.18601821
0.018184897 -0.012758791 -0.06418538 0.09927619 -0.023741031 -0.21756788 -0.03917996 -0.0460952
0.096293114 0.040814687 -0.07600913 0.23522758 0.062061794 0.272599 0.08354525 -0.08756215
0.02021608 -0.04119767 0.063383505 0.124117084 0.060717404 0.09245721 0.37359273 0.0278104
0.073370844 0.13770667 0.24528487 0.1745462 -0.07204114 -0.015175967 0.095951065 0.17557801
0.045842 0.18011479 0.05578703 -0.10870246 -0.009029712 0.15727636 -0.036294706 -0.10160321
0.17109542 -0.1968283 -0.055633016 0.38898388 0.1261873 0.17121233 0.054003946 0.3902197
-0.14339635 0.3544756 0.34490672 -0.05035649 -0.10177027 -0.38933456 0.7216653 0.133952
-0.0038722625 0.25733438 0.13632484 0.22282921 -0.009307378 0.31361857 0.09987733 0.0036319045
0.041955017 0.11444906 -0.12270079 0.16770571 0.26613504 0.11490609 0.51985604 0.0037436315
-0.065833755 -0.19332811 0.37870854 0.19870964 -0.29973468 0.15035632 0.023434935 1.1618755
0.11811269 0.11540543 0.06777905 0.053433802 0.03827621 0.2200842 -0.2247292 0.31332427
0.36671424 0.47537616 0.16014096 -0.06296647 0.32700863 -0.097897716 0.25640005 0.29527953
00000000: b860 f13d 4b63 94bd b707 f6bd 4dc2 ccbc
00000010: 90f2 d5be a5be 35bd 8863 17be 99a3 14bf
00000020: da68 2abe a2cd a53e 73a3 d6be e484 893e
00000030: 314b 33be e4a5 07bf 396c dabc 986c 74be
00000040: e25a febe 349f 1b3e fe7a 0abd 63a8 323e
00000050: 0371 71be 3b8c 873d a6a2 a8be 172c 4bbe
00000060: becb de3d 9acc 383e f62e 84bd bd49 543e
00000070: 5e23 943e 6f60 09be 753b 9fbd 352d 28bd
00000080: 554c a23e ce93 99be 3ba7 eebc 9afc fe3c
00000090: 13ce 3a3d e0c3 2e3e 523d 333e 5c32 fd3e
000000a0: a9ea edbe 386a ba3d 67b4 babd 9cf0 87be
000000b0: 2df3 98be 1c92 883d 05b5 c6be 3595 a2bc
000000c0: fbac aabe 6eee 5fbc 516f 98bd 716b 573e
000000d0: c954 1fbe 89ef 293e 256b cfbe aaf4 3b3e
000000e0: 1e32 6c3f 6d22 573e 1199 35be 26b8 adbd
000000f0: 2f16 673e bb76 0bbf 3f2f 0a3e d1eb ef3d
00000100: b71a d93e 303f 3abe ab03 dcbe 00cd 0e3e
00000110: 35dd 2f3c 979f 1ebe 2717 c8be e21d b0be
00000120: d219 83be c66d 19bd 5a44 c73d d81b e6be
00000130: 2fad f13e 343a 9b3d 7525 b1bc fdfe 77be
00000140: 13ff 993e b9a0 7bbe fe00 ecbc 29f5 cfbb
00000150: 9e1c 9b3e 9c57 173e db6f 3fbe e1b5 4ebe
00000160: d02f b3be 86a2 09bd 393a 933e 16f7 5b3e
00000170: 6c1e 82be 6d31 0c3e 0b74 f33d e63a d63e
00000180: f764 12be 6188 c9be bfb6 00bc bc72 1ebe
00000190: ec85 bcbe 00e5 713e e842 983d 8393 173d
000001a0: ce10 c73c 048d aa3e eb0c e5be cffd aabd
000001b0: 809e 59bd ed7e 30be 83dd 46bd f9f1 80bd
000001c0: 7b52 76be c24c d4be 4f51 50be 552a 9dbe
000001d0: b90c df3e c831 ed3c ae1e fc3e ef66 33be
000001e0: ba23 1abe c54b 8f3d 644a 50be 1954 a53d
000001f0: 9a81 57be 9a93 d9bd d2e7 edbe c994 0ebf
00000200: c2b5 77bc da2e f7bd 2716 4b3e 61dd 52ba
00000210: f26b c13e 7791 8b3e 4b32 703e 30ba 0e3d
00000220: b129 303e a647 823c 7e3f 4a3e 6b0f f63d
00000230: 565e 933d af0f 333d d6b9 293d 6f8b 1e3e
00000240: d1db c03d e0f2 4fbe b92d cd3d cf73 5a3d
00000250: 3b7a 113b 0f26 4abe b3b0 bd3d 85d6 2d3e
00000260: a004 413d 8ef4 53be 4360 31bd 95da 20be
00000270: 3739 83bd f733 82be b9dc 303e 8f7b 3e3e
00000280: 7ef8 943c 400a 51bc a073 83bd 5151 cb3d
00000290: 8d7c c2bc 1dca 5ebe 2a7b 20bd 52ce 3cbd
000002a0: 5335 c53d 4d2d 273d adaa 9bbd 80df 703e
000002b0: 8234 7e3d 1992 8b3e c619 ab3d c953 b3bd
000002c0: 319c a53c e3be 28bd 36cf 813d 1931 fe3d
000002d0: d0b2 783d 355a bd3d 8c47 bf3e a3d2 e33c
000002e0: 7443 963d fa02 0d3e f52b 7b3e 3dbc 323e
000002f0: 4e8a 93bd 9ea4 78bc fe81 c43d b9ca 333e
00000300: d2c4 3b3d 0370 383e f180 643d 659f debd
00000310: 5bf1 13bc 0e0d 213e c2a9 14bd 5815 d0bd
00000320: a333 2f3e 5c8d 49be 72df 63bd e528 c73e
00000330: 3e37 013e 4952 2f3e 3e33 5d3d e0ca c73e
00000340: 7ed6 12be d37d b53e 9d97 b03e 9b42 4ebd
00000350: ee6c d0bd dc56 c7be 0fbf 383f b72a 093e
00000360: c9c5 7dbb 55c1 833e bd98 0b3e 572d 643e
00000370: f97d 18bc 9d92 a03e 7c8c cc3d 3f05 6e3b
00000380: 06d9 2b3d 4564 ea3d 8d4a fbbd 0cbb 2b3e
00000390: da42 883e e253 eb3d 4915 053f b757 753b
000003a0: d9d3 86bd cef7 45be 16e6 c13e 8a7a 4b3e
000003b0: d376 99be 02f7 193e 9ffa bf3c 56b8 943f
000003c0: 11e5 f13d af59 ec3d becf 8a3d 67dd 5a3d
000003d0: 84c7 1c3d c15d 613e 691f 66be 0a6c a03e
000003e0: f8c1 bb3e 8164 f33e fefb 233e 91f4 80bd
000003f0: ad6d a73e 997e c8bd de46 833e e12e 973e

2.bias f4 [64]
-0.37644047 0.98597527 0.3863663 0.4393676 0.36195216 0.73443884 -0.22928587 0.39153317
-0.052565727 -0.07379722 0.16285455 0.16944887 -0.19829212 -0.09619311 -0.17745517 -0.2338046
0.30022985 -0.48745933 0.41123572 0.85144293 0.06603057 -0.5197938 0.21058044 -0.48691797
0.43929353 -0.6685489 -0.16047779 -0.10465334 0.8345909 -1.005624 0.34216163 0.0718887
0.15848048 -0.58290446 0.12739158 -0.42729086 -0.8186047 -0.24635594 -1.3528653 0.54978997
-0.117914535 -0.33274233 0.4581602 0.5576814 0.5606044 0.82877856 0.17524529 -0.34441188
0.55015564 -1.4221162 -0.7211133 0.9501501 0.79135984 0.34466925 0.057926483 -0.8005019
0.04434683 -0.79256094 0.9333975 -0.01444736 -0.78240114 0.20021403 -0.42705843 0.10584178
00000000: cebc c0be e068 7c3f ced1 c53e caf4 e03e
00000010: cb51 b93e 2f04 3c3f eac9 6abe 0977 c83e
00000020: 294f 57bd ff22 97bd 58c3 263e 0184 2d3e
00000030: 170d 4bbe e500 c5bd cfb6 35be 796a 6fbe
00000040: bab7 993e 4594 f9be 7d8d d23e 2af8 593f
00000050: 093b 873d 3511 05bf 66a2 573e 504d f9be
00000060: 15eb e03e 0526 2bbf 4a54 24be 7e54 d6bd
00000070: c0a7 553f 4ab8 80bf cf2f af3e 623a 933d
00000080: b548 223e 3a39 15bf f072 023e dec5 dabe
00000090: 1490 51bf bb44 7cbe b12a adbf 09bf 0c3f
000000a0: 2d7d f1bd 345d aabe f993 ea3e 35c4 0e3f
000000b0: c583 0f3f d52a 543f 8073 333e c156 b0be
000000c0: 00d7 0c3f e707 b6bf e29a 38bf 093d 733f
000000d0: 8f96 4a3f 7d78 b03e 5244 6d3d b1ed 4cbf
000000e0: 06a5 353d 46e5 4abf 23f3 6e3f 9fb4 6cbc
000000f0: 714b 48bf e804 4d3e 67a7 dabe 93c3 d83d

4.weight f4 [1, 64]
0.6792643 -0.15828523 0.82987595 0.7695914 -0.896568 -0.50087017 0.40738878 0.855187
-0.10010366 0.8645425 -0.5702772 -0.5607468 0.8310583 0.92883915 0.6472748 0.68796617
0.8695549 0.6875425 -0.5862201 -0.07728309 0.43976057 0.58124954 0.7804521 0.65138674
-0.7219335 0.63449067 0.90403354 0.652853 -0.35290143 0.6958188 1.0972472 0.71411043
0.94994015 0.6702318 -0.048399936 0.61886704 0.55185974 0.84161097 0.54420924 -0.54852015
0.41652697 0.7162351 -0.8547185 -0.5322121 -0.43475842 -0.4465419 -0.64425325 0.6089972
-0.51279056 0.5164207 0.8753873 -0.12175704 -0.0074988496 -0.4879946 -0.098812334 0.6716751
-0.06437289 0.4615263 -0.22515167 0.71489024 0.4641522 0.7153839 0.79314685 0.63688284
00000000: 44e4 2d3f 8615 22be c072 543f f103 453f
00000010: 7b85 65bf 0739 00bf 4395 d03e 89ed 5a3f
00000020: 2603 cdbd a852 5d3f b0fd 11bf 1a8d 0fbf
00000030: 3dc0 543f 67c8 6d3f cdb3 253f 8d1e 303f
00000040: 269b 5e3f c902 303f 8512 16bf 9946 9ebd
00000050: 4c28 e13e c5cc 143f b5cb 473f 48c1 263f
00000060: a2d0 38bf fb6d 223f be6e 673f 6021 273f
00000070: 7faf b4be 2e21 323f 9972 8c3f f1cf 363f
00000080: 472f 733f 5094 2b3f 033f 46bd 126e 1e3f
00000090: ae46 0d3f d173 573f 4c51 0b3f d16b 0cbf
000000a0: 0643 d53e 2f5b 373f d5ce 5abf 0d3f 08bf
000000b0: a898 debe 24a1 e4be c8ed 24bf 3ee7 1b3f
000000c0: 3e46 03bf 2634 043f 6219 603f c15b f9bd
000000d0: e9b8 f5bb 6eda f9be 1f5e cabd e6f2 2b3f
000000e0: efd5 83bd 2d4d ec3e 298e 66be 0c03 373f
000000f0: 5ba5 ed3e 6623 373f ac0b 4b3f c10a 233f
