mnist_gan/MNIST_GAN_FC/save/D--80.ckpt (torch_old, 436322 bytes, 5 tensors)

0.weight f4 [128, 784]
0	0xba683d81	-0.00088592625
1	0xbd1b2215	-0.0378743
2	0x3a854875	0.0010168689
3	0xbc3b293d	-0.011423406
4	0xbcb22748	-0.021747246
5	0xbab2907b	-0.0013623381
6	0xbd072de5	-0.033002753
7	0xbc61ab5c	-0.013773765
8	0xbc465d9a	-0.012107277
9	0xbd0d53a1	-0.034503583
10	0xbcbb13bf	-0.022836564
11	0x3ba7a6a3	0.0051163
12	0xbc6a574b	-0.014303039
13	0x3c6d05dd	0.01446673
14	0xbac5fd6f	-0.0015105436
15	0x3c80429f	0.015656767
16	0xbced39e2	-0.028958265
17	0x3710f394	8.639781e-06
18	0xbcdf1ce0	-0.027235448
19	0xbcb66833	-0.022266483
20	0x3ba78203	0.005111934
21	0xbd4c7829	-0.04991928
22	0xbc0ec495	-0.008713861
23	0xbc8d8b3b	-0.017278304
24	0x3b339956	0.0027404628
25	0xbccf4227	-0.025300099
26	0xbd3bab7e	-0.045817845
27	0x3cbafa69	0.022824483
28	0xbd0e8175	-0.03479143
29	0xbbb5c537	-0.0055471915
30	0x3b501a8d	0.0031754107
31	0x3af78b98	0.0018886207
32	0xbd580fcb	-0.052749436
33	0xbbb66a76	-0.0055668904
34	0xbd3e9487	-0.046528365
35	0x3bb06006	0.0053825406
36	0xbc92708c	-0.017875932
37	0xbc1a6631	-0.009423778
38	0xbc0174bb	-0.007901366
39	0xbc22bea9	-0.009933152
40	0xbd25cb91	-0.04047734
41	0xbc9a34be	-0.018823978
42	0x3bab859a	0.0052344324
43	0x3c7bc19d	0.015365985
44	0xbc7b1e4a	-0.015327046
45	0xbc2e530a	-0.010639915
46	0xbca6647e	-0.02031159
47	0xbd0be025	-0.034149308
48	0xbd445570	-0.047933042
49	0xbd1dd105	-0.038529415
50	0xbc4cc710	-0.012498632
51	0x3c7bb4b4	0.015362907
52	0xbd502347	-0.050814893
53	0xbc190606	-0.009339815
54	0x3c16d347	0.009205646
55	0x3c2fcf65	0.010730599
56	0xbb66ea42	-0.0035234843
57	0xbb8597cf	-0.004076935
58	0xbb4bb4bf	-0.0031083075
59	0xbd26b682	-0.040701397
60	0xbd5849d6	-0.05280479
61	0xbd0a8e3d	-0.033827055
62	0x3c0a9975	0.008459439
63	0xbc92409f	-0.01785308
64	0xbce0be59	-0.027434515
65	0xbbd63976	-0.0065376116
66	0xbc16051e	-0.0091564935
67	0x3c462825	0.012094532
68	0xbcce1b53	-0.025159514
69	0xbd1ea4c9	-0.03873137
70	0xbccbc12d	-0.024872387
71	0x3d14ff20	0.03637612
72	0x3d0bdd93	0.034146857
73	0xbca9129a	-0.020638753
74	0x3c7e7871	0.015531645
75	0xbc278831	-0.010225342
76	0xbd35baea	-0.04436771
77	0x3c3a08b8	0.011354618
78	0x3c9365cc	0.017992876
79	0xbd2f8a3f	-0.04285645
80	0xbaa8ac4c	-0.0012868731
81	0xbd261e0d	-0.040556002
82	0xbd2dc876	-0.042427503
83	0xbd4c2cbc	-0.04984735
84	0x3beded1a	0.0072609307
85	0xbce3394f	-0.027737288
86	0xbd19133c	-0.03737186
87	0xbcce99bb	-0.025219789
88	0x3c7ebec2	0.01554841
89	0xbd3c8b61	-0.04603136
90	0xbc8cc0ff	-0.017181871
91	0xbcf3932d	-0.029733265
92	0x3c031652	0.008000927
93	0xbcfdead6	-0.030995768
94	0xb9a9bc26	-0.00032374373
95	0x3d302293	0.043001723
96	0x3b77e0b5	0.0037823145
97	0x3c5a84b9	0.013337308
98	0xb9b68665	-0.00034813877
99	0x3ca7322e	0.02040967
100	0xbbf4a1fe	-0.0074656
101	0xbcd00474	-0.025392748
102	0xbca06d71	-0.019583436
103	0x3d2df455	0.04246934
104	0x3b817e8b	0.0039518527
105	0xbc59f2cf	-0.013302519
106	0xbc2d5e28	-0.010581531
107	0xbd226f3d	-0.039656866
108	0xbcefbb61	-0.029264154
109	0xbd0af32f	-0.033923324
110	0xbcc7e170	-0.02439949
111	0xbbfbc0cb	-0.007682895
112	0xbd22db0d	-0.039759684
113	0xbc0e576d	-0.008687836
114	0x3bd3e68d	0.006466693
115	0xbcfadb40	-0.030622125
116	0xbd45a2d4	-0.048250988
117	0x3cc2e8d2	0.023792658
118	0x364c6c6e	3.0461483e-06
119	0xbc1251fe	-0.008930681
120	0xbcebc8ae	-0.028782215
121	0xbcfbdf60	-0.030746162
122	0xbcd84531	-0.02640018
123	0xbcac4756	-0.02103011
124	0x3b97198f	0.004611201
125	0xbd1e24e7	-0.03860941
126	0xbc1903ad	-0.009339255
127	0xbd66535d	-0.056231845
128	0xbd26d177	-0.040727105
129	0xbcf553f9	-0.029947268
130	0xbc81ad40	-0.015829682
131	0x3b501af1	0.003175434
132	0xbcefcccd	-0.029272461
133	0xbc6ee484	-0.01458085
134	0x3c828106	0.015930664
135	0xbd1587e9	-0.036506567
136	0xbbb88dd9	-0.005632144
137	0xbcef399b	-0.029202273
138	0xbd08294d	-0.033242512
139	0xbb1c63a8	-0.002386311
140	0xbc9858b0	-0.018596977
141	0xbd0d5739	-0.03450701
142	0xbd660985	-0.056161422
143	0x3b869d9b	0.0041081435
144	0xbd3375d6	-0.04381355
145	0x3c902858	0.017597362
146	0xbbb1ae91	-0.0054224213
147	0x3cc3b7c6	0.023891341
148	0x3cf03129	0.029320316
149	0x3c8e6cc7	0.017385853
150	0x3b891eb1	0.004184567
151	0xbd59be88	-0.05316022
152	0xbc034eed	-0.008014423
153	0xbd1ce484	-0.038303867
154	0xbd34fa3c	-0.044183955
155	0xba5be342	-0.0008388051
156	0x3a94d275	0.0011354225
157	0x3c1cf7f6	0.009580603
158	0xbd4c2f40	-0.04984975
159	0xbcdacad5	-0.026708046
160	0xbd340b47	-0.043956067
161	0xbcb4eec6	-0.022086512
162	0xbbf741d2	-0.007545688
163	0x3d0e17ff	0.034690853
164	0xbc911004	-0.017707832
165	0xbd245065	-0.040115733
166	0xbc39313e	-0.011303244
167	0x3b94a17f	0.0045358534
168	0x3c888363	0.016664213
169	0xbc1f8b49	-0.009737798
170	0xbd173c45	-0.036922712
171	0xbcc15eee	-0.023604836
172	0xbca28663	-0.019839471
173	0x3c05eae3	0.008173677
174	0xbbdcc264	-0.0067370404
175	0xbc1a02f3	-0.009400117
176	0xbd2411aa	-0.04005591
177	0xbc81ffca	-0.01586904
178	0xbc261775	-0.0101374285
179	0xbcd5ba83	-0.026089912
180	0xbd6f2cc1	-0.05839229
181	0x3c10cf0c	0.008838426
182	0xbd5c0006	-0.05371096
183	0xbd2da2cd	-0.042391587
184	0xbd968eec	-0.07351479
185	0x3c3ecb3c	0.011645135
186	0xbcd85458	-0.026407406
187	0xbcef8e22	-0.029242579
188	0xbb4ce6ca	-0.003126549
189	0x3bbc4e08	0.0057466067
190	0xbca76e8f	-0.02043846
191	0x3ca09ca2	0.019605938
192	0xbb9d038a	-0.0047916817
193	0xbd4d6093	-0.05014093
194	0xbd19b559	-0.037526462
195	0xbd056d69	-0.032575045
196	0xbc56b0c4	-0.013103668
197	0x3c88c5a7	0.01669581
198	0xbd1f8d6a	-0.038953222
199	0x3cc52c29	0.024068909
200	0xbc5c752b	-0.013455669
201	0xbd0067dc	-0.031349048
202	0xbc440255	-0.011963447
203	0xbc0c8317	-0.008576176
204	0xbc206e52	-0.009791927
205	0xbd19c535	-0.037541587
206	0xbb2b95bb	-0.0026181776
207	0xbd5dbe07	-0.054136302
208	0x3c928a0e	0.017888095
209	0xbd9a607e	-0.07537936
210	0xbd96a134	-0.07354966
211	0xbd88331b	-0.066503726
212	0xbd413393	-0.047168326
213	0xbca60bce	-0.0202693
214	0xbce7a20c	-0.028275512
215	0xbceac03c	-0.028656118
216	0xbcdcc937	-0.026951415
217	0xbcc764ff	-0.02434015
218	0x3b34ecca	0.0027606958
219	0x3c77e4d1	0.015130238
220	0x3c22bd74	0.009932864
221	0xbcc79d97	-0.024367137
222	0xbd102bbe	-0.035197966
223	0xbcdd877f	-0.027042149
224	0xbd260275	-0.040529687
225	0xbd3e36cf	-0.04643899
226	0xbd21f037	-0.039535727
227	0xbbfc7c40	-0.0077052414
228	0xbcae125d	-0.02124899
229	0xbce15d72	-0.027510379
230	0x3c828709	0.01593353
231	0xbcc9f77c	-0.024654143
232	0xbd26fa35	-0.04076596
233	0x3ce2e2c6	0.027696025
234	0xbcaa8ab1	-0.020818086
235	0xbd6fdbcc	-0.058559224
236	0xbcd2bb1a	-0.025723983
237	0xbd839ab1	-0.064259894
238	0xbbac925f	-0.005266472
239	0xbd57b150	-0.052659333
240	0xbbcf178a	-0.0063199447
241	0xbd90a5d2	-0.07062878
242	0xbc5d8904	-0.013521437
243	0x3cf1c3bc	0.029512279
244	0x3d079f59	0.03311095
245	0xbd360316	-0.044436537
246	0xbc031fda	-0.0080031995
247	0xbc63268d	-0.013864172
248	0xbc4e4300	-0.012589216
249	0xbcc75a0f	-0.024334935
250	0xbc091bd8	-0.008368455
251	0xbb084e8b	-0.0020798768
252	0xbd0fc7ba	-0.035102583
253	0xbad63c7c	-0.001634493
254	0xbd25ce2e	-0.04047983
255	0x3cf84e4f	0.030310778

0.bias f4 [128]
0	0x3c9043df	0.017610488
1	0xbdeb4c06	-0.1148911
2	0xbdb9b74a	-0.09068163
3	0xbe3c77e6	-0.18405113
4	0xbea8f984	-0.33002865
5	0x3d90b265	0.07065276
6	0xbd8ec058	-0.069702804
7	0x3e0ca0e4	0.1373325
8	0x3ebd33f2	0.36953694
9	0xbe8b7e7f	-0.27244946
10	0xbd973b2a	-0.073843315
11	0xbe81c6b2	-0.25346905
12	0xbe4d571c	-0.20052761
13	0x3ef24ef5	0.47325864
14	0xbcef486b	-0.029209336
15	0xbde2cf18	-0.11074656
16	0xbd6ed007	-0.05830386
17	0xbcb228c1	-0.021747949
18	0xbe8366d3	-0.25664386
19	0xbc06d663	-0.008229825
20	0x3e68cef7	0.22735201
21	0x3ed391de	0.41322225
22	0x3e1b179a	0.15145722
23	0x3c9b2cac	0.0189422
24	0xbf6dce17	-0.92892593
25	0xbe60ac34	-0.2194069
26	0x3f3b526e	0.7317265
27	0xbeca9870	-0.39569426
28	0xbeae8d40	-0.3409214
29	0xbd7d7b82	-0.061885364
30	0xbeabe0a8	-0.33569837
31	0xbce2262d	-0.027606094
32	0xbebfc0c8	-0.37451768
33	0xbe2624e5	-0.16225012
34	0xbe506a1d	-0.20352979
35	0xbf0a32c6	-0.53983724
36	0x3d81d28b	0.06338986
37	0x3de82884	0.11335853
38	0xbe8e06cf	-0.2773957
39	0x3e6d7726	0.23189983
40	0x3f0e673c	0.55626273
41	0x3f397375	0.724418
42	0x3edd50f1	0.43225816
43	0x3d6334f7	0.055470433
44	0xbca5e4ae	-0.020250645
45	0x3d3bcf51	0.04585201
46	0x3e42e889	0.19034018
47	0x3f8fa949	1.1223537
48	0x3d8ef8bc	0.06981036
49	0x3d7bea9c	0.061503038
50	0x3dcff307	0.10153776
51	0x3c9907cb	0.018680474
52	0x3de60d8c	0.112330526
53	0x3f0c8e26	0.549044
54	0xbe636c22	-0.22209218
55	0xbf018f1c	-0.5060899
56	0xbde3b2be	-0.11118077
57	0x3d18bb00	0.037287712
58	0x3dc4495b	0.09584304
59	0xbef3db1b	-0.47628102
60	0x3e39f1db	0.18158667
61	0x3c92f04c	0.017936848
62	0x3f7d2590	0.9888544
63	0xbe40b5a1	-0.18819286
64	0xbd497c9e	-0.04919111
65	0x3a79025a	0.00094989466
66	0xbdb22fb7	-0.08700507
67	0xbe7249d2	-0.23660973
68	0x3def942e	0.11698185
69	0xbc2c84bd	-0.010529694
70	0x3dc487eb	0.09596237
71	0xbe3be9de	-0.18350932
72	0xbdb208e2	-0.086931005
73	0x3e4ceee4	0.20013005
74	0x3e65fbdc	0.22459358
75	0xbd01d5db	-0.03169809
76	0xbf51f4e2	-0.82014287
77	0x3da9165d	0.082562186
78	0xbe517441	-0.20454504
79	0xbe390736	-0.18069157
80	0xbe5fe7c4	-0.21865755
81	0x3ead3be3	0.33834752
82	0xbe273c02	-0.16331485
83	0x3f395f02	0.72410595
84	0xbea97113	-0.3309408
85	0xbdacf426	-0.08445005
86	0x3ec1743a	0.37783986
87	0x3e4b72f8	0.19868076
88	0x3db69bc6	0.0891643
89	0xbf04e5c7	-0.5191311
90	0xbde26c02	-0.11055757
91	0xbf095def	-0.53658956
92	0x3e8fb0f0	0.2806468
93	0x3db2fb8a	0.087393835
94	0xbede3a2d	-0.4340376
95	0x3e63a159	0.22229518
96	0x3e80bc40	0.25143623
97	0xbebc7184	-0.36805356
98	0xbf4a532f	-0.7903318
99	0x3eef5156	0.46741742
100	0xbdbc8f80	-0.09207058
101	0x3e48b44e	0.19600031
102	0xbe143b8b	-0.14475839
103	0x3ee4d31c	0.44692314
104	0xbda237ee	-0.07920824
105	0xbe1d1592	-0.1534026
106	0x3e7fc483	0.24977307
107	0xbc949a93	-0.018140113
108	0x3e3dba19	0.18528022
109	0xbc76f8db	-0.01507398
110	0xbd2ee2a1	-0.0426966
111	0x3e437f22	0.19091466
112	0x3e94b026	0.2904064
113	0x3bbf39a1	0.0058357273
114	0x3ea76e59	0.32701376
115	0x3e4af71d	0.19820829
116	0xbe67eea2	-0.22649625
117	0xbd8de55a	-0.06928511
118	0xbe3a6dcd	-0.18205948
119	0x3db46e0d	0.08810053
120	0x3e264fe3	0.16241412
121	0x3e30b344	0.17255884
122	0x3ead4d16	0.33847874
123	0xbe0df69a	-0.13863602
124	0x3d53b71b	0.051688295
125	0xbf04d004	-0.51879907
126	0xbd9ccc3e	-0.076561436
127	0xbe46124e	-0.1934292

2.weight f4 [64, 128]
0	0x3df160b8	0.11786026
1	0xbdb00435	-0.085945524
2	0xbddb79e7	-0.107166104
3	0x3cce92e0	0.02521652
4	0xbf085263	-0.5325071
5	0xbe219589	-0.157797
6	0xbdac92c2	-0.08426429
7	0xbee234df	-0.44180962
8	0xbe2720d6	-0.1632112
9	0x3e3f1b89	0.18662848
10	0xbf0436b1	-0.5164595
11	0x3efaa2e6	0.48952407
12	0xbe0ba3bd	-0.1363668
13	0xbf0b3c6b	-0.54389066
14	0xbcda6c39	-0.026662933
15	0xbe84c3bc	-0.25930583
16	0xbf0b5eea	-0.544417
17	0x3e1b3dd2	0.15160301
18	0xbd4a9aab	-0.04946391
19	0x3e16f750	0.1474278
20	0xbe8492b2	-0.2589317
21	0x3dd90ed9	0.10598535
22	0xbea20479	-0.31644037
23	0xbe34323c	-0.17597288
24	0x3de14a49	0.11000497
25	0x3e586a69	0.21134342
26	0xbdaf31ab	-0.08554395
27	0x3e99eed2	0.30065018
28	0x3eb8e66b	0.36113295
29	0xbe2b0ae9	-0.1670338
30	0xbd9caaec	-0.07649788
31	0xbdfc382e	-0.12315403
32	0x3e998631	0.29985192
33	0xbeb92de1	-0.36167815
34	0x3c84cfa3	0.01621229
35	0x3d91a99f	0.07112431
36	0x3d3ace13	0.045606684
37	0x3e1e01bb	0.15430348
38	0x3e1629d8	0.146644
39	0x3efe2ecf	0.49645087
40	0xbec56277	-0.38551685
41	0x3dd384a7	0.10328036
42	0xbdf884e7	-0.12134724
43	0xbe4164ec	-0.18886155
44	0xbe79857c	-0.24367326
45	0x3cea1097	0.028572364
46	0xbebb29b3	-0.3655525
47	0x3c581a26	0.013189828
48	0xbeab7698	-0.33488917
49	0xbc5fee6e	-0.013667686
50	0xbd3276cc	-0.043570325
51	0x3e7c1a53	0.24619417
52	0xbe447a4c	-0.19187278
53	0x3e289fe3	0.16467242
54	0xbf09373d	-0.5359991
55	0x3d5f6718	0.054541677
56	0x3f414240	0.75491714
57	0x3e1943a1	0.14967205
58	0xbe43753b	-0.19087689
59	0xbdf7d8dc	-0.121019095
60	0x3e85412c	0.26026285
61	0xbf1f41c0	-0.622097
62	0x3e3a018b	0.18164651
63	0xbc435f2d	-0.011924547
64	0x3eca6142	0.39527327
65	0xbe23ad35	-0.15984042
66	0xbefca379	-0.4934347
67	0x3e0afcad	0.1357295
68	0xbc8590d6	-0.016304415
69	0xbdc08256	-0.093998596
70	0xbed2120c	-0.41029394
71	0xbe912524	-0.2834865
72	0xbea9015f	-0.3300886
73	0x3d26f7ef	0.04076379
74	0x3da2d6dc	0.079511374
75	0xbedc6117	-0.43042824
76	0x3ee6effb	0.45104966
77	0x3d5a39d2	0.053277798
78	0xbbd16e4a	-0.0063913213
79	0xbe46a93b	-0.19400494
80	0x3ea27f8a	0.3173793
81	0xbe3d1fff	-0.18469237
82	0xbdcf0061	-0.10107494
83	0x3d1b4e01	0.037916187
84	0x3e93f427	0.2889721
85	0x3e0ceb5f	0.13761662
86	0xbc71542e	-0.014729543
87	0xbe6a8127	-0.2290083
88	0xbea370bc	-0.31921947
89	0xbd179644	-0.03700854
90	0x3ea24133	0.31690368
91	0x3e5935a2	0.21211866
92	0xbec85aea	-0.39131862
93	0x3e37f9dd	0.17966409
94	0x3e1888e7	0.14895974
95	0x3eb6ce83	0.3570443
96	0xbe844e16	-0.25840825
97	0xbed1c39d	-0.40969554
98	0x3c61ee89	0.013789781
99	0xbe62a873	-0.22134571
100	0xbe885fc8	-0.26635575
101	0x3ebf5675	0.3737065
102	0x3d396a42	0.04526735
103	0x3dce32a3	0.10068252
104	0x3d21b807	0.039482143
105	0x3e8d23ea	0.27566463
106	0xbed57897	-0.41693565
107	0x3bb80401	0.0056157117
108	0xbd74bceb	-0.05975048
109	0xbdc443af	-0.09583222
110	0xbd46dd83	-0.048551094
111	0xbde3ee9a	-0.11129494
112	0xbe22d756	-0.15902457
113	0xbefe5495	-0.49673906
114	0xbe620ccc	-0.22075194
115	0xbeeded05	-0.46469894
116	0x3ed7762b	0.42082343
117	0x3e104e01	0.14092256
118	0x3f0fe03d	0.56201535
119	0xbe7d798a	-0.24753395
120	0xbd94719c	-0.07248232
121	0x3e072a17	0.1319965
122	0xbcd7c072	-0.026336882
123	0x3e51c7f0	0.20486426
124	0xbe97a594	-0.29618514
125	0xbe764e89	-0.24053396
126	0xbef9b55c	-0.4877118
127	0xbf0e5221	-0.5559407
128	0xbc77b5c2	-0.015119018
129	0xbe1b6fc5	-0.15179355
130	0x3e38b0f8	0.18036258
131	0xbbf960fb	-0.007610438
132	0x3ebd09fc	0.3692168
133	0x3e889805	0.26678482
134	0x3e886ac0	0.26643944
135	0x3d8fb767	0.07017403
136	0x3e435e97	0.19079052
137	0x3d3c4490	0.045963824
138	0x3e2b04a5	0.1670099
139	0x3dcff4e0	0.10154128
140	0x3d531b46	0.05153968
141	0x3d97e4fe	0.07416724
142	0x3d29b9d6	0.041436993
143	0x3e2718f3	0.16318111
144	0x3da11cdd	0.07866833
145	0xbe7874b3	-0.24263267
146	0x3dc658e5	0.09684924
147	0x3d84c31a	0.06482525
148	0xbc50c5d6	-0.01274248
149	0xbe550795	-0.20803674
150	0x3d9e7ebd	0.07739017
151	0x3e224794	0.15847617
152	0x3d330386	0.043704532
153	0xbe45ef54	-0.19329578
154	0xbd770a90	-0.060312808
155	0xbe0f46d9	-0.1399187
156	0xbd887ab1	-0.066640265
157	0xbe904e67	-0.28184816
158	0x3e248878	0.16067684
159	0x3e39c6da	0.18142262
160	0x3d0a1880	0.03371477
161	0x3b366872	0.002783325
162	0xbdb5694b	-0.08857974
163	0x3e0edcaf	0.13951372
164	0xbcc27c8d	-0.023741031
165	0xbe2ec483	-0.17067151
166	0xbd0164de	-0.031590335
167	0xbd8aa370	-0.067694545
168	0x3dee2235	0.11627618
169	0x3d51dd2f	0.051236328
170	0xbdaf8c00	-0.08571625
171	0x3e52d112	0.20587566
172	0x3d73357d	0.059377182
173	0x3e89ab06	0.26888293
174	0x3d767540	0.060170412
175	0xbdb5f95e	-0.08885454
176	0x3cad0291	0.021119388
177	0xbd28bee3	-0.04119767
178	0x3d13f93c	0.03612636
179	0x3e029eda	0.1275591
180	0x3daf626d	0.08563695
181	0x3db02170	0.08600128
182	0x3eb71cba	0.35764104
183	0x3c0c914e	0.008579565
184	0x3de4a1b5	0.11163656
185	0x3e102bb5	0.14079173
186	0x3e690198	0.22754514
187	0x3e47e617	0.19521366
188	0xbd95ae92	-0.07308687
189	0xbd002d8b	-0.031293433
190	0x3d948d92	0.07253565
191	0x3e0cd0aa	0.13751474
192	0x3d5ce849	0.053932462
193	0x3e3400ef	0.17578481
194	0x3d8a215a	0.067446426
195	0xbddd5a78	-0.10808271
196	0xbc936079	-0.017990338
197	0x3e25639b	0.16151278
198	0xbd6dcb99	-0.058055494
199	0xbdec7b2d	-0.115469314
200	0x3e53b57d	0.20674701
201	0xbe4a1970	-0.19736266
202	0xbd150fb7	-0.03639194
203	0x3ec707b0	0.38873053
204	0x3e08f633	0.13375168
205	0x3e17bd96	0.14818415
206	0x3d569ae4	0.05239381
207	0x3edede17	0.43528816
208	0xbe1b122d	-0.15143652
209	0x3edf44ca	0.4360717
210	0x3ec22bee	0.3792414
211	0xbd7ef7fe	-0.062248223
212	0xbdd1072e	-0.102064475
213	0xbed791fb	-0.42103562
214	0x3f4468f3	0.7672264
215	0x3e0d89b6	0.13822064
216	0xbc82fef2	-0.015990708
217	0x3e880c62	0.26571947
218	0x3e1b32db	0.15156119
219	0x3e7da88a	0.24771324
220	0x3c4eebff	0.012629508
221	0x3e8d74c9	0.27628163
222	0x3dbd3ff4	0.09240714
223	0x3c333ec0	0.010940254
224	0x3d435573	0.047688913
225	0x3e0a84b7	0.13527189
226	0xbe1b9b0e	-0.15195867
227	0x3e2a1310	0.16608834
228	0x3e8f6480	0.28006363
229	0x3dcd702a	0.10031159
230	0x3f064309	0.5244604
231	0x3b966dba	0.004590717
232	0xbd6243c3	-0.055240404
233	0xbe3b6f25	-0.18304117
234	0x3ebab66e	0.36467308
235	0x3e438c67	0.19096528
236	0xbe878402	-0.264679
237	0x3e108218	0.14112127
238	0x3cbffa9f	0.023434935
239	0x3fbdb69c	1.4821353
240	0x3dec94a0	0.115517855
241	0x3e000635	0.12502368
242	0x3d982395	0.07428662
243	0x3c777056	0.015102467
244	0x3d3b8836	0.045784198
245	0x3e59b274	0.2125948
246	0xbe52b279	-0.20575894
247	0x3eac3d57	0.3364055
248	0x3ebd434f	0.36965415
249	0x3eeb061e	0.45903105
250	0x3e172f15	0.14764054
251	0xbcfbe427	-0.03074844
252	0x3e7483d7	0.23878418
253	0xbddff91f	-0.10936188
254	0x3e966971	0.2937732
255	0x3e84024b	0.25783

2.bias f4 [64]
0	0xbed6ebea	-0.41976863
1	0x3f885a3b	1.0652536
2	0x3ed32c88	0.41244912
3	0x3eec3f27	0.4614193
4	0x3ec676db	0.38762555
5	0x3f4c6e44	0.7985575
6	0xbe61b8b1	-0.2204311
7	0x3ed2dbd1	0.41183332
8	0xbc840a1b	-0.0161181
9	0xbdcc55e0	-0.09977317
10	0x3e18f94d	0.1493885
11	0x3e29147f	0.16511725
12	0xbe6a7f18	-0.22900045
13	0xbdb76cbc	-0.08956286
14	0xbe3fb35f	-0.18720768
15	0xbe761b1c	-0.24033779
16	0x3e8f6922	0.28009897
17	0xbef1e5b9	-0.47245577
18	0x3ed303db	0.4121388
19	0x3f6cd383	0.9251024
20	0x3b0a866e	0.0021137255
21	0xbf05e98b	-0.52309483
22	0x3e7b2092	0.24524143
23	0xbefeb33e	-0.49746126
24	0x3ef0aa6a	0.47005016
25	0xbf306b96	-0.68914163
26	0xbe2e8748	-0.17043793
27	0xbde6c175	-0.11267368
28	0x3f657d6e	0.89644516
29	0xbf865edc	-1.0497699
30	0x3eaf85e0	0.34281826
31	0x3d2c43ac	0.042056724
32	0x3e37f268	0.17963564
33	0xbf18ab98	-0.5963683
34	0x3e0eae6f	0.13933729
35	0xbee1781f	-0.44036958
36	0xbf5f47cb	-0.8721892
37	0xbe9dc0f3	-0.3081127
38	0xbfb6d39c	-1.4283328
39	0x3f167a9a	0.58780825
40	0xbdc85ad1	-0.09782947
41	0xbebfa3f1	-0.37429765
42	0x3ef24c92	0.47324044
43	0x3f1bc599	0.60848385
44	0x3f15403e	0.5830115
45	0x3f633a6a	0.8876101
46	0x3e5f3e40	0.2180109
47	0xbec5e84f	-0.386538
48	0x3f1670fe	0.5876616
49	0xbfc1d3cb	-1.5142759
50	0xbf3283e2	-0.6973249
51	0x3f838e60	1.0277824
52	0x3f588418	0.8457656
53	0x3ec27fe2	0.37988192
54	0x3d6d4452	0.057926483
55	0xbf512179	-0.816917
56	0x3d35a506	0.04434683
57	0xbf5ed4e1	-0.8704358
58	0x3f7df28e	0.99198234
59	0xbc1a5b3c	-0.009421166
60	0xbf5401d5	-0.82815295
61	0x3e215d84	0.1575833
62	0xbece2333	-0.4026123
63	0x3dcbf685	0.09959129

4.weight f4 [1, 64]
0	0x3f373a6a	0.7157351
1	0xbe2373a3	-0.1596208
2	0x3f4ab86c	0.79187655
3	0x3f40e0c0	0.7534294
4	0xbf549734	-0.8304322
5	0xbf0360fe	-0.51319873
6	0x3edb90a2	0.42883784
7	0x3f57616c	0.8413303
8	0xbe4347e4	-0.19070393
9	0x3f60f5a5	0.87874824
10	0xbf0a8da6	-0.5412239
11	0xbf071264	-0.52762437
12	0x3f5ae256	0.8550161
13	0x3f6d2c3b	0.92645615
14	0x3f15f5d7	0.58578247
15	0x3f2d72bb	0.6775319
16	0x3f5af0c5	0.85523635
17	0x3f37b734	0.7176392
18	0xbf1d1f54	-0.6137593
19	0xbd9619c6	-0.07329135
20	0x3edca4e1	0.43094543
21	0x3f0e5a01	0.55606085
22	0x3f4a809d	0.791025
23	0x3f27eeea	0.6559893
24	0xbf3860fa	-0.72022974
25	0x3f3bfae1	0.73429686
26	0x3f63f6b2	0.890483
27	0x3f28475d	0.6573389
28	0xbebde358	-0.37087512
29	0x3f2d96e6	0.6780838
30	0x3f8e7ae8	1.1131258
31	0x3f23bce5	0.63960105
32	0x3f764717	0.96202224
33	0x3f1d25ed	0.61385995
34	0xbdcaaf7e	-0.09896754
35	0x3f22de4e	0.6362046
36	0x3f097133	0.53688353
37	0x3f50e3ee	0.81597793
38	0x3f0b428d	0.54398423
39	0xbf0f7a63	-0.5604612
40	0x3edbac8f	0.4290509
41	0x3f31bac8	0.6942563
42	0xbf657220	-0.89627266
43	0xbf1beaec	-0.6090534
44	0xbeca7786	-0.39544314
45	0xbedc6a7a	-0.43049985
46	0xbf2d977b	-0.67809266
47	0x3f2446af	0.64170355
48	0xbf07d7fb	-0.53063935
49	0x3efa28ed	0.4885935
50	0x3f6e4edf	0.930891
51	0xbdf80404	-0.12110141
52	0xbd331564	-0.04372157
53	0xbee2e171	-0.44312623
54	0xbdca5e1f	-0.098812334
55	0x3f2fa96d	0.686179
56	0xbd83d5ef	-0.06437289
57	0x3ee57936	0.4481904
58	0xbe6fa4e9	-0.23402752
59	0x3f2d84c8	0.67780733
60	0x3ef22323	0.47292432
61	0x3f2b2a2b	0.6686122
62	0x3f3fac56	0.7487234
63	0x3f248d03	0.64277667
