mnist_gan/MNIST_GAN_FC/save/D--90.ckpt (torch_old, 436322 bytes, 5 tensors)

0.weight f4 [128, 784]
00000000: 813d 68ba 1522 1bbd 7548 853a 3d29 3bbc
00000010: 4827 b2bc 7b90 b2ba e52d 07bd 5cab 61bc
00000020: 9a5d 46bc a153 0dbd bf13 bbbc a3a6 a73b
00000030: 4b57 6abc dd05 6d3c 6ffd c5ba 9f42 803c
00000040: e239 edbc 94f3 1037 e01c dfbc 3368 b6bc
00000050: 0382 a73b 2978 4cbd 95c4 0ebc 3b8b 8dbc
00000060: 5699 333b 2742 cfbc 7eab 3bbd 69fa ba3c
00000070: 7581 0ebd 37c5 b5bb 8d1a 503b 988b f73a
00000080: cb0f 58bd 766a b6bb 8794 3ebd 0660 b03b
00000090: 8c70 92bc 3166 1abc bb74 01bc a9be 22bc
000000a0: 91cb 25bd be34 9abc 9a85 ab3b 9dc1 7b3c
000000b0: 4a1e 7bbc 0a53 2ebc 7e64 a6bc 25e0 0bbd
000000c0: 7055 44bd 05d1 1dbd 10c7 4cbc b4b4 7b3c
000000d0: 4723 50bd 0606 19bc 47d3 163c 65cf 2f3c
000000e0: 42ea 66bb cf97 85bb bfb4 4bbb 82b6 26bd
000000f0: d649 58bd 3d8e 0abd 7599 0a3c 9f40 92bc
00000100: 59be e0bc 7639 d6bb 1e05 16bc 2528 463c
00000110: 531b cebc c9a4 1ebd 2dc1 cbbc 20ff 143d
00000120: 93dd 0b3d 9a12 a9bc 7178 7e3c 3188 27bc
00000130: eaba 35bd b808 3a3c cc65 933c 3f8a 2fbd
00000140: 4cac a8ba 0d1e 26bd 76c8 2dbd bc2c 4cbd
00000150: 1aed ed3b 4f39 e3bc 3c13 19bd bb99 cebc
00000160: c2be 7e3c 618b 3cbd ffc0 8cbc 2d93 f3bc
00000170: 5216 033c d6ea fdbc 26bc a9b9 9322 303d
00000180: b5e0 773b b984 5a3c 6586 b6b9 2e32 a73c
00000190: fea1 f4bb 7404 d0bc 716d a0bc 55f4 2d3d
000001a0: 8b7e 813b cff2 59bc 285e 2dbc 3d6f 22bd
000001b0: 61bb efbc 2ff3 0abd 70e1 c7bc cbc0 fbbb
000001c0: 0ddb 22bd 6d57 0ebc 8de6 d33b 40db fabc
000001d0: d4a2 45bd d2e8 c23c 6e6c 4c36 fe51 12bc
000001e0: aec8 ebbc 60df fbbc 3145 d8bc 5647 acbc
000001f0: 8f19 973b e724 1ebd ad03 19bc 5d53 66bd
00000200: 77d1 26bd f953 f5bc 40ad 81bc f11a 503b
00000210: cdcc efbc 84e4 6ebc 0681 823c e987 15bd
00000220: d98d b8bb 9b39 efbc 4d29 08bd a863 1cbb
00000230: b058 98bc 3957 0dbd 8509 66bd 9b9d 863b
00000240: d675 33bd 5828 903c 91ae b1bb c6b7 c33c
00000250: 2931 f03c c76c 8e3c b11e 893b 88be 59bd
00000260: ed4e 03bc 84e4 1cbd 3cfa 34bd 42e3 5bba
00000270: 75d2 943a f6f7 1c3c 402f 4cbd d5ca dabc
00000280: 470b 34bd c6ee b4bc d241 f7bb ff17 0e3d
00000290: 0410 91bc 6550 24bd 3e31 39bc 7fa1 943b
000002a0: 6383 883c 498b 1fbc 453c 17bd ee5e c1bc
000002b0: 6386 a2bc e3ea 053c 64c2 dcbb f302 1abc
000002c0: aa11 24bd caff 81bc 7517 26bc 83ba d5bc
000002d0: c12c 6fbd 0ccf 103c 0600 5cbd cda2 2dbd
000002e0: ec8e 96bd 3ccb 3e3c 5854 d8bc 228e efbc
000002f0: cae6 4cbb 084e bc3b 8f6e a7bc a29c a03c
00000300: 8a03 9dbb 9360 4dbd 59b5 19bd 696d 05bd
00000310: c4b0 56bc a7c5 883c 6a8d 1fbd 292c c53c
00000320: 2b75 5cbc dc67 00bd 5502 44bc 1783 0cbc
00000330: 526e 20bc 35c5 19bd bb95 2bbb 07be 5dbd
00000340: 0e8a 923c 7e60 9abd 34a1 96bd 1b33 88bd
00000350: 9333 41bd ce0b a6bc 0ca2 e7bc 3cc0 eabc
00000360: 37c9 dcbc ff64 c7bc caec 343b d1e4 773c
00000370: 74bd 223c 979d c7bc be2b 10bd 7f87 ddbc
00000380: 7502 26bd cf36 3ebd 37f0 21bd 407c fcbb
00000390: 5d12 aebc 725d e1bc 0987 823c 7cf7 c9bc
000003a0: 35fa 26bd c6e2 e23c b18a aabc ccdb 6fbd
000003b0: 1abb d2bc b19a 83bd 5f92 acbb 50b1 57bd
000003c0: 8a17 cfbb d2a5 90bd 0489 5dbc bcc3 f13c
000003d0: 599f 073d 1603 36bd da1f 03bc 8d26 63bc
000003e0: 0043 4ebc 0f5a c7bc d81b 09bc 8b4e 08bb
000003f0: bac7 0fbd 7c3c d6ba 2ece 25bd 4f4e f83c
-0.00088592625 -0.0378743 0.0010168689 -0.011423406 -0.021747246 -0.0013623381 -0.033002753 -0.013773765
-0.012107277 -0.034503583 -0.022836564 0.0051163 -0.014303039 0.01446673 -0.0015105436 0.015656767
-0.028958265 8.639781e-06 -0.027235448 -0.022266483 0.005111934 -0.04991928 -0.008713861 -0.017278304
0.0027404628 -0.025300099 -0.045817845 0.022824483 -0.03479143 -0.0055471915 0.0031754107 0.0018886207
-0.052749436 -0.0055668904 -0.046528365 0.0053825406 -0.017875932 -0.009423778 -0.007901366 -0.009933152
-0.04047734 -0.018823978 0.0052344324 0.015365985 -0.015327046 -0.010639915 -0.02031159 -0.034149308
-0.047933042 -0.038529415 -0.012498632 0.015362907 -0.050814893 -0.009339815 0.009205646 0.010730599
-0.0035234843 -0.004076935 -0.0031083075 -0.040701397 -0.05280479 -0.033827055 0.008459439 -0.01785308
-0.027434515 -0.0065376116 -0.0091564935 0.012094532 -0.025159514 -0.03873137 -0.024872387 0.03637612
0.034146857 -0.020638753 0.015531645 -0.010225342 -0.04436771 0.011354618 0.017992876 -0.04285645
-0.0012868731 -0.040556002 -0.042427503 -0.04984735 0.0072609307 -0.027737288 -0.03737186 -0.025219789
0.01554841 -0.04603136 -0.017181871 -0.029733265 0.008000927 -0.030995768 -0.00032374373 0.043001723
0.0037823145 0.013337308 -0.00034813877 0.02040967 -0.0074656 -0.025392748 -0.019583436 0.04246934
0.0039518527 -0.013302519 -0.010581531 -0.039656866 -0.029264154 -0.033923324 -0.02439949 -0.007682895
-0.039759684 -0.008687836 0.006466693 -0.030622125 -0.048250988 0.023792658 3.0461483e-06 -0.008930681
-0.028782215 -0.030746162 -0.02640018 -0.02103011 0.004611201 -0.03860941 -0.009339255 -0.056231845
-0.040727105 -0.029947268 -0.015829682 0.003175434 -0.029272461 -0.01458085 0.015930664 -0.036506567
-0.005632144 -0.029202273 -0.033242512 -0.002386311 -0.018596977 -0.03450701 -0.056161422 0.0041081435
-0.04381355 0.017597362 -0.0054224213 0.023891341 0.029320316 0.017385853 0.004184567 -0.05316022
-0.008014423 -0.038303867 -0.044183955 -0.0008388051 0.0011354225 0.009580603 -0.04984975 -0.026708046
-0.043956067 -0.022086512 -0.007545688 0.034690853 -0.017707832 -0.040115733 -0.011303244 0.0045358534
0.016664213 -0.009737798 -0.036922712 -0.023604836 -0.019839471 0.008173677 -0.0067370404 -0.009400117
-0.04005591 -0.01586904 -0.0101374285 -0.026089912 -0.05839229 0.008838426 -0.05371096 -0.042391587
-0.07351479 0.011645135 -0.026407406 -0.029242579 -0.003126549 0.0057466067 -0.02043846 0.019605938
-0.0047916817 -0.05014093 -0.037526462 -0.032575045 -0.013103668 0.01669581 -0.038953222 0.024068909
-0.013455669 -0.031349048 -0.011963447 -0.008576176 -0.009791927 -0.037541587 -0.0026181776 -0.054136302
0.017888095 -0.07537936 -0.07354966 -0.066503726 -0.047168326 -0.0202693 -0.028275512 -0.028656118
-0.026951415 -0.02434015 0.0027606958 0.015130238 0.009932864 -0.024367137 -0.035197966 -0.027042149
-0.040529687 -0.04643899 -0.039535727 -0.0077052414 -0.02124899 -0.027510379 0.01593353 -0.024654143
-0.04076596 0.027696025 -0.020818086 -0.058559224 -0.025723983 -0.064259894 -0.005266472 -0.052659333
-0.0063199447 -0.07062878 -0.013521437 0.029512279 0.03311095 -0.044436537 -0.0080031995 -0.013864172
-0.012589216 -0.024334935 -0.008368455 -0.0020798768 -0.035102583 -0.001634493 -0.04047983 0.030310778

0.bias f4 [128]
00000000: df43 903c c0b1 a5bd 2913 e2bd 9d8f 35be
00000010: 4753 b4be 0459 933d cb25 2ebd 0e09 0e3e
00000020: 629b d03e ca94 6bbe d149 b3bd a0c8 7dbe
00000030: 089a 5fbe 18ae f23e 6b48 efbc ed64 02be
00000040: 81fe 8bbd 2576 3bbd 6cef 84be 4232 fdbc
00000050: 89bd 6c3e ee29 d63e 2f81 313e 2598 7fbb
00000060: 2364 78bf d1d5 4dbe d3bd 3b3f 5536 b8be
00000070: b9b5 b0be 95db 90bd 5414 acbe 2f22 65bc
00000080: 2a5f bdbe 2c42 2fbe d2c8 4dbe 098c 09bf
00000090: 8bd2 813d 42a0 8a3d 1ba4 abbe 8d16 623e
000000a0: ea32 103f fa00 443f dfcf e63e 54e7 473d
000000b0: 2e78 7abd 22ef 333d fd59 323e 9d28 943f
000000c0: 44d2 a13d 9cea 7b3d 4148 c73d 215e cd3b
000000d0: 5393 a63d c9e9 123f e0a6 6dbe b41b 0fbf
000000e0: 6cea 0bbe b7fc 6bbb 6827 963d 64a0 e8be
000000f0: 2994 3a3e 292b 853c 65c1 823f 282a 58be
00000100: 36b6 a0bd 91ad 8f3b fbcb eebd 7772 76be
00000110: fac1 fe3d defe 03bd da77 d53d 7102 07be
00000120: c17e 83bd 18a0 563e e7ff 783e fa9e 08bd
00000130: cc11 65bf 7f7f dc3d 43a9 71be 5bc9 38be
00000140: d7ed 72be edf9 ba3e c290 1dbe 21e4 433f
00000150: 9f87 b8be 80f6 9fbd e687 b83e a02a 2a3e
00000160: 7c10 883d 079b 07bf ba55 05be 17b0 03bf
00000170: a4c5 943e 8e94 a63d c54a ebbe 7bab 5e3e
00000180: 18e4 493e b1eb d2be d70a 4cbf 4801 053f
00000190: 48ee c7bd 57fd 393e c9c8 18be 1eae e63e
000001a0: 9221 0bbe 70c9 49be 4d04 793e d3e6 0abd
000001b0: ab06 573e 4712 73ba a1e2 2ebd e65b 3e3e
000001c0: d4fb 7f3e be76 1fbc e6d6 8e3e 6261 353e
000001d0: 8337 6abe 7e43 aebd 51cd 5fbe 59a7 aa3d
000001e0: 2e73 213e 5d14 353e 6745 b43e 5be4 29be
000001f0: 1a9e 133d f4da 0cbf 3307 b1bd 0c0c 6cbe
0.017610488 -0.08090544 -0.11038811 -0.17730565 -0.35219786 0.07194713 -0.04251651 0.13870642
0.40743548 -0.23005977 -0.08754314 -0.24783564 -0.21836102 0.47398448 -0.029209336 -0.12733813
-0.06835652 -0.04576697 -0.25963914 -0.030907754 0.23119177 0.41828865 0.17334436 -0.0039000597
-0.97027797 -0.20101096 0.73336524 -0.35978952 -0.34513643 -0.07073132 -0.3360926 -0.013985201
-0.36986667 -0.17115086 -0.20096138 -0.537293 0.06338986 0.06768848 -0.3352364 0.22078915
0.5632769 0.7656399 0.45080468 0.048804596 -0.06114977 0.043929227 0.1741714 1.1574894
0.07901433 0.061503038 0.09730578 0.0062673246 0.081335686 0.5738798 -0.23208189 -0.55901647
-0.13663644 -0.0036008784 0.07331735 -0.45434868 0.18220581 0.016255932 1.0215269 -0.21109831
-0.07847254 0.0043847044 -0.1166 -0.24067102 0.12439342 -0.032225482 0.104232505 -0.13184525
-0.06420661 0.20959508 0.24316369 -0.033354737 -0.8948028 0.107665055 -0.23599724 -0.18045561
-0.23723541 0.36518803 -0.15387252 0.7651997 -0.3604097 -0.07810688 0.36041182 0.16617823
0.06643769 -0.5297093 -0.13020983 -0.51440567 0.29057038 0.08133803 -0.45955482 0.21745102
0.19715917 -0.41195443 -0.7970404 0.5195508 -0.097622454 0.18163048 -0.14920343 0.45054716
-0.13587025 -0.19705749 0.24318047 -0.033911537 0.20998637 -0.0009272438 -0.0426966 0.18589744
0.24998409 -0.0097329 0.2789833 0.1771293 -0.22872739 -0.08508967 -0.21855666 0.083327
0.15766594 0.17683549 0.352092 -0.16591017 0.03603945 -0.55021596 -0.08643951 -0.2305147

2.weight f4 [64, 128]
00000000: b860 f13d 4043 37bd 1aec 01be 2241 8dbc
00000010: 0b9d fdbe c18f 69be 9b93 0dbd bf79 e1be
00000020: f675 60be 5eff bc3d 0804 e0be 8016 233f
00000030: deca 06be de13 06bf 396c dabc 01c2 8bbe
00000040: 37ed 26bf 4eac 1d3e 35e6 6fbd 163c 303e
00000050: 7650 60be c0fa 243e 4679 bcbe b7b2 2abe
00000060: f488 b43d cdab 8a3e 8738 42bd 54ce 943e
00000070: c628 aa3e ac71 6abe 91d7 d6bd 3908 2fbe
00000080: d0aa af3e bb43 bbbe c2a5 273d 7d47 793d
00000090: 13ce 3a3d 9628 4f3e ef68 113e 179c ee3e
000000a0: 72d0 abbe 95bf f63d 539e 43bd a9b9 10be
000000b0: 6654 41be f67c 5ebb 3bcb b2be 84c0 8cbb
000000c0: ac6d 7bbe 6eee 5fbc a542 d93c f882 663e
000000d0: da47 24be cb38 1c3e c1cf 24bf 8f0c a6bd
000000e0: 257c 373f ad02 273e cd38 29be 8f1b f8bd
000000f0: e18b 8d3e c379 13bf 28ca 6f3e 2e24 66bd
00000100: 46b9 bb3e 5337 2bbe a5ee e4be c23a 303e
00000110: 6844 69bd 2e32 16be d0a6 cabe 6ee4 58be
00000120: 3ff8 cdbe 845f de3d 6847 d93d d7b3 02bf
00000130: 0c80 e73e 6c1d 57bd ec21 a53c 767b 57be
00000140: 2791 b93e 944c 10be fc49 e4bd 2b6b 243d
00000150: 030a 9a3e d235 d63d 6790 1e3e f10e 4cbe
00000160: 0558 69be 0bad 6dbd 4c56 b23e a8fa 543e
00000170: 1900 cdbe 61ab 573e bf3c 223e 0d81 b83e
00000180: d667 aabe 42b5 02bf a686 c7bc d335 77be
00000190: 3251 68be 86bf f53e ec5f 14be 441d 843d
000001a0: 558c 0f3d b6ef 4f3e c22e 00bf 9b77 25bd
000001b0: a1ad 6dbd 66a8 ecbd 83dd 46bd 989a 2abe
000001c0: 3764 efbd 0330 02bf c492 2dbe 7c4a 05bf
000001d0: db96 e43e 9203 4f3e 3ab6 053f ef15 95be
000001e0: 5a40 aabd c96a 523e 5b50 4cbd b88d f63d
000001f0: c089 e7be 0612 93be af38 02bf 6ec0 1ebf
00000200: c2b5 77bc 75c2 26be 90e8 2e3e fe51 07bd
00000210: 14b5 c13e 6a90 913e c33d 6d3e b4d0 103e
00000220: 99d1 3d3e a1c2 223d 3703 323e f1fc e73d
00000230: 68e4 703d 3893 b23d d6b9 293d 5121 2c3e
00000240: 3553 d53d 1791 81be f5e8 ba3d 73b5 323d
00000250: e01a ddbc cc47 6fbe 21d0 763d cfca 1e3e
00000260: 4ecd b43c 5701 3ebe d320 3fbd 31a8 02be
00000270: 4ebb 11bd 7d12 a4be dd40 253e b464 493e
00000280: 69ac 263d 4ed7 e43b ad0c a4bd dad6 163e
00000290: 8d7c c2bc 060a 3bbe e6f9 2dbd fb4c 89bd
000002a0: 0cd0 083e 3377 5e3d 004d acbd 6193 563e
000002b0: 6996 983d 0b0e 963e 22d2 8e3d 30ab aebd
000002c0: b270 763c e3be 28bd ca34 1d3d a3c1 313e
000002d0: 7dc6 b33d 03fd c43d 8b40 b73e 09ec d33c
000002e0: 2a4d 0a3e 83f3 f73d 7f3c 693e 8bd9 4a3e
000002f0: 79e3 21bd cb2c 64bd 223e b13d 683e 203e
00000300: e30c 643d fd44 2d3e 8fcc 863d f485 0dbe
00000310: 929d 793c d78e 3c3e e9ed 28bd d495 efbd
00000320: 0afe 683e 46e7 41be 38a2 2fbd dd00 ca3e
00000330: 7923 063e 7544 043e 1a62 eb3c b6b0 ef3e
00000340: c2ea 29be 12f9 d53e 76e4 ce3e bd24 58bd
00000350: a1c7 cbbd cc4b d7be 41ed 443f d226 fd3d
00000360: 6189 19bc b19b 893e d136 123e 23d4 883e
00000370: 9306 a93c 0328 8c3e f28e bc3d ed69 dc3c
00000380: 9334 fc3c e781 173e d4f2 17be 021c 343e
00000390: 53ff a33e 3639 e83d e76c 0f3f 4e84 b6bc
000003a0: 030d 56bc b1f2 44be a448 a93e a825 4d3e
000003b0: fe2a 77be cca3 f53d 9ffa bf3c afc7 e83f
000003c0: c044 c93d f050 2e3e 76a4 7c3d d389 b63c
000003d0: b34c 433d 803b 4c3e c9b1 66be bbc7 bc3e
000003e0: 06b6 bd3e 0078 f23e 74f6 fe3d 97e7 5f3c
000003f0: 9613 6b3e f392 b4bd 5140 a03e c64a 813e
0.11786026 -0.04474187 -0.12687722 -0.017242972 -0.49533877 -0.22808744 -0.034564596 -0.44038197
-0.21919999 0.09228395 -0.43753076 0.6370621 -0.13163325 -0.52374065 -0.026662933 -0.2729645
-0.6520571 0.1539776 -0.058569152 0.17210421 -0.21905693 0.16111279 -0.36811274 -0.16669737
0.08815184 0.270842 -0.04741719 0.29063666 0.33234233 -0.22894925 -0.10490335 -0.1709298
0.34310007 -0.36575112 0.040929563 0.060859192 0.045606684 0.20230326 0.14200185 0.46603462
-0.3355747 0.1204826 -0.04775841 -0.14133324 -0.18879852 -0.0033948994 -0.34920678 -0.0042954106
-0.24553555 -0.013667686 0.026521036 0.22510898 -0.16043034 0.1525604 -0.6437951 -0.08107864
0.71673805 0.16309614 -0.16525574 -0.121146314 0.27645782 -0.5760767 0.2341696 -0.056186847
0.3666479 -0.16720323 -0.4471332 0.17209914 -0.056950003 -0.1466758 -0.39580393 -0.21180889
-0.4022846 0.10858062 0.10609323 -0.51055664 0.4521488 -0.052518293 0.020157777 -0.2104319
0.36243555 -0.14091712 -0.11146924 0.040141266 0.30085763 0.10459484 0.15484773 -0.19927575
-0.22787483 -0.058026355 0.34831464 0.20798743 -0.40039137 0.2106147 0.15843485 0.36035958
-0.33282346 -0.5105783 -0.024356198 -0.24141626 -0.22687224 0.47997683 -0.14489716 0.064508945
0.03504594 0.20306286 -0.50071347 -0.040397268 -0.058026914 -0.11555557 -0.048551094 -0.16660535
-0.11689036 -0.5085451 -0.16950518 -0.5206678 0.44646344 0.20216206 0.5223118 -0.29118297
-0.08313055 0.20548548 -0.04988132 0.120387495 -0.45222282 -0.28724688 -0.5086774 -0.62012374
-0.015119018 -0.16285117 0.17080903 -0.03303718 0.37833464 0.28430492 0.23168091 0.14142114
0.18536986 0.039736394 0.17384039 0.113275416 0.058811575 0.08719486 0.041436993 0.16809584
0.10416261 -0.25306007 0.09126464 0.043630075 -0.026990354 -0.23367232 0.06025708 0.15507053
0.022070553 -0.18555199 -0.046662163 -0.12759472 -0.03557902 -0.32045355 0.16138025 0.19667321
0.040691767 0.006983674 -0.0801023 0.14730397 -0.023741031 -0.18265542 -0.04247465 -0.06704136
0.13360614 0.054312896 -0.08413124 0.20954658 0.074505635 0.2930759 0.069736734 -0.08528745
0.015041517 -0.04119767 0.03838042 0.17359023 0.08778093 0.09618571 0.3579143 0.025869386
0.13505998 0.12106993 0.22776984 0.19809549 -0.039523575 -0.05570678 0.08654429 0.15648806
0.055676352 0.16920848 0.06581985 -0.1382063 0.015235322 0.18413864 -0.041242514 -0.11698499
0.22753158 -0.1893588 -0.042879313 0.39453784 0.13099469 0.1291674 0.028733302 0.46814507
-0.16593459 0.41791588 0.40408677 -0.05276941 -0.099501856 -0.42050016 0.7692452 0.1236092
-0.009371133 0.26876596 0.14278723 0.26724347 0.020633018 0.27374277 0.09206952 0.026905978
0.030786788 0.14795648 -0.14838725 0.17588809 0.32030734 0.11339037 0.56025547 -0.022279885
-0.013064626 -0.19233204 0.33063233 0.20033896 -0.24137494 0.119941324 0.023434935 1.8185939
0.09827566 0.17023063 0.06168028 0.022282517 0.047680568 0.19944572 -0.22528757 0.36871132
0.37052935 0.47357178 0.12449351 0.013666055 0.2295669 -0.08817091 0.3129907 0.2525236

2.bias f4 [64]
00000000: d457 eebe 79a9 903f 441a e73e 74c3 e73e
00000010: c0e1 d63e 5c22 583f c624 62be 4987 ce3e
00000020: 6c41 d6ba f006 f6bd 73ea 153e f9b5 343e
00000030: cec2 89be f3ab edbd 1b13 3ebe 8ea7 72be
00000040: 8102 913e 1b89 01bf f7f8 ea3e 8cb7 7b3f
00000050: cc87 e9bc 2e15 00bf 78ad 833e 6546 01bf
00000060: 4541 eb3e 8834 2ebf e8b6 1bbe c42d b9bd
00000070: adea 703f 0e67 8fbf 9f9b ae3e 6f66 ce3c
00000080: 8f87 293e 49e7 1fbf dc1e 143e 800d e9be
00000090: ada2 71bf 89d1 abbe 6b80 c1bf 68fb 273f
000000a0: 625b c9bd 1d09 cebe 927b fb3e 11b2 223f
000000b0: 1dfd 1c3f 0be8 6e3f cb3c 883e 32db e3be
000000c0: a01e 1f3f 4916 cebf 38bc 30bf 629a 8b3f
000000d0: e550 6b3f 33f0 d13e 5244 6d3d 25f4 56bf
000000e0: 06a5 353d c279 73bf 55a4 853f 8c12 aebc
000000f0: 5074 5dbf 7f39 f63d 5aaf c2be c371 b73d
-0.46551383 1.1301719 0.45137227 0.45266306 0.4196911 0.8442743 -0.2208434 0.4033759
-0.0016346402 -0.12013042 0.14640217 0.17647542 -0.26906437 -0.11605062 -0.18561976 -0.2369673
0.28322223 -0.5059983 0.4589307 0.98326945 -0.028507136 -0.5003232 0.25718284 -0.5049804
0.45948234 -0.68048906 -0.15206492 -0.09041932 0.94108087 -1.1203325 0.34103104 0.025195329
0.16555618 -0.6246229 0.14464897 -0.45518112 -0.9438885 -0.335583 -1.5117315 0.6561799
-0.09831883 -0.40241328 0.49117714 0.6355296 0.6132372 0.9332282 0.2660888 -0.4450317
0.62156105 -1.6100551 -0.690372 1.0906489 0.9192031 0.4100357 0.057926483 -0.83966285
0.04434683 -0.9510766 1.0440775 -0.021249078 -0.86505604 0.12022685 -0.38024408 0.08957245

4.weight f4 [1, 64]
00000000: e536 3c3f 82c6 24be 1ac1 423f c6d4 453f
00000010: d7e8 38bf 9f35 01bf 66c8 ea3e e566 583f
00000020: 39ca dbbe 4d5a 6d3f 5677 09bf d00f 14bf
00000030: 8da5 583f 1716 6c3f 3671 113f 4e34 2b3f
00000040: d279 583f 89cf 3a3f 493d 24bf fdd3 91bd
00000050: d9c0 e63e 7575 1f3f 0221 503f 693f 2f3f
00000060: 1ed2 33bf 6ea9 413f c7e2 553f 8c74 283f
00000070: c829 ccbe 6878 263f 9a6f 8d3f e2e9 243f
00000080: ee73 5f3f 0711 0a3f f28a 4bbe 77e4 1c3f
00000090: d6fc 093f ac80 4d3f 819c 063f d610 17bf
000000a0: cc86 ce3e 5ea1 413f c10b 73bf f1c1 0fbf
000000b0: ad12 d6be d5b4 cabe 0286 45bf e036 283f
000000c0: 5340 12bf bf94 f33e 9297 723f 108d f4bd
000000d0: 7c9d 25be 5cc2 eebe 1f5e cabd e338 2d3f
000000e0: efd5 83bd 95c8 ec3e a247 7abe d542 1e3f
000000f0: 3779 f33e 3ee1 283f ecd4 3a3f 8879 293f
0.7352126 -0.1609135 0.760759 0.7727779 -0.72230285 -0.50472444 0.45856017 0.84532005
-0.4292772 0.92715913 -0.5369772 -0.5783663 0.8462761 0.92221206 0.5681337 0.66876686
0.84560883 0.72972924 -0.64156014 -0.07120512 0.45069006 0.622886 0.81300366 0.6845613
-0.7024249 0.75649154 0.8354916 0.65802836 -0.39875627 0.65027475 1.1049683 0.64419377
0.8728627 0.5393223 -0.19877222 0.6128611 0.5390142 0.8027446 0.52582556 -0.59010065
0.40337217 0.7563685 -0.9493981 -0.56155306 -0.41811123 -0.3959109 -0.77157605 0.6570873
-0.571294 0.47574422 0.9476253 -0.11940968 -0.16173357 -0.4663266 -0.098812334 0.6766493
-0.06437289 0.46246782 -0.24441388 0.6182073 0.47553417 0.6596869 0.72981143 0.66201067
