mnist_gan/MNIST_GAN_FC/save/G--30.ckpt (torch_old, 447392 bytes, 6 tensors)

0.weight f4 [64, 32]
0	0xbc19bf04	-0.009383921
1	0xbbf03d00	-0.0073314905
2	0x3ba65a2c	0.0050766673
3	0x3c2a968a	0.010411868
4	0xbc33c834	-0.010973025
5	0x3cc11767	0.02357073
6	0xbc74290c	-0.014902364
7	0xbc1c8360	-0.009552807
8	0xbc510d42	-0.012759509
9	0xbbad9c09	-0.005298142
10	0xbc1182b1	-0.008881257
11	0xbc6c998c	-0.014440905
12	0x3c7a2819	0.015268349
13	0x3c2f2de0	0.01069209
14	0xbc0e0f27	-0.008670605
15	0xbbe07e67	-0.006851006
16	0xbc3d9b42	-0.011572661
17	0x3c038098	0.008026265
18	0x3ad2933a	0.0016065605
19	0x3b517b28	0.0031964276
20	0x3c2f1502	0.010686161
21	0x3bf869db	0.0075809783
22	0x3bb5ac6e	0.005544237
23	0x3c3d7dfa	0.01156568
24	0xbc1da1d6	-0.009621104
25	0xbb9177f0	-0.0044393465
26	0xbb7907e6	-0.0037999093
27	0x3c17bdf5	0.009261598
28	0xbc5c896f	-0.013460501
29	0x3c423211	0.011852757
30	0x3c13f0e3	0.0090296
31	0x3b687c7f	0.0035474596
32	0xbec3da17	-0.38252327
33	0x3ee41b4c	0.44552076
34	0x3e86e8c6	0.26349467
35	0x3e80ee50	0.25181818
36	0x3ed6b61c	0.41935813
37	0x3d212858	0.039345115
38	0x3e0b3f3f	0.13598345
39	0xbea890fb	-0.3292311
40	0xbe62dc8b	-0.22154443
41	0x3e265bde	0.16245982
42	0x3eb55329	0.3541501
43	0x3dcc7c74	0.09984675
44	0xbab758c7	-0.001398825
45	0x3eece572	0.46268803
46	0xbd081c4e	-0.03323012
47	0xbea5206f	-0.32251307
48	0x3e3b97e4	0.1831966
49	0xbf00941e	-0.5022601
50	0xbdca3e0c	-0.09875116
51	0x3cab9034	0.020942785
52	0xbe70679a	-0.23477021
53	0x3eba871e	0.3643121
54	0xbe864dc4	-0.26231205
55	0x3e272b5c	0.16325134
56	0x3df7e801	0.12104798
57	0xbe35fa32	-0.17771223
58	0x3e5dbe66	0.21654662
59	0xbd18f29e	-0.037340753
60	0x3e8683ff	0.2627258
61	0x3ed85985	0.42255798
62	0x3ddefec9	0.1088844
63	0x3ef6023f	0.4804859
64	0xbde84770	-0.113417506
65	0x3e2ab680	0.1667118
66	0xbe77f74b	-0.24215429
67	0x3e0cd65e	0.1375365
68	0xbf2afa0e	-0.66787803
69	0xbdf14f74	-0.117827326
70	0x3d040e77	0.032240357
71	0x3ec6e6e3	0.38848028
72	0x3ebaa394	0.36452925
73	0xbed2f97e	-0.41205972
74	0xbe2492b3	-0.16071586
75	0xbeb4c5d3	-0.35307178
76	0x3e8a90eb	0.2706369
77	0xbcb7334b	-0.022363326
78	0xbd855ae5	-0.065114774
79	0xbefa9261	-0.48939803
80	0x3e4e9745	0.20174892
81	0x3f4a3acb	0.7899596
82	0x3f3f32b9	0.7468677
83	0x3ea0f975	0.3144032
84	0x3f415806	0.7552494
85	0xbf7e85e1	-0.99423033
86	0xbe6dc470	-0.23219466
87	0xbee6461a	-0.44975358
88	0x3e6ae164	0.22937542
89	0xbc7583b8	-0.0149850175
90	0xbe9fab48	-0.31185365
91	0xbf063357	-0.5242209
92	0x3c555b1f	0.013022213
93	0xbe47c7a1	-0.19509746
94	0xbc126f32	-0.008937644
95	0xbf75ceaf	-0.960185
96	0xbeba0e0e	-0.36338848
97	0x3ecb00e6	0.39649123
98	0x3cae121c	0.02124887
99	0xbe001f5e	-0.12511966
100	0x3e7e1544	0.248128
101	0xbe7e718a	-0.24847999
102	0xbcba8059	-0.022766279
103	0xbf102b36	-0.56315935
104	0xbe04f15d	-0.12982698
105	0x3e30a0b4	0.17248803
106	0x3f0065d2	0.50155365
107	0x3d53a0bc	0.05166696
108	0xbd96cd59	-0.07363386
109	0x3e90b150	0.2826028
110	0x3e37f72f	0.17965387
111	0xbd81a005	-0.063293494
112	0x3ddeb5b5	0.108745016
113	0xbe45a0f2	-0.19299677
114	0xbd732666	-0.05936279
115	0xbce30959	-0.027714418
116	0xbe11f5f7	-0.14253984
117	0x3f3c9f35	0.7368043
118	0xbe8561d8	-0.2605121
119	0xbe843b93	-0.25826702
120	0x3e33c52e	0.17555687
121	0xbdfc27a7	-0.123122506
122	0x3e9fb3d0	0.31191874
123	0xbd5f616d	-0.05453627
124	0x3e7e9fa1	0.24865581
125	0x3e0e7f0b	0.1391565
126	0x3e2dbbb2	0.16966131
127	0x3ee0c898	0.4390304
128	0xbf2c6703	-0.67344683
129	0x3daece48	0.08535439
130	0xbf1353ac	-0.5754955
131	0x3e79f9bc	0.24411672
132	0xbd1b3852	-0.037895508
133	0xbe7b32d2	-0.24531105
134	0x3ea92182	0.33033377
135	0x3f034fe4	0.5129378
136	0xbe2e7efe	-0.17040631
137	0xbe8be992	-0.27326638
138	0xbe6f8b73	-0.2339304
139	0xbeea2047	-0.4572775
140	0xbdd98c98	-0.10622519
141	0x3f0b1e41	0.5434304
142	0xbe874d38	-0.264261
143	0xbda21512	-0.07914175
144	0xbef73ddb	-0.4828938
145	0xbccb035c	-0.024781875
146	0xbe8f5792	-0.27996498
147	0x3d30f824	0.043205395
148	0x3f1743ca	0.5908781
149	0xbf3c969f	-0.7366733
150	0xbe20d8f4	-0.15707761
151	0xbf840c2d	-1.0316216
152	0xbe32c68f	-0.17458557
153	0xbe51e6fd	-0.20498271
154	0xbf3be29a	-0.7339264
155	0xbf17d952	-0.5931598
156	0x3f4d0cfb	0.8009793
157	0xbe726ef5	-0.23675139
158	0x3dfe98d2	0.12431492
159	0xbe120939	-0.1426133
160	0xbee964d6	-0.45584744
161	0x3e935a48	0.28779817
162	0x3d1ee613	0.038793635
163	0x3e8de2c5	0.27712074
164	0x3e5acaf9	0.2136649
165	0x3e90ac23	0.2825633
166	0x3d8880e7	0.06665211
167	0x3de71c8a	0.1128474
168	0xbf12c602	-0.57333386
169	0xbdbe5ac6	-0.092946574
170	0xbc39c875	-0.011339297
171	0xbe5ba872	-0.21450976
172	0xbccbd2f9	-0.024880873
173	0x3ee167cf	0.44024512
174	0xbebf7edb	-0.3740147
175	0xbede2897	-0.43390343
176	0xbe977c01	-0.29586795
177	0xbf01bef6	-0.5068201
178	0xbf01a054	-0.50635266
179	0x3c97fb5a	0.018552471
180	0x3c819226	0.01581676
181	0x3e85c8b3	0.26129684
182	0xbe6ad090	-0.22931123
183	0xbd824ce5	-0.06362323
184	0x3d67f0cb	0.056626122
185	0xbe9fb230	-0.31190634
186	0xbe4af6f3	-0.19820766
187	0x3bcb6ba4	0.0062079
188	0x3ebdd761	0.37078384
189	0x3dece9c2	0.11568023
190	0x3cc91498	0.024545953
191	0x3eea9ad5	0.45821252
192	0x3d89e834	0.06733742
193	0xbd565fd3	-0.05233748
194	0x3e975adc	0.29561508
195	0x3ecb2f89	0.39684704
196	0x3e810672	0.2520023
197	0x3e8bb78e	0.2728848
198	0xbec00409	-0.3750308
199	0xbd1f2d74	-0.038861707
200	0xbf31df87	-0.694817
201	0xbe90a321	-0.28249457
202	0x3ea56e7b	0.32310852
203	0x3dea2c43	0.114342235
204	0x3e6d707d	0.23187442
205	0x3eff4163	0.49854574
206	0xbe367317	-0.17817341
207	0xbee6cd5e	-0.45078558
208	0xbe829fb3	-0.25512466
209	0xbf7cd9c8	-0.9876981
210	0xbf6b698b	-0.9195792
211	0xbe882a0b	-0.26594576
212	0x3dd6a068	0.10479814
213	0x3ecce3c9	0.40017536
214	0xbee4a0ea	-0.44654018
215	0x3e892e38	0.26793075
216	0x3d12a2b2	0.03579969
217	0xbf1dae7e	-0.6159438
218	0x3e67ea13	0.22647886
219	0x3e80a1d9	0.2512348
220	0xbe30dbc9	-0.17271341
221	0x3cf8204f	0.030288843
222	0x3e0007a2	0.12502912
223	0x3f3b47a1	0.7315617
224	0x3e9962c7	0.29958174
225	0x3e0b3e39	0.13597955
226	0xbe2486a5	-0.16066988
227	0x3de8ea19	0.113727756
228	0x3d6b54f3	0.05745406
229	0x3ec0a297	0.37624046
230	0xbdfe16cb	-0.12406691
231	0xbdd0e16a	-0.10199244
232	0xbeef2ce0	-0.46713924
233	0xbe303285	-0.17206772
234	0xbe25645a	-0.16151562
235	0x3d6beeb0	0.057600677
236	0x3b8f703b	0.0043773926
237	0x3d5d3b02	0.054011352
238	0xbe9678c3	-0.2938901
239	0xbde6c106	-0.11267285
240	0xbf0a55cd	-0.5403717
241	0xbe1887c9	-0.14895548
242	0xbef21a68	-0.4728577
243	0xbe8eb6a6	-0.27873725
244	0xbe97f211	-0.2967687
245	0xbd4af6e8	-0.049551874
246	0xbdd44f6b	-0.1036671
247	0x3ee9edd1	0.45689252
248	0x37e9ef23	2.7887121e-05
249	0xbe1065c7	-0.14101325
250	0xbd9ddb07	-0.07707792
251	0x3e81c48d	0.2534527
252	0x3e5249ae	0.20535919
253	0x3ea95149	0.33069828
254	0xbe22f1f3	-0.15912609
255	0xbe49aa5a	-0.1969389

0.bias f4 [64]
0	0xbe9bb785	-0.30413452
1	0x3e821d3f	0.25412938
2	0xbd89c1bf	-0.06726407
3	0x3e0105d7	0.12599884
4	0x3f03947b	0.5139844
5	0xbc3f42d8	-0.011673652
6	0xbcc4b092	-0.024009977
7	0x3eb812df	0.35951898
8	0x3c22f63d	0.009946403
9	0xbe09247d	-0.13392825
10	0x3ed6db6c	0.4196428
11	0x3ded6dfe	0.11593245
12	0x3e3d00f8	0.18457401
13	0x3eabc1af	0.33546206
14	0x3df7497b	0.12074562
15	0x3e2a0f5a	0.16607419
16	0xbd9b4af3	-0.07582655
17	0xbe14ef7f	-0.14544486
18	0xbe95ec97	-0.29282066
19	0x3e42b78b	0.19015329
20	0x3efc587b	0.49286255
21	0x3e605351	0.21906783
22	0x3eba49e4	0.363845
23	0x3e4c52c0	0.19953442
24	0x3f32c792	0.6983577
25	0x3f11c39d	0.5693911
26	0xbe376a09	-0.17911543
27	0xbdaf23c2	-0.08551742
28	0xbe5f73d3	-0.21821527
29	0x3f7b98e0	0.98280144
30	0xbe00c211	-0.1257403
31	0x3e75276e	0.23940822
32	0x3eb6d5ac	0.35709894
33	0xbd87a7de	-0.06623815
34	0x3ead9a96	0.33907002
35	0xbe8eecfd	-0.27915183
36	0x3c23132b	0.0099533005
37	0x3f02cb58	0.5109153
38	0x3e8fba9e	0.28072065
39	0x3e065e3c	0.13121885
40	0x3e3b7506	0.1830636
41	0x3da97f8b	0.0827628
42	0x3e015970	0.12631774
43	0x3eeb4c5c	0.45956695
44	0xbe25f898	-0.16208112
45	0xbe1fe00b	-0.1561281
46	0x3c515dc2	0.012778701
47	0xbe5f4711	-0.21804453
48	0xbdc008ef	-0.09376704
49	0x3f9e3643	1.2360309
50	0x3e029084	0.12750441
51	0x3e899aa1	0.26875785
52	0x3e71cc93	0.23613195
53	0xbd68120f	-0.056657847
54	0x3f0c3a36	0.5477632
55	0x3f352502	0.70759594
56	0x3e8699b6	0.26289147
57	0x3eef0a57	0.46687576
58	0x3ec35d5e	0.3815717
59	0xbe3cdd9b	-0.18443911
60	0xbea01b2c	-0.3127073
61	0x3cafb5b8	0.021448955
62	0x3f428b46	0.75993764
63	0x3e95839b	0.2920197

2.weight f4 [128, 64]
0	0xbcae1823	-0.021251744
1	0xbec505f8	-0.38481116
2	0x3f5e9e3b	0.8696019
3	0xbe3a2f60	-0.18182135
4	0xbe83043d	-0.2558917
5	0xbf0344e4	-0.51276994
6	0xbdc71d1e	-0.097223505
7	0x3e7223db	0.2364649
8	0xbd94fcc0	-0.07274771
9	0x3c71f330	0.014767453
10	0x3f651725	0.8948844
11	0xbe2a8ae4	-0.16654545
12	0xbe84a69f	-0.25908372
13	0xbe344382	-0.17603877
14	0x3e4b8617	0.1987537
15	0xbe1b79f8	-0.15183246
16	0xba852067	-0.0010156751
17	0x3dc8cf86	0.09805207
18	0x3d58cff9	0.052932713
19	0xbdb96640	-0.09052706
20	0xbed1a291	-0.4094434
21	0xbf36d976	-0.7142557
22	0xbed5c8a2	-0.41754633
23	0xbe0d6bf9	-0.1381072
24	0xbf3f3ed4	-0.74705243
25	0xbed88d39	-0.42295244
26	0xbdcff326	-0.10153799
27	0xbf099779	-0.53746754
28	0x3dda084d	0.106461145
29	0xbdd610b9	-0.10452408
30	0x3d0ad872	0.033897825
31	0xbec0fc6d	-0.37692586
32	0xbf3f2bc1	-0.7467614
33	0x3d448852	0.047981568
34	0xbe108ce4	-0.14116246
35	0x3dc2a6c1	0.09504462
36	0xbe806c84	-0.2508279
37	0xbea10f97	-0.31457207
38	0x3eb5fb1a	0.35543138
39	0xbe882776	-0.26592606
40	0xbe74d347	-0.23908721
41	0xbe944f23	-0.28966627
42	0xbe0371b2	-0.1283634
43	0x3e76572e	0.24056694
44	0xbd29b5ba	-0.041433074
45	0x3e6fa89d	0.23404165
46	0xbe086abb	-0.13321964
47	0x3cc1f72b	0.02367743
48	0xbd8533af	-0.065039985
49	0xbe74fe57	-0.23925148
50	0xbca19e7e	-0.019728895
51	0x3ea700d6	0.32617825
52	0xbeada7fd	-0.33917227
53	0xbdeb83e7	-0.11499768
54	0x3ef4aa1c	0.47786033
55	0x3eeda52e	0.46415085
56	0xbd1aa28e	-0.03775268
57	0xbf427651	-0.75961787
58	0xbe69d1f6	-0.22834
59	0xbf0f819f	-0.5605716
60	0xbd960f92	-0.073271886
61	0xbd52945a	-0.05141101
62	0xbdaba637	-0.08381312
63	0x3cc43c6e	0.023954596
64	0x3d9eaa9b	0.07747384
65	0x3e707cb5	0.23485072
66	0x3f060233	0.52347106
67	0xbe27d273	-0.16388874
68	0x3f60b162	0.87770665
69	0x3e3818e9	0.17978252
70	0x3f3e8d79	0.7443462
71	0xbc33e7e9	-0.010980585
72	0xbf5ba376	-0.85796297
73	0x3d311dad	0.04324119
74	0xbe245422	-0.16047719
75	0xbe294e34	-0.16533738
76	0xbead3e20	-0.3383646
77	0xbeff98e7	-0.49921343
78	0x3ecad439	0.39615038
79	0xbed920bf	-0.42407796
80	0x3d2287b7	0.03968021
81	0x3e301a31	0.17197491
82	0x3d3f3e35	0.046690185
83	0x3e9b6692	0.30351692
84	0xbe8a9500	-0.27066803
85	0x3efb7b21	0.49117377
86	0x3e707ba6	0.23484668
87	0xbe5d148b	-0.21589868
88	0xbe806917	-0.25080177
89	0xbf461a4d	-0.7738388
90	0xb8bc94a9	-8.992229e-05
91	0xbd88adc2	-0.06673767
92	0x3e319cb6	0.17344937
93	0xbf429b0a	-0.7601782
94	0x3dd9d465	0.10636214
95	0xbedbc377	-0.42922565
96	0xbeb3da8f	-0.35127684
97	0x3e507328	0.20356429
98	0xbec73e92	-0.38914925
99	0x3e81b6bb	0.25334725
100	0x3ebb786e	0.36615318
101	0x3e697823	0.22799735
102	0x3e8d835b	0.2763928
103	0x3d2f77c4	0.042838827
104	0xbe624b80	-0.22099113
105	0x3e2d1947	0.16904174
106	0x3dbb9175	0.09158603
107	0xbeafc124	-0.34327042
108	0x3de3ae61	0.111172445
109	0xbf2a447d	-0.66510755
110	0xbe36c1f9	-0.17847432
111	0x3d5e6782	0.05429793
112	0x3e6ad143	0.2293139
113	0x3e635dc4	0.22203737
114	0x3dbd9129	0.09256203
115	0xbe3638a8	-0.1779505
116	0x3e7e4c1f	0.24833725
117	0xbd8bbc74	-0.06823054
118	0x3e25414f	0.16138195
119	0xbebddf2e	-0.37084335
120	0xbf0c5cc1	-0.5482903
121	0xbef1c644	-0.47221577
122	0x3f0590a4	0.5217383
123	0xbd060880	-0.03272295
124	0xbd777648	-0.060415536
125	0x3ea1c118	0.3159263
126	0xbe0c6673	-0.13710956
127	0x3e1112cd	0.14167328
128	0x3e0e6518	0.13905752
129	0xbe3b2ddc	-0.18279213
130	0xbeb9cfc8	-0.36291337
131	0x3dd6fd5b	0.104975425
132	0xbdafaf7f	-0.08578395
133	0xbcb12a78	-0.021626696
134	0xbebb74d8	-0.36612582
135	0xbe5dc824	-0.21658379
136	0x3b45e0d6	0.0030193827
137	0x3dd6bd45	0.10485319
138	0xbed73f46	-0.4204046
139	0x3dc71a33	0.09721794
140	0x3e94d16f	0.29066035
141	0x3d5108e5	0.051033873
142	0xbebb54da	-0.36588174
143	0xbeacd163	-0.337535
144	0x3e17cd51	0.14824416
145	0x3cd20c03	0.025640493
146	0x3debfb49	0.11522538
147	0xbda59aa2	-0.080861345
148	0x3f0015b5	0.5003312
149	0xbd0bf8ad	-0.034172703
150	0x3ed6c74e	0.41948932
151	0x3dd1f289	0.10251338
152	0x3f1c91ea	0.6116015
153	0x3e301362	0.17194894
154	0x3d7f0d07	0.062268283
155	0xbee0a7c0	-0.43877983
156	0x3d979548	0.0740152
157	0x3e7c84f2	0.2466009
158	0xbd51b384	-0.05119659
159	0xbf0adccb	-0.54243153
160	0xbf8877a4	-1.0661511
161	0x3d83447a	0.06409545
162	0xbd9ad69b	-0.07560464
163	0x3d2fefcc	0.042953297
164	0x3e6987e9	0.22805752
165	0xbf6a909a	-0.91626894
166	0xbe08d3ff	-0.1336212
167	0x3e877976	0.26459855
168	0x3e85253e	0.26004976
169	0xbe73260d	-0.23744984
170	0xbcbf49c4	-0.023350604
171	0xbe63eb55	-0.22257741
172	0xbca4b8dc	-0.02010768
173	0x3de778e2	0.113023534
174	0x3dd7d213	0.10538115
175	0xbba3b2a9	-0.004995663
176	0x3df1df91	0.1181022
177	0xbe33937b	-0.17536728
178	0x3eecb185	0.46229187
179	0x3ebaca96	0.36482686
180	0x3bc88e97	0.0061205137
181	0x3dd67e98	0.104733646
182	0xbe8ff81c	-0.2811898
183	0x3daaa794	0.08332744
184	0x3e0fd75f	0.14047001
185	0xbeaf57d5	-0.34246698
186	0x3f33b233	0.70193785
187	0xbe7ca901	-0.24673845
188	0x3d8ca263	0.0686691
189	0x3e85905f	0.2608671
190	0x3ed114e9	0.40836266
191	0x3f2eeee5	0.68333274
192	0x3d8f3756	0.06992976
193	0xbe84440c	-0.25833166
194	0xbeaf515f	-0.3424177
195	0xbefdae11	-0.49546865
196	0xbee4353c	-0.44571865
197	0xbd5ecc63	-0.054394137
198	0xbd35f46e	-0.04442256
199	0x3e77d9d9	0.24204196
200	0xbdcf3934	-0.101183325
201	0xbcc3d553	-0.023905432
202	0xbf1929ad	-0.5982922
203	0xbed2c17b	-0.4116324
204	0x3e2d7d1d	0.16942258
205	0xbefb251b	-0.49051747
206	0x3c9003a6	0.017579865
207	0xbf17cc71	-0.5929633
208	0x3dec4fb0	0.11538637
209	0x3d254e99	0.04035816
210	0x3dea3e35	0.11437646
211	0xbf1fcc79	-0.62421376
212	0xbefc9439	-0.49331835
213	0xbed77621	-0.42082313
214	0x3ee57ba0	0.4482088
215	0x3f176459	0.59137493
216	0x3b43192d	0.0029769645
217	0xbedfc85d	-0.43707553
218	0x3df2c076	0.11853115
219	0x3d41027c	0.04712151
220	0xbba6344e	-0.005072153
221	0x3e7e2b36	0.24821171
222	0xbc89f55d	-0.016840631
223	0xbf1c9b77	-0.6117472
224	0x3efc59bd	0.49287215
225	0x3d9fdb22	0.07805468
226	0x3eb115d4	0.34586966
227	0xbd981321	-0.074255235
228	0xbe0f658c	-0.14003581
229	0xbe390ffd	-0.18072505
230	0xbeb96b5c	-0.3621472
231	0x3c6f4b12	0.0146053005
232	0xbca48917	-0.0200849
233	0xbdd41c47	-0.10356956
234	0xbdb15e81	-0.08660603
235	0x3f0c5ebf	0.5483207
236	0x3e147397	0.14497219
237	0xbeda22bf	-0.42604634
238	0xbed46c8a	-0.4148906
239	0x3dc42184	0.09576705
240	0x3e210ca3	0.15727477
241	0xbfb5be65	-1.4198729
242	0xbdc9538e	-0.0983039
243	0x3f250a15	0.6446851
244	0x3e035f3d	0.128293
245	0xbd6ee075	-0.058319528
246	0xbeabd229	-0.33558777
247	0x3ed3a8cb	0.41339716
248	0xbe27a7b8	-0.16372573
249	0x3cadb0ca	0.021202464
250	0x3e82793a	0.25483114
251	0xbf02b55b	-0.51057976
252	0x3e873957	0.26410934
253	0xbe02669f	-0.1273446
254	0x3f30fb89	0.6913381
255	0xbd8ac92f	-0.06776654

2.bias f4 [128]
0	0x3ddb27e8	0.10700971
1	0xbc8b0c21	-0.016973557
2	0x3d076264	0.033052817
3	0x3ed11bc1	0.40841487
4	0xbe8a683c	-0.2703265
5	0xbdc83844	-0.09776357
6	0xbe7126e4	-0.23549992
7	0x3d6a2c5c	0.05717121
8	0x3de78b2b	0.11305841
9	0x3daf803e	0.08569382
10	0xbe822d84	-0.2542535
11	0x3e88c770	0.2671466
12	0xbd8cef05	-0.06881527
13	0x3e164eba	0.1467847
14	0x3e39dd78	0.1815089
15	0xbc8dd60a	-0.017313976
16	0x3e2897bb	0.1646413
17	0xbd2bcfda	-0.04194627
18	0x3e01b890	0.12668061
19	0x3d8125bf	0.063060276
20	0x3e29c41c	0.16578716
21	0x3d47691d	0.04868423
22	0xbe4bd5be	-0.19905755
23	0x3e758bd0	0.23979115
24	0xbe16898a	-0.14700904
25	0xbe095a56	-0.13413367
26	0x3df8b7c9	0.12144429
27	0x3e89e465	0.26932064
28	0x3e4d70f7	0.20062624
29	0x3d4d9a29	0.050195847
30	0xbd195552	-0.037434883
31	0x3e7c54e4	0.24641758
32	0x3da2f71b	0.07957288
33	0x3d219909	0.039452586
34	0x3e21787b	0.15768616
35	0xbc51dd1c	-0.012809064
36	0xbc9acb02	-0.01889563
37	0xbe65d978	-0.22446239
38	0xbeac0f51	-0.33605435
39	0x3e15ad48	0.14616883
40	0xbe4da622	-0.20082906
41	0xbad0b218	-0.0015922217
42	0x3e39a3c7	0.18128882
43	0xbd806642	-0.06269504
44	0x3d3d9398	0.046283334
45	0x3edf74ba	0.43643743
46	0x3dc4b005	0.096038856
47	0x3c1768d2	0.0092413
48	0x3d6a54de	0.057209842
49	0x3c8152d9	0.015786575
50	0x3dc65fde	0.09686254
51	0x3e40e0f4	0.18835813
52	0x3e21b413	0.15791349
53	0x3c9c35e9	0.019068675
54	0x3da7a58d	0.08185873
55	0x3d55b728	0.052176625
56	0x3e1538f7	0.14572512
57	0x3e8952a5	0.26820865
58	0x3e535729	0.20638718
59	0x3db5f9a1	0.088855036
60	0xbcf7c646	-0.030245911
61	0x3d0466c2	0.03232456
62	0xbe8bff8d	-0.27343407
63	0x3e0a298f	0.13492416
64	0xbdb2790d	-0.08714495
65	0x3d4e3c57	0.050350513
66	0x3d903023	0.07040431
67	0xbe8b5462	-0.27212816
68	0x3e183bf0	0.14866614
69	0xbbb91214	-0.005647907
70	0xbd9b8905	-0.07594494
71	0xbdb89e63	-0.09014585
72	0xbe0de230	-0.13855815
73	0xbd8541dd	-0.06506703
74	0xbdc76249	-0.09735543
75	0xbd8926be	-0.066968426
76	0xbd89e208	-0.06732565
77	0x3cb95715	0.022624532
78	0xbeb4da17	-0.3532264
79	0x3d140438	0.036136836
80	0x3d4e28c1	0.050331835
81	0xbd8f353b	-0.06992575
82	0xbe2dee5c	-0.16985458
83	0x3e025c82	0.12730601
84	0xbca913a1	-0.020639243
85	0x3e61747f	0.22017096
86	0x3c1f055a	0.009705866
87	0x3e81d506	0.25357836
88	0xbe4625ef	-0.19350408
89	0x3d017397	0.031604376
90	0x3e9196d9	0.284354
91	0x3e98dcba	0.298559
92	0x3e3820df	0.1798129
93	0xbe0cce1f	-0.13750504
94	0x3d984d00	0.074365616
95	0x3e43b49c	0.19111866
96	0xbe566596	-0.2093719
97	0xbe0ef951	-0.13962294
98	0x3edd1dc2	0.43186766
99	0xbe8d6a3a	-0.27620107
100	0x3ed31e25	0.41233936
101	0x3da95099	0.08267326
102	0x3d1edbe5	0.038783927
103	0x3d7bed02	0.061505325
104	0x3d11d468	0.035602957
105	0x3d25004e	0.040283494
106	0xbdb2b9de	-0.087268576
107	0xbd1cc22d	-0.038271118
108	0xbc241820	-0.0100155175
109	0xbd22bddd	-0.03973185
110	0x3c01c372	0.007920133
111	0xbe05755c	-0.1303305
112	0xbe1c9b3b	-0.1529359
113	0x3e3cec40	0.18449497
114	0x3de6eecd	0.112760164
115	0x3e17807f	0.14795111
116	0x3e831288	0.25600076
117	0x3d8f540d	0.06998453
118	0x3dfbba09	0.12291343
119	0x3d9e5a54	0.077320725
120	0x3e71da27	0.23618375
121	0xbe5adfeb	-0.2137448
122	0x3e34ee75	0.17669089
123	0x3d55595a	0.052087165
124	0x3c84c8bc	0.016208999
125	0x3e9d3318	0.30703044
126	0xbe8308d1	-0.25592664
127	0x3ce064e8	0.027391866

4.weight f4 [784, 128]
0	0xbf0c8195	-0.54885226
1	0xbf32b883	-0.6981279
2	0xbf4123db	-0.75445336
3	0xbea726df	-0.32646844
4	0xbefb9060	-0.49133587
5	0xbefc5399	-0.4928253
6	0xbf10acbe	-0.56513584
7	0xbf565db7	-0.8373675
8	0xbec110b0	-0.37708044
9	0xbf0af690	-0.54282475
10	0xbdedb976	-0.116076395
11	0xbf325797	-0.696649
12	0xbf22cf8d	-0.6359795
13	0xbebd06a6	-0.36919135
14	0xbe0e148c	-0.13875026
15	0xbed84a51	-0.422442
16	0xbe43932d	-0.19099112
17	0xbf071896	-0.5277189
18	0xbeb5b8eb	-0.35492644
19	0xbe3c5f2b	-0.18395679
20	0xbd2b3241	-0.041795973
21	0xbf5fdd1f	-0.8744678
22	0xbe079967	-0.13242112
23	0xbf373ea5	-0.7157996
24	0xbf403f1d	-0.75096303
25	0xbe56dee0	-0.20983458
26	0xbf0af899	-0.5428558
27	0xbe0fa72f	-0.14028619
28	0xbedfe176	-0.437267
29	0xbf175db1	-0.59127337
30	0xbf4521c4	-0.7700465
31	0xbde61e9f	-0.11236309
32	0xbf352702	-0.70762646
33	0xbe356817	-0.17715488
34	0xbefd4f0e	-0.49474376
35	0xbf1d6e44	-0.61496377
36	0xbd940e29	-0.07229263
37	0xbe07a5fd	-0.13246913
38	0xbefbc9f5	-0.49177518
39	0xbfa35b0c	-1.276216
40	0xbf137f1a	-0.57615817
41	0xbe7d41d9	-0.2473215
42	0xbe25f4e0	-0.16206694
43	0xbe09b2b5	-0.13447078
44	0xbf3280f6	-0.6972803
45	0xbfabda17	-1.3425931
46	0xbe580970	-0.2109735
47	0xbf2903da	-0.660215
48	0xbf221fd2	-0.63329804
49	0xbe4930b9	-0.19647492
50	0xbec6176f	-0.38689753
51	0xbf8202fb	-1.015716
52	0xbf425a3a	-0.75918925
53	0xbde4b363	-0.11167028
54	0xbeac0ac5	-0.33601967
55	0x3adf4e7a	0.0017036938
56	0xbf6de1e8	-0.9292283
57	0xbe4c0612	-0.1992419
58	0xbec86cbe	-0.39145464
59	0xbdc7e5bd	-0.09760616
60	0xbf0460bb	-0.517101
61	0xbe6891a1	-0.22711803
62	0xbf2356d8	-0.6380439
63	0xbe29d5bc	-0.1658544
64	0xbefc4bb8	-0.4927652
65	0xbf1a75d4	-0.6033604
66	0xbf130e02	-0.5744325
67	0xbe9ee2be	-0.31032366
68	0xbec8e237	-0.39235088
69	0xbf0a9a8f	-0.5414209
70	0xbe1d4979	-0.15360059
71	0xbf286a4c	-0.65787196
72	0xbde5bf04	-0.11218074
73	0xbe601107	-0.21881495
74	0xbeede99b	-0.4646729
75	0xbeeee5cd	-0.466597
76	0xbf2536f1	-0.6453696
77	0xbf5d5c35	-0.8646882
78	0xbe32e957	-0.17471825
79	0xbf4c32e6	-0.79765165
80	0xbf23275c	-0.6373193
81	0xbe94b18d	-0.2904171
82	0xbef3de39	-0.4763048
83	0xbef9c5b8	-0.4878366
84	0xbf28532e	-0.6575192
85	0xbe3bc9df	-0.18338726
86	0xbf2e7de3	-0.6816084
87	0xbdeb3502	-0.1148472
88	0xbf22f2a4	-0.6365149
89	0xbec0c063	-0.3764678
90	0xbf2e2d30	-0.680377
91	0xbf818149	-1.011758
92	0xbf27ed0d	-0.65596086
93	0xbe61e246	-0.22058973
94	0xbf98c58e	-1.1935289
95	0xbf27a3ad	-0.65484124
96	0xbe17bfd1	-0.14819266
97	0xbf4936c2	-0.7859918
98	0xbf804b90	-1.002306
99	0xbd835e69	-0.06414492
100	0xbf875cc6	-1.0575187
101	0xbf1f8dae	-0.6232556
102	0xbd7d8609	-0.061895404
103	0xbf669f29	-0.9008661
104	0xbf270943	-0.6524851
105	0xbe60ddda	-0.2195963
106	0xbf0eb164	-0.55739427
107	0xbf2057f1	-0.6263419
108	0xbe09a326	-0.13441142
109	0xbe4c7761	-0.19967414
110	0xbf528dfc	-0.822479
111	0xbf112251	-0.5669299
112	0xbe92478a	-0.28570205
113	0xbd8eed80	-0.06978893
114	0xbf35addc	-0.70968413
115	0xbf5a7880	-0.8534012
116	0xbf317b98	-0.69329214
117	0xbee47ab9	-0.4462488
118	0xbf75c0ce	-0.9599732
119	0xbf47aec9	-0.78001076
120	0xbe3b41f7	-0.18286882
121	0xbeb52c37	-0.35385296
122	0xbf7d6cd5	-0.9899419
123	0xbf0e0078	-0.55469465
124	0xbf953eca	-1.1659787
125	0xbf1a64ad	-0.6030987
126	0xbf5b0d40	-0.8556709
127	0xbebf6db4	-0.37388384
128	0xbf02b022	-0.5105001
129	0xbf338da6	-0.70138013
130	0xbf2c5aac	-0.67325854
131	0xbec08c21	-0.3760691
132	0xbef168fe	-0.47150415
133	0xbf1135e7	-0.56722873
134	0xbf29d494	-0.66339993
135	0xbf5d6183	-0.86476916
136	0xbef83d18	-0.4848411
137	0xbf266b00	-0.6500702
138	0xbe045e4e	-0.129266
139	0xbf41df8e	-0.7573174
140	0xbf32e641	-0.6988259
141	0xbf01c084	-0.5068438
142	0xbde214a6	-0.110390946
143	0xbeb564d6	-0.35428494
144	0xbdf99cdb	-0.12188121
145	0xbee6013a	-0.4492281
146	0xbea0b6c4	-0.3138944
147	0xbe20b553	-0.1569417
148	0xbe27b11d	-0.16376157
149	0xbf4ab03f	-0.7917518
150	0xbdcae638	-0.09907192
151	0xbf25dbb3	-0.6478836
152	0xbf3d55c4	-0.7395899
153	0xbe479e0b	-0.19493882
154	0xbef98c27	-0.4873974
155	0xbe3237f6	-0.1740416
156	0xbeed0a52	-0.46296936
157	0xbf0aa8d7	-0.5416388
158	0xbf1e7528	-0.61897516
159	0xbdc7cc85	-0.09755806
160	0xbf1f4ed7	-0.62229675
161	0xbe3df068	-0.18548739
162	0xbed8f1c1	-0.42371944
163	0xbf1872a3	-0.5954992
164	0xbd8b6633	-0.06806602
165	0xbe2df266	-0.16986999
166	0xbedc0230	-0.4297042
167	0xbf937965	-1.1521422
168	0xbf121b81	-0.5707322
169	0xbe08b815	-0.13351472
170	0xbe8f2bfd	-0.27963248
171	0xbe3038d0	-0.17209172
172	0xbf3622b7	-0.7114672
173	0xbfada00b	-1.3564466
174	0xbe315b09	-0.17319883
175	0xbf30cfc3	-0.6906702
176	0xbf0b0322	-0.54301655
177	0xbe53300e	-0.206238
178	0xbec04b5e	-0.375575
179	0xbf7a5b26	-0.9779533
180	0xbf4e4518	-0.8057418
181	0xbe0f53dd	-0.13996835
182	0xbe93a244	-0.28834736
183	0xbdc5ee87	-0.09664636
184	0xbf556da1	-0.83370405
185	0xbe92c6e3	-0.28667364
186	0xbec3fdd8	-0.38279605
187	0xbd512f32	-0.0510704
188	0xbf14d2d2	-0.58134186
189	0xbe9906d6	-0.29888028
190	0xbf1ead11	-0.6198283
191	0xbe0327e3	-0.12808184
192	0xbec2ec73	-0.3807102
193	0xbf15d698	-0.5853057
194	0xbefa8126	-0.48926657
195	0xbed7e863	-0.42169484
196	0xbe9a9fbd	-0.30199996
197	0xbf0c6983	-0.548485
198	0xbe1116b1	-0.14168812
199	0xbf1a639e	-0.60308254
200	0xbdcdaf7d	-0.10043237
201	0xbe25b1fc	-0.16181177
202	0xbf0937a7	-0.53600544
203	0xbedf2438	-0.4358232
204	0xbf39dab3	-0.72599334
205	0xbf405a58	-0.75137854
206	0xbde90dbb	-0.11379572
207	0xbf3ad791	-0.7298518
208	0xbf19776d	-0.59947854
209	0xbed6823b	-0.41896233
210	0xbecbdd9a	-0.39817506
211	0xbf0812aa	-0.5315348
212	0xbf17d9f8	-0.5931697
213	0xbe3a1a12	-0.18174008
214	0xbf2f9519	-0.6858688
215	0xbdae6bb6	-0.08516638
216	0xbf477f55	-0.7792867
217	0xbefd430f	-0.49465224
218	0xbf137e4e	-0.576146
219	0xbf5d5e53	-0.8647205
220	0xbf099b32	-0.53752434
221	0xbdd5b782	-0.10435392
222	0xbf98b7e6	-1.1931121
223	0xbf29fe97	-0.664041
224	0xbdcef97a	-0.10106178
225	0xbf41f3ab	-0.7576243
226	0xbf6fd8fe	-0.9369048
227	0xbe16cab3	-0.14725761
228	0xbf853b26	-1.0408676
229	0xbf287d5e	-0.65816295
230	0xbe429d0f	-0.19005226
231	0xbf4dcb94	-0.8038876
232	0xbf261521	-0.6487599
233	0xbe393d19	-0.18089713
234	0xbf04c843	-0.51868075
235	0xbf185142	-0.5949899
236	0xbdf76c2f	-0.12081181
237	0xbe14df67	-0.14538346
238	0xbf3cf4c6	-0.73810995
239	0xbf158eb1	-0.58420855
240	0xbeab32ea	-0.33437282
241	0xbdd8e24c	-0.10590038
242	0xbf211622	-0.62924397
243	0xbf643d38	-0.8915591
244	0xbf474b5c	-0.77849364
245	0xbf06f87f	-0.52722925
246	0xbf506a0f	-0.8141183
247	0xbf2318c5	-0.6370967
248	0xbe483d45	-0.19554622
249	0xbebf9eba	-0.37425786
250	0xbf81da16	-1.014468
251	0xbf10d75a	-0.565786
252	0xbf8678e7	-1.0505646
253	0xbf403377	-0.7507853
254	0xbf57dea1	-0.8432408
255	0xbed266fa	-0.4109419

4.bias f4 [784]
0	0xbf0665a1	-0.52498823
1	0xbf11c2fb	-0.5693814
2	0xbecaf3f7	-0.39639255
3	0xbefdf3eb	-0.49600157
4	0xbf2c9590	-0.67415714
5	0xbef13438	-0.47110152
6	0xbede79df	-0.43452355
7	0xbf2479b4	-0.64248204
8	0xbf18f87a	-0.59754145
9	0xbef71c58	-0.48263812
10	0xbf131fb3	-0.57470244
11	0xbf20bf28	-0.6279168
12	0xbf069922	-0.5257741
13	0xbf0a0037	-0.5390658
14	0xbefc2111	-0.49243978
15	0xbef85bf4	-0.48507655
16	0xbf187487	-0.59552807
17	0xbf01c61b	-0.5069291
18	0xbee6d118	-0.450814
19	0xbf3fc8ee	-0.7491597
20	0xbf2e8dc3	-0.6818506
21	0xbf03208d	-0.51221544
22	0xbf08e7fc	-0.5347898
23	0xbf1440a9	-0.57911164
24	0xbf3f5bca	-0.74749434
25	0xbf072303	-0.527878
26	0xbefa7c9f	-0.48923203
27	0xbf3e2b55	-0.7428487
28	0xbf014dab	-0.50509137
29	0xbeefc651	-0.4683099
30	0xbefb45ce	-0.49076694
31	0xbeffcf68	-0.49962926
32	0xbf1a1df6	-0.60201967
33	0xbf03d189	-0.514916
34	0xbee8b697	-0.45451805
35	0xbf10f74d	-0.5662735
36	0xbdfb8629	-0.122814484
37	0xbe1ee0f4	-0.155155
38	0xbd855983	-0.06511214
39	0xbdf3e0b7	-0.11908095
40	0xbdf6aed5	-0.12045065
41	0xbe0f764e	-0.14009973
42	0xbdb551d4	-0.08853498
43	0xbe057d5b	-0.130361
44	0xbd712194	-0.058869913
45	0xbdf87c80	-0.121331215
46	0xbd97998d	-0.07402334
47	0xbda3215b	-0.079653464
48	0xbe272fb6	-0.16326794
49	0xbe6f8e9e	-0.23394248
50	0xbeb989e4	-0.36238015
51	0xbf2a2bc2	-0.6647302
52	0xbec777b1	-0.38958505
53	0xbf235179	-0.6379619
54	0xbf3f9323	-0.7483389
55	0xbf1ea107	-0.6196446
56	0xbf23ab3b	-0.6393315
57	0xbf10184c	-0.56287074
58	0xbf038f6f	-0.5139074
59	0xbf0186a2	-0.5059606
60	0xbf02d8b0	-0.5111189
61	0xbed1c3a0	-0.40969563
62	0xbd6ec9a4	-0.05829777
63	0xbe556e5e	-0.20842883
64	0xbe17efaa	-0.14837518
65	0xbe48c163	-0.19605021
66	0xbe821eab	-0.25414023
67	0xbeb7334d	-0.35781327
68	0xbe93a7e1	-0.2883902
69	0xbe9689a3	-0.29401883
70	0xbf023c82	-0.5087358
71	0xbe8e1496	-0.2775008
72	0xbf14e1a7	-0.5815682
73	0xbef554db	-0.47916302
74	0xbebbf5d5	-0.36710992
75	0xbe56601e	-0.20935103
76	0xbdee9b57	-0.116507225
77	0xbe93a5ed	-0.2883753
78	0xbd8345cb	-0.06409796
79	0xbdbbd0c8	-0.09170681
80	0xbe940f26	-0.28917807
81	0xbf098ec7	-0.53733486
82	0xbf23c43f	-0.6397132
83	0xbef471da	-0.47743112
84	0xbf183260	-0.59451866
85	0xbf1956ad	-0.5989788
86	0xbf10d4c3	-0.5657465
87	0xbf1ce251	-0.6128283
88	0xbe4e1117	-0.20123707
89	0xbe778176	-0.24170479
90	0xbe96fa20	-0.29487705
91	0xbe8e1aa0	-0.27754688
92	0xbe91b6b1	-0.28459695
93	0xbe8c9065	-0.27453914
94	0xbee8cfb2	-0.4547096
95	0xbf1996c3	-0.5999567
96	0xbf2cb2d4	-0.6746037
97	0xbf28f75f	-0.6600246
98	0xbf3cfe3c	-0.7382543
99	0xbf426ab2	-0.75944054
100	0xbf55d52d	-0.83528405
101	0xbf34568e	-0.7044457
102	0xbf092b3c	-0.53581595
103	0xbf4ada03	-0.7923891
104	0xbf08610e	-0.53273094
105	0xbecb6c9d	-0.39731303
106	0xbe525fdc	-0.2054438
107	0xbea9418a	-0.33057815
108	0xbe288f03	-0.16460805
109	0xbef4b59a	-0.477948
110	0xbf362daa	-0.7116343
111	0xbf241140	-0.6408882
112	0xbf145c90	-0.5795374
113	0xbef4bdd2	-0.4780107
114	0xbed33cb3	-0.41257247
115	0xbe2c5718	-0.16830099
116	0xbe610a20	-0.21976519
117	0xbe8d74f8	-0.27628303
118	0xbe50543e	-0.20344636
119	0xbf4075b2	-0.7517959
120	0xbf0baec3	-0.5456354
121	0xbebef011	-0.3729253
122	0xbec6910d	-0.3878254
123	0xbec9102e	-0.39270157
124	0xbeeed286	-0.46644992
125	0xbee77853	-0.45208988
126	0xbef0ce04	-0.47032177
127	0xbf46e003	-0.77685565
128	0xbf28cfb1	-0.6594191
129	0xbf1f8725	-0.6231559
130	0xbee53e1c	-0.44773948
131	0xbed4c564	-0.41556847
132	0xbebdeef0	-0.37096357
133	0xbf1bf8d5	-0.6092656
134	0xbf1c48a6	-0.6104835
135	0xbea4a5a9	-0.3215764
136	0xbe993705	-0.2992479
137	0xbe42da7a	-0.19028655
138	0xbe116131	-0.14197232
139	0xbf176afe	-0.5914763
140	0xbf10a10c	-0.5649574
141	0xbee481b2	-0.446302
142	0xbea7d9cf	-0.32783362
143	0xbe554f51	-0.20831038
144	0xbebf5f8f	-0.37377593
145	0xbe84481e	-0.2583627
146	0xbee0e360	-0.43923473
147	0xbeea091c	-0.45710075
148	0xbe0b281c	-0.1358952
149	0xbe8566e1	-0.26055053
150	0xbe6ff9fe	-0.23435208
151	0xbee26372	-0.44216496
152	0xbf038a6d	-0.51383096
153	0xbef1f37b	-0.47256073
154	0xbe8c8686	-0.27446383
155	0xbe853f4f	-0.26024863
156	0xbe8bf285	-0.27333465
157	0xbe8bda9b	-0.2731522
158	0xbeaa43ce	-0.33254856
159	0xbed90b53	-0.42391452
160	0xbe8e0b7e	-0.27743143
161	0xbeb2d3fa	-0.3492735
162	0xbecc2e5a	-0.39879113
163	0xbef18ff3	-0.47180137
164	0xbe957461	-0.29190353
165	0xbe9613da	-0.2931202
166	0xbebbf1de	-0.36707968
167	0xbebc5658	-0.36784625
168	0xbf031248	-0.5119977
169	0xbf20d447	-0.6282391
170	0xbe7e26b3	-0.2481945
171	0xbd9e6359	-0.07733793
172	0xbe657d69	-0.22411121
173	0xbe784826	-0.24246272
174	0xbe8ecbbf	-0.2788982
175	0xbea1957b	-0.31559357
176	0xbdb2f267	-0.08737641
177	0x3d93d1a3	0.072177194
178	0x3c239d5b	0.009986247
179	0xbd2c9a88	-0.04213956
180	0xbe5f866b	-0.2182862
181	0xbe80d3e8	-0.25161672
182	0xbcb0b2b8	-0.021569595
183	0xbd12697e	-0.035745136
184	0xbd78a6b1	-0.060705844
185	0x3d707487	0.05870488
186	0xbd1ddf4e	-0.038543038
187	0xbe06b88e	-0.1315634
188	0xbe258495	-0.16163857
189	0xbe7e0fea	-0.24810758
190	0xbeb05410	-0.34439135
191	0xbec3c612	-0.38237053
192	0xbedba6b3	-0.4290062
193	0xbefaed47	-0.49009153
194	0xbe95b41c	-0.29238975
195	0x3b63088c	0.0034642546
196	0xbf24eb9a	-0.64422
197	0xbda8257c	-0.082102746
198	0xbe6847c4	-0.22683626
199	0xbe84f04b	-0.2596458
200	0xbe8a4626	-0.27006644
201	0xbec00219	-0.375016
202	0xbe18043b	-0.14845364
203	0xbd342cde	-0.0439881
204	0x3e0b63d4	0.136123
205	0x3dfa5955	0.1222407
206	0x3e647d0c	0.22313327
207	0x3da4bd8a	0.08043964
208	0x3e820332	0.25393063
209	0x3de41204	0.11136249
210	0x3dc068ca	0.09394987
211	0x3d8001fa	0.06250377
212	0x3e28740b	0.16450517
213	0x3e3b2cb6	0.18278775
214	0x3d92a682	0.07160665
215	0xbc4c0ac0	-0.012453735
216	0x3c81b7f5	0.015834788
217	0xbe0a4caf	-0.13505815
218	0xbe8445e9	-0.25834587
219	0xbeb2f5e5	-0.34953228
220	0xbf13b279	-0.576942
221	0xbf045858	-0.516973
222	0xbe8ed4d3	-0.27896747
223	0xbebe8e26	-0.37217826
224	0xbf0a97ad	-0.5413769
225	0xbd5dd990	-0.054162562
226	0xbe2e7195	-0.17035516
227	0xbee4fbf7	-0.44723484
228	0xbecad456	-0.39615124
229	0xbe87cf6e	-0.26525444
230	0xbe03a5e0	-0.12856245
231	0x3c9111d8	0.017708704
232	0xbc2136f3	-0.009839761
233	0x3e3ccf8a	0.18438545
234	0x3d3747b3	0.044746112
235	0x3cdac705	0.026706228
236	0xbc3c30f2	-0.011486279
237	0x3dc47323	0.09592273
238	0xb9b79f40	-0.0003502313
239	0x3e48c6e2	0.19607118
240	0x3dae2748	0.08503586
241	0x3da9789c	0.082749575
242	0x3da5077a	0.08058067
243	0x3e01a731	0.12661435
244	0xbd8d189e	-0.06889461
245	0xbdba697c	-0.09102151
246	0x3d811ce9	0.06304342
247	0xbe4ec7af	-0.20193361
248	0xbf0871c8	-0.53298616
249	0xbea78fed	-0.32726994
250	0xbeb3bfa8	-0.3510716
251	0xbe760b38	-0.24027717
252	0xbeee79ce	-0.46577305
253	0xbde36730	-0.11103666
254	0xbe9d8916	-0.3076865
255	0xbe74cfdf	-0.23907422
