mnist_gan/MNIST_GAN_FC/save/G--50.ckpt (torch_old, 447392 bytes, 6 tensors)

0.weight f4 [64, 32]
-0.009383921 -0.0073314905 0.0050766673 0.010411868 -0.010973025 0.02357073 -0.014902364 -0.009552807
-0.012759509 -0.005298142 -0.008881257 -0.014440905 0.015268349 0.01069209 -0.008670605 -0.006851006
-0.011572661 0.008026265 0.0016065605 0.0031964276 0.010686161 0.0075809783 0.005544237 0.01156568
-0.009621104 -0.0044393465 -0.0037999093 0.009261598 -0.013460501 0.011852757 0.0090296 0.0035474596
-0.312816 0.44957206 0.36264843 0.25575665 0.34165692 0.08871521 0.13983612 -0.22705913
-0.12913866 0.2550414 0.41171962 0.17250247 -0.13881482 0.46128502 -0.08454041 -0.22200644
0.15049124 -0.60739905 -0.15907775 0.116500296 -0.25675672 0.50944525 -0.26318908 0.33232898
0.073448196 -0.18789576 0.32081425 0.13670713 0.11327445 0.33359885 -0.048246086 0.76315284
-0.09345632 0.17829762 -0.2799141 0.2849276 -0.6227434 -0.25509018 0.123654276 0.4395868
0.63387895 -0.5484919 -0.1067477 -0.5406725 0.2098383 0.025869513 -0.066815324 -0.48153266
0.024829512 0.9588404 1.0108048 0.43377298 0.95523494 -1.3572826 -0.24299227 -0.5109895
0.18310638 -0.037587363 -0.38768747 -0.6934055 0.27902755 -0.122549504 0.09751088 -1.1207649
-0.31710052 0.5045535 0.11717449 -0.0029250036 0.33051863 -0.1855989 -0.085884 -0.5765309
-0.11491195 0.17228712 0.45697272 0.047355305 -0.062342674 0.44557658 0.21117298 -0.18004683
0.12009349 -0.40826318 -0.17492494 0.0364866 -0.08672935 0.9040979 -0.29911107 -0.14108883
0.022244085 -0.16950944 0.347024 0.02411523 0.21603347 0.13893475 0.19316532 0.5187503
-0.72710633 0.07986246 -0.55236495 0.31316933 -0.16555262 -0.14242019 0.17425142 0.7406467
-0.27063358 -0.3569159 -0.21699433 -0.58954567 -0.20350347 0.47889534 -0.5059158 -0.26501095
-0.5773918 0.0031361317 -0.3748625 0.19697322 0.8291712 -0.89100605 -0.21972024 -1.0859596
-0.1525884 -0.34684867 -0.7311938 -0.67463064 0.8431982 -0.38364825 0.19630009 -0.20403738
-0.6993065 0.38230005 -0.050286483 0.46112058 0.17882186 0.13489652 0.11451919 0.18504524
-0.5820023 -0.01711013 0.114797525 -0.32178813 -0.2604164 0.649565 -0.581035 -0.35831872
-0.42041203 -0.69295037 -0.6680955 0.10668627 0.13643408 -0.005380284 -0.42975333 -0.24472755
-0.0805613 -0.51385444 -0.2519341 -0.22882599 0.491378 0.062198114 0.056042366 0.6923393
0.17364883 -0.03240695 0.24310935 0.3623233 0.11049001 0.27914965 -0.20995231 -0.062693514
-0.7731899 -0.19068368 0.2850917 0.12457783 0.093957976 0.36402082 -0.3252998 -0.35839123
-0.30491903 -1.0087402 -1.032441 -0.44509637 -0.019497033 0.46218455 -0.3174711 0.4015578
0.16634114 -0.6487443 0.3808979 0.3808476 -0.16378117 0.0067472374 -0.028821845 0.9162516
0.31782627 0.1030933 -0.24000074 -0.040822707 0.0895835 0.3471384 -0.08306995 -0.23171747
-0.72921795 -0.16898967 -0.24867898 -0.011437861 -0.09131021 -0.13709022 -0.44498122 0.058807988
-0.4920527 -0.4430483 -0.64793706 -0.23748839 -0.49296778 -0.13162333 -0.3272613 0.6184256
-0.29014826 -0.16720195 -0.042755593 0.21896103 0.026077373 0.32456484 0.0359946 0.012152025
00000000: 04bf 19bc 003d f0bb 2c5a a63b 8a96 2a3c
00000010: 34c8 33bc 6717 c13c 0c29 74bc 6083 1cbc
00000020: 420d 51bc 099c adbb b182 11bc 8c99 6cbc
00000030: 1928 7a3c e02d 2f3c 270f 0ebc 677e e0bb
00000040: 429b 3dbc 9880 033c 3a93 d23a 287b 513b
00000050: 0215 2f3c db69 f83b 6eac b53b fa7d 3d3c
00000060: d6a1 1dbc f077 91bb e607 79bb f5bd 173c
00000070: 6f89 5cbc 1132 423c e3f0 133c 7f7c 683b
00000080: 6b29 a0be 4f2e e63e 0ead b93e 89f2 823e
00000090: a8ed ae3e 52b0 b53d 3331 0f3e 3082 68be
000000a0: ed3c 04be c994 823e eacc d23e 7da4 303e
000000b0: 7925 0ebe 8d2d ec3e 8623 adbd a855 63be
000000c0: 601a 1a3e 817e 1bbf 47e5 22be b597 ee3d
000000d0: 9e75 83be 016b 023f b8c0 86be 0627 aa3e
000000e0: 026c 963d bf67 40be c441 a43e f4fc 0b3e
000000f0: 6ffc e73d 78cd aa3e b09d 45bd fc5d 433f
00000100: 0766 bfbd a793 363e e750 8fbe 08e2 913e
00000110: 1d6c 1fbf 2e9b 82be 743e fd3d 8511 e13e
00000120: e445 223f f769 0cbf 8a9e dabd 8369 0abf
00000130: dadf 563e 4dec d33c 79d6 88bd 738b f6be
00000140: 4367 cb3c 9176 753f 0d62 813f 7e17 de3e
00000150: 478a 743f 70bb adbf f7d2 78be 35d0 02bf
00000160: 3d80 3b3e 35f5 19bd f97e c6be 0683 31bf
00000170: b3dc 8e3e 3cfb fabd c9b3 c73d 3975 8fbf
00000180: 005b a2be 6b2a 013f 2ef9 ef3d 6bb1 3fbb
00000190: bd39 a93e a30d 3ebe f3e3 afbd 8797 13bf
000001a0: f556 ebbd 096c 303e 54f8 e93e a3f7 413d
000001b0: 085b 7fbd 9d22 e43e bb3d 583e 325e 38be
000001c0: 93f3 f53d df07 d1be 861f 33be f972 153d
000001d0: 289f b1bd f672 673f 1625 99be 9779 10be
000001e0: 3a39 b63c e293 2dbe 21ad b13e 4e8d c53c
000001f0: e137 5d3e e944 0e3e 21cd 453e d2cc 043f
00000200: a423 3abf ee8e a33d ca67 0dbf bb57 a03e
00000210: a086 29be 99d6 11be f76e 323e 069b 3d3f
00000220: 7c90 8abe aebd b6be c333 5ebe 77ec 16bf
00000230: 3763 50be c531 f53e b383 01bf 84af 87be
00000240: f3cf 13bf 8f87 4d3b faed bfbe 59b3 493e
00000250: 9044 543f f918 64bf 58fe 60be b900 8bbf
00000260: 2240 1cbe 2696 b1be 842f 3bbf 98b4 2cbf
00000270: d6db 573f 8b6d c4be e402 493e 2def 50be
00000280: c005 33bf d5bc c33e 33f9 4dbd ff17 ec3e
00000290: 141d 373e 5022 0a3e 0989 ea3d 807c 3d3e
000002a0: 1afe 14bf 8b2a 8cbc f71a eb3d 6ac1 a4be
000002b0: 4c55 85be e449 263f b6be 14bf 8d75 b7be
000002c0: 3f40 d7be 3265 31bf 4f08 2bbf 557e da3d
000002d0: 60b5 0b3e 184d b0bb a108 dcbe dc99 7abe
000002e0: 53fd a4bd f78b 03bf 82fd 80be 5c51 6abe
000002f0: e695 fb3e 73c3 7e3d ae8c 653d 263d 313f
00000300: 00d1 313e 26bd 04bd a8f1 783e 7182 b93e
00000310: 9648 e23d b4ec 8e3e bdfd 56be 7565 80bd
00000320: c6ef 45bf 9542 43be 8af7 913e a922 ff3d
00000330: 0a6d c03d f060 ba3e b28d a6be 0e7f b7be
00000340: 591e 9cbe 661e 81bf 0727 84bf ace3 e3be
00000350: 3eb8 9fbc 74a3 ec3e 928b a2be fc98 cd3e
00000360: 5555 2a3e 1b14 26bf 0d05 c33e 75fe c23e
00000370: 40b6 27be ee17 dd3b ca1b ecbc 778f 6a3f
00000380: 20ba a23e 9422 d33d c1c2 75be b635 27bd
00000390: 8e77 b73d 20bc b13e 9420 aabd 5847 6dbe
000003a0: 07ae 3abf a10b 2dbe b4a5 7ebe de65 3bbc
000003b0: d900 bbbd 6161 0cbe 94d4 e3be a5e0 703d
000003c0: 55ee fbbe 3ad7 e2be 34df 25bf 2830 73be
000003d0: 4666 fcbe 44c8 06be cb8e a7be 2451 1e3f
000003e0: 508e 94be fd36 2bbe 7d20 2fbd 5237 603e
000003f0: 37a0 d53c 5d2d a63e 136f 133d 4919 473c

0.bias f4 [64]
-0.30413452 0.0031465953 -0.0014108543 0.11860191 0.39037275 -0.3852073 -0.33175793 0.54982686
-0.03744102 -0.13392825 0.6004204 0.20329006 0.30581823 0.4700403 -0.03212881 0.09188357
-0.07582655 -0.14544486 -0.29282066 0.2226925 0.3737926 0.062236182 0.44587198 -0.080137186
0.36336663 0.43592873 -0.20723723 -0.4391545 -0.21821527 0.7991388 0.05800766 0.05197668
0.2557366 -0.06623815 0.09557301 -0.27915183 -0.2956258 0.0042351084 0.4275193 0.201675
0.18242373 -0.04772184 0.22834241 0.3972859 -0.16208112 -0.18145606 -0.31191006 -0.21804453
-0.09376704 1.4860314 0.6567269 0.3294979 0.4676459 -0.056657847 0.68726987 0.6541943
0.13964228 -0.026915329 0.24588276 -0.37469342 -0.3127073 -0.04326783 0.38488775 0.19122286
00000000: 85b7 9bbe 1c37 4e3b 6aec b8ba 8fe5 f23d
00000010: f0de c73e e439 c5be 2ddc a9be 74c1 0c3f
00000020: c15b 19bd 7d24 09be 27b5 193f 452b 503e
00000030: 3594 9c3e 1fa9 f03e 8099 03bd 742d bc3d
00000040: f34a 9bbd 7fef 14be 97ec 95be 8109 643e
00000050: be61 bf3e 5eeb 7e3d 5549 e43e f71e a4bd
00000060: 310b ba3e 0d32 df3e ff35 54be dcd8 e0be
00000070: d373 5fbe 5c94 4c3f 7199 6d3d 80e5 543d
00000080: e8ef 823e dea7 87bd c8bb c33d fdec 8ebe
00000090: 445c 97be aac6 8a3b cfe3 da3e e483 4e3e
000000a0: 49cd 3a3e fa77 43bd 98d2 693e 0f69 cb3e
000000b0: 98f8 25be 9ecf 39be adb2 9fbe 1147 5fbe
000000c0: ef08 c0bd 4736 be3f 411f 283f f3b3 a83e
000000d0: 496f ef3e 0f12 68bd ebf0 2f3f 4779 273f
000000e0: 63fe 0e3e 897d dcbc b1c8 7b3e d1d7 bfbe
000000f0: 2c1b a0be 9c39 31bd 0210 c53e edcf 433e

2.weight f4 [128, 64]
-0.021251744 -0.33181143 0.7789416 -0.54143965 -0.45223564 -0.2979931 0.46068874 0.21582834
0.06173314 0.014767453 0.76781857 -0.46242815 -0.5427084 0.029546646 0.31650007 -0.21481955
-0.0010156751 0.09805207 0.052932713 -0.24782448 0.05610736 -0.75850886 -0.055257037 -0.19001333
-0.7589711 0.061130796 -0.15414003 -0.43713683 0.106461145 -0.17929895 -0.026271598 -0.3080646
-0.90455204 0.047981568 -0.4946863 0.09504462 0.21413948 -0.28686994 0.2831712 -0.006396987
-0.29875958 -0.4137573 0.48130757 0.2931806 -0.041433074 0.1341491 0.11809059 0.02367743
-0.065039985 -0.3148743 0.008289943 0.3536817 0.10696931 -0.11499768 0.48509866 0.5318949
-0.21580906 -0.514486 0.012476617 -0.65409404 -0.073271886 0.11647664 0.10963716 0.08485103
0.07747384 0.14671913 0.35623184 -0.22170375 0.8249234 0.32106835 0.7641787 -0.048479572
-0.93513507 0.04324119 -0.3663972 -0.33186674 0.012606602 -0.52531606 0.20164075 -0.33134398
0.03968021 0.17197491 0.046690185 0.29739928 -0.14249597 0.4626184 0.3862719 0.03930505
-0.20731057 -0.6494302 0.03604654 0.1475512 0.17344937 -0.7177022 0.3161895 -0.90697443
-0.5217689 0.20356429 -0.35683623 0.25334725 0.53044325 0.23792839 0.19557358 0.1416715
-0.3131267 0.30482826 -0.01879979 -0.34378323 0.111172445 -0.6706149 -0.34567335 0.05429793
0.2293139 0.16447334 -0.042515684 -0.3596547 0.23207673 -0.06823054 -0.08637244 -0.46051258
-0.6488433 -0.44201753 0.58804345 0.08660915 -0.060415536 0.35176918 -0.16672283 0.12667485
0.13905752 -0.24980055 -0.60960484 0.10212061 -0.10807328 -0.11159241 -0.6665856 -0.371258
0.11324415 0.10485319 -0.44484502 0.04038539 -0.03419046 0.044207122 -0.29159263 -0.23193978
0.14824416 0.025640493 0.11522538 -0.2719929 0.58408266 0.056164827 0.5160372 0.0942431
0.6515388 0.1154787 0.17505907 -0.4552039 0.0740152 0.12324815 0.07587934 -0.7366467
-1.4007905 0.06409545 -0.13668422 0.042953297 0.27896255 -1.0374409 -0.65662766 0.26883033
0.25513765 -0.14109027 -0.116765745 -0.47374249 -0.02010768 0.017086392 0.25575542 -0.004995663
0.1181022 -0.11092924 0.5483119 0.22852984 0.16300295 0.104733646 0.015402121 0.27938786
0.20325632 -0.42693615 0.6403721 -0.17997393 0.0686691 0.13824868 0.40911448 0.6424261
0.06992976 -0.05965021 -0.32599536 -0.2481221 -0.55461955 -0.25308347 0.15389495 0.11227361
-0.2699746 -0.023905432 -0.46943614 -0.1745542 0.02603497 -0.76007396 -0.00461983 -0.88584936
0.11538637 0.04035816 0.11437646 -0.61798453 -0.29336435 -0.35058656 0.26698187 0.5730502
0.23203568 -0.3519577 0.19401665 0.13467859 -0.005072153 0.2645698 -0.3964157 -0.7647286
0.46157026 0.07805468 0.47258943 -0.074255235 -0.14926438 -0.22375824 -0.07651903 0.07979955
-0.092327096 -0.043365143 -0.047990497 0.6106255 0.14497219 -0.6242009 -0.59450674 0.09576705
0.15727477 -1.7928795 -0.18682884 0.69305253 0.030484857 -0.058319528 -0.23954026 0.53646046
-0.15574886 0.015568555 0.41026065 -0.7125055 0.26410934 -0.26330546 0.8646745 -0.12610924
00000000: 2318 aebc 30e3 a9be b768 473f ca9b 0abf
00000010: 6e8b e7be 8d92 98be 65df eb3e 1b02 5d3e
00000020: e4db 7c3d 30f3 713c c28f 443f 62c3 ecbe
00000030: f0ee 0abf cf0b f23c 4c0c a23e a8f9 5bbe
00000040: 6720 85ba 86cf c83d f9cf 583d b3c5 7dbe
00000050: d5d0 653d a32d 42bf 3455 62bd db92 42be
00000060: ee4b 42bf 4964 7a3d e2d6 1dbe 66d0 dfbe
00000070: 4d08 da3d 259a 37be 8937 d7bc a5ba 9dbe
00000080: b990 67bf 5288 443d 8647 fdbe c1a6 c23d
00000090: 6147 5b3e 9ee0 92be d1fb 903e d19d d1bb
000000a0: 04f7 98be ffd7 d3be f26d f63e c51b 963e
000000b0: bab5 29bd 625e 093e 7bd9 f13d 2bf7 c13c
000000c0: af33 85bd 3437 a1be 8bd2 073c c515 b53e
000000d0: ba12 db3d e783 ebbd da5e f83e 442a 083f
000000e0: 0dfd 5cbe 5bb5 03bf b96a 4c3c b572 27bf
000000f0: 920f 96bd 4e8b ee3d 7389 e03d 60c6 ad3d
00000100: 9baa 9e3d 8a3d 163e 0564 b63e 4f06 63be
00000110: 2e2e 533f 1263 a43e 37a1 433f 8492 46bd
00000120: 0365 6fbf ad1d 313d 6a98 bbbe 70ea a9be
00000130: ec8b 4e3c 1d7b 06bf ea7a 4e3e eba5 a9be
00000140: b787 223d 311a 303e 353e 3f3d b844 983e
00000150: 77ea 11be 52dc ec3e 6ec5 c53e 55fe 203d
00000160: 3949 54be 0f41 26bf 89a5 133d a917 173e
00000170: b69c 313e 55bb 37bf 97e3 a13e 7a2f 68bf
00000180: a692 05bf 2873 503e 3db3 b6be bbb6 813e
00000190: 21cb 073f 80a3 733e 7144 483e 5512 113e
000001a0: 2552 a0be 7312 9c3e 0402 9abc 5b04 b0be
000001b0: 61ae e33d 6bad 2bbf 19fc b0be 8267 5e3d
000001c0: 43d1 6a3e b36b 283e ed24 2ebd a924 b8be
000001d0: 86a5 6d3e 74bc 8bbd 09e4 b0bd 4ec8 ebbe
000001e0: 981a 26bf 1f50 e2be 048a 163f 2360 b13d
000001f0: 4876 77bd 171b b43e 64b9 2abe 0db7 013e
00000200: 1865 0e3e b7cb 7fbe 100f 1cbf 9c24 d13d
00000210: 8655 ddbd 908a e4bd 5ba5 2abf 8715 bebe
00000220: 8dec e73d 45bd d63d bac2 e3be 276b 253d
00000230: 4c0b 0cbd 8712 353d a14b 95be 9f81 6dbe
00000240: 51cd 173e 030c d23c 49fb eb3d a742 8bbe
00000250: 7186 153f 170d 663d 041b 043f 8702 c13d
00000260: 3fcb 263f 1980 ec3d af42 333e 7c10 e9be
00000270: 4895 973d 8769 fc3d a166 9b3d e194 3cbf
00000280: 1a4d b3bf 7a44 833d f3f6 0bbe ccef 2f3d
00000290: 2ed4 8e3e ddca 84bf c018 28bf 21a4 893e
000002a0: 67a1 823e f879 10be e122 efbd 608e f2be
000002b0: dcb8 a4bc c3f8 8b3c 60f2 823e a9b2 a3bb
000002c0: 91df f13d df2e e3bd 2b5e 0c3f ba03 6a3e
000002d0: 3fea 263e 987e d63d 2d59 7c3c ed0b 8f3e
000002e0: 6d22 503e 6097 dabe 6def 233f 164b 38be
000002f0: 63a2 8c3d 1091 0d3e 7477 d13e 0976 243f
00000300: 5637 8f3d c753 74bd dde8 a6be b813 7ebe
00000310: 8cfb 0dbf 2894 81be a396 1d3e b5ef e53d
00000320: 1c3a 8abe 53d5 c3bc ef59 f0be 56be 32be
00000330: 4a47 d53c 3594 42bf f161 97bb 06c7 62bf
00000340: b04f ec3d 994e 253d 353e ea3d 3c34 1ebf
00000350: da33 96be 1580 b3be d9b1 883e 6bb3 123f
00000360: c39a 6d3e cd33 b4be 4dac 463e 2fe9 093e
00000370: 4e34 a6bb b175 873e 00f7 cabe 41c5 43bf
00000380: f052 ec3e 22db 9f3d 3ef7 f13e 2113 98bd
00000390: c3d8 18be e120 65be 02b6 9cbd f26d a33d
000003a0: fd15 bdbd a69f 31bd af91 44bd f451 1c3f
000003b0: 9773 143e a1cb 1fbf 9831 18bf 8421 c43d
000003c0: a30c 213e 137d e5bf 0f50 3fbe e46b 313f
000003d0: 61bb f93c 75e0 6ebd 0b4a 75be 7955 093f
000003e0: a17c 1fbe 4113 7f3c af0d d23e c366 36bf
000003f0: 5739 873e f9cf 86be 4f5b 5d3f c822 01be

2.bias f4 [128]
0.37840042 0.06106268 0.16927904 0.44348183 -0.07631079 -0.08052098 -0.11677874 0.08095765
0.12712665 0.17160566 -0.12231703 0.1859667 -0.036067687 0.49183422 0.2812797 0.0019025677
0.14233303 0.043604594 -0.0018026242 0.061894905 0.281565 0.12764262 -0.25615814 0.4088867
-0.1540222 -0.13679388 0.23324725 0.20149899 0.24498105 0.04986588 0.15269032 0.33172747
0.13600266 0.13776273 0.25813493 -0.13132052 -0.003475696 -0.3052542 -0.21992761 0.23710087
-0.19472678 0.019313868 0.3177905 0.013558698 0.15621243 0.6028442 0.17214286 0.04014176
0.043368734 0.2557752 0.21609184 0.021539219 0.2765367 0.080705315 0.021847066 0.12312342
0.19787666 0.35070544 0.42320848 0.08620618 0.06515645 0.004380289 -0.087669104 0.14420891
0.06973856 0.079786286 0.16120163 -0.13218115 0.23888788 -0.059604436 0.03870338 0.027818076
-0.22809659 -0.21140362 -0.019906566 -0.026345445 -0.066421814 0.033163592 -0.46544105 0.13463822
-0.050711103 -0.14490096 -0.082205616 0.27120325 0.010975801 0.297057 0.0036677755 0.17950085
-0.2030607 -0.1484025 0.35015932 0.3821143 0.31334054 -0.122236855 0.14748147 0.1557137
-0.18144634 -0.23535721 0.4732562 -0.07119423 0.46551996 0.16463678 0.0955758 0.25605878
0.11107393 0.21336138 -0.10774487 -0.16624732 -0.020860167 -0.016387386 0.090602964 -0.05517755
-0.22652063 0.31904972 0.4065383 0.16790384 0.41226193 0.106338814 0.09916546 0.22697243
0.20677333 -0.08556806 0.31773025 0.05648385 0.0022060398 0.29457834 -0.18261486 0.09989821
00000000: b3bd c13e dc1c 7a3d 7c57 2d3e 0d10 e33e
00000010: d548 9cbd 2fe8 a4bd b129 efbd 20cd a53d
00000020: 7d2d 023e 65b9 2f3e 5a81 fabd 0e6e 3e3e
00000030: b6bb 13bd b2d1 fb3e e503 903e 945f f93a
00000040: c0bf 113e bb9a 323d 0846 ecba 8385 7d3d
00000050: 4a29 903e bfb4 023e 2927 83be 9959 d13e
00000060: ffb7 1dbe b213 0cbe 5ed8 6e3e c055 4e3e
00000070: 50dc 7a3e 2a40 4c3d da5a 1c3e 2fd8 a93e
00000080: 4844 0b3e ac11 0d3e 432a 843e e378 06be
00000090: 81c8 63bb 474a 9cbe b434 61be 92ca 723e
000000a0: 7566 47be 1e38 9e3c 70b5 a23e 4d25 5e3c
000000b0: 27f6 1f3e ff53 1a3f 3846 303e b06b 243d
000000c0: 6aa3 313d f8f4 823e 2e47 5d3e 0473 b03c
000000d0: 3896 8d3e d448 a53d 9ef8 b23c 2228 fc3d
000000e0: 2ea0 4a3e aa8f b33e c8ae d83e de8c b03d
000000f0: bf70 853d 8788 8f3b dc8b b3bd 80ab 133e
00000100: 17d3 8e3d fe66 a33d 0a12 253e 7f5a 07be
00000110: 069f 743e c823 74bd 6f87 1e3d bce2 e33c
00000120: 2792 69be 317a 58be 1813 a3bc 67d2 d7bc
00000130: 2908 88bd 8cd6 073d 4a4e eebe 9ade 093e
00000140: 72b6 4fbd eb60 14be 6b5b a8bd 27db 8a3e
00000150: d9d3 333c db17 983e 105f 703b 12cf 373e
00000160: 25ef 4fbe d3f6 17be 1548 b33e 7ca4 c33e
00000170: 2c6e a03e 5157 fabd 6205 173e 6a73 1f3e
00000180: 12cd 39be 7b01 71be a34e f23e 48ce 91bd
00000190: a258 ee3e 8b96 283e 3fbd c33d 231a 833e
000001a0: bb7a e33d 687b 5a3e 58a9 dcbd bd3c 2abe
000001b0: f1e2 aabc d73e 86bc 0c8e b93d db01 62bd
000001c0: 06f5 67be 7c5a a33e ca25 d03e fcee 2b3e
000001d0: ff13 d33e 2ac8 d93d 4317 cb3d 766b 683e
000001e0: 63bc 533e 4f3e afbd 8aad a23e 9c5b 673d
000001f0: 3593 103b f9d2 963e 64ff 3abe 6f97 cc3d

4.weight f4 [784, 128]
-0.55203176 -0.72623473 -0.7747638 -0.33414257 -0.4933737 -0.49414614 -0.5961225 -0.84048593
-0.4186303 -0.5443227 -0.1264406 -0.7413903 -0.6450425 -0.36996517 -0.18640916 -0.43694028
-0.22744088 -0.52837974 -0.35548022 -0.18505785 -0.04847876 -0.8794492 -0.13385224 -0.7229291
-0.7691381 -0.20983458 -0.5473118 -0.14386813 -0.44218674 -0.5966057 -0.7987169 -0.121630415
-0.71331763 -0.18045636 -0.49967647 -0.6162712 -0.081990466 -0.14817587 -0.49281192 -1.3081952
-0.57680815 -0.26490673 -0.2017777 -0.14450344 -0.72532547 -1.376567 -0.22561467 -0.6873996
-0.6351221 -0.21247423 -0.38940567 -1.0161698 -0.766797 -0.11825607 -0.33971867 -0.015443409
-0.93444306 -0.20322907 -0.43553704 -0.10411863 -0.5213645 -0.24089296 -0.6542121 -0.19579315
-0.5020645 -0.6043817 -0.5887915 -0.31060693 -0.40781292 -0.5437125 -0.1737191 -0.6611171
-0.13747866 -0.2514224 -0.46670416 -0.4688544 -0.6494203 -0.86841345 -0.19799912 -0.8027783
-0.6373284 -0.29662043 -0.4900045 -0.4961038 -0.65782285 -0.20370533 -0.6865134 -0.1212471
-0.64325035 -0.37655818 -0.7178829 -1.0556427 -0.6745895 -0.23470281 -1.2299342 -0.6686513
-0.1601209 -0.78650177 -1.0634879 -0.06452234 -1.0576993 -0.65524864 -0.087358795 -0.9233253
-0.6532126 -0.23177497 -0.56152904 -0.6273041 -0.16131805 -0.2028976 -0.8557006 -0.5836834
-0.28688753 -0.07738276 -0.74603987 -0.8823009 -0.7380864 -0.45252347 -0.9624357 -0.7882149
-0.21532343 -0.355281 -1.0436437 -0.59591806 -1.1907187 -0.6477507 -0.8579653 -0.38150513
-0.5142783 -0.72913134 -0.69919413 -0.38531613 -0.47374192 -0.56886667 -0.69214046 -0.86890256
-0.5336611 -0.651723 -0.1418349 -0.810472 -0.70795804 -0.5080471 -0.15876082 -0.3709961
-0.1599756 -0.45032707 -0.31488478 -0.15841308 -0.17331061 -0.7989185 -0.100963905 -0.6577383
-0.7598216 -0.19493882 -0.49301147 -0.17879038 -0.46857655 -0.5482691 -0.65008706 -0.109127864
-0.62937605 -0.18958104 -0.42945024 -0.5970319 -0.07848444 -0.18587753 -0.43094465 -1.18879
-0.57178074 -0.15513662 -0.3223916 -0.18222436 -0.7446992 -1.3944725 -0.19195914 -0.7176524
-0.5453431 -0.22425538 -0.3780058 -0.97852564 -0.813554 -0.14804041 -0.2922408 -0.116183504
-0.84120053 -0.29208302 -0.43089145 -0.059541102 -0.5857309 -0.3160504 -0.640011 -0.162577
-0.3927871 -0.5869776 -0.50680214 -0.42196533 -0.32073918 -0.55157024 -0.16363616 -0.60644186
-0.12606488 -0.19966957 -0.5387508 -0.4388442 -0.7306199 -0.75687605 -0.13936463 -0.7378302
-0.5994878 -0.42562258 -0.41251343 -0.54343253 -0.593506 -0.20107567 -0.6913826 -0.092236765
-0.7851835 -0.49475297 -0.6158738 -0.91292673 -0.56024194 -0.12167964 -1.2339796 -0.67953765
-0.11266437 -0.75819045 -1.0058243 -0.14777526 -1.0411468 -0.69176453 -0.2150758 -0.83125585
-0.64966106 -0.19549121 -0.52444476 -0.59592396 -0.14921129 -0.15009485 -0.7756122 -0.6015042
-0.3357 -0.11449499 -0.67454267 -0.92530894 -0.8290872 -0.5349404 -0.81722355 -0.64870596
-0.22880432 -0.3763542 -1.0723773 -0.61081165 -1.0820974 -0.79462636 -0.845228 -0.42078432
00000000: f451 0dbf 85ea 39bf ec56 46bf bc14 abbe
00000010: 7a9b fcbe b900 fdbe 7c9b 18bf 162a 57bf
00000020: b656 d6be bc58 0bbf a579 01be c1cb 3dbf
00000030: 8121 25bf 136c bdbe 0be2 3ebe a3b6 dfbe
00000040: 43e6 68be e543 07bf 8101 b6be ce7f 3dbe
00000050: aa91 46bd 9523 61bf 9010 09be e211 39bf
00000060: 3ce6 44bf e0de 56be a01c 0cbf 2b52 13be
00000070: 4d66 e2be 27bb 18bf b678 4cbf 5e19 f9bd
00000080: fc9b 36bf 8dc9 38be 98d5 ffbe f3c3 1dbf
00000090: 9eea a7bd 6abb 17be d851 fcbe f172 a7bf
000000a0: b3a9 13bf dba1 87be d09e 4ebe b6f8 13be
000000b0: eeae 39bf 5933 b0bf 8807 67be 6cf9 2fbf
000000c0: 5d97 22bf d892 59be 2e60 c7be da11 82bf
000000d0: cf4c 44bf 3d30 f2bd 9bef adbe 5a06 7dbc
000000e0: a937 6fbf 481b 50be b6fe debe 263c d5bd
000000f0: 2578 05bf a5ac 76be 727a 27bf 007e 48be
00000100: 4d87 00bf c2b8 1abf 0abb 16bf df07 9fbe
00000110: dbcc d0be be30 0bbf 6be3 31be f83e 29bf
00000120: 35c7 0cbe 70ba 80be d9f3 eebe af0d f0be
00000130: 6940 26bf 5850 5ebf 48c0 4abe e182 4dbf
00000140: f427 23bf a2de 97be dfe1 fabe 5101 febe
00000150: 1467 28bf 2198 50be 58bf 2fbf 6650 f8bd
00000160: 0eac 24bf 3ccc c0be 2cc7 37bf 4d1f 87bf
00000170: e6b1 2cbf ef55 70be 7c6e 9dbf bb2c 2bbf
00000180: bcf6 23be 2e58 49bf 5f20 88bf 4a24 84bd
00000190: b162 87bf 60be 27bf 2be9 b2bd 0c5f 6cbf
000001a0: f138 27bf 6b56 6dbe 5ec0 0fbf 0097 20bf
000001b0: 8f30 25be 63c4 4fbe 320f 5bbf 466c 15bf
000001c0: ece2 92be da7a 9ebd 78fc 3ebf 79de 61bf
000001d0: 3bf3 3cbf 28b1 e7be 3062 76bf 74c8 49bf
000001e0: bf7d 5cbe 64e7 b5be 1e96 85bf 168e 18bf
000001f0: 7869 98bf fdd2 25bf 9da3 5bbf a454 c3be
00000200: bea7 03bf 5aa8 3abf 63fe 32bf 2848 c5be
00000210: 4d8e f2be 3fa1 11bf 1e30 31bf 6670 5ebf
00000220: 049e 08bf 52d7 26bf 2b3d 11be 187b 4fbf
00000230: bd3c 35bf 600f 02bf 3292 22be 33f3 bdbe
00000240: a5d0 23be 4591 e6be 9438 a1be 0a37 22be
00000250: 5678 31be ec85 4cbf 2ac6 cebd 8a61 28bf
00000260: ab83 42bf 0b9e 47be 006c fcbe d314 37be
00000270: 44e9 efbe 5d5b 0cbf 1b6c 26bf 6e7e dfbd
00000280: ca1e 21bf 8821 42be e7e0 dbbe 15d7 18bf
00000290: 73bc a0bd ae56 3ebe c7a4 dcbe 452a 98bf
000002a0: 3960 12bf 22dc 1ebe 8310 a5be 0699 3abe
000002b0: 9ba4 3ebf 137e b2bf f090 44be 11b8 37bf
000002c0: 9b9b 0bbf 34a3 65be fa89 c1be a880 7abf
000002d0: 1345 50bf e897 17be 96a0 95be 9ef1 edbd
000002e0: eb58 57bf e88b 95be ce9d dcbe 5fe1 73bd
000002f0: 76f2 15bf 5cd1 a1be c3d7 23bf 967a 26be
00000300: 641b c9be 2a44 16bf c9bd 01bf d70b d8be
00000310: ed37 a4be b533 0dbf 3d90 27be c63f 1bbf
00000320: 2717 01be 2e76 4cbe 93eb 09bf 30b0 e0be
00000330: e809 3bbf a1c2 41bf 9ab5 0ebe 71e2 3cbf
00000340: 0878 19bf 34eb d9be f634 d3be 651e 0bbf
00000350: 02f0 17bf c8e6 4dbe 73fe 30bf a1e6 bcbd
00000360: c901 49bf 4350 fdbe e8a9 1dbf 91b5 69bf
00000370: 046c 0fbf 2d33 f9bd 0bf3 9dbf 2ef6 2dbf
00000380: 94bc e6bd c518 42bf dabe 80bf 6652 17be
00000390: 4c44 85bf 7b17 31bf d53c 5cbe 2fcd 54bf
000003a0: 3050 26bf d92e 48be 0342 06bf 798e 18bf
000003b0: d8ca 18be 77b2 19be 858e 46bf 2efc 19bf
000003c0: dfe0 abbe 597c eabd d4ae 2cbf 0ce1 6cbf
000003d0: 0f3f 54bf dbf1 08bf 9035 51bf 9811 26bf
000003e0: ae4b 6abe 7fb1 c0be a943 89bf 275e 1cbf
000003f0: 2b82 8abf a26c 4bbf dd60 58bf 0b71 d7be

4.bias f4 [784]
-0.5974608 -0.647791 -0.4809535 -0.58016866 -0.72699326 -0.5405392 -0.50922155 -0.7159101
-0.6938331 -0.5463319 -0.65890175 -0.7042166 -0.5667412 -0.5062443 -0.54944223 -0.54253
-0.68732035 -0.5836101 -0.5315776 -0.82957137 -0.75697374 -0.5903819 -0.6072767 -0.6422183
-0.81357527 -0.59521323 -0.5552719 -0.8077018 -0.5861592 -0.53898275 -0.5634724 -0.57637966
-0.67671376 -0.596431 -0.4331354 -0.33701217 -0.17050569 -0.14677005 -0.16634862 -0.14517485
-0.1448322 -0.2513399 -0.21949378 -0.1149235 -0.045978267 -0.05119193 -0.11304213 -0.18156658
-0.16634487 -0.13390139 -0.053403977 -0.6084107 -0.47093475 -0.7008183 -0.81803274 -0.6852074
-0.71708506 -0.63836044 -0.5774685 -0.49876577 -0.06388575 -0.32952723 -0.13830595 -0.39461586
-0.17117025 -0.36918792 -0.25654706 -0.36238098 -0.43137524 -0.44422063 -0.6199292 -0.39333588
-0.7101785 -0.6557401 -0.61136043 -0.37106568 -0.16425501 -0.303706 -0.14556563 -0.092419304
-0.039579306 -0.5114346 -0.7102595 -0.5482677 -0.6533079 -0.66824996 -0.6161259 -0.320361
-0.3857981 -0.26384398 -0.41791663 -0.28807428 -0.3984406 -0.47813672 -0.56159896 -0.7931521
-0.76137644 -0.7374129 -0.8574437 -0.8778401 -0.9616762 -0.9347175 -0.7844989 -0.8254438
-0.65776694 -0.5478778 -0.30971906 -0.29621217 -0.23569937 -0.32619667 -0.75613433 -0.7056552
-0.6602939 -0.5343916 -0.085718825 -0.37514934 -0.30450514 -0.32328007 -0.27493545 -0.85180855
-0.48629007 -0.38976154 -0.47569934 -0.3962357 -0.5728448 -0.35104543 -0.4535047 -0.823453
-0.64397985 -0.43353298 -0.48969924 -0.34581786 -0.33303759 -0.5717441 -0.6837196 -0.49980617
-0.3479496 -0.31378976 -0.06678631 -0.61952204 -0.63325804 -0.51816696 -0.14791508 -0.26614887
-0.40742967 -0.4421147 -0.47172463 -0.4036967 -0.08967617 -0.3606075 -0.31400314 -0.55532616
-0.7159979 -0.7805375 -0.5414579 -0.38294417 -0.2475595 -0.18535435 -0.3496813 -0.56282496
-0.42249674 -0.6698558 -0.6035537 -0.5750992 -0.39732718 -0.3416826 -0.4731298 -0.16277795
-0.5889335 -0.63498986 -0.30205935 -0.24809308 -0.42864773 -0.32406226 -0.34553507 -0.31690207
-0.10997379 -0.020983076 -0.1192681 -0.075082205 -0.30681214 -0.40558758 -0.15789407 -0.18375987
-0.14178762 0.16503538 0.15777676 -0.060110576 -0.30038127 -0.45694068 -0.46222448 -0.35661644
-0.44388875 -0.5216165 -0.41514605 -0.087808244 -0.6967291 -0.20677581 -0.37582603 -0.44851416
-0.50594544 -0.506236 -0.16481572 -0.07406138 0.120876476 -0.048320223 0.2836236 0.024236249
0.26104203 0.01415037 0.04312859 -0.024993135 0.3351707 0.31962457 0.2546784 0.08439381
-0.14097522 -0.31997207 -0.43923938 -0.4274877 -0.54378146 -0.5236087 -0.3663539 -0.35475358
-0.48350814 -0.15673019 -0.37852702 -0.68680024 -0.5850464 -0.34515414 -0.020071939 0.07496236
-0.12763165 0.2881666 0.118769184 0.061485887 0.10200417 0.2274964 0.11086491 0.32927957
0.14698774 0.2825967 0.237483 0.17304876 -0.14393073 -0.25493908 -0.13536675 -0.23578434
-0.4867182 -0.3785184 -0.37292942 -0.3239375 -0.41143575 -0.28275588 -0.44676608 -0.46366814
00000000: 31f3 18bf a2d5 25bf 8a3f f6be ef85 14bf
00000010: 3b1c 3abf c760 0abf 585c 02bf e245 37bf
00000020: 0c9f 31bf 68dc 0bbf c9ad 28bf 8a47 34bf
00000030: f415 11bf 3a99 01bf 3fa8 0cbf 3fe3 0abf
00000040: 3af4 2fbf 7967 15bf 7815 08bf ca5e 54bf
00000050: 08c9 41bf 4523 17bf 7c76 1bbf 6b68 24bf
00000060: 7846 50bf e55f 18bf 4d26 0ebf 8cc5 4ebf
00000070: 880e 16bf c6fa 09bf ba3f 10bf 9e8d 13bf
00000080: 1d3d 2dbf b4af 18bf ecc3 ddbe dc8c acbe
00000090: 0b99 2ebe e34a 16be 4b57 2abe b7a8 14be
000000a0: e44e 14be a0af 80be fac2 60be 035d ebbd
000000b0: b553 3cbd a1ae 51bd a282 e7bd 97ec 39be
000000c0: 4f56 2abe 721d 09be 21be 5abd cec0 1bbf
000000d0: 5c1e f1be d468 33bf 986a 51bf c169 2fbf
000000e0: e392 37bf 976b 23bf fad4 13bf 3a5e ffbe
000000f0: 88d6 82bd cbb7 a8be 13a0 0dbe 170b cabe
00000100: 4147 2fbe 3306 bdbe 235a 83be 008a b9be
00000110: 37dd dcbe e370 e3be aeb3 1ebf 5263 c9be
00000120: 42ce 35bf 95de 27bf 1e82 1cbf 52fc bdbe
00000130: 7732 28be 5a7f 9bbe 280f 15be 5546 bdbd
00000140: e91d 22bd 61ed 02bf 91d3 35bf 465b 0cbf
00000150: 303f 27bf 6e12 2bbf 6dba 1dbf 5b06 a4be
00000160: 5487 c5be 8f16 87be 2bf9 d5be 797e 93be
00000170: 6800 ccbe 56ce f4be f3c4 0fbf 040c 4bbf
00000180: 91e9 42bf 18c7 3cbf 6e81 5bbf 21ba 60bf
00000190: 6930 76bf a549 6fbf ebd4 48bf 4950 53bf
000001a0: 6a63 28bf b841 0cbf 7f93 9ebe 1fa9 97be
000001b0: 2d5b 71be 4003 a7be 0592 41bf d2a5 34bf
000001c0: 0509 29bf e3cd 08bf 5a8d afbd 9313 c0be
000001d0: 19e8 9bbe f784 a5be 57c4 8cbe 2010 5abf
000001e0: 03fb f8be d38e c7be dd8e f3be 68df cabe
000001f0: f5a5 12bf 3abc b3be c531 e8be d1cd 52bf
00000200: dddb 24bf 09f8 ddbe dcb9 fabe 0a0f b1be
00000210: e783 aabe d25d 12bf 3f08 2fbf 98e6 ffbe
00000220: 7326 b2be 0da9 a0be 43c7 88bd ff98 1ebf
00000230: 331d 22bf 97a6 04bf 0d77 17be aa44 88be
00000240: 9f9a d0be dc5c e2be e485 f1be 55b1 cebe
00000250: 24a8 b7bd 8ca1 b8be 05c5 a0be db29 0ebf
00000260: a34b 37bf 4ed1 47bf fc9c 0abf 4211 c4be
00000270: 3d80 7dbe 88cd 3dbe 6d09 b3be 4c15 10bf
00000280: 7e51 d8be ab7b 2bbf 7f82 1abf b339 13bf
00000290: 786e cbbe 06f1 aebe 123e f2be 43af 26be
000002a0: 59c4 16bf b28e 22bf 86a7 9abe 1d0c 7ebe
000002b0: b777 dbbe 7deb a5be f9e9 b0be fd40 a2be
000002c0: f039 e1bd b3e4 abbc d542 f4bd b3c4 99bd
000002d0: 7b16 9dbe 2da9 cfbe fcae 21be 8c2b 3cbe
000002e0: c630 11be 09ff 283e 3b90 213e 8236 76bd
000002f0: 93cb 99be 21f4 e9be b0a8 ecbe 6e96 b6be
00000300: 6345 e3be a988 05bf 068e d4be cfd4 b3bd
00000310: d75c 32bf 0abd 53be 456c c0be a6a3 e5be
00000320: a485 01bf af98 01bf 74c5 28be 7ead 97bd
00000330: 168e f73d 6deb 45bd 1d37 913e 198b c63c
00000340: 4da7 853e f4d6 673c 9ba7 303d 67be ccbc
00000350: 7e9b ab3e d5a5 a33e 3565 823e a9d6 ac3d
00000360: cf5b 10be 61d3 a3be fce3 e0be abdf dabe
00000370: 4335 0bbf 380b 06bf bd92 bbbe 43a2 b5be
00000380: 618e f7be e17d 20be 4bce c1be 24d2 2fbf
00000390: 9ac5 15bf 0bb8 b0be e86d a4bc de85 993d
000003a0: dfb1 02be 938a 933e 423d f33d a0d8 7b3d
000003b0: 90e7 d03d d1f4 683e 240d e33d 5597 a83e
000003c0: f483 163e 84b0 903e be2e 733e b233 313e
000003d0: 9462 13be 6087 82be 959d 0abe 7371 71be
000003e0: 2133 f9be 2acd c1be 9bf0 bebe 23db a5be
000003f0: b5a7 d2be 61c5 90be 86be e4be e965 edbe
