mnist_gan/MNIST_GAN_FC/save/G--60.ckpt (torch_old, 447392 bytes, 6 tensors)

0.weight f4 [64, 32]
-0.009383921 -0.0073314905 0.0050766673 0.010411868 -0.010973025 0.02357073 -0.014902364 -0.009552807
-0.012759509 -0.005298142 -0.008881257 -0.014440905 0.015268349 0.01069209 -0.008670605 -0.006851006
-0.011572661 0.008026265 0.0016065605 0.0031964276 0.010686161 0.0075809783 0.005544237 0.01156568
-0.009621104 -0.0044393465 -0.0037999093 0.009261598 -0.013460501 0.011852757 0.0090296 0.0035474596
-0.24678431 0.3433063 0.388237 0.23074861 0.3321265 0.12892283 0.119433634 -0.24223404
-0.1577152 0.34482187 0.49026823 0.11149499 -0.18903828 0.47377816 -0.15315156 -0.21465097
0.11605882 -0.60211194 -0.25508332 0.083332844 -0.30640662 0.5304042 -0.15678518 0.42182735
0.11498007 -0.13336678 0.29815578 0.19846703 -0.02646362 0.38372472 -0.05422017 0.79543215
-0.0407923 0.24697937 -0.36757022 0.2518804 -0.6618405 -0.22953133 0.1294484 0.4648239
0.6760423 -0.6155905 -0.1533898 -0.6101619 0.13169095 0.070359394 -0.10106369 -0.4441534
0.040051043 1.1002932 1.1491874 0.5942175 1.0243261 -1.478219 -0.33806106 -0.5135129
0.115207955 -0.012095331 -0.463458 -0.8112969 0.2799958 -0.098800085 0.15281795 -1.2743992
-0.30514714 0.4990429 0.01672534 -0.06623932 0.3968284 -0.19456032 -0.117936075 -0.5657734
-0.1883161 0.21508093 0.37634563 0.026269244 -0.06649326 0.4133836 0.17014219 -0.1474047
0.062713936 -0.45581433 -0.2865236 0.00075153355 -0.1583253 0.9345883 -0.21078545 -0.13324632
0.016096093 -0.07678966 0.2888476 0.046166707 0.19301613 0.11257014 0.21072565 0.53331673
-0.76821214 0.12755878 -0.5901975 0.31918567 -0.19488823 -0.15780373 0.13809447 0.75011855
-0.21845576 -0.4333338 -0.22353739 -0.54485714 -0.18552376 0.4199368 -0.50265574 -0.32512185
-0.559897 0.07616326 -0.38184118 0.10109339 0.88434756 -0.97028404 -0.3074861 -1.1453674
-0.11936106 -0.47869194 -0.71496314 -0.71709436 0.8010044 -0.42937762 0.21938321 -0.19827758
-0.7191568 0.26212367 -0.107162856 0.41147435 0.22331865 0.09813482 0.11506062 0.23380515
-0.5183814 0.02217605 0.20744567 -0.4003167 -0.36495298 0.63903445 -0.5580461 -0.29223493
-0.47780564 -0.77790344 -0.7530394 0.11268058 0.16294153 0.079345 -0.4414352 -0.34711748
-0.018062681 -0.51653147 -0.24996473 -0.20734657 0.42138797 0.0031173322 0.08019625 0.7714486
0.20752919 -0.18338993 0.28992307 0.3114118 0.09670071 0.36351946 -0.092922315 -0.047464535
-0.70992786 -0.13486925 0.22961153 0.20954584 0.14401579 0.3150637 -0.2716305 -0.2910202
-0.2231127 -1.0226887 -1.0546002 -0.5044308 -0.033942986 0.47609636 -0.2676493 0.4149585
0.101511806 -0.6362486 0.40093496 0.46328968 -0.23778483 0.015532183 -0.022253187 0.9501816
0.41766158 0.117476925 -0.24436682 -0.027148604 0.07427525 0.32745525 -0.03391054 -0.22791544
-0.7181649 -0.17598608 -0.26223138 0.08526288 -0.10566352 -0.123577714 -0.34958574 0.04537401
-0.47648102 -0.4480687 -0.632105 -0.20375785 -0.38626218 -0.18719026 -0.40542328 0.70011765
-0.4218769 -0.16572575 -0.029396044 0.16877542 0.02558517 0.36826637 0.093694635 -0.055919286
00000000: 04bf 19bc 003d f0bb 2c5a a63b 8a96 2a3c
00000010: 34c8 33bc 6717 c13c 0c29 74bc 6083 1cbc
00000020: 420d 51bc 099c adbb b182 11bc 8c99 6cbc
00000030: 1928 7a3c e02d 2f3c 270f 0ebc 677e e0bb
00000040: 429b 3dbc 9880 033c 3a93 d23a 287b 513b
00000050: 0215 2f3c db69 f83b 6eac b53b fa7d 3d3c
00000060: d6a1 1dbc f077 91bb e607 79bb f5bd 173c
00000070: 6f89 5cbc 1132 423c e3f0 133c 7f7c 683b
00000080: 07b5 7cbe d8c5 af3e 00c7 c63e 5d49 6c3e
00000090: 7c0c aa3e 5904 043e 9f99 f43d 330c 78be
000000a0: 1880 21be 7e8c b03e 7004 fb3e 7c57 e43d
000000b0: 4093 41be 0d93 f23e c3d3 1cbe 77cd 5bbe
000000c0: 3fb0 ed3d 0224 1abf 489a 82be 69aa aa3d
000000d0: 54e1 9cbe 92c8 073f 4b8c 20be c1f9 d73e
000000e0: ac7a eb3d 4d91 08be e0a7 983e f13a 4b3e
000000f0: 3cca d8bc 9177 c43e f815 5ebd 71a1 4b3f
00000100: d415 27bd 29e8 7c3e 2a32 bcbe 78f6 803e
00000110: 616e 29bf 430a 6bbe 1f8e 043e 66fd ed3e
00000120: 1c11 2d3f 5797 1dbf 3712 1dbe 9233 1cbf
00000130: fed9 063e 9618 903d 7bfa cebd 1368 e3be
00000140: 900c 243d 68d6 8c3f 9318 933f a31e 183f
00000150: 1e1d 833f 4836 bdbf 5716 adbe 9575 03bf
00000160: 26f2 eb3d 7f2b 46bc 5e4a edbe 27b1 4fbf
00000170: 9c5b 8f3e b357 cabd 4f7c 1c3e 831f a3bf
00000180: 3f3c 9cbe 8d82 ff3e 9503 893c 7ba8 87bd
00000190: 182d cb3e d23a 47be 7888 f1bd 87d6 10bf
000001a0: f0d5 40be 2d3e 5c3e 60b0 c03e 9932 d73c
000001b0: 9e2d 88bd 04a7 d33e c139 2e3e 42f1 16be
000001c0: 2a70 803d 7f60 e9be 39b3 92be 9002 453a
000001d0: 0720 22be 2e41 6f3f 24d8 57be b971 08be
000001e0: f4db 833c e643 9dbd d5e3 933e 4d19 3d3d
000001f0: 05a6 453e 2c8b e63d 77c8 573e 7287 083f
00000200: 8da9 44bf c59e 023e 2f17 17bf 4e6c a33e
00000210: c890 47be 4d97 21be a368 0d3e c507 403f
00000220: deb2 5fbe eedd ddbe fce6 64be c27b 0bbf
00000230: f1f9 3dbe f501 d73e 0cae 00bf 5f76 a6be
00000240: 6955 0fbf 7cfb 9b3d b080 c3be 0d0a cf3d
00000250: 9a64 623f 8964 78bf d16e 9dbe 669b 92bf
00000260: 9273 f4bd 1c17 f5be d307 37bf 7f93 37bf
00000270: a00e 4d3f 62d7 dbbe fea5 603e 4709 4bbe
00000280: a91a 38bf 1335 863e 3378 dbbd c4ac d23e
00000290: a5ad 643e e9fa c83d e7a4 eb3d 9e6a 6f3e
000002a0: a5b4 04bf 8caa b53c a36c 543e 4ff6 ccbe
000002b0: 1edb babe c397 233f 1cdc 0ebf d19f 95be
000002c0: f1a2 f4be ae24 47bf 31c7 40bf 13c5 e63d
000002d0: 25da 263e a27f a23d cb03 e2be 62b9 b1be
000002e0: 30f8 93bc 683b 04bf c1f6 7fbe a952 54be
000002f0: 2ac0 d73e 284c 4c3b ee3d a43d a87d 453f
00000300: 8882 543e 92ca 3bbe cc70 943e 5e71 9f3e
00000310: 060b c63d 391f ba3e 0e4e bebd 2c6a 42bd
00000320: d5bd 35bf 2a1b 0abe 491f 6b3e 2f93 563e
00000330: e078 133e 0750 a13e 2713 8bbe 9a00 95be
00000340: a877 64be 77e7 82bf 24fd 86bf 6022 01bf
00000350: cd07 0bbd e7c2 f33e 5409 89be 7175 d43e
00000360: 6ce5 cf3d 30e1 22bf 5947 cd3e 4e34 ed3e
00000370: de7d 73be b37a 7e3c 514c b6bc 1a3f 733f
00000380: bdd7 d53e be97 f03d 4c3b 7abe c066 debc
00000390: 9f1d 983d 37a8 a73e c7e5 0abd aa62 69be
000003a0: a8d9 37bf b235 34be 3143 86be 4e9e ae3d
000003b0: 1e66 d8bd 5016 fdbd e7fc b2be 19da 393d
000003c0: 52f5 f3be 4369 e5be a2d1 21bf e6a5 50be
000003d0: 28c4 c5be ceae 3fbe a493 cfbe e93a 333f
000003e0: 4000 d8be 03b4 29be f9cf f0bc 77d3 2c3e
000003f0: fe97 d13c 698d bc3e f9e2 bf3d 9f0b 65bd

0.bias f4 [64]
-0.30413452 -0.1319099 0.31626612 0.0075690695 0.474529 -0.57639277 -0.41328084 0.42616394
-0.037371147 -0.13392825 0.8630431 0.34793985 0.22823428 0.50447106 -0.070277244 0.09007209
-0.07582655 -0.14544486 -0.29282066 0.37354982 0.21121866 -0.020248936 0.3019756 -0.2307672
0.26804945 0.31036276 -0.122999944 -0.537829 -0.21821527 0.68996435 0.08887457 -0.0503795
0.105735265 -0.06623815 -0.027761051 -0.27915183 -0.50438166 -0.27434692 0.6567849 0.09118451
0.20455216 -0.1856936 0.2841121 0.39992958 -0.16208112 -0.17404501 -0.4118891 -0.21804453
-0.09376704 1.5549045 0.79567343 0.33282903 0.54738444 -0.056657847 0.832947 0.77647597
0.010184962 -0.24257724 0.24828273 -0.55507225 -0.3127073 -0.08042991 0.24064775 0.15818934
00000000: 85b7 9bbe 6413 07be a2ed a13e f505 f83b
00000010: 77f5 f23e 7a8e 13bf 8c99 d3be 2932 da3e
00000020: 7d12 19bd 7d24 09be 65f0 5c3f 2c25 b23e
00000030: 3fb6 693e 0425 013f 84ed 8fbd b777 b83d
00000040: f34a 9bbd 7fef 14be 97ec 95be ec41 bf3e
00000050: b449 583e 19e1 a5bc 8c9c 9a3e 3d4e 6cbe
00000060: c73d 893e dee7 9e3e 65e7 fbbd 29af 09bf
00000070: d373 5fbe 81a1 303f df03 b63d bc5a 4ebd
00000080: bb8b d83d dea7 87bd 256b e3bc fdec 8ebe
00000090: 281f 01bf 3377 8cbe 0e23 283f f2be ba3d
000000a0: 1f76 513e 7726 3ebe 2477 913e 92c3 cc3e
000000b0: 98f8 25be db38 32be 21e3 d2be 1147 5fbe
000000c0: ef08 c0bd 1c07 c73f 41b1 4b3f 9168 aa3e
000000d0: 6321 0c3f 0f12 68bd 043c 553f 21c7 463f
000000e0: d4de 263c 2b66 78be d43d 7e3e 3719 0ebf
000000f0: 2c1b a0be 70b8 a4bd 5d6c 763e 63fc 213e

2.weight f4 [128, 64]
-0.021251744 -0.19038868 0.6936941 -0.46422058 -0.49242476 -0.07283017 0.5296789 0.05768089
0.05656331 0.014767453 0.82093585 -0.57652897 -0.59302545 0.03140489 0.4564719 -0.34886375
-0.0010156751 0.09805207 0.052932713 -0.27776307 0.08083443 -0.8166594 -0.057601087 -0.29101464
-0.9028265 0.25073636 -0.03432059 -0.61915 0.106461145 -0.028934304 -0.0049305325 -0.1577414
-0.87459457 0.047981568 -0.65481466 0.09504462 0.34149203 -0.34855548 0.26244023 0.039505627
-0.24498183 -0.21096776 0.611001 0.2520234 -0.041433074 0.10834315 0.09798927 0.02367743
-0.065039985 -0.21750759 0.012205326 0.34536976 0.16267195 -0.11499768 0.48514703 0.56619436
-0.04845286 -0.47822556 0.06484428 -0.6339704 -0.073271886 0.05481198 0.13246696 0.057339802
0.07747384 0.15360528 0.31458697 -0.27273923 0.74359125 0.30928442 0.81146467 -0.08086878
-0.89297956 0.04324119 -0.34893298 -0.4085402 0.12569246 -0.6741281 0.15545653 -0.23007585
0.03968021 0.17197491 0.046690185 0.3426363 -0.11908636 0.315093 0.5112076 0.09962058
-0.041002005 -0.646447 -0.008706061 0.06429333 0.17344937 -0.7187 0.35846722 -1.0906354
-0.6016354 0.20356429 -0.44851255 0.25334725 0.6961795 0.1810576 0.20063606 0.0906508
-0.3837255 0.25990367 -0.055329658 -0.27936387 0.111172445 -0.669212 -0.5516432 0.05429793
0.2293139 0.19371808 0.04930422 -0.28942445 0.24951896 -0.06823054 -0.16485865 -0.45861498
-0.7758822 -0.44319576 0.4984857 0.062200714 -0.060415536 0.39164272 -0.20831977 0.18851037
0.13905752 -0.27333817 -0.864211 0.14469631 -0.25369737 -0.13009904 -0.8423336 -0.46345752
0.10024663 0.10485319 -0.4084876 -0.18607515 0.0061538834 0.15531914 -0.3651127 -0.35600418
0.14824416 0.025640493 0.11522538 -0.39309198 0.7082551 0.15025792 0.53191125 0.07485735
0.7026855 0.1537075 0.3047673 -0.48389444 0.0740152 0.24579903 0.06478467 -0.6723127
-1.4745256 0.06409545 -0.042044472 0.042953297 0.24296823 -0.89333606 -0.69694227 0.2419658
0.14186968 -0.14132118 -0.1742985 -0.68044317 -0.02010768 -0.15153907 0.30161554 -0.004995663
0.1181022 -0.016372373 0.52070504 0.10309941 0.22248448 0.104733646 0.0253164 0.2648631
0.34090796 -0.3913399 0.6885733 -0.22005484 0.0686691 0.19116762 0.46388844 0.6123314
0.06992976 -0.1123012 -0.3609769 -0.24647912 -0.43217716 -0.4409009 0.14745688 0.0790101
-0.28915533 -0.023905432 -0.56614065 -0.051741883 -0.039821416 -0.8648996 -0.043463938 -0.8272974
0.11538637 0.04035816 0.11437646 -0.74369043 -0.34453255 -0.31496838 0.19221663 0.4151259
0.26015517 -0.3759446 0.1572966 0.13549604 -0.005072153 0.26947674 -0.46407312 -0.6642014
0.49026442 0.07805468 0.49348876 -0.074255235 -0.15054779 -0.24083744 0.03267169 0.1544143
-0.06757473 0.011631768 -0.14128055 0.5987575 0.14497219 -0.54084295 -0.50923777 0.09576705
0.15727477 -1.9076889 -0.06839029 0.7051376 -0.0034847262 -0.058319528 -0.22165939 0.5955624
-0.20127678 -0.10596788 0.38441768 -0.6513685 0.26410934 -0.3141907 0.889996 -0.10678483
00000000: 2318 aebc 40f5 42be f095 313f 52ae edbe
00000010: 191f fcbe fc27 95bd 0999 073f cc42 6c3d
00000020: eeae 673d 30f3 713c da28 523f 6797 13bf
00000030: 84d0 17bf 6aa2 003d afb6 e93e 459e b2be
00000040: 6720 85ba 86cf c83d f9cf 583d f636 8ebe
00000050: 868c a53d 9710 51bf 1eef 6bbd dfff 94be
00000060: a31f 67bf 8460 803e bf93 0cbd 9d80 1ebf
00000070: 4d08 da3d a207 edbc 4e90 a1bb f686 21be
00000080: 6ee5 5fbf 5288 443d efa1 27bf c1a6 c23d
00000090: 0bd8 ae3e dd75 b2be 915e 863e a7d0 213d
000000a0: 84dc 7abe ef07 58be 906a 1c3f 3609 813e
000000b0: bab5 29bd 03e3 dd3d 99ae c83d 2bf7 c13c
000000c0: af33 85bd 4fba 5ebe d9f8 473c 4ed4 b03e
000000d0: 7a93 263e e783 ebbd 3165 f83e 1df2 103f
000000e0: 8276 46bd fbd9 f4be 14cd 843d e24b 22bf
000000f0: 920f 96bd 8782 603d 6ba5 073e 24dd 6a3d
00000100: 9baa 9e3d b44a 1d3e 8b11 a13e 7aa4 8bbe
00000110: ff5b 3e3f 875a 9e3e 26bc 4f3f 889e a5bd
00000120: 4f9a 64bf ad1d 313d 58a7 b2be 2e2c d1be
00000130: 86b5 003e a993 2cbf ff2f 1f3e 0199 6bbe
00000140: b787 223d 311a 303e 353e 3f3d 066e af3e
00000150: 8de3 f3bd df53 a13e 80de 023f e005 cc3d
00000160: b8f1 27bd 8d7d 25bf dea3 0ebc 39ac 833d
00000170: b69c 313e b9fc 37bf 0489 b73e f199 8bbf
00000180: c704 1abf 2873 503e 70a3 e5be bbb6 813e
00000190: d238 323f 2a67 393e 8a73 4d3e 20a7 b93d
000001a0: ab77 c4be 1812 853e 5aa1 62bd c808 8fbe
000001b0: 61ae e33d 7a51 2bbf 7d38 0dbf 8267 5e3d
000001c0: 43d1 6a3e 085e 463e 39f3 493d 712f 94be
000001d0: e681 7f3e 74bc 8bbd b5d0 28be 95cf eabe
000001e0: 37a0 46bf 8eea e2be 8539 ff3e 2dc6 7e3d
000001f0: 4876 77bd 6585 c83e c751 55be dd08 413e
00000200: 1865 0e3e fbf2 8bbe ef3c 5dbf 452b 143e
00000210: 9fe4 81be af38 05be 2da3 57bf 4e4a edbe
00000220: 1b4e cd3d 45bd d63d 4925 d1be 7c8a 3ebe
00000230: 84a6 c93b fb0b 1f3e 0df0 babe 2e46 b6be
00000240: 51cd 173e 030c d23c 49fb eb3d 5a43 c9be
00000250: 3550 353f 36dd 193e 562b 083f cf4e 993d
00000260: 32e3 333f 8065 1d3e 760a 9c3e 03c1 f7be
00000270: 4895 973d beb2 7b3e d3ad 843d af1c 2cbf
00000280: 41bd bcbf 7a44 833d d336 2cbd ccef 2f3d
00000290: aacc 783e acb1 64bf cf6a 32bf e2c5 773e
000002a0: 4946 113e 80b6 10be 4e7b 32be 8631 2ebf
000002b0: dcb8 a4bc 0f2d 1bbe 5a6d 9a3e a9b2 a3bb
000002c0: 91df f13d 5b1f 86bc ed4c 053f c925 d33d
000002d0: f9d2 633e 987e d63d 5764 cf3c 239c 873e
000002e0: 7d8b ae3e b45d c8be 5746 303f 0e56 61be
000002f0: 63a2 8c3d 72c1 433e c982 ed3e c0c1 1c3f
00000300: 5637 8f3d 2cfe e5bd f7d1 b8be 0665 7cbe
00000310: 5346 ddbe c3bd e1be f0fe 163e 0cd0 a13d
00000320: 2b0c 94be 53d5 c3bc 98ee 10bf 4cef 53bd
00000330: c81b 23bd 0f6a 5dbf 3e07 32bd c3c9 53bf
00000340: b04f ec3d 994e 253d 353e ea3d 7f62 3ebf
00000350: 9266 b0be 8943 a1be 70d4 443e 628b d43e
00000360: 0f33 853e d07b c0be 5c12 213e 79bf 0a3e
00000370: 4e34 a6bb dbf8 893e fe9a edbe 1a09 2abf
00000380: f003 fb3e 22db 9f3d 8faa fc3e 2113 98bd
00000390: 3329 1abe 179e 76be c0d2 053d c81e 1e3e
000003a0: 9f64 8abd 2c93 3e3c d9ab 10be 2c48 193f
000003b0: 9773 143e af74 0abf 685d 02bf 8421 c43d
000003c0: a30c 213e 262f f4bf 3510 8cbd e683 343f
000003d0: 0160 64bb 75e0 6ebd aefa 62be c776 183f
000003e0: 801b 4ebe b005 d9bd 65d2 c43e 16c0 26bf
000003f0: 5739 873e 9add a0be c7d6 633f 01b2 dabd

2.bias f4 [128]
0.521345 0.12564239 0.22534055 0.43661007 -0.017977454 -0.094825625 -0.12048167 0.017800406
0.18534623 0.1510443 -0.08188384 0.20300035 -0.049884174 0.64749247 0.35332692 0.0037184902
0.15779649 0.02159755 -0.097658336 0.037844446 0.27324483 0.20834258 -0.12090161 0.4446211
-0.13061829 -0.13679388 0.24519894 0.19485413 0.2404404 0.06050657 0.30160046 0.4002973
0.12327189 0.20800896 0.2785222 -0.09580435 0.012597893 -0.3492067 -0.09600123 0.2456373
-0.1416463 0.013439293 0.36827233 0.0037464797 0.1709416 0.60769075 0.23303565 0.090010405
0.069018684 0.42125323 0.31305078 -0.0066497205 0.34352496 0.10993562 -0.0017429515 0.17134042
0.24836841 0.40708396 0.56239456 0.0938552 0.12788825 0.026442673 0.003034844 0.1598271
0.13366087 0.118963294 0.21176818 -0.06084087 0.28860366 -0.059580237 0.045274135 0.08534922
-0.108328916 -0.23541807 0.0017426811 0.025188409 -0.03184324 0.007912268 -0.47774646 0.11082126
-0.030996216 -0.17166886 -0.14152816 0.30333993 0.039105907 0.3726119 0.033135604 0.1957501
-0.22691073 -0.17078178 0.33351243 0.4711435 0.37330598 -0.076782614 0.1244647 0.13343
-0.20165661 -0.18217888 0.51007795 -0.029997401 0.44086158 0.20257035 0.14241177 0.32696342
0.16278456 0.34914893 -0.115925856 -0.18284738 0.014941888 -0.008095147 0.09227254 -0.03135937
-0.19656627 0.4312628 0.4901229 0.24520086 0.47592103 0.17137486 0.16265753 0.3378648
0.21032806 -0.08739438 0.3131777 0.0783105 -0.0011222028 0.3049218 -0.2628631 0.13323262
00000000: de76 053f 66a8 003e acbf 663e 5b8b df3e
00000010: 7445 93bc f033 c2bd 18bf f6bd 28d2 913c
00000020: 67cb 3d3e 5bab 1a3e b7b2 a7bd 53df 4f3e
00000030: 5953 4cbd 11c2 253f 44e7 b43e eab1 733b
00000040: 6795 213e 58ed b03c 1801 c8bd c702 1b3d
00000050: bfe6 8b3e c257 553e 439b f7bd 60a5 e33e
00000060: cdc0 05be b213 0cbe 6e15 7b3e d787 473e
00000070: 0236 763e bdd5 773d 606b 9a3e c5f3 cc3e
00000080: f975 fc3d 4d00 553e 769a 8e3e 1235 c4bd
00000090: 6567 4e3c 38cb b2be 4b9c c4bd 5888 7b3e
000000a0: ba0b 11be 7b30 5c3c 318e bc3e 8087 753b
000000b0: 510b 2f3e 9f91 1b3f e6a0 6e3e 6057 b83d
000000c0: ab59 8d3d 81ae d73e 3148 a03e e6e5 d9bb
000000d0: 81e2 af3e ed25 e13d bf73 e4ba dd73 2f3e
000000e0: 4a54 7e3e 4f6d d03e 17f9 0f3f 2837 c03d
000000f0: 23f5 023e 4e9e d83c 3ce4 463b b7a9 233e
00000100: 65de 083e 07a3 f33d c2d9 583e 4734 79bd
00000110: dcc3 933e 680a 74bd 5f71 393d 92cb ae3d
00000120: 8ddb ddbd 6f11 71be ad6a e43a ec57 ce3c
00000130: 0f6e 02bd 75a2 013c 2f9b f4be 42f6 e23d
00000140: c7eb fdbc f6c9 2fbe c2ec 10be 5f4f 9b3e
00000150: 842d 203d fdc6 be3e 33b9 073d b772 483e
00000160: 495b 68be 6be1 2ebe 24c2 aa3e b939 f13e
00000170: f621 bf3e 3440 9dbd 59e7 fe3d e0a1 083e
00000180: 127f 4ebe 1a8d 3abe 7894 023f 1cbd f5bc
00000190: 9cb8 e13e 9a6e 4f3e 64d4 113e c067 a73e
000001a0: ffb0 263e a6c3 b23e 896a edbd 583c 3bbe
000001b0: d2ce 743c 82a1 04bc 63f9 bc3d af72 00bd
000001c0: ab48 49be 7ace dc3e 64f1 fa3e ef15 7b3e
000001d0: ecab f33e e47c 2f3e b28f 263e 9dfc ac3e
000001e0: 3d60 573e d3fb b2bd d458 a03e 4161 a03d
000001f0: e116 93ba b61e 9c3e fe95 86be 226e 083e

4.weight f4 [784, 128]
-0.55230653 -0.72704935 -0.7757952 -0.33430532 -0.4937087 -0.4942363 -0.5984909 -0.84053475
-0.4223604 -0.5443338 -0.12679301 -0.7414758 -0.6453297 -0.3701036 -0.19069949 -0.43838254
-0.23204048 -0.528907 -0.35548067 -0.18511797 -0.049102426 -0.8795413 -0.1339876 -0.7236507
-0.7702609 -0.20983458 -0.5478992 -0.14424084 -0.44240218 -0.5968027 -0.8029469 -0.12271946
-0.7134952 -0.18053693 -0.50020593 -0.616272 -0.08313426 -0.14897597 -0.49285108 -1.3093266
-0.57682526 -0.26602256 -0.20469408 -0.14511824 -0.72631884 -1.3798788 -0.22706676 -0.69005615
-0.63512266 -0.21390463 -0.38991567 -1.016171 -0.76799244 -0.11931237 -0.33979842 -0.01654384
-0.93512 -0.20329496 -0.43720925 -0.105453975 -0.5223824 -0.24165909 -0.6544474 -0.19784136
-0.5023342 -0.6044965 -0.5901818 -0.3107335 -0.40839905 -0.5439949 -0.17442459 -0.6615165
-0.13882796 -0.2551103 -0.4668819 -0.46904814 -0.6494537 -0.8689883 -0.19806854 -0.8031917
-0.6373284 -0.29673457 -0.49001712 -0.4965903 -0.65784985 -0.20455554 -0.68656844 -0.1216378
-0.6442447 -0.37655827 -0.71881664 -1.0576504 -0.6775139 -0.23487638 -1.2331864 -0.6700442
-0.16014847 -0.7865027 -1.0684934 -0.06458218 -1.0577143 -0.65652394 -0.08999689 -0.92851776
-0.65330565 -0.23325509 -0.56167436 -0.62746406 -0.16241999 -0.20307586 -0.85649085 -0.58411455
-0.28701386 -0.07924504 -0.7510498 -0.8826138 -0.74151707 -0.4530469 -0.96254575 -0.7892551
-0.21889043 -0.35535723 -1.053352 -0.5981756 -1.1950845 -0.6534039 -0.8581696 -0.3835297
-0.51474756 -0.7299112 -0.70064235 -0.38549608 -0.47415978 -0.56900084 -0.6948874 -0.86899215
-0.53864473 -0.65174615 -0.14227182 -0.81061566 -0.7082371 -0.5082454 -0.16501698 -0.37308717
-0.16527848 -0.4512166 -0.31488535 -0.15849331 -0.17437911 -0.79905677 -0.101176105 -0.6588731
-0.7615303 -0.19493882 -0.49394953 -0.17936899 -0.46872434 -0.5485343 -0.65636003 -0.11082651
-0.62970614 -0.18971738 -0.4303277 -0.5970335 -0.07978295 -0.18657058 -0.43098867 -1.1910205
-0.57181984 -0.15678896 -0.3263087 -0.18295458 -0.74618155 -1.3995479 -0.19412604 -0.7206892
-0.545345 -0.22655888 -0.37861672 -0.9785277 -0.8146377 -0.1494919 -0.2923791 -0.11750158
-0.8424346 -0.29220682 -0.43343624 -0.06177256 -0.5869354 -0.3172185 -0.6403276 -0.16551974
-0.3934093 -0.5872252 -0.5089314 -0.42210627 -0.3216716 -0.5520555 -0.16428356 -0.60710275
-0.12766334 -0.20462683 -0.5388986 -0.439141 -0.7306588 -0.75768685 -0.13943942 -0.7383739
-0.5994878 -0.42573318 -0.41253403 -0.5439691 -0.59354156 -0.20223501 -0.6914659 -0.0929088
-0.78625613 -0.49475324 -0.61675143 -0.9162692 -0.5643472 -0.12208775 -1.2381191 -0.6815946
-0.11269836 -0.7581914 -1.0131269 -0.14784798 -1.0411755 -0.69377756 -0.21754089 -0.8375282
-0.6497868 -0.1979579 -0.52469754 -0.5961225 -0.15089595 -0.15045117 -0.7771523 -0.60214305
-0.33589363 -0.11732262 -0.6825389 -0.92563933 -0.83347374 -0.5355623 -0.81734735 -0.6504027
-0.23237291 -0.37647656 -1.0844048 -0.61401534 -1.0880308 -0.80170697 -0.8454891 -0.42310157
00000000: f663 0dbf e81f 3abf 849a 46bf 112a abbe
00000010: 63c7 fcbe 8a0c fdbe b336 19bf 492d 57bf
00000020: 9f3f d8be 7659 0bbf 07d6 01be 5cd1 3dbf
00000030: 5434 25bf 387e bdbe ba46 43be ad73 e0be
00000040: 059c 6dbe 7366 07bf 9001 b6be 918f 3dbe
00000050: a01f 49bd 9e29 61bf 0c34 09be 2c41 39bf
00000060: d12f 45bf e0de 56be 1f43 0cbf dfb3 13be
00000070: 8a82 e2be 10c8 18bf ee8d 4dbf 5754 fbbd
00000080: 9fa7 36bf acde 38be 7f0d 00bf 00c4 1dbf
00000090: 4b42 aabd 288d 18be fa56 fcbe 0498 a7bf
000000a0: d2aa 13bf 1c34 88be 539b 51be e099 14be
000000b0: 08f0 39bf de9f b0bf 3084 68be 85a7 30bf
000000c0: 6697 22bf d109 5bbe 07a3 c7be e411 82bf
000000d0: 279b 44bf 0b5a f4bd 0ffa adbe f286 87bc
000000e0: 0664 6fbf 8e2c 50be e4d9 dfbe 41f8 d7bd
000000f0: daba 05bf 7b75 77be dd89 27bf ed96 4abe
00000100: f998 00bf 48c0 1abf 2816 17bf 7618 9fbe
00000110: ae19 d1be 4043 0bbf 5c9c 32be 2559 29bf
00000120: eb28 0ebe d19d 82be 250b efbe 1427 f0be
00000130: 9942 26bf 0476 5ebf 7bd2 4abe f99d 4dbf
00000140: f427 23bf 98ed 97be 86e3 fabe 1541 febe
00000150: d968 28bf 0277 51be f3c2 2fbf 3d1d f9bd
00000160: 38ed 24bf 3fcc c0be 5e04 38bf 1761 87bf
00000170: 8d71 2dbf 6f83 70be 0dd9 9dbf 0488 2bbf
00000180: f6fd 23be 3e58 49bf 64c4 88bf a943 84bd
00000190: 2f63 87bf f411 28bf 4a50 b8bd 57b3 6dbf
000001a0: 0a3f 27bf 6cda 6ebe e4c9 0fbf 7ca1 20bf
000001b0: 6d51 26be 1ef3 4fbe fc42 5bbf 8888 15bf
000001c0: 7bf3 92be 394b a2bd cd44 40bf faf2 61bf
000001d0: 10d4 3dbf c3f5 e7be 6669 76bf 9f0c 4abf
000001e0: d024 60be 62f1 b5be 3dd4 86bf 0922 19bf
000001f0: 87f8 98bf 7a45 27bf 01b1 5bbf 015e c4be
00000200: 7fc6 03bf 76db 3abf 4c5d 33bf be5f c5be
00000210: 12c5 f2be 0aaa 11bf 24e4 31bf 4576 5ebf
00000220: 9fe4 09bf d6d8 26bf b4af 11be 8284 4fbf
00000230: 074f 35bf 5f1c 02bf 36fa 28be 4805 bfbe
00000240: c33e 29be dd05 e7be a738 a1be 124c 22be
00000250: 7090 32be fc8e 4cbf 6b35 cfbd e8ab 28bf
00000260: a6f3 42bf 0b9e 47be f4e6 fcbe 81ac 37be
00000270: a3fc efbe be6c 0cbf 3607 28bf 02f9 e2bd
00000280: 6c34 21bf 4645 42be ea53 dcbe 30d7 18bf
00000290: 3e65 a3bd 5c0c 3fbe 8caa dcbe 5c73 98bf
000002a0: c962 12bf 498d 20be ef11 a7be 7258 3bbe
000002b0: c105 3fbf 6324 b3bf fac8 46be 167f 38bf
000002c0: bb9b 0bbf 0dff 67be 0dda c1be cb80 7abf
000002d0: 198c 50bf 6814 19be b7b2 95be aba4 f0bd
000002e0: cba9 57bf 229c 95be 5beb ddbe 3905 7dbd
000002f0: 6641 16bf 776a a2be 82ec 23bf 027e 29be
00000300: f26c c9be 6454 16bf 5449 02bf 501e d8be
00000310: 24b2 a4be 8253 0dbf f339 28be 166b 1bbf
00000320: 2eba 02be b289 51be 42f5 09bf 17d7 e0be
00000330: 750c 3bbf c4f7 41bf 35c9 0ebe 1206 3dbf
00000340: 0878 19bf b3f9 d9be a937 d3be 8f41 0bbf
00000350: 57f2 17bf b216 4fbe e903 31bf f846 bebd
00000360: 1548 49bf 4c50 fdbe 6ce3 1dbf 9e90 6abf
00000370: 0f79 10bf 2409 fabd b07a 9ebf fc7c 2ebf
00000380: 66ce e6bd d518 42bf 24ae 81bf 7665 17be
00000390: 3d45 85bf 689b 31bf 0ac3 5ebe 4068 56bf
000003a0: 6d58 26bf 7ab5 4abe 9452 06bf 7c9b 18bf
000003b0: 7884 1abe df0f 1abe 74f3 46bf 0c26 1abf
000003c0: 40fa abbe d746 f0bd dfba 2ebf b3f6 6cbf
000003d0: 895e 55bf 9c1a 09bf ad3d 51bf cb80 26bf
000003e0: 2af3 6dbe 89c1 c0be c7cd 8abf 1c30 1dbf
000003f0: 9844 8bbf ab3c 4dbf f971 58bf c5a0 d8be

4.bias f4 [784]
-0.6031266 -0.65550303 -0.4897557 -0.5881962 -0.7310929 -0.5464041 -0.51536745 -0.72255343
-0.7047642 -0.552538 -0.6665724 -0.7117229 -0.5707983 -0.49645278 -0.5554559 -0.5463026
-0.6970899 -0.5912954 -0.5393245 -0.8371152 -0.7639016 -0.59773946 -0.613315 -0.6472152
-0.81898427 -0.60054404 -0.5602662 -0.8132149 -0.59439194 -0.54473877 -0.5692804 -0.58337
-0.6836909 -0.6046714 -0.43496525 -0.49934506 -0.32988465 -0.19944909 -0.18304943 -0.15091221
-0.15516752 -0.2764033 -0.22411008 -0.048947953 -0.12888952 -0.13792579 -0.21201071 -0.24756986
-0.192068 -0.19255657 -0.2269006 -0.53041345 -0.47913694 -0.7061379 -0.8247147 -0.69047236
-0.7242201 -0.6456497 -0.5817785 -0.48429245 -0.2532161 -0.23141019 -0.28190622 -0.45179167
-0.19537582 -0.31841475 -0.26567262 -0.35951456 -0.4254542 -0.46699718 -0.60578763 -0.44375136
-0.8728248 -0.82606333 -0.73084486 -0.4103101 -0.14667706 -0.32858396 -0.18337385 -0.16252065
-0.11514639 -0.48045504 -0.7162594 -0.5543942 -0.65796655 -0.6745796 -0.61539453 -0.54293627
-0.50439197 -0.3130969 -0.433109 -0.3406964 -0.35710448 -0.5031327 -0.6754546 -0.8144774
-0.8523405 -0.78599334 -0.83166206 -0.92595446 -1.065437 -1.0088929 -0.851607 -0.80627346
-0.6358936 -0.52367157 -0.32853857 -0.3221599 -0.23813906 -0.3635129 -0.7582166 -0.71136117
-0.6671782 -0.5369714 -0.27427506 -0.35645133 -0.26699117 -0.33616158 -0.21085773 -0.78822404
-0.5370561 -0.4451216 -0.49161962 -0.33843708 -0.51597404 -0.3195052 -0.47228205 -0.7933266
-0.58927184 -0.3772551 -0.44125745 -0.2665592 -0.35805815 -0.58606523 -0.7161026 -0.5739565
-0.4071665 -0.3521315 -0.17470236 -0.6235079 -0.64026195 -0.5241965 -0.23556961 -0.34785852
-0.4279787 -0.40477112 -0.52765155 -0.48203048 -0.08532478 -0.38160858 -0.32275945 -0.60038966
-0.73257375 -0.81316835 -0.62775713 -0.42757106 -0.33346638 -0.23349465 -0.3247825 -0.5859974
-0.41425788 -0.75785506 -0.7169476 -0.6096984 -0.4395566 -0.44192338 -0.48871374 -0.33035612
-0.59711933 -0.62871385 -0.33679742 -0.22558022 -0.45685923 -0.4515603 -0.39908555 -0.25402015
-0.12992856 0.00041003525 -0.10439821 -0.12234931 -0.29313108 -0.4128097 -0.1963523 -0.21360028
-0.1358138 0.2775663 0.30330247 0.031039529 -0.2467603 -0.44994733 -0.585912 -0.43610725
-0.42504475 -0.5153759 -0.43122932 -0.22039072 -0.70129 -0.21414986 -0.36325055 -0.51221657
-0.61050504 -0.54248285 -0.17983694 -0.11050218 0.1291391 -0.113415204 0.2876479 -0.05233167
0.20860209 -0.012507271 0.015837418 -0.029299112 0.45509514 0.397875 0.27012777 0.051909834
-0.19753215 -0.3742367 -0.58455974 -0.53685355 -0.6187693 -0.5540969 -0.4302317 -0.40539718
-0.30371016 -0.22627303 -0.3899986 -0.71532553 -0.68480676 -0.32875922 -0.029802902 0.060283285
-0.15660618 0.31870857 0.11328131 0.16515973 0.111489765 0.26491138 0.18640035 0.47174448
0.17878483 0.35717696 0.24420111 0.090761185 -0.14945275 -0.2635446 -0.19492108 -0.34355456
-0.609653 -0.3982464 -0.43027675 -0.31769243 -0.38950104 -0.36207134 -0.48567328 -0.45363528
00000000: 8166 1abf 0ccf 27bf 42c1 fabe 0794 16bf
00000010: e728 3bbf 24e1 0bbf 1fef 03bf 43f9 38bf
00000020: 6d6b 34bf 2173 0dbf 7da4 2abf 7933 36bf
00000030: d61f 12bf 0f2f febe 5c32 0ebf 7dda 0bbf
00000040: 7c74 32bf 235f 17bf 2c11 0abf 2f4d 56bf
00000050: 0e8f 43bf 7405 19bf 3602 1dbf e5af 25bf
00000060: f4a8 51bf 41bd 19bf 9b6d 0fbf da2e 50bf
00000070: 122a 18bf 0074 0bbf 5cbc 11bf bc57 15bf
00000080: 5e06 2fbf bfcb 1abf c4b3 debe 28aa ffbe
00000090: a4e6 a8be 623c 4cbe 4f71 3bbe bb88 1abe
000000a0: 3ce4 1ebe bc84 8dbe 1d7d 65be a67d 48bd
000000b0: 9dfb 03be 6b3c 0dbe 5619 59be f482 7dbe
000000c0: 79ad 44be 8d2d 45be a258 68be 2dc9 07bf
000000d0: 7051 f5be 74c5 34bf 8120 53bf ccc2 30bf
000000e0: 7d66 39bf 4c49 25bf 70ef 14bf 2ef5 f7be
000000f0: 8aa5 81be cbf6 6cbe 0356 90be 3d51 e7be
00000100: 9910 48be 4207 a3be 3e06 88be 4b12 b8be
00000110: 22d5 d9be 411a efbe e614 1bbf 6133 e3be
00000120: 7271 5fbf e378 53bf a618 3bbf 2a14 d2be
00000130: 8332 16be 283c a8be 5bc6 3bbe d06b 26be
00000140: dfd1 ebbd 34fe f5be c75c 37bf c7ec 0dbf
00000150: 7f70 28bf 40b1 2cbf 7f8a 1dbf dffd 0abf
00000160: d51f 01bf 3d4e a0be 76c0 ddbe c26f aebe
00000170: 66d6 b6be 4ecd 00bf 98ea 2cbf 9781 50bf
00000180: fd32 5abf dc36 49bf cee7 54bf 5a0b 6dbf
00000190: 3d60 88bf 6723 81bf eb02 5abf f067 4ebf
000001a0: ecc9 22bf 570f 06bf 3536 a8be 24f2 a4be
000001b0: bada 73be 5d1e babe 7c1a 42bf c41b 36bf
000001c0: 31cc 2abf f576 09bf c86d 8cbe ca80 b6be
000001d0: 11b3 88be 5f1d acbe 17eb 57be 0dc9 49bf
000001e0: 827c 09bf fae6 e3be 91b5 fbbe a047 adbe
000001f0: e016 04bf 3096 a3be f4ce f1be 7417 4bbf
00000200: 85da 16bf 9527 c1be 7fec e1be 737a 88be
00000210: 6653 b7be 5f08 16bf 8052 37bf d0ee 12bf
00000220: 2178 d0be 944a b4be 2de5 32be 379e 1fbf
00000230: 35e8 23bf be31 06bf 2939 71be 831a b2be
00000240: 0620 dbbe 293e cfbe 2c14 07bf b3cc f6be
00000250: c2be aebd 3362 c3be ba40 a5be 23b3 19bf
00000260: f489 3bbf cd2b 50bf b1b4 20bf 98ea dabe
00000270: 1bbc aabe 3919 6fbe e449 a6be ed03 16bf
00000280: 9c19 d4be ca02 42bf e189 37bf 3215 1cbf
00000290: 900d e1be c843 e2be b038 fabe 7024 a9be
000002a0: d0dc 18bf 64f3 20bf b670 acbe 80fe 66be
000002b0: 74e9 e9be e932 e7be f154 ccbe ee0e 82be
000002c0: fe0b 05be 00fa d639 bbce d5bd 4692 fabd
000002d0: 4715 96be cb5b d3be 9410 49be 08ba 5abe
000002e0: c612 0bbe 2c1d 8e3e 764a 9b3e 9c46 fe3c
000002f0: bbae 7cbe 7f5f e6be 54fe 15bf 7349 dfbe
00000300: 779f d9be adef 03bf 17ca dcbe 1bae 61be
00000310: be87 33bf 1a4a 5bbe fafb b9be a020 03bf
00000320: 0f4a 1cbf 28e0 0abf 2d27 38be f84e e2bd
00000330: 0a3d 043e 3b46 e8bd 9646 933e bc59 56bd
00000340: c99b 553e 4ceb 4cbc 79bd 813c b104 f0bc
00000350: 3b02 e93e 46b6 cb3e 304e 8a3e 689f 543d
00000360: de45 4abe f49b bfbe b5a5 15bf 3c6f 09bf
00000370: aa67 1ebf 4bd9 0dbf 5447 dcbe 3890 cfbe
00000380: e67f 9bbe 1eb4 67be e6ad c7be 931f 37bf
00000390: 7f4f 2fbf 2153 a8be 3725 f4bc 9beb 763d
000003a0: 5f5d 20be c52d a33e 0800 e83d a21f 293e
000003b0: bf54 e43d 77a2 873e bcdf 3e3e 7e88 f13e
000003c0: 5f13 373e e6df b63e db0f 7a3e 00e1 b93d
000003d0: 240a 19be 51ef 86be 6499 47be 62e6 afbe
000003e0: 3812 1cbf f4e6 cbbe 3c4d dcbe 95a8 a2be
000003f0: ae6c c7be 6a61 b9be 2baa f8be e242 e8be
