mnist_gan/MNIST_GAN_FC/save/G--70.ckpt (torch_old, 447392 bytes, 6 tensors)

0.weight f4 [64, 32]
-0.0031050087 0.006349189 -0.011223531 0.0038194894 -0.01235198 0.023821507 0.0026400434 -0.018010026
-0.0031400982 0.00802741 -0.005779501 0.0068573253 0.004700816 -0.0007431758 0.015914762 -0.0064843413
-0.00011317633 -0.006418779 -0.013333079 -0.013123403 -0.005837887 0.003405142 -0.008416851 -0.0028888106
-0.002361017 0.010580827 -0.0064137937 -0.0067877974 -0.0014596265 0.013310609 -0.00025137025 -0.02807297
-0.14745831 0.3270975 0.3917699 0.25290346 0.3445527 0.15326092 0.107631385 -0.2925394
-0.22314353 0.37848446 0.5538534 0.12261973 -0.23900205 0.42181736 -0.22569059 -0.18783033
0.037401304 -0.6779083 -0.26808095 0.01991421 -0.2776751 0.61599034 -0.28372556 0.39274657
0.19588172 -0.14715363 0.33703938 0.2452039 -0.116636224 0.37085447 -0.10760402 0.8364446
-0.06503128 0.16957642 -0.3847456 0.20571633 -0.7166033 -0.19606449 0.22065169 0.5211061
0.77158546 -0.69056225 -0.15803784 -0.61822367 0.09407612 0.1040345 -0.13285424 -0.41419962
0.051625792 1.1467056 1.243931 0.62563294 1.0751433 -1.6442412 -0.33108804 -0.4937847
0.04649011 0.03912368 -0.50856316 -0.8475794 0.27671543 -0.099098735 0.19054501 -1.4292204
-0.32966378 0.42957032 0.029644249 -0.094928704 0.4465492 -0.14947346 -0.10558997 -0.5144714
-0.22153318 0.17280957 0.34978795 0.013620175 -0.1299616 0.36228508 0.12685694 -0.11734323
-0.013750758 -0.46158075 -0.34614486 -0.07202663 -0.14202768 1.0109544 -0.2153392 -0.12403286
0.001261473 0.011788519 0.26612452 0.097426616 0.1259456 0.10771379 0.088575594 0.55586225
-0.7300859 0.13935763 -0.5768882 0.26190868 -0.3209245 -0.19840422 0.13322344 0.77500755
-0.1472657 -0.4359879 -0.2318952 -0.60442066 -0.17149995 0.40239793 -0.4957468 -0.37622067
-0.48723572 0.09128052 -0.34590536 0.08170712 0.836974 -0.93494755 -0.29147717 -1.2213991
-0.13556314 -0.45899755 -0.7551965 -0.7537449 0.84137803 -0.4203684 0.29204547 -0.26969117
-0.6139384 0.2376168 -0.16551302 0.40775135 0.2513466 0.014395778 0.119737335 0.33860084
-0.5128127 0.023864133 0.203067 -0.32703847 -0.39385116 0.65539527 -0.64389247 -0.3184282
-0.4670045 -0.73808086 -0.7842195 0.07192462 0.21032035 0.09702462 -0.38760093 -0.43296784
-0.0055475077 -0.42347264 -0.26935378 -0.18169379 0.4356561 -0.066686735 0.1268528 0.7148792
0.124071695 -0.16933903 0.31596833 0.30143523 0.1270697 0.37563407 -0.14422645 0.021645656
-0.6572193 -0.018366829 0.24824387 0.16986021 0.100728 0.23190914 -0.23749082 -0.17818609
-0.26691088 -1.0148408 -1.0918123 -0.4815447 -0.15829113 0.47035328 -0.16869439 0.48759153
0.052827403 -0.5803127 0.35949275 0.56557477 -0.26667124 0.025693988 -0.047852814 0.9769582
0.4881845 0.073477425 -0.30029875 0.025129143 0.08566724 0.32339805 -0.14100182 -0.22742237
-0.7144014 -0.21954672 -0.31938058 0.06380735 -0.008933822 -0.06371695 -0.30868262 0.083655946
-0.494994 -0.46237695 -0.6231225 -0.14933039 -0.38145277 -0.20347095 -0.48950994 0.64880437
-0.41265228 -0.2006479 -0.0074209543 0.11405962 0.05677103 0.40742436 0.1990488 -0.09829934
00000000: 677d 4bbb dc0c d03b e7e2 37bc 6650 7a3b
00000010: f65f 4abc 5225 c33c 9404 2d3b c389 93bc
00000020: 1bca 4dbb 6685 033c f861 bdbb 6ab3 e03b
00000030: 4d09 9a3b afd1 42ba ad5f 823c 997a d4bb
00000040: 1459 edb8 9f54 d2bb fd72 5abc 8b03 57bc
00000050: bf4b bfbb ce28 5f3b d5e6 09bc 3352 3dbb
00000060: 4bbb 1abb 345b 2d3c cd2a d2bb 2c6c debb
00000070: f050 bfba be14 5a3c 58ca 83b9 49f9 e5bc
00000080: 50ff 16be 5379 a73e 1096 c83e 907c 813e
00000090: 3669 b03e 6ef0 1c3e d86d dc3d b9c7 95be
000000a0: bd7f 64be b7c8 c13e 56c9 0d3f 0e20 fb3d
000000b0: f4bc 74be 72f8 d73e 6f1b 67be 9856 40be
000000c0: 1c32 193d 668b 2dbf e841 89be 2023 a33c
000000d0: 6e2b 8ebe 8bb1 1d3f 7a44 91be 1416 c93e
000000e0: 3895 483e 71af 16be 6d90 ac3e bb16 7b3e
000000f0: f9de eebd a3e0 bd3e 7f5f dcbd 3c21 563f
00000100: 1f2f 85bd 71a5 2d3e 60fd c4be 4da7 523e
00000110: 5073 37bf 21c5 48be 84f2 613e 3667 053f
00000120: a086 453f b0c8 30bf acd4 21be e843 1ebf
00000130: fbaa c03d 0a10 d53d f10a 08be f911 d4be
00000140: 9175 533d 40c7 923f 2239 9f3f 7b29 203f
00000150: 4c9e 893f 7f76 d2bf 5f84 a9be 59d1 fcbe
00000160: 6a6c 3e3d 2740 203d 3231 02bf f7fa 58bf
00000170: a5ad 8d3e 47f4 cabd 3b1e 433e b2f0 b6bf
00000180: b1c9 a8be a4f0 db3e 7fd8 f23c fb69 c2bd
00000190: 19a2 e43e 920f 19be 8e3f d8bd 66b4 03bf
000001a0: 98d9 62be fef4 303e 6817 b33e 2827 5f3c
000001b0: a714 05be 6e7d b93e c9e6 013e a651 f0bd
000001c0: dc4a 61bc 5054 ecbe e639 b1be b382 93bd
000001d0: b46f 11be f466 813f e181 5cbe f104 febd
000001e0: 0358 a53a a224 413c 7941 883e 9b87 c73d
000001f0: e2f7 003e 0c99 dc3d 1f67 b53d fd4c 0e3f
00000200: e9e6 3abf c4b3 0e3e f2ae 13bf e518 863e
00000210: 3750 a4be 7a2a 4bbe ba6b 083e e566 463f
00000220: d2cc 16be ce39 dfbe ef75 6dbe 50bb 1abf
00000230: af9d 2fbe 1a07 ce3e 86d2 fdbe ff9f c0be
00000240: f676 f9be 48f1 ba3d 821a b1be 1056 a73d
00000250: ee43 563f b958 6fbf 7f3c 95be ce56 9cbf
00000260: 10d1 0abe ba01 ebbe 8f54 41bf 6df5 40bf
00000270: 8d64 573f 873a d7be fc86 953e f614 8abe
00000280: 112b 1dbf d251 733e 3f7c 29be c9c4 d03e
00000290: 80b0 803e 45dc 6b3c d938 f53d 175d ad3e
000002a0: b147 03bf b77e c33c ccf0 4f3e 9671 a7be
000002b0: dca6 c9be fcc7 273f 23d6 24bf 0509 a3be
000002c0: 371b efbe def2 3cbf 9cc2 48bf 374d 933d
000002d0: 385e 573e d8b4 c63d a173 c6be f6ad ddbe
000002e0: dec7 b5bb 68d1 d8be bde8 89be f00d 3abe
000002f0: 510e df3e 0e93 88bd b3e5 013e 5302 373f
00000300: 4d19 fe3d 3667 2dbe 9ac6 a13e b855 9a3e
00000310: 8f1e 023e 1c53 c03e 19b0 13be 3b52 b13c
00000320: 863f 28bf 0876 96bc a433 7e3e d6ef 2d3e
00000330: 7b4a ce3d 9779 6d3e cb30 73be 6a76 36be
00000340: 8ba8 88be 4ee6 81bf 81c0 8bbf 078d f6be
00000350: 1217 22be 25d2 f03e 39be 2cbe 99a5 f93e
00000360: 8c61 583d 608f 14bf 6f0f b83e 82c9 103f
00000370: 2289 88be 337c d23c 5001 44bd ef19 7a3f
00000380: 52f3 f93e 557b 963d c2c0 99be a2db cd3c
00000390: 4e72 af3d 6e94 a53e c862 10be 69e1 68be
000003a0: 03e3 36bf dbd0 60be da85 a3be 6ead 823d
000003b0: 2a5f 12bc 087e 82bd a60b 9ebe cf53 ab3d
000003c0: db6f fdbe acbc ecbe f584 1fbf 11ea 18be
000003d0: c74d c3be b05a 50be 0ca1 fabe 0b18 263f
000003e0: 2947 d3be a576 4dbe 7a2b f3bb 1798 e93d
000003f0: bd88 683d ed99 d03e 73d3 4b3e 2a51 c9bd

0.bias f4 [64]
-0.3248658 -0.22614498 0.6292239 -0.035328027 0.5236345 -0.76943463 -0.575651 0.3263996
-0.036469333 -0.13392825 1.1142979 0.36163342 0.13445237 0.44027662 -0.11230195 0.018268572
-0.07582655 -0.14544486 -0.29282066 0.49361983 0.15048496 -0.00088880665 0.2367536 -0.35591227
0.19657418 0.20349105 -0.027403481 -0.71007323 -0.21821527 0.6204526 0.1165186 -0.12139872
-0.0670401 -0.09630193 -0.08045445 -0.27915183 -0.712891 -0.5218661 0.81642455 0.08885544
0.20260848 -0.25446665 0.3364011 0.31945208 -0.16208112 -0.12847193 -0.5207854 -0.21804453
-0.09376704 1.599781 0.891164 0.28512147 0.5719905 -0.056657847 0.93829113 0.83337945
-0.055503406 -0.42581367 0.20289892 -0.7442123 -0.3127073 -0.14772238 0.1661537 0.18724173
00000000: cf54 a6be 8d92 67be d114 213f 1fb4 10bd
00000010: e90c 063f abf9 44bf dd5d 13bf d91d a73e
00000020: de60 15bd 7d24 09be 50a1 8e3f 0428 b93e
00000030: e2ad 093e f06b e13e 91fe e5bd f9a7 953c
00000040: f34a 9bbd 7fef 14be 97ec 95be bdbb fc3e
00000050: bb18 1a3e cefe 68ba 896f 723e 223a b6be
00000060: be4a 493e f55f 503e 447d e0bc 5cc7 35bf
00000070: d373 5fbe fbd5 1e3f 4ea1 ee3d e49f f8bd
00000080: 524c 89bd f239 c5bd 4dc5 a4bd fdec 8ebe
00000090: 0680 36bf 0499 05bf 3301 513f d7f9 b53d
000000a0: 9978 4f3e 7449 82be c43c ac3e 398f a33e
000000b0: 98f8 25be 258e 03be 3152 05bf 1147 5fbe
000000c0: ef08 c0bd a0c5 cc3f 5323 643f 71fb 913e
000000d0: f86d 123f 0f12 68bd d933 703f 5b58 553f
000000e0: 8a57 63bd 4004 dabe bcc4 4f3e b384 3ebf
000000f0: 2c1b a0be 8944 17be 3224 2a3e 4cbc 3f3e

2.weight f4 [128, 64]
0.003957936 -0.17284223 0.6303079 -0.4904291 -0.46331188 -0.0077035683 0.6095481 0.07003474
-0.06911517 0.014767453 0.87479776 -0.68784213 -0.5980602 -0.004203716 0.4484513 -0.44031724
-0.0010156751 0.09805207 0.052932713 -0.32302165 0.03372749 -0.7514104 -0.13371775 -0.39534158
-1.0406474 0.27165455 0.14020526 -0.7277738 0.106461145 0.05772873 0.0021647052 -0.19308719
-0.98700106 0.022327913 -0.8467186 0.09504462 0.2936532 -0.43476287 0.25601745 0.07061781
-0.09022993 0.014598621 0.63777405 0.25734085 -0.041433074 0.102034956 0.10424171 0.02367743
-0.065039985 -0.18506245 -8.745855e-05 0.3772983 0.1149878 -0.11499768 0.45321226 0.5584466
0.051828574 -0.37484387 0.16977556 -0.5676552 -0.073271886 -0.0014890094 0.1547888 0.038738944
0.07747384 0.11144405 0.35075027 -0.35765988 0.73120695 0.39075017 0.850648 -0.08365102
-0.8283258 0.04324119 -0.3432006 -0.3423723 0.10548087 -0.57541496 0.041277748 -0.16591659
0.03968021 0.17197491 0.046690185 0.3995296 -0.076467216 0.3390615 0.5796627 0.1551453
-0.061684016 -0.57560456 0.057259463 0.052176073 0.17344937 -0.84598416 0.36531004 -1.0401634
-0.6774448 0.14599152 -0.45521843 0.25334725 0.7515634 0.1692034 0.19445232 0.08476923
-0.42654443 0.35570067 -0.10025337 -0.19779177 0.111172445 -0.6833675 -0.74402153 0.05429793
0.2293139 0.2395122 -0.052706286 -0.31868276 0.22957332 -0.06823054 -0.15759693 -0.5508164
-0.9898723 -0.45536223 0.4037833 0.08788784 -0.060415536 0.35862243 -0.37068152 0.0979802
0.12335241 -0.33703837 -0.83569366 0.10310929 -0.29587024 -0.17380327 -0.9202668 -0.40838426
0.1375981 0.10485319 -0.38808054 -0.16482194 0.0123996185 0.2930996 -0.27085337 -0.47036484
0.14824416 0.025640493 0.11522538 -0.50107664 0.804474 0.28423885 0.5700536 0.029660294
0.6861921 0.12099492 0.33587128 -0.48638338 0.0740152 0.25957716 0.12719056 -0.6875494
-1.4593558 0.085724115 -0.041387204 0.042953297 0.23524539 -0.89335066 -0.54385966 0.19879593
0.123863876 -0.19662037 -0.00086673774 -0.69494444 -0.02010768 -0.27429205 0.30628842 -0.004995663
0.1181022 -0.10073647 0.46725786 0.15350126 0.3085685 0.104733646 -0.018983763 0.36060482
0.29989415 -0.39572483 0.5921957 -0.27592126 0.0686691 0.18535484 0.510069 0.5989415
0.056448136 0.016278522 -0.33094275 -0.1376152 -0.46482614 -0.4665575 0.18156381 0.07547572
-0.27681744 -0.023905432 -0.6451091 -0.0884899 0.0036393057 -0.7851089 -0.12775038 -0.8267943
0.11538637 0.04035816 0.11437646 -0.801821 -0.38804385 -0.30186003 0.14185795 0.44310638
0.2563697 -0.34409088 0.03669072 0.114790544 -0.005072153 0.24008107 -0.37282184 -0.6678861
0.50664645 0.09197591 0.50021005 -0.074255235 -0.16311902 -0.25938395 0.15076804 0.11657328
-0.15067573 -0.028679505 -0.11208039 0.54971516 0.14497219 -0.47062346 -0.5020135 0.09576705
0.15727477 -2.0305686 -0.050995305 0.691536 -0.07568602 -0.058319528 -0.07827109 0.60849535
-0.20144844 -0.062365178 0.37413082 -0.68869936 0.26410934 -0.28024888 0.85954314 -0.10575631
00000000: 93b1 813b 8efd 30be dc5b 213f 8619 fbbe
00000010: 3737 edbe 376e fcbb 580b 1c3f 606e 8f3d
00000020: 418c 8dbd 30f3 713c bff2 5f3f 6c16 30bf
00000030: 791a 19bf 53bf 89bb 699b e53e 4371 e1be
00000040: 6720 85ba 86cf c83d f9cf 583d 1863 a5be
00000050: d625 0a3d 6f5c 40bf 4eed 08be 366a cabe
00000060: ef33 85bf 4e16 8b3e f891 0f3e 624f 3abf
00000070: 4d08 da3d f674 6c3d badd 0d3b a6b8 45be
00000080: 1aac 7cbf 07e9 b63c 8dc2 58bf c1a6 c23d
00000090: b659 963e 3d99 debe b814 833e 12a0 903d
000000a0: 78ca b8bd 0e2f 6f3c 2945 233f 2ec2 833e
000000b0: bab5 29bd b4f7 d03d ad7c d53d 2bf7 c13c
000000c0: af33 85bd 0381 3dbe f469 b7b8 3e2d c13e
000000d0: b97e eb3d e783 ebbd 700b e83e 5bf6 0e3f
000000e0: 334a 543d 89eb bfbe a5d9 2d3e da51 11bf
000000f0: 920f 96bd dd2a c3ba f580 1e3e baac 1e3d
00000100: 9baa 9e3d c73c e43d 8a95 b33e 321f b7be
00000110: 6130 3b3f 6810 c83e 11c4 593f 3a51 abbd
00000120: 290d 54bf ad1d 313d fdb7 afbe 6c4b afbe
00000130: 5b06 d83d 654e 13bf db12 293d 0ae6 29be
00000140: b787 223d 311a 303e 353e 3f3d 258f cc3e
00000150: d89a 9cbd 7899 ad3e c664 143f 69de 1e3e
00000160: 61a8 7cbd d25a 13bf e688 6a3d 94b6 553d
00000170: b69c 313e 6b92 58bf eb09 bb3e 1324 85bf
00000180: 066d 2dbf cd7e 153e 6412 e9be bbb6 813e
00000190: 7566 403f a843 2d3e 821e 473e 7d9b ad3d
000001a0: 0864 dabe 661e b63e a451 cdbd ed89 4abe
000001b0: 61ae e33d 2cf1 2ebf 3278 3ebf 8267 5e3d
000001c0: 43d1 6a3e b042 753e 8ce2 57bd 632a a3be
000001d0: 4515 6b3e 74bc 8bbd 1761 21be 4e02 0dbf
000001e0: 4568 7dbf 3d25 e9be afbc ce3e 8afe b33d
000001f0: 4876 77bd 5c9d b73e f8c9 bdbe d8a9 c83d
00000200: 30a0 fc3d 4b90 acbe 05f0 55bf f72a d33d
00000210: 4e7c 97be 7cf9 31be 9b96 6bbf be17 d1be
00000220: 84e6 0c3e 45bd d63d 7eb2 c6be 15c7 28be
00000230: c527 4b3c 2711 963e 4bad 8abe a9d3 f0be
00000240: 51cd 173e 030c d23c 49fb eb3d 8f46 00bf
00000250: 02f2 4d3f c187 913e 08ef 113f 25fa f23c
00000260: 49aa 2f3f 2fcc f73d 52f7 ab3e 3e07 f9be
00000270: 4895 973d 4ce7 843e 3e3e 023e 3d03 30bf
00000280: 2ccc babf 2090 af3d a185 29bd ccef 2f3d
00000290: 2be4 703e a1b2 64bf 633a 0bbf 2991 4b3e
000002a0: 58ac fd3d da56 49be c935 63ba e1e7 31bf
000002b0: dcb8 a4bc 0270 8cbe d6d1 9c3e a9b2 a3bb
000002c0: 91df f13d ec4e cebd 6c3c ef3e 6f2f 1d3e
000002d0: b1fc 9d3e 987e d63d d683 9bbc 32a1 b83e
000002e0: ba8b 993e 729c cabe 239a 173f 8d45 8dbe
000002f0: 63a2 8c3d a9cd 3d3e e293 023f 3b54 193f
00000300: 2936 673d 895a 853c 5471 a9be 00eb 0cbe
00000310: b1fd edbe a0e0 eebe ddeb 393e 0493 9a3d
00000320: 04bb 8dbe 53d5 c3bc df25 25bf 313a b5bd
00000330: 6b81 6e3b e6fc 48bf ffd0 02be cba8 53bf
00000340: b04f ec3d 994e 253d 353e ea3d 2444 4dbf
00000350: afad c6be 668d 9abe 3643 113e d7de e23e
00000360: e442 833e ae2c b0be 0249 163d 4e17 eb3d
00000370: 4e34 a6bb d0d7 753e 81e2 bebe 95fa 2abf
00000380: 95b3 013f de5d bc3d c40d 003f 2113 98bd
00000390: ac08 27be f9cd 84be f062 1a3e f9bd ee3d
000003a0: bd4a 1abe 48f1 eabc 678a e5bd 22ba 0c3f
000003b0: 9773 143e 8ff5 f0be f583 00bf 8421 c43d
000003c0: a30c 213e d6f4 01c0 74e0 50bd 8108 313f
000003d0: 4601 9bbd 75e0 6ebd 984c a0bd 5ac6 1b3f
000003e0: 8048 4ebe a172 7fbd 138e bf3e 9a4e 30bf
000003f0: 5739 873e c87c 8fbe 050b 5c3f c496 d8bd

2.bias f4 [128]
0.6114996 0.13930108 0.26486644 0.41286388 -0.026260218 -0.083460614 -0.0940242 0.010128391
0.22844766 0.14983359 -0.024753181 0.27175817 -0.045632314 0.74990755 0.42730877 0.012970952
0.21099526 0.011481014 -0.22793321 0.010353252 0.30328524 0.35005203 -0.08831927 0.50100976
-0.0048971353 -0.13679388 0.2412211 0.2395515 0.20189548 0.10585477 0.39612016 0.4104296
0.08797049 0.21507332 0.3111748 -0.050538216 0.08578799 -0.34141195 -0.03871276 0.25784758
-0.073459394 0.042909686 0.43238598 -0.034160353 0.24273726 0.59039587 0.25405887 0.0770855
0.06273606 0.5046152 0.40375185 0.01253027 0.37270755 0.16748348 -0.08396412 0.20179191
0.3546845 0.4093192 0.6265798 0.055072296 0.15732102 0.06449072 0.05025854 0.19867676
0.16905972 0.15099134 0.25396383 0.010118715 0.32411546 -0.044459503 0.108547956 0.12668404
-0.06229759 -0.22633629 0.060762726 0.08274318 -0.02915281 0.03077501 -0.43329534 0.16403557
-0.010837533 -0.19392031 -0.16537844 0.2924006 0.046683386 0.4061674 0.052682962 0.14870445
-0.23992611 -0.23630868 0.37103888 0.5193032 0.39641678 0.008387254 0.16880259 0.19543387
-0.18947811 -0.12395551 0.50881124 -0.03610472 0.37594563 0.20846611 0.16751538 0.44850588
0.14337052 0.46800706 -0.15832047 -0.23026651 0.04791372 0.021247648 0.08268544 0.0316774
-0.19946818 0.4813788 0.5720706 0.32500786 0.48891976 0.23278923 0.17427444 0.4007063
0.1696777 -0.048838943 0.2995859 0.1444527 0.021725815 0.3370341 -0.3018727 0.1401056
00000000: 3d8b 1c3f f1a4 0e3e 939c 873e e562 d33e
00000010: ab1f d7bc 66ed aabd c38f c0bd 8df1 253c
00000020: 2fee 693e fa6d 193e 2fc7 cabc e323 8b3e
00000030: f3e8 3abd f1f9 3f3f 37c8 da3e 1e84 543c
00000040: 240f 583e dd1a 3c3c 5367 69be b0a0 293c
00000050: 3448 9b3e 053a b33e bce0 b4bd 2d42 003f
00000060: 2678 a0bb b213 0cbe aa02 773e fd4c 753e
00000070: b0bd 4e3e 63ca d83d 43d0 ca3e d423 d23e
00000080: df29 b43d 2e3c 5c3e 4e52 9f3e 2901 4fbd
00000090: 9db1 af3d 8ccd aebe 4591 1ebd 9904 843e
000000a0: e171 96bd 11c2 2f3d b261 dd3e baeb 0bbd
000000b0: 1e90 783e 2f24 173f 0114 823e 01df 9d3d
000000c0: c37b 803d 762e 013f 90b8 ce3e c34b 4d3c
000000d0: 86d3 be3e ca80 2b3e 61f5 abbd 8aa2 4e3e
000000e0: 3599 b53e 4992 d13e 8967 203f 7d93 613d
000000f0: c318 213e b613 843d e6db 4d3d ec71 4b3e
00000100: fe1d 2d3e 799d 1a3e 8c07 823e f8c8 253c
00000110: 76f2 a53e 2b1b 36bd 644e de3d 76b9 013e
00000120: c22b 7fbd b3c4 67be 56e2 783d 4275 a93d
00000130: e0d1 eebc e01b fc3c e3d8 ddbe f1f8 273e
00000140: e88f 31bc 0c93 46be f758 29be 88b5 953e
00000150: 1437 3f3d 2cf5 cf3e 17ca 573d fb45 183e
00000160: 31af 75be e7fa 71be cff8 bd3e 0ef1 043f
00000170: 24f7 ca3e b16a 093c 96da 2c3e d11f 483e
00000180: 8d06 42be 63dc fdbd 7441 023f 8be2 13bd
00000190: f27b c03e 2478 553e 2789 2b3e 90a2 e53e
000001a0: b9cf 123e 9f9e ef3e c31e 22be fcca 6bbe
000001b0: 2d41 443d 8c0f ae3c fc56 a93d 29c0 013d
000001c0: 6341 4cbe 4877 f63e 3873 123f 6e67 a63e
000001d0: b153 fa3e 4d60 6e3e 0075 323e 6029 cd3e
000001e0: febf 2d3e 580b 48bd 5363 993e 69eb 133e
000001f0: 56fa b13c bc8f ac3e 0f8f 9abe d877 0f3e

4.weight f4 [784, 128]
-0.5527516 -0.72830564 -0.7764973 -0.334423 -0.49382928 -0.49424225 -0.6032671 -0.8406364
-0.42724788 -0.5443341 -0.12684435 -0.74161285 -0.64688647 -0.37036034 -0.19565104 -0.44028622
-0.23982824 -0.5298831 -0.35548067 -0.18512192 -0.04921928 -0.8796384 -0.13416505 -0.7241511
-0.77203065 -0.20983458 -0.5483436 -0.14458662 -0.44246778 -0.5983854 -0.8071188 -0.12345535
-0.7138399 -0.18055116 -0.5008723 -0.61627245 -0.083639756 -0.14960562 -0.49288374 -1.3108097
-0.5768257 -0.26720312 -0.21113446 -0.14550725 -0.7269326 -1.3819251 -0.22789185 -0.6933587
-0.63512266 -0.21532254 -0.39083025 -1.0161718 -0.76806 -0.12137106 -0.33981535 -0.018605849
-0.9356098 -0.20336002 -0.43971148 -0.106059045 -0.5227245 -0.24193932 -0.65453094 -0.19824822
-0.5025008 -0.60461915 -0.59329295 -0.31091124 -0.40868255 -0.54405403 -0.17502318 -0.66242975
-0.14367437 -0.2645999 -0.46695065 -0.47002128 -0.649531 -0.8690886 -0.1981092 -0.80362046
-0.6373284 -0.29679012 -0.49001932 -0.4981895 -0.657856 -0.20638652 -0.68661755 -0.1218623
-0.64677 -0.37655827 -0.71966815 -1.0598962 -0.680545 -0.23494376 -1.2381668 -0.6702875
-0.16020891 -0.7865128 -1.075749 -0.06459637 -1.0577579 -0.65717477 -0.09870952 -0.939138
-0.65334725 -0.23427017 -0.5619012 -0.62855595 -0.16291758 -0.20309259 -0.8573158 -0.58604866
-0.28714424 -0.08002 -0.7548587 -0.8830434 -0.7451579 -0.4541587 -0.9630511 -0.7895714
-0.22605513 -0.35541278 -1.0713319 -0.5989316 -1.200577 -0.6661406 -0.858953 -0.38372946
-0.51526797 -0.73076016 -0.7015023 -0.38566357 -0.47432432 -0.56900924 -0.6989888 -0.8691363
-0.5434768 -0.6517481 -0.14232853 -0.8108067 -0.7096061 -0.5085396 -0.17004333 -0.3749068
-0.17230545 -0.4521962 -0.31488535 -0.15849964 -0.17458749 -0.7991909 -0.10140753 -0.6596365
-0.76319057 -0.19493882 -0.49445868 -0.17982404 -0.46879452 -0.5498913 -0.6618195 -0.111652456
-0.63017434 -0.18974233 -0.4310986 -0.59703404 -0.08038182 -0.18710965 -0.4310282 -1.1931757
-0.571822 -0.15812631 -0.3331306 -0.18341357 -0.74690104 -1.4022276 -0.1952514 -0.7239945
-0.545345 -0.22832166 -0.37948844 -0.9785304 -0.8147373 -0.15203685 -0.2923943 -0.119967364
-0.8432411 -0.29230717 -0.43633378 -0.06250614 -0.58735603 -0.31757236 -0.6404412 -0.16610768
-0.39371192 -0.58738977 -0.51243794 -0.42233935 -0.3220461 -0.5521478 -0.16489469 -0.6080412
-0.13176593 -0.21422422 -0.53896636 -0.44038838 -0.7307588 -0.75784117 -0.13949028 -0.73895335
-0.5994878 -0.42579278 -0.4125413 -0.54581976 -0.59354895 -0.20388423 -0.6915354 -0.09325651
-0.78800815 -0.49475324 -0.61757374 -0.91898406 -0.5679296 -0.12221137 -1.2433369 -0.68194216
-0.11277983 -0.75820214 -1.0207821 -0.14786768 -1.0412455 -0.69456756 -0.22463244 -0.847574
-0.649839 -0.19917932 -0.52495533 -0.59716433 -0.15137379 -0.15048535 -0.7783657 -0.6034675
-0.33607307 -0.11836459 -0.6876872 -0.92601526 -0.83722425 -0.53666204 -0.8178318 -0.65090674
-0.23905116 -0.376556 -1.1016617 -0.61495626 -1.0937625 -0.81376296 -0.8461675 -0.42335927
00000000: 2181 0dbf 3d72 3abf 87c8 46bf 7e39 abbe
00000010: 31d7 fcbe 520d fdbe b66f 1abf f233 57bf
00000020: 3cc0 dabe 7b59 0bbf 7ce3 01be 57da 3dbf
00000030: 5a9a 25bf df9f bdbe bf58 48be 326d e1be
00000040: 8995 75be 6ba6 07bf 9001 b6be 9a90 3dbe
00000050: 289a 49bd fb2f 61bf 9062 09be f761 39bf
00000060: cda3 45bf e0de 56be 3f60 0cbf 840e 14be
00000070: 238b e2be c92f 19bf 569f 4ebf 29d6 fcbd
00000080: 36be 36bf 67e2 38be 2b39 00bf 08c4 1dbf
00000090: 524b abbd 3732 19be 425b fcbe 9dc8 a7bf
000000a0: d9aa 13bf d9ce 88be a233 58be daff 14be
000000b0: 4118 3abf ece2 b0bf 7b5c 69be f57f 31bf
000000c0: 6697 22bf 837d 5cbe e71a c8be eb11 82bf
000000d0: 959f 44bf 6491 f8bd 47fc adbe 4b6b 98bc
000000e0: 2084 6fbf 9c3d 50be dd21 e1be 7c35 d9bd
000000f0: 46d1 05bf f1be 77be 578f 27bf 9501 4bbe
00000100: e4a3 00bf 52c8 1abf 0ce2 17bf c22f 9fbe
00000110: d73e d1be 2047 0bbf 4739 33be ff94 29bf
00000120: 601f 13be a379 87be 2814 efbe a1a6 f0be
00000130: aa47 26bf 977c 5ebf 23dd 4abe 12ba 4dbf
00000140: f427 23bf e0f4 97be d0e3 fabe b212 ffbe
00000150: 4069 28bf fd56 53be 2bc6 2fbf f192 f9bd
00000160: b892 25bf 3fcc c0be 2c3c 38bf aeaa 87bf
00000170: 3238 2ebf 1995 70be 407c 9ebf f697 2bbf
00000180: ce0d 24be e758 49bf 25b2 89bf 1a4b 84bd
00000190: 9c64 87bf 9b3c 28bf 3828 cabd 596b 70bf
000001a0: c441 27bf 85e4 6fbe c2d8 0fbf 0be9 20bf
000001b0: ded3 26be 81f7 4fbe 0c79 5bbf 4907 16bf
000001c0: 9204 93be 87e1 a3bd 6b3e 41bf 220f 62bf
000001d0: abc2 3ebf 7d87 e8be 848a 76bf 5a21 4abf
000001e0: ff7a 67be aaf8 b5be 6721 89bf 9553 19bf
000001f0: 82ac 99bf 3188 2abf 58e4 5bbf 3078 c4be
00000200: 9ae8 03bf 1913 3bbf a895 33bf b275 c5be
00000210: a3da f2be 97aa 11bf eef0 32bf b77f 5ebf
00000220: 4c21 0bbf f7d8 26bf 92be 11be 0791 4fbf
00000230: bfa8 35bf a72f 02bf d71f 2ebe c9f3 bfbe
00000240: d770 30be 4386 e7be a738 a1be bb4d 22be
00000250: 10c7 32be c697 4cbf c0ae cfbd f0dd 28bf
00000260: 7560 43bf 0b9e 47be b029 fdbe cb23 38be
00000270: d605 f0be adc5 0cbf 016d 29bf 0baa e4bd
00000280: 1b53 21bf d04b 42be f5b8 dcbe 39d7 18bf
00000290: 399f a4bd ac99 3fbe baaf dcbe fbb9 98bf
000002a0: ed62 12bf ddeb 21be 1890 aabe c4d0 3bbe
000002b0: e834 3fbf 327c b3bf fcef 47be b457 39bf
000002c0: bb9b 0bbf 27cd 69be 4f4c c2be f880 7abf
000002d0: a092 50bf 8caf 1bbe b5b4 95be 73b1 f5bd
000002e0: a6de 57bf 49a9 95be 2467 dfbe 3803 80bd
000002f0: f75c 16bf d898 a2be f4f3 23bf 2218 2abe
00000300: 9c94 c9be 2d5f 16bf 222f 03bf dd3c d8be
00000310: 3ae3 a4be 8f59 0dbf 27da 28be 97a8 1bbf
00000320: a6ed 06be 985d 5bbe b3f9 09bf 967a e1be
00000330: 0213 3bbf e101 42bf 8ad6 0ebe 0c2c 3dbf
00000340: 0878 19bf 8301 dabe 9d38 d3be d8ba 0bbf
00000350: d3f2 17bf 07c7 50be 7708 31bf 45fd bebd
00000360: e7ba 49bf 4c50 fdbe 5019 1ebf 8a42 6bbf
00000370: d663 11bf f449 fabd aa25 9fbf c393 2ebf
00000380: 1df9 e6bd 8919 42bf fda8 82bf a06a 17be
00000390: 8847 85bf 2ecf 31bf 0c06 66be 9cfa 58bf
000003a0: d95b 26bf aaf5 4bbe 7963 06bf c3df 18bf
000003b0: bb01 1bbe d518 1abe f942 47bf d97c 1abf
000003c0: c511 acbe 2269 f2bd 450c 30bf 560f 6dbf
000003d0: 5454 56bf af62 09bf 6d5d 51bf d3a1 26bf
000003e0: d4c9 74be f3cb c0be 4003 8dbf c66d 1dbf
000003f0: 6900 8cbf c552 50bf 6f9e 58bf 8cc2 d8be

4.bias f4 [784]
-0.6118054 -0.6642846 -0.5011664 -0.59698236 -0.73664755 -0.5540704 -0.5232914 -0.73162264
-0.7168695 -0.56097823 -0.6765316 -0.72180265 -0.573816 -0.47191116 -0.5592301 -0.55065775
-0.70905054 -0.6009832 -0.5483089 -0.8469146 -0.7722772 -0.606606 -0.6198562 -0.65372235
-0.82586247 -0.6069215 -0.56721455 -0.8196399 -0.60485154 -0.55110216 -0.5760598 -0.5913346
-0.69089705 -0.6128395 -0.42867354 -0.5640967 -0.4013149 -0.12852728 -0.14639285 -0.1628306
-0.16163087 -0.39743248 -0.35933125 -0.12032703 -0.12875955 -0.21555457 -0.20558695 -0.27206725
-0.190987 -0.16960452 -0.29546708 -0.30198333 -0.48880422 -0.7132846 -0.8322807 -0.6980045
-0.73391473 -0.6531997 -0.5802889 -0.44218227 -0.38243765 0.022242999 -0.23849942 -0.38072702
-0.16744386 -0.39217153 -0.29643628 -0.4082414 -0.43478414 -0.4520601 -0.5700216 -0.48110315
-0.9483974 -0.83477646 -0.7969603 -0.48808932 -0.21427014 -0.32883123 -0.17408222 -0.2173472
-0.14295198 -0.38768092 -0.72415113 -0.5620218 -0.6642838 -0.683737 -0.5978899 -0.51867926
-0.506272 -0.3016822 -0.40891266 -0.34723744 -0.4109159 -0.49135458 -0.7721773 -0.85836184
-0.8565085 -0.75221395 -0.88405687 -1.0086311 -1.1008819 -1.0071492 -0.83707374 -0.7562708
-0.636019 -0.564379 -0.3459757 -0.35037512 -0.21729684 -0.397317 -0.757399 -0.7179566
-0.67567223 -0.5355366 -0.28333047 -0.49432814 -0.267076 -0.3697138 -0.26448545 -0.7273137
-0.48589203 -0.4656099 -0.4874975 -0.41940698 -0.52350426 -0.34912238 -0.4677947 -0.70795196
-0.5547692 -0.35298595 -0.44541484 -0.14699844 -0.34589395 -0.5955297 -0.7224613 -0.6179967
-0.43496495 -0.36949232 -0.1676072 -0.6223382 -0.6492155 -0.53223807 -0.25943872 -0.3592763
-0.5356904 -0.45293534 -0.5508745 -0.52025986 -0.047034424 -0.42452526 -0.36255452 -0.6130301
-0.7519811 -0.81120527 -0.64920014 -0.46749717 -0.38064387 -0.21490927 -0.3339402 -0.62002784
-0.43941492 -0.756086 -0.7603564 -0.6759705 -0.4926402 -0.4754386 -0.4693281 -0.36939967
-0.6089085 -0.6079583 -0.3696797 -0.27698332 -0.43595874 -0.45002064 -0.4322141 -0.28911763
-0.13360256 0.050671898 -0.11158372 -0.12273611 -0.26021796 -0.41276813 -0.19548142 -0.20623066
-0.07158321 0.28823018 0.36681506 0.04328353 -0.22067036 -0.47204584 -0.6417264 -0.54717606
-0.49660483 -0.5305831 -0.44501817 -0.1467807 -0.70933217 -0.22017087 -0.42932004 -0.4897623
-0.66730857 -0.59279394 -0.21409366 -0.023114104 0.28090665 -0.05528633 0.21625876 -0.082306094
0.13737331 -0.03740352 -0.00030382423 -0.024972657 0.5463897 0.4209481 0.2947795 0.0007282786
-0.25805733 -0.3748708 -0.6428631 -0.68018776 -0.66776526 -0.6082834 -0.42678842 -0.3175547
-0.2786723 -0.26953316 -0.40764368 -0.8057117 -0.7595046 -0.35331547 0.00814178 0.10888255
-0.1387002 0.38925615 0.11151134 0.14036271 0.14876816 0.30930457 0.2775457 0.59127545
0.22377905 0.38390622 0.261834 0.037050925 -0.14246786 -0.27330804 -0.29370818 -0.39220804
-0.65105486 -0.39411175 -0.39478353 -0.3881466 -0.36657804 -0.3636699 -0.48953936 -0.48552772
00000000: 479f 1cbf 8e0e 2abf 714c 00bf d6d3 18bf
00000010: ef94 3cbf 8fd7 0dbf 6df6 05bf 9f4b 3bbf
00000020: c284 37bf 459c 0fbf 2d31 2dbf 0fc8 38bf
00000030: 9be5 12bf 579e f1be b429 0fbf e8f7 0cbf
00000040: 5684 35bf 09da 19bf f95d 0cbf 65cf 58bf
00000050: f5b3 45bf 884a 1bbf e5ae 1ebf 595a 27bf
00000060: b96b 53bf 355f 1bbf f934 11bf ecd3 51bf
00000070: 8dd7 1abf 0815 0dbf a878 13bf b461 17bf
00000080: a1de 30bf 0de3 1cbf 197b dbbe a468 10bf
00000090: 2679 cdbe a89c 03be 02e8 15be 11bd 26be
000000a0: 9082 25be 457c cbbe 44fa b7be 056e f6bd
000000b0: 8bd9 03be 56ba 5cbe 6385 52be 664c 8bbe
000000c0: 1992 43be cfac 2dbe 7647 97be 8f9d 9abe
000000d0: 8c44 fabe d299 36bf 5910 55bf 6cb0 32bf
000000e0: d6e1 3bbf 1838 27bf d08d 14bf b765 e2be
000000f0: dece c3be f336 b63c 3139 74be a7ee c2be
00000100: 6776 2bbe b5ca c8be 7fc6 97be 0405 d1be
00000110: 079c debe 6c74 e7be f0ec 11bf 2753 f6be
00000120: 2cca 72bf e9b3 55bf 9705 4cbf d8e6 f9be
00000130: a269 5bbe 915c a8be 9c42 32be 4490 5ebe
00000140: 0162 12be 1d7e c6be f861 39bf a9e0 0fbf
00000150: 810e 2abf 6309 2fbf 500f 19bf 2ac8 04bf
00000160: 0b9b 01bf 1776 9abe 005d d1be 1bc9 b1be
00000170: 9263 d2be d492 fbbe 69ad 45bf 9abd 5bbf
00000180: 2444 5bbf 1891 40bf 8d51 62bf d31a 81bf
00000190: b3e9 8cbf 44ea 80bf 774a 56bf f79a 41bf
000001a0: 24d2 22bf 247b 10bf ba23 b1be 5e64 b3be
000001b0: 1083 5ebe 226d cbbe e7e4 41bf 01cc 37bf
000001c0: dbf8 2cbf ed18 09bf b110 91be 9418 fdbe
000001d0: 2fbe 88be 214b bdbe a36a 87be 3b31 3abf
000001e0: d7c6 f8be 6c64 eebe 4699 f9be 83bc d6be
000001f0: 6004 06bf 2bc0 b2be c982 efbe 573c 35bf
00000200: 5b05 0ebf 93ba b4be 6a0d e4be c286 16be
00000210: 0319 b1be a274 18bf 39f3 38bf 0835 1ebf
00000220: bab3 debe 192e bdbe 39a1 2bbe 8e51 1fbf
00000230: fd32 26bf c140 08bf 27d5 84be 10f3 b7be
00000240: 0223 09bf 24e7 e7be 1c06 0dbf c02f 05bf
00000250: 2ba7 40bd 605b d9be bfa0 b9be 8aef 1cbf
00000260: d581 40bf 26ab 4fbf fb31 26bf ca5b efbe
00000270: c1e3 c2be 2d11 5cbe 36fa aabe 25ba 1ebf
00000280: fefa e0be da8e 41bf b8a6 42bf 670c 2dbf
00000290: 563b fcbe b06c f3be c64b f0be f421 bdbe
000002a0: 6de1 1bbf 28a3 1bbf a846 bdbe c2d0 8dbe
000002b0: fc35 dfbe 1b69 e6be 2b4b ddbe 3a07 94be
000002c0: 1ccf 08be 568d 4f3d 0186 e4bd 125d fbbd
000002d0: 4a3b 85be 5856 d3be 482c 48be 212e 53be
000002e0: 389a 92bd e892 933e 2fcf bb3e 124a 313d
000002f0: 69f7 61be feaf f1be 2e48 24bf bb13 0cbf
00000300: fd42 febe 4bd4 07bf 6cd9 e3be ae4d 16be
00000310: cb96 35bf 7974 61be d6cf dbbe 20c2 fabe
00000320: bcd4 2abf 58c1 17bf 5e3b 5bbe ca59 bdbc
00000330: ffd2 8f3e eb73 62bd f072 5d3e 1990 a8bd
00000340: 97ab 0c3e 6f34 19bd 994a 9fb9 7593 ccbc
00000350: 32e0 0b3f 8286 d73e 57ed 963e f3e9 3e3a
00000360: 1720 84be 11ef bfbe ad92 24bf c920 2ebf
00000370: aaf2 2abf 76b8 1bbf 0384 dabe 8896 a2be
00000380: 23ae 8ebe 4000 8abe acb6 d0be 1f43 4ebf
00000390: e56e 42bf c4e5 b4be 1a65 053c d0fd de3d
000003a0: 6d07 0ebe 954c c73e 0f60 e43d 3ebb 0f3e
000003b0: ae56 183e 2b5d 9e3e 781a 8e3e d45d 173f
000003c0: 5626 653e 5b8f c43e 1b0f 863e b6c2 173d
000003d0: 18e3 11be 08ef 8bbe eb60 96be 7ecf c8be
000003e0: 88ab 26bf 04c9 c9be 1121 cabe 27bb c6be
000003f0: 1eb0 bbbe f132 babe e7a4 fabe 1797 f8be
