mnist_gan/MNIST_GAN_FC/save/G--90.ckpt (torch_old, 447392 bytes, 6 tensors)

0.weight f4 [64, 32]
-0.0031050087 0.006349189 -0.011223531 0.0038194894 -0.01235198 0.023821507 0.0026400434 -0.018010026
-0.0031400982 0.00802741 -0.005779501 0.0068573253 0.004700816 -0.0007431758 0.015914762 -0.0064843413
-0.00011317633 -0.006418779 -0.013333079 -0.013123403 -0.005837887 0.003405142 -0.008416851 -0.0028888106
-0.002361017 0.010580827 -0.0064137937 -0.0067877974 -0.0014596265 0.013310609 -0.00025137025 -0.02807297
-0.25817314 0.35920313 0.39801142 0.28506133 0.45612323 0.059802 0.030135574 -0.29615486
-0.28217554 0.4289242 0.39684147 0.04499904 -0.19130948 0.3577049 -0.2275674 -0.27344707
0.07540413 -0.77021986 -0.2524573 0.1328998 -0.3728684 0.6929192 -0.3958252 0.4361394
0.18547669 -0.06839981 0.40954232 0.19480278 -0.16589172 0.36428615 -0.065611936 0.8795517
-0.09397671 0.21615116 -0.4088981 0.18538988 -0.8448411 -0.2597481 0.28862235 0.60953474
0.76999265 -0.68357915 -0.17502579 -0.68651956 0.11584729 0.044163805 -0.2772024 -0.4264713
-0.013973505 1.2924187 1.2169905 0.701406 1.1039551 -1.7561455 -0.36144242 -0.5540836
0.113779366 -0.10599769 -0.62979984 -0.9867102 0.32174668 -0.16225962 0.09205539 -1.4773531
-0.2680254 0.3763052 0.0040241024 -0.13354273 0.47406033 -0.08263044 -0.15687583 -0.4971117
-0.33019686 0.23026875 0.24601969 0.019348392 -0.062140614 0.28974694 0.16055949 -0.07296029
0.027701342 -0.49265093 -0.3708502 -0.08613973 -0.24905977 1.0617118 -0.19782433 -0.17775519
-0.03460899 0.004549157 0.23173076 0.05922106 0.14511436 0.07575418 0.16231115 0.5087492
-0.66712576 0.19250232 -0.5796544 0.3721079 -0.35018575 -0.17430718 0.18225649 0.8092607
-0.15698233 -0.41948748 -0.22714812 -0.6405202 -0.14252086 0.4568756 -0.50854975 -0.4563398
-0.4630087 0.105636716 -0.29502338 0.039766442 0.9039583 -1.0146878 -0.3050131 -1.2685503
-0.004901977 -0.6268196 -0.79184955 -0.7503057 0.802867 -0.4042017 0.21408436 -0.25803435
-0.5025109 0.21326381 -0.14073205 0.371696 0.18727368 0.032970633 0.19505192 0.36948964
-0.55493623 -0.02723895 0.12363635 -0.28902787 -0.31403166 0.5724981 -0.5453526 -0.32600224
-0.41338912 -0.6733272 -0.7771035 -0.03214579 0.29141894 -0.07008956 -0.4371096 -0.47875816
-0.025854954 -0.5295669 -0.19114031 -0.21336746 0.45483562 -0.12893671 0.083214164 0.699605
0.24209854 -0.2676813 0.34312212 0.27059144 0.26590043 0.41840377 -0.1622274 -0.029458497
-0.5719662 0.040060893 0.19833504 0.20778807 0.040780995 0.17939079 -0.1613779 -0.11961885
-0.2301623 -1.0250853 -0.98317695 -0.4193958 -0.21162464 0.5693184 -0.09664099 0.495359
-0.045801703 -0.32261735 0.32954323 0.6463945 -0.2898796 0.05012682 -0.086654186 1.0128099
0.44389513 0.0059817648 -0.17804231 0.101907946 0.1817859 0.37240815 -0.14395674 -0.23788954
-0.6729342 -0.21156447 -0.2375745 0.062146485 0.08095855 0.039083015 -0.27326837 -0.052338127
-0.4385731 -0.4784432 -0.571505 -0.16975558 -0.35753247 -0.16329741 -0.4818117 0.68952096
-0.3976273 -0.11550158 0.08392034 0.17869045 0.07303916 0.47330153 0.17360653 -0.11408283
00000000: 677d 4bbb dc0c d03b e7e2 37bc 6650 7a3b
00000010: f65f 4abc 5225 c33c 9404 2d3b c389 93bc
00000020: 1bca 4dbb 6685 033c f861 bdbb 6ab3 e03b
00000030: 4d09 9a3b afd1 42ba ad5f 823c 997a d4bb
00000040: 1459 edb8 9f54 d2bb fd72 5abc 8b03 57bc
00000050: bf4b bfbb ce28 5f3b d5e6 09bc 3352 3dbb
00000060: 4bbb 1abb 345b 2d3c cd2a d2bb 2c6c debb
00000070: f050 bfba be14 5a3c 58ca 83b9 49f9 e5bc
00000080: 452f 84be 79e9 b73e 27c8 cb3e 8ff3 913e
00000090: fc88 e93e f1f2 743d e1de f63c 9ca1 97be
000000a0: 5079 90be f49b db3e ce2e cb3e ea50 383d
000000b0: a2e6 43be 1925 b73e 6e07 69be 4101 8cbe
000000c0: 7b6d 9a3d 212d 45bf 1542 81be e316 083e
000000d0: 9be8 bebe 2763 313f 9aa9 cabe aa4d df3e
000000e0: 9aed 3d3e 3315 8cbd 88af d13e 617a 473e
000000f0: 85df 29be b783 ba3e 8d5f 86bd 4d2a 613f
00000100: dd76 c0bd bb56 5d3e 175b d1be d8d6 3d3e
00000110: 8247 58bf b4fd 84be 4fc6 933e 780a 1c3f
00000120: 3d1e 453f 0bff 2ebf f639 33be bfbf 2fbf
00000130: 5841 ed3d 1be5 343d 79ed 8dbe 725a dabe
00000140: 21f1 64bc fa6d a53f 58c6 9b3f 588f 333f
00000150: 674e 8d3f 60c9 e0bf fb0e b9be 6cd8 0dbf
00000160: 2805 e93d 5115 d9bd 903a 21bf 0a99 7cbf
00000170: fbbb a43e 6327 26be 8987 bc3d e819 bdbf
00000180: a03a 89be 13ab c03e 9edc 833b 6dbf 08be
00000190: 09b8 f23e 263a a9bd 0fa4 20be 6d85 febe
000001a0: 900f a9be 92cb 6b3e 96ec 7b3e 8580 9e3c
000001b0: 2887 7ebd b659 943e b569 243e 346c 95bd
000001c0: eded e23c be3c fcbe 14e0 bdbe 076a b0bd
000001d0: 8609 7fbe 2ce6 873f 7692 4abe 7505 36be
000001e0: 28c2 0dbd 1811 953b d44a 6d3e c891 723d
000001f0: dc98 143e 0225 9b3d e534 263e 633d 023f
00000200: c1c8 2abf 541f 453e 3b64 14bf ed84 be3e
00000210: 8c4b b3be 957d 32be 72a1 3a3e b62b 4f3f
00000220: fabf 20be 10c7 d6be 8499 68be 22f9 23bf
00000230: fdf0 11be 99eb e93e 5130 02bf 5fa5 e9be
00000240: 7a0f edbe 1058 d83d 4e0d 97be 23e2 223d
00000250: d069 673f 4ae1 81bf ad2a 9cbe db5f a2bf
00000260: c3a0 a0bb 4077 20bf a7b6 4abf 0914 40bf
00000270: b188 4d3f 86f3 cebe ee38 5b3e 141d 84be
00000280: 8ea4 00bf d461 5a3e 101c 10be f04e be3e
00000290: acc4 3f3e 370c 073d b1bb 473e bf2d bd3e
000002a0: 4d10 0ebf 3824 dfbc 0e35 fd3d 76fb 93be
000002b0: c2c8 a0be 3c8f 123f 3a9c 0bbf c4e9 a6be
000002c0: bda7 d3be 2c5f 2cbf 41f0 46bf 4eab 03bd
000002d0: dd34 953e 1d8b 8fbd d4cc dfbe ca1f f5be
000002e0: c5cd d3bc b291 07bf 49ba 43be 007d 5abe
000002f0: 37e0 e83e fc07 04be 306c aa3d 5019 333f
00000300: aee8 773e 860d 89be b4ad af3e f68a 8a3e
00000310: 1a24 883e 0539 d63e f11e 26be f252 f1bc
00000320: 606c 12bf e416 243d 5718 4b3e 65c6 543e
00000330: f909 273d 38b2 373e 4040 25be bafa f4bd
00000340: aaaf 6bbe ff35 83bf 7cb1 7bbf 0cbb d6be
00000350: 21b4 58be dabe 113f b6eb c5bd b29f fd3e
00000360: 919a 3bbd 1a2e a5be e4b9 a83e 1c7a 253f
00000370: 196b 94be c851 4d3d c077 b1bd c1a3 813f
00000380: 3946 e33e ae02 c43b b950 36be 1db5 d03d
00000390: 1526 3a3e 48ac be3e 6569 13be 5199 73be
000003a0: 6a45 2cbf 5ba4 58be bb46 73be 508d 7e3d
000003b0: 99cd a53d 8315 203d d5e9 8bbe 8160 56bd
000003c0: a78c e0be 82f6 f4be 274e 12bf 68d4 2dbe
000003d0: 7f0e b7be 7037 27be 06b0 f6be 7284 303f
000003e0: ce95 cbbe 188c ecbd 6dde ab3d a1fa 363e
000003f0: 8e95 953d 9454 f23e e9c5 313e 42a4 e9bd

0.bias f4 [64]
-0.3248658 -0.4034933 1.1586457 -0.1005165 0.59321284 -1.0348883 -0.7477889 0.24213304
-0.09736842 -0.13392825 1.3318671 0.3725124 -0.069403134 0.4927626 -0.1945819 -0.082138896
-0.07582655 -0.14544486 -0.29282066 0.5568477 0.03869991 -0.07353918 0.12553838 -0.5800631
-0.065260746 0.0112656625 -0.039694 -0.97208023 -0.21821527 0.561215 0.14430813 -0.35350487
-0.29890466 0.010149438 -0.14565676 -0.27915183 -1.0669086 -0.7360554 1.086975 0.081277
0.07920697 -0.44498906 0.41836464 0.49309 -0.16208112 -0.14894094 -0.67614836 -0.21804453
-0.09376704 1.6581271 1.0206573 0.22971019 0.62548494 -0.056657847 1.219528 1.0178753
-0.19977169 -0.68264276 0.18268897 -1.006171 -0.3127073 -0.30545783 0.0877937 0.12279224
00000000: cf54 a6be ac96 cebe 814e 943f 98db cdbd
00000010: ccdc 173f 3877 84bf 186f 3fbf b9f1 773e
00000020: 1869 c7bd 7d24 09be 9f7a aa3f f2b9 be3e
00000030: 3b23 8ebd 614b fc3e 7a40 47be 7038 a8bd
00000040: f34a 9bbd 7fef 14be 97ec 95be 928d 0e3f
00000050: cc83 1e3d b69b 96bd 228d 003e 047f 14bf
00000060: 6da7 85bd 9d93 383c 2d96 22bd 40da 78bf
00000070: d373 5fbe c9ab 0f3f 83c5 133e 97fe b4be
00000080: 080a 99be d449 263c 0c27 15be fdec 8ebe
00000090: 7690 88bf 206e 3cbf ff21 8b3f 8e74 a63d
000000a0: 4437 a23d 9bd5 e3be e433 d63e 4b76 fc3e
000000b0: 98f8 25be f983 18be 0f18 2dbf 1147 5fbe
000000c0: ef08 c0bd 823d d43f e6a4 823f 2639 6b3e
000000d0: c81f 203f 0f12 68bd 7e19 9c3f bd49 823f
000000e0: f390 4cbe adc1 2ebf d112 3b3e 36ca 80bf
000000f0: 2c1b a0be f864 9cbe 2fcd b33d 7f7a fb3d

2.weight f4 [128, 64]
0.003957936 -0.24216403 0.53650564 -0.56392545 -0.46552584 0.15320309 0.70079625 0.13870578
-0.11450558 0.014767453 0.85508263 -0.8269319 -0.5040378 0.1650759 0.32683146 -0.43779293
-0.0010156751 0.09805207 0.052932713 -0.34696013 0.05685047 -0.5925443 -0.024011372 -0.57618
-1.4450488 0.2086387 0.22077304 -0.9130781 0.106461145 0.14301562 -0.043775864 -0.07998404
-1.4498752 0.1171708 -0.984069 0.09504462 0.3417989 -0.45335788 0.22397968 0.18038303
-0.09634919 0.13186398 0.5111754 0.2606558 -0.041433074 -0.0070090173 0.015325128 0.02367743
-0.065039985 -0.10070912 -0.055118028 0.45381233 0.12405176 -0.11499768 0.36090282 0.46450102
0.160313 -0.44003034 0.14475727 -0.77085876 -0.073271886 0.049101964 0.23437601 0.13670991
0.07747384 0.0413682 0.36991286 -0.36907637 0.67086726 0.4992273 0.8394561 -0.1245328
-0.9535585 0.04324119 -0.3193653 -0.18078889 0.10715728 -0.6074423 0.09826668 -0.24084768
0.03968021 0.17197491 0.046690185 0.5618085 -0.21136571 0.2994418 0.5285819 0.30619785
-0.048109267 -0.53137475 0.17365514 0.11000215 0.17344937 -0.9894516 0.29121387 -0.9601625
-0.81933755 0.092417315 -0.44443348 0.25334725 0.8725711 0.09909203 0.27988678 0.08170799
-0.41095653 0.5135247 -0.22647756 -0.22222848 0.111172445 -0.85331506 -0.8079922 0.05429793
0.2293139 0.3329903 -0.045660637 -0.3448301 -0.03446666 -0.06823054 -0.22814412 -0.61283565
-0.9930934 -0.33433074 0.43428183 0.16036119 -0.060415536 0.3146635 -0.6201981 0.06173604
0.12335241 -0.36028144 -0.7677619 0.1454406 -0.39900333 -0.19003679 -0.69245327 -0.17815
0.22711383 0.10485319 -0.5289585 -0.15544248 0.0958355 0.22388534 0.032119446 -0.67259413
0.14824416 0.025640493 0.11522538 -0.35767123 0.751717 0.3842507 0.633424 0.070602916
0.7072214 0.15999025 0.43186095 -0.4209831 0.0740152 0.2869345 -0.020056913 -0.28533337
-1.3684275 0.23462042 0.1017458 0.042953297 0.26131067 -1.2202158 -0.28079644 0.15508786
-0.028479364 -0.35595912 0.07365754 -0.4975918 -0.02010768 -0.46716458 0.37503707 -0.004995663
0.1181022 -0.17713292 0.3876963 0.25248545 0.41421878 0.104733646 -0.0915872 0.40243396
0.34106568 -0.31151357 0.43630713 -0.54620695 0.0686691 0.11326068 0.42156178 0.6584156
0.056448136 0.06138662 -0.15756695 -0.12426632 -0.7201154 -0.53286284 0.1668813 0.08270119
-0.13703644 -0.023905432 -0.6606028 -0.08490307 -0.021835625 -0.28472465 -0.5409255 -0.76003164
0.11538637 0.04035816 0.11437646 -0.8675702 -0.27871895 -0.35467437 0.07697036 0.37640345
0.27050722 -0.28923604 -0.059896994 0.14604914 -0.005072153 0.19827701 -0.24041624 -0.7056007
0.52671087 0.1290472 0.5159527 -0.074255235 -0.01525889 -0.30913508 0.21823806 0.040122453
-0.26717004 -0.16682445 -0.1550985 0.6004662 0.14497219 -0.2034412 -0.30394572 0.09576705
0.15727477 -2.058496 -0.010798131 0.70178926 -0.13920185 -0.058319528 0.12842037 0.63050807
-0.33585137 -0.11975181 0.21675128 -0.88821703 0.26410934 -0.2363287 0.8286362 -0.025467766
00000000: 93b1 813b d9f9 77be 6f58 093f 6b5d 10bf
00000010: 6759 eebe 45e1 1c3e 6267 333f e308 0e3e
00000020: e781 eabd 30f3 713c b2e6 5a3f cfb1 53bf
00000030: 9f08 01bf a809 293e 7456 a73e 6526 e0be
00000040: 6720 85ba 86cf c83d f9cf 583d c2a4 b1be
00000050: 0adc 683d fcb0 17bf 7fb3 c4bc 8880 13bf
00000060: 5cf7 b8bf 62a5 553e 5412 623e 7dbf 69bf
00000070: 4d08 da3d b072 123e 524e 33bd acce a3bd
00000080: 8395 b9bf 3ff7 ef3d f2eb 7bbf c1a6 c23d
00000090: 4400 af3e 861e e8be ee5a 653e 54b6 383e
000000a0: b952 c5bd 5a07 073e 64dc 023f ad74 853e
000000b0: bab5 29bd e6ab e5bb 3f16 7b3c 2bf7 c13c
000000c0: af33 85bd 9540 cebd 71c3 61bd 175a e83e
000000d0: d90e fe3d e783 ebbd 41c8 b83e 14d3 ed3e
000000e0: 1729 243e a84b e1be 403b 143e 0057 45bf
000000f0: 920f 96bd 241f 493d 4400 703e affd 0b3e
00000100: 9baa 9e3d b471 293d 3865 bd3e 94f7 bcbe
00000110: f5bd 2b3f b89a ff3e 98e6 563f 0d0b ffbd
00000120: 691c 74bf ad1d 313d d983 a3be b920 39be
00000130: 4775 db3d 5781 1bbf 0b40 c93d c6a0 76be
00000140: b787 223d 311a 303e 353e 3f3d afd2 0f3f
00000150: 4170 58be 7050 993e 2551 073f f7c5 9c3e
00000160: 390e 45bd 2d08 08bf a7d2 313e cf48 e13d
00000170: b69c 313e b34c 7dbf fc19 953e 36cd 75bf
00000180: 1bc0 51bf 4a45 bd3d c98c e3be bbb6 813e
00000190: d260 5f3f c3f0 ca3d 524d 8f3e 8556 a73d
000001a0: e568 d2be 5b76 033f bce9 67be dd8f 63be
000001b0: 61ae e33d db72 5abf 94d8 4ebf 8267 5e3d
000001c0: 43d1 6a3e b47d aa3e a606 3bbd 928d b0be
000001d0: ea2c 0dbd 74bc 8bbd 9d9e 69be cce2 1cbf
000001e0: 5e3b 7ebf 662d abbe 305a de3e b935 243e
000001f0: 4876 77bd 931b a13e 4dc5 1ebf eede 7c3d
00000200: 30a0 fc3d cf76 b8be 0b8c 44bf 61ee 143e
00000210: 2a4a ccbe 0199 42be 9e44 31bf f46c 36be
00000220: 8790 683e 45bd d63d d369 07bf 502c 1fbe
00000230: 6745 c43d 3342 653e ae8f 033d 212f 2cbf
00000240: 51cd 173e 030c d23c 49fb eb3d af20 b7be
00000250: 8670 403f 82bc c43e 1328 223f 4398 903d
00000260: 760c 353f 7cd4 233e e11c dd3e 198b d7be
00000270: 4895 973d 14e9 923e 654e a4bc 3717 92be
00000280: a228 afbf 5640 703e 1a60 d03d ccef 2f3d
00000290: 83ca 853e 0830 9cbf 8dc4 8fbe 5acf 1e3e
000002a0: 8e4d e9bc 4640 b6be c4d9 963d 5ac4 febe
000002b0: dcb8 a4bc 3230 efbe dc04 c03e a9b2 a3bb
000002c0: 91df f13d 5562 35be 2180 c63e c645 813e
000002d0: 7c14 d43e 987e d63d 1292 bbbd d30b ce3e
000002e0: 29a0 ae3e b57e 9fbe a663 df3e 38d4 0bbf
000002f0: 63a2 8c3d 37f5 e73d f2d6 d73e ed8d 283f
00000300: 2936 673d 8970 7b3d 3b59 21be 577f febd
00000310: 7c59 38bf b369 08bf eee2 2a3e 3e5f a93d
00000320: 4853 0cbe 53d5 c3bc 441d 29bf a9e1 adbd
00000330: a0e0 b2bc 6ec7 91be 187a 0abf 6f91 42bf
00000340: b04f ec3d 994e 253d 353e ea3d 1519 5ebf
00000350: 40b4 8ebe e197 b5be a3a2 9d3d f4b7 c03e
00000360: ec7f 8a3e bf16 94be 8d56 75bd e88d 153e
00000370: 4e34 a6bb 2109 4b3e ad2f 76be 3fa2 34bf
00000380: 86d6 063f f324 043e 7a15 043f 2113 98bd
00000390: 6c00 7abc f446 9ebe cc79 5f3e 7157 243d
000003a0: 83ca 88be 07d4 2abe 24d2 1ebe 27b8 193f
000003b0: 9773 143e e452 50be c69e 9bbe 8421 c43d
000003c0: a30c 213e 66be 03c0 a5ea 30bc 76a8 333f
000003d0: ee8a 0ebe 75e0 6ebd a180 033e fa68 213f
000003e0: b6f4 abbe 7040 f5bd 0cf4 5d3e 3162 63bf
000003f0: 5739 873e 2700 72be 8121 543f c7a1 d0bc

2.bias f4 [128]
0.7136884 0.09973752 0.33462012 0.38186508 0.013509639 -0.09710954 -0.14303096 0.09366769
0.23395412 0.19351058 -0.039476022 0.34300768 -0.07992129 0.81619424 0.5188705 0.008379906
0.2944662 -0.087542735 -0.4236599 0.035560157 0.32779682 0.37425673 0.016977742 0.6378576
0.18910739 -0.13679388 0.24927361 0.2875043 0.09848674 0.16067445 0.5119264 0.3372933
0.12616496 0.26521888 0.37573993 0.016912097 0.13752729 -0.28595412 0.004800838 0.23267262
0.07507083 0.11068542 0.43924165 -0.17538735 0.37409168 0.5791234 0.23858507 0.015681265
0.0057193507 0.6486803 0.5492607 0.01952115 0.3515767 0.16754138 -0.057238504 0.2675232
0.4471517 0.4069396 0.78078175 0.15045461 0.16169055 0.1948653 0.16432743 0.26100072
0.18931448 0.10730093 0.30424064 0.13327211 0.42431015 -0.040264256 0.17193404 0.15900123
0.050310336 -0.2525646 0.13826214 0.15339357 -0.035852287 0.03061368 -0.36365572 0.2902622
-0.026473265 -0.13325682 -0.2410867 0.32250965 0.031758413 0.47705197 0.018802503 0.15794444
-0.32472342 -0.32162136 0.47614354 0.563325 0.39314055 0.13263567 0.260797 0.29529387
-0.07585776 -0.07886436 0.5291326 -0.016278723 0.36523998 0.16177031 0.15763219 0.60923934
0.13870406 0.56193805 -0.1646377 -0.2961571 0.10235339 0.14721501 0.095300324 0.07719654
-0.28812534 0.5302422 0.7280573 0.3350503 0.51382446 0.33630204 0.1056591 0.5032718
0.1378446 0.040339064 0.2900751 0.38238588 0.09398399 0.4376751 -0.34083658 0.1448408
00000000: 48b4 363f 2f43 cc3d 5453 ab3e d283 c33e
00000010: 8857 5d3c 5ee1 c6bd b576 12be d9d4 bf3d
00000020: ab91 6f3e a327 463e 9cb1 21bd b49e af3e
00000030: c6ad a3bd 1bf2 503f b2d4 043f e04b 093c
00000040: 46c4 963e 9b49 b3bd f3e9 d8be 87a7 113d
00000050: fcd4 a73e 949e bf3e e814 8b3c a34a 233f
00000060: 5ea5 413e b213 0cbe 9541 7f3e c333 933e
00000070: 6ab3 c93d d887 243e 9c0d 033f b5b1 ac3e
00000080: 6331 013e c5ca 873e fc60 c03e 3d8b 8a3c
00000090: f4d3 0c3e 9468 92be 5950 9d3b bb41 6e3e
000000a0: bcbe 993d 0aaf e23d 48e4 e03e be98 33be
000000b0: f288 bf3e 6e41 143f a54f 743e ff75 803c
000000c0: 6469 bb3b ea0f 263f 599c 0c3f d2ea 9f3c
000000d0: dc01 b43e f88f 2b3e ec72 6abd cdf8 883e
000000e0: 11f1 e43e 635a d03e 50e1 473f c610 1a3e
000000f0: 3592 253e c58a 473e 7345 283e e3a1 853e
00000100: a8db 413e 97c0 db3d 6ec5 9b3e 7c78 083e
00000110: 2e3f d93e 22ec 24bd 7a0f 303e 38d1 223e
00000120: 3612 4e3d 2650 81be 9794 0d3e 3413 1d3e
00000130: d9d9 12bd 8ac9 fa3c 1531 babe 3f9d 943e
00000140: 76de d8bc 7a74 08be 6fdf 76be fc1f a53e
00000150: 1c15 023d 2840 f43e b507 9a3c 30bc 213e
00000160: 2642 a6be 8eab a4be 16c9 f33e 1136 103f
00000170: b849 c93e a5d1 073e 2f87 853e c230 973e
00000180: 505b 9bbd a383 a1bd 3c75 073f f55a 85bc
00000190: bc00 bb3e 1ea7 253e 556a 213e 1cf7 1b3f
000001a0: 7008 0e3e 2cdb 0f3f c996 28be e7a1 97be
000001b0: a79e d13d 88bf 163e d12c c33d 3819 9e3d
000001c0: 2a85 93be f4bd 073f f761 3a3f b78b ab3e
000001d0: 008a 033f c82f ac3e cc63 d83d 6cd6 003f
000001e0: 2327 0d3e 933a 253d b984 943e 15c8 c33e
000001f0: ae7a c03d f316 e03e 2282 aebe 2651 143e

4.weight f4 [784, 128]
-0.55328083 -0.72934544 -0.77766037 -0.33500686 -0.4941998 -0.49425554 -0.6086681 -0.8406864
-0.43659282 -0.54433876 -0.12689629 -0.7418819 -0.6478881 -0.37100843 -0.20228729 -0.44265115
-0.24361905 -0.5317207 -0.35548118 -0.18513626 -0.049557354 -0.8801909 -0.13436009 -0.72546697
-0.77339774 -0.20983458 -0.5507174 -0.14540133 -0.44254738 -0.6002936 -0.8118945 -0.12456276
-0.7140847 -0.18056746 -0.5011675 -0.61628693 -0.0850839 -0.15187526 -0.49294946 -1.3145638
-0.5768257 -0.27181298 -0.2194226 -0.1460822 -0.72876287 -1.3854676 -0.22930437 -0.6950157
-0.63512266 -0.21696371 -0.39254937 -1.0161929 -0.7686753 -0.12577389 -0.3399501 -0.022522472
-0.9370965 -0.20338131 -0.44245973 -0.10938018 -0.52356195 -0.24388844 -0.6545678 -0.20128682
-0.50253457 -0.6054984 -0.5982866 -0.31158748 -0.41013047 -0.54527277 -0.17616123 -0.6650703
-0.15068379 -0.27593338 -0.4672112 -0.4715689 -0.6497516 -0.87073106 -0.19885203 -0.80429137
-0.6373321 -0.29730022 -0.49002013 -0.49941668 -0.65788347 -0.20894124 -0.6873892 -0.12243649
-0.64830583 -0.37655827 -0.7212851 -1.0669425 -0.68507427 -0.23551574 -1.2440634 -0.67318094
-0.160311 -0.7865224 -1.0805684 -0.06460917 -1.0577579 -0.6582058 -0.10134472 -0.9492684
-0.653752 -0.23657763 -0.56276023 -0.6287001 -0.16410913 -0.20309804 -0.858072 -0.58852583
-0.28751314 -0.0832997 -0.76328653 -0.8830663 -0.74835014 -0.45554715 -0.9631557 -0.79165024
-0.23149705 -0.3554436 -1.0907431 -0.60206556 -1.2059941 -0.6781318 -0.8595213 -0.38414314
-0.5159287 -0.73181784 -0.7028823 -0.3864223 -0.47477537 -0.5690254 -0.7043145 -0.8692163
-0.55532295 -0.65175855 -0.14238869 -0.8112647 -0.7108671 -0.50922096 -0.17806788 -0.37805983
-0.17651716 -0.45496467 -0.31488588 -0.15852247 -0.17518699 -0.80002445 -0.101657696 -0.6616069
-0.76478094 -0.19493882 -0.49736375 -0.18082304 -0.46885723 -0.5523349 -0.6684898 -0.11352907
-0.6304908 -0.1897689 -0.4315949 -0.59704083 -0.082368 -0.18965486 -0.43110862 -1.1986809
-0.571822 -0.1643213 -0.34306282 -0.18429053 -0.7491891 -1.4073875 -0.19675125 -0.7257766
-0.545345 -0.23063132 -0.38182077 -0.97855026 -0.8156369 -0.15745316 -0.2926267 -0.12507059
-0.84567 -0.29233873 -0.43939045 -0.066534534 -0.5882447 -0.32015336 -0.64048797 -0.17031379
-0.39378595 -0.5886053 -0.51935494 -0.423096 -0.32420066 -0.5536025 -0.16652656 -0.6115167
-0.14081295 -0.22767508 -0.53921425 -0.44283924 -0.7310164 -0.75980425 -0.14048935 -0.73976636
-0.5994909 -0.4262977 -0.412543 -0.547593 -0.5935803 -0.20618132 -0.6925419 -0.09418903
-0.7896489 -0.49475324 -0.6198734 -0.92835414 -0.5740582 -0.12316876 -1.2501209 -0.68563503
-0.11293198 -0.7582142 -1.0274608 -0.14788266 -1.0412455 -0.6960767 -0.22694075 -0.86052
-0.65036654 -0.20241086 -0.5262591 -0.5973463 -0.153074 -0.15050079 -0.77943546 -0.6063471
-0.33654663 -0.12313661 -0.6997626 -0.9260447 -0.8407228 -0.5383946 -0.8179188 -0.65377307
-0.24516203 -0.37659717 -1.12456 -0.6198191 -1.1010413 -0.8276483 -0.8466572 -0.42387003
00000000: d0a3 0dbf 62b6 3abf c014 47bf 0586 abbe
00000010: c207 fdbe 100f fdbe acd1 1bbf 3937 57bf
00000020: 1889 dfbe c959 0bbf 1af1 01be f9eb 3dbf
00000030: ffdb 25bf d1f4 bdbe 6624 4fbe 2ca3 e2be
00000040: 4677 79be d91e 08bf a101 b6be 5c94 3dbe
00000050: a7fc 4abd 3154 61bf b195 09be 34b8 39bf
00000060: 65fd 45bf e0de 56be d1fb 0cbf 16e4 14be
00000070: 9295 e2be d7ac 19bf 51d8 4fbf c31a ffbd
00000080: 41ce 36bf ade6 38be 834c 00bf fbc4 1dbf
00000090: 7840 aebd 3085 1bbe df63 fcbe a043 a8bf
000000a0: d9aa 13bf 122b 8bbe 51b0 60be 9296 15be
000000b0: 3490 3abf 0157 b1bf c4ce 6abe 8dec 31bf
000000c0: 6697 22bf bc2b 5ebe 3bfc c8be 9c12 82bf
000000d0: e8c7 44bf dfca 00be f10d aebe 0c81 b8bc
000000e0: 8ee5 6fbf 3143 50be 158a e2be b702 e0bd
000000f0: 2808 06bf e4bd 79be c191 27bf 221e 4ebe
00000100: 1ba6 00bf f101 1bbf 5029 19bf 6588 9fbe
00000110: 9ffc d1be ff96 0bbf 9c63 34be 0c42 2abf
00000120: da4c 1abe 2447 8dbe 4e36 efbe 7b71 f1be
00000130: 1f56 26bf 3be8 5ebf de9f 4bbe 0ae6 4dbf
00000140: 3228 23bf bc37 98be ebe3 fabe 8bb3 ffbe
00000150: 0d6b 28bf b1f4 55be bdf8 2fbf fcbf fabd
00000160: 5ff7 25bf 3fcc c0be 24a6 38bf 9291 88bf
00000170: 0761 2fbf 0a2b 71be 783d 9fbf 9655 2cbf
00000180: 9128 24be 8859 49bf 1150 8abf d051 84bd
00000190: 9c64 87bf 2d80 28bf d28d cfbd 4103 73bf
000001a0: 4b5c 27bf 6841 72be 0e11 10bf 7df2 20bf
000001b0: 390c 28be eff8 4fbe 9baa 5bbf a1a9 16bf
000001c0: ec34 93be 0899 aabd bf66 43bf a210 62bf
000001d0: e093 3fbf 7a3d e9be 5f91 76bf 97a9 4abf
000001e0: 900d 6dbe b4fc b5be 789d 8bbf f820 1abf
000001f0: 045e 9abf 0c9a 2dbf 9709 5cbf 69ae c4be
00000200: e713 04bf 6a58 3bbf 18f0 33bf 25d9 c5be
00000210: c215 f3be a6ab 11bf f44d 34bf f684 5ebf
00000220: a529 0ebf a6d9 26bf 57ce 11be 0baf 4fbf
00000230: 63fb 35bf 4e5c 02bf 6d57 36be 0f91 c1be
00000240: eac0 34be 21f1 e8be b938 a1be b753 22be
00000250: 3864 33be 67ce 4cbf e931 d0bd 125f 29bf
00000260: afc8 43bf 0b9e 47be 76a6 febe ad29 39be
00000270: 0e0e f0be d265 0dbf 2622 2bbf ee81 e8bd
00000280: d867 21bf c752 42be 02fa dcbe abd7 18bf
00000290: 8eb0 a8bd e234 42be 45ba dcbe 606e 99bf
000002a0: ed62 12bf d843 28be eea5 afbe a8b6 3cbe
000002b0: dbca 3fbf 4625 b4bf 2979 49be 7fcc 39bf
000002c0: bb9b 0bbf 9e2a 6cbe 037e c3be 4582 7abf
000002d0: 94cd 50bf 673b 21be 2bd3 95be 8112 00be
000002e0: d47d 58bf 6cad 95be c9f7 e0be 4243 88bd
000002f0: 3497 16bf 24eb a3be 05f7 23bf bd66 2ebe
00000300: 509e c9be d6ae 16bf 72f4 04bf 0aa0 d8be
00000310: a1fd a5be e5b8 0dbf f085 2abe 5c8c 1cbf
00000320: 4531 10be a823 69be f209 0abf d3bb e2be
00000330: e423 3bbf 8882 42bf 71dc 0fbe 5461 3dbf
00000340: 3c78 19bf b143 dabe d638 d3be 0e2f 0cbf
00000350: e1f4 17bf 3221 53be 6d4a 31bf 2ee6 c0bd
00000360: 6e26 4abf 4c50 fdbe 06b0 1ebf 9ea8 6dbf
00000370: 7af5 12bf e73f fcbd f603 a0bf c785 2fbf
00000380: e248 e7bd 531a 42bf d683 83bf 8d6e 17be
00000390: 8847 85bf 1532 32bf 2863 68be 0a4b 5cbf
000003a0: 6c7e 26bf cb44 4fbe ebb8 06bf b0eb 18bf
000003b0: 6ebf 1cbe e11c 1abe 1589 47bf 9039 1bbf
000003c0: d74f acbe 0c2f fcbd a423 33bf 4411 6dbf
000003d0: 9c39 57bf 3ad4 09bf 2063 51bf ac5d 27bf
000003e0: c10b 7bbe 58d1 c0be 95f1 8fbf 77ac 1ebf
000003f0: ecee 8cbf c2e0 53bf 87be 58bf 7e05 d9be

4.bias f4 [784]
-0.62251574 -0.67786956 -0.51563275 -0.6097369 -0.74448335 -0.564612 -0.5377761 -0.74400884
-0.73356783 -0.57318395 -0.68971914 -0.73368716 -0.5802832 -0.4325357 -0.571771 -0.55869275
-0.7260579 -0.614537 -0.5627248 -0.8601064 -0.7831726 -0.61948615 -0.6310694 -0.6636434
-0.8351416 -0.6162644 -0.5769076 -0.82825905 -0.61709195 -0.56453407 -0.5884886 -0.60308534
-0.702587 -0.6231337 -0.41959947 -0.5551022 -0.43194202 -0.31098425 -0.26883507 -0.22397712
-0.2530011 -0.35342678 -0.47967327 -0.1475452 -0.20500281 -0.29888174 -0.3393086 -0.34203643
-0.293708 -0.3049411 -0.2944576 -0.4625855 -0.50503594 -0.723344 -0.8409426 -0.7085723
-0.74823445 -0.6640743 -0.57923496 -0.0015822531 -0.43355125 -0.20963916 -0.47365117 -0.5023819
-0.17644328 -0.44868603 -0.3450944 -0.40042377 -0.4806716 -0.53369427 -0.62172145 -0.5565456
-0.9285334 -0.8928528 -0.7722715 -0.4814654 -0.27114952 -0.36026064 -0.188308 -0.28535718
-0.2937433 -0.3416513 -0.73571736 -0.57098883 -0.6731229 -0.6937337 -0.5372394 -0.57158667
-0.56671333 -0.3904469 -0.41231567 -0.36149725 -0.5345421 -0.55410475 -0.74308014 -0.93745977
-0.9124675 -0.86137795 -0.98932487 -1.0823184 -1.1755662 -1.0961459 -0.8313702 -0.74930114
-0.59390247 -0.5939487 -0.40273413 -0.32919818 -0.3005897 -0.5154061 -0.75311583 -0.7260344
-0.68805873 -0.5375346 -0.39591077 -0.54625684 -0.23544604 -0.41535065 -0.28448758 -0.72616243
-0.46111444 -0.5353307 -0.60162675 -0.4479089 -0.6713822 -0.5311914 -0.51946217 -0.72977996
-0.48328376 -0.281602 -0.34762615 0.03819965 -0.33711866 -0.59560037 -0.71878386 -0.6693084
-0.5241343 -0.40502417 -0.23536776 -0.623796 -0.6615836 -0.5440335 -0.29151592 -0.3641872
-0.5727789 -0.42401457 -0.45845208 -0.3803882 0.024315232 -0.42213553 -0.39971152 -0.63374007
-0.78115493 -0.824697 -0.6812422 -0.48479372 -0.36446717 -0.21330822 -0.31261826 -0.54316354
-0.47715238 -0.79287195 -0.8451523 -0.77919185 -0.5920555 -0.5140694 -0.5753028 -0.30960628
-0.6226716 -0.5493425 -0.4832796 -0.353837 -0.4502322 -0.44757077 -0.34482476 -0.1995113
-0.10474697 0.00018369005 -0.1444777 -0.15987858 -0.24346682 -0.39849988 -0.1741282 -0.19022557
0.016175468 0.30735716 0.40780273 0.11217051 -0.22106798 -0.426162 -0.7292286 -0.67142636
-0.6577677 -0.65189826 -0.50396556 -0.18366322 -0.7139521 -0.1899699 -0.46227017 -0.51972055
-0.74514556 -0.6211532 -0.1711904 0.04518814 0.34231797 -0.016512487 0.25751767 -0.02037026
0.05182186 0.08248102 0.058172654 -0.020909911 0.45998383 0.4091079 0.47376138 0.023538705
-0.28514254 -0.4982022 -0.74620295 -0.78780466 -0.7398102 -0.62481636 -0.40085405 -0.4510362
-0.30306014 -0.20712684 -0.5371356 -0.8464278 -0.81762576 -0.41482097 -0.055634376 0.096193455
-0.17589678 0.53760004 0.14548172 0.20115185 0.23037872 0.48913413 0.41893515 0.7882335
0.1783494 0.42799297 0.38379022 0.031729158 -0.0931308 -0.34495026 -0.29160538 -0.3828839
-0.78033614 -0.5018384 -0.46325433 -0.38519782 -0.38678396 -0.36848858 -0.5326274 -0.5309463
00000000: 315d 1fbf dc88 2dbf 8200 04bf b817 1cbf
00000010: 7696 3ebf 698a 10bf b2ab 09bf 5d77 3ebf
00000020: 1acb 3bbf 2fbc 12bf 6f91 30bf ecd2 3bbf
00000030: 718d 14bf 5275 ddbe 965f 12bf 7d06 0fbf
00000040: eede 39bf 4c52 1dbf bc0e 10bf ef2f 5cbf
00000050: 007e 48bf a596 1ebf c48d 21bf 89e4 29bf
00000060: d7cb 55bf 81c3 1dbf 37b0 13bf c908 54bf
00000070: bdf9 1dbf 4e85 10bf 30a7 16bf cd63 1abf
00000080: bedc 33bf b185 1fbf bed5 d6be 2e1b 0ebf
00000090: 8127 ddbe 5439 9fbe c0a4 89be 425a 65be
000000a0: 5c89 81be 5bf4 b4be bc97 f5be 1716 17be
000000b0: 42ec 51be 0707 99be dbb9 adbe 661f afbe
000000c0: e560 96be 3d21 9cbe 26c3 96be 02d8 ecbe
000000d0: 094a 01bf 132d 39bf 0448 57bf ff64 35bf
000000e0: 4b8c 3fbf c600 2abf be48 14bf 9b63 cfba
000000f0: 6efa ddbe a6ab 56be 6882 f2be 1a9c 00bf
00000100: 8cad 34be 2dba e5be 37b0 b0be 5804 cdbe
00000110: 971a f6be 30a0 08bf 2329 1fbf c679 0ebf
00000120: 5db4 6dbf 0092 64bf 96b3 45bf a282 f6be
00000130: 1cd4 8abe 1574 b8be d0d3 40be 561a 92be
00000140: 8665 96be ebec aebe f957 3cbf 532c 12bf
00000150: c851 2cbf 8898 31bf 8588 09bf 8153 12bf
00000160: 2014 11bf a8e8 c7be 0a1b d3be 2b16 b9be
00000170: c0d7 08bf cfd9 0dbf 803a 3ebf 5dfd 6fbf
00000180: 7897 69bf 4483 5cbf 6544 7dbf 6989 8abf
00000190: f478 96bf 824e 8cbf add4 54bf 33d2 3fbf
000001a0: fe09 18bf 060d 18bf 2b33 cebe aa8c a8be
000001b0: e5e6 99be a7f1 03bf 33cc 40bf 64dd 39bf
000001c0: 9e24 30bf de9b 09bf d1b4 cabe 7dd7 0bbf
000001d0: c418 71be d7a8 d4be 5ba8 91be c8e5 39bf
000001e0: 3117 ecbe 6f0b 09bf 3604 1abf 5154 e5be
000001f0: b4df 2bbf 29fc 07bf 79fb 04bf dcd2 3abf
00000200: f870 f7be 232e 90be 0efc b1be 3c77 1c3d
00000210: d19a acbe 4479 18bf 3802 38bf cc57 2bbf
00000220: aa2d 06bf 545f cfbe 3f04 71be 18b1 1fbf
00000230: 8b5d 29bf c845 0bbf 9341 95be bf76 babe
00000240: a3a1 12bf 7018 d9be 3bba eabe 3ec2 c2be
00000250: bd30 c73c 2622 d8be fda6 ccbe ca3c 22bf
00000260: c5f9 47bf 581f 53bf e465 2ebf e236 f8be
00000270: 719b babe 786d 5abe 800f a0be c40c 0bbf
00000280: 514d f4be a8f9 4abf e75b 58bf 1e79 47bf
00000290: f390 17bf 0d9a 03bf 0b47 13bf b784 9ebe
000002a0: 6867 1fbf b6a1 0cbf 6c70 f7be 202a b5be
000002b0: d684 e6be ff27 e5be df8c b0be b14c 4cbe
000002c0: 9485 d6bd ec9c 4039 f6f1 13be 36b7 23be
000002d0: 5e4f 79be 2d08 ccbe aa4e 32be 7eca 42be
000002e0: 6a82 843c eb5d 9d3e 85cb d03e a7b9 e53d
000002f0: a55f 62be e831 dabe baae 3abf 99e2 2bbf
00000300: 7763 28bf cee2 26bf e303 01bf 3612 3cbe
00000310: 91c5 36bf 7887 42be adae ecbe 680c 05bf
00000320: dcc1 3ebf e503 1fbf 894c 2fbe 3317 393d
00000330: 4d44 af3e 3245 87bc 5bd9 833e 88df a6bc
00000340: 2943 543d cfeb a83d 7346 6e3d 434b abbc
00000350: 0083 eb3e 9776 d13e da90 f23e 3ed4 c03c
00000360: 34fe 91be 5c14 ffbe 2807 3fbf 91ad 49bf
00000370: 3464 3dbf f7f3 1fbf be3c cdbe 38ee e6be
00000380: b32a 9bbe 0f19 54be b881 09bf 7eaf 58bf
00000390: ec4f 51bf 6a63 d4be dfe0 63bd 1301 c53d
000003a0: 491e 34be 28a0 093f 29f9 143e c0fa 4d3e
000003b0: 66e8 6b3e ca6f fa3e ab7e d63e acc9 493f
000003c0: 3aa1 363e e521 db3e 2780 c43e 6ff6 013d
000003d0: 5cbb bebd 529d b0be 4d4d 95be 5c09 c4be
000003e0: 1cc4 47bf 7b78 00bf ac2f edbe a638 c5be
000003f0: 8c08 c6be 89aa bcbe 455a 08bf 19ec 07bf
