mnist_gan/MNIST_GAN_CNN/save/G--10.ckpt (torch_old, 945929 bytes, 9 tensors)

l1.0.weight f4 [256, 128]
0	0x3d208ee7	0.039198782
1	0x3d961eff	0.07330131
2	0xbc5d5d9d	-0.013511089
3	0xbc2e3072	-0.010631667
4	0x3cdcb7b1	0.02694306
5	0x3db2e4fa	0.0873508
6	0xbdb8725a	-0.09006186
7	0xbe02521d	-0.12726636
8	0x3dacea75	0.08443157
9	0x3b89ecb7	0.004209127
10	0x3c7f6d5d	0.015590039
11	0x3cdc49d7	0.026890678
12	0x3c2c6c65	0.01052389
13	0xbdc464fd	-0.095895745
14	0xbbf71d30	-0.007541321
15	0xbcc2724c	-0.023736142
16	0x3cf14031	0.029449554
17	0xbdb3ff95	-0.08788983
18	0x3b9233ad	0.0044617266
19	0x3d48bf43	0.049010526
20	0xbc207097	-0.0097924685
21	0x3d895bad	0.06706939
22	0xbdd057e4	-0.10173014
23	0x3daa5d5c	0.08318588
24	0x3e06c697	0.13161694
25	0x3d2bcd08	0.04194358
26	0x3cdaec67	0.026724054
27	0x3cb85e65	0.022505948
28	0xbcd90f3e	-0.026496526
29	0x3ce5217f	0.027970074
30	0x3d0ae6fe	0.033911698
31	0x3d0ae328	0.03390804
32	0x3d890b53	0.06691613
33	0xbd665bed	-0.05624001
34	0xbc147111	-0.00906016
35	0x3c315d7a	0.010825509
36	0x3c8ee1c8	0.017441645
37	0xbd8fec66	-0.07027511
38	0xbd0e03c6	-0.034671567
39	0x3d2f4d28	0.04279819
40	0x3d773aef	0.060358938
41	0x3d06f088	0.032944232
42	0x3dd72954	0.105059296
43	0xbd2262a3	-0.03964485
44	0x3c99fe00	0.018797874
45	0x3cd656e0	0.026164472
46	0x3d152e4e	0.036421113
47	0xbdb04990	-0.08607781
48	0x3d63b942	0.055596597
49	0x3debebcc	0.11519584
50	0xbd7645e4	-0.060125247
51	0x3d2536e9	0.04033557
52	0x3d405b9b	0.04696236
53	0xbd83070c	-0.063978285
54	0xbd65088a	-0.055916347
55	0xbd20ac4e	-0.039226823
56	0x3d84c4bf	0.06482839
57	0x3d94b9e8	0.07262021
58	0xbd810d0a	-0.06301315
59	0x3cac1930	0.021008104
60	0xbd4acd41	-0.04951215
61	0x3d31750e	0.043324523
62	0x3cc1ed08	0.023672596
63	0xbd7b1086	-0.061295055
64	0xbbed99c0	-0.0072509944
65	0x3d2647eb	0.04059593
66	0x3db7855e	0.08960985
67	0x3afd3322	0.0019317607
68	0xbe0921c2	-0.13391784
69	0xbd5dbf0c	-0.054137275
70	0x3d3e6663	0.046484362
71	0xbda909d6	-0.08253829
72	0x3bfb7d6b	0.007674863
73	0xbd5b430b	-0.053530734
74	0x3cf056e3	0.029338306
75	0xbd419175	-0.04725786
76	0x3dbdd9fc	0.09270093
77	0x3d949659	0.07255239
78	0x3dfa1117	0.12210291
79	0x3d9f31b4	0.07773152
80	0xbda36c83	-0.07979681
81	0xbd88ef34	-0.066862494
82	0x3d9b4342	0.07581188
83	0x3d4eafb3	0.05046053
84	0x3d07c228	0.033144146
85	0xbda4b7df	-0.08042883
86	0xbc9c9723	-0.019115036
87	0x3d16c5f7	0.036809888
88	0xbdbde1dc	-0.09271595
89	0x3da85abd	0.08220432
90	0xbbedff8c	-0.0072631296
91	0x3d0115d5	0.03151496
92	0x3d91538d	0.07096014
93	0xbd881ffe	-0.06646727
94	0x3ce556d3	0.027995503
95	0x3d51977a	0.05116985
96	0x3d802c24	0.06258419
97	0xbd7a0343	-0.061038267
98	0xbd15d578	-0.036580533
99	0xbbe633ea	-0.0070252316
100	0xbda5dfe2	-0.08099343
101	0x3d85e62d	0.06538043
102	0x3d9a9c62	0.07549359
103	0xbd80ee16	-0.06295411
104	0xbcc73ef0	-0.024322003
105	0x3ac4921c	0.0014997157
106	0x3b26cd2a	0.0025451877
107	0xbd66cf38	-0.056349963
108	0x3cd53742	0.026027326
109	0xbddf9f82	-0.109190956
110	0xbc734d2d	-0.014849943
111	0xbc26143b	-0.010136659
112	0x3d206413	0.03915794
113	0x3db1a9ca	0.08674963
114	0xbc9be0a4	-0.019028015
115	0x3d98c7b8	0.07459968
116	0x3db9ce20	0.09072518
117	0x3d792308	0.060824424
118	0x3cc963e6	0.024583768
119	0x3c80ff82	0.015746836
120	0xbd61a172	-0.055085607
121	0xbd2e4153	-0.042542767
122	0xbd76756c	-0.060170576
123	0xbc9409c3	-0.018071061
124	0x3be69a4b	0.007037436
125	0xbb9e9173	-0.0048391162
126	0x3d0b8be7	0.03406897
127	0xbd415e6b	-0.047209185
128	0xbd17e9a4	-0.03708805
129	0x3d42f80e	0.047599845
130	0x3d5b1d44	0.053494707
131	0x3d35e394	0.04440649
132	0xbd9f782b	-0.07786592
133	0xbd46bf4a	-0.04852227
134	0x3d2254d6	0.039631687
135	0xbd7abb46	-0.061213754
136	0xbca00a8b	-0.019536277
137	0x3dc84662	0.097790495
138	0xbcd128f7	-0.025532229
139	0x3d1606e7	0.036627676
140	0x3dbe0d79	0.092799135
141	0xbdcfaf40	-0.10140848
142	0xbdaecf3e	-0.08535622
143	0xbd6da28a	-0.058016337
144	0x3e05d375	0.13068946
145	0xbdad9aca	-0.08476789
146	0xbde58cfa	-0.1120853
147	0x3d2c06ac	0.04199855
148	0x3dba6b9a	0.091025546
149	0x3d81f726	0.06345968
150	0xbcf65572	-0.03007004
151	0x3dccadd6	0.09994094
152	0x3d428868	0.04749337
153	0x3d0ad072	0.033890195
154	0x3dc982a2	0.09839369
155	0xbb5c28a9	-0.0033593571
156	0x3dede6f7	0.11616319
157	0x3d85ffad	0.06542907
158	0xbd2a3a07	-0.041559245
159	0x3d206735	0.039160926
160	0xbca239dc	-0.01980298
161	0xbd4304f2	-0.047612138
162	0xbd08f8c8	-0.03344038
163	0x3dff85b6	0.12476675
164	0x3c0c6b8f	0.008570566
165	0xbde55086	-0.11196999
166	0xbd9cbe1c	-0.07653448
167	0xbc51403c	-0.012771662
168	0xbce94e9e	-0.02847987
169	0xbde6ffad	-0.11279235
170	0xbdd456d7	-0.10368126
171	0x3a86d554	0.0010286965
172	0xbc2bbfb3	-0.010482716
173	0xbdb524be	-0.08844899
174	0xbb9d492f	-0.004799984
175	0x3d5bf260	0.053697944
176	0x3c12ad9b	0.008952524
177	0x3e0de8f9	0.13858403
178	0xbd8d3dda	-0.06896563
179	0xbd2f4605	-0.042791385
180	0xbdfbad53	-0.12288918
181	0xbd1bb6d5	-0.03801616
182	0xbc7c5eaf	-0.015403434
183	0x3d3ba3dd	0.04581057
184	0x3d38dff1	0.045135442
185	0xbd821551	-0.06351722
186	0x3d1cb877	0.038261857
187	0x3dca4ba1	0.09877706
188	0xbdfc3875	-0.12315456
189	0xbbdb08c6	-0.0066843955
190	0xbd2239f8	-0.039606065
191	0xbb8b2547	-0.004246387
192	0x3dd1f677	0.102520876
193	0x3dd51dc5	0.10406069
194	0xbd86c2ba	-0.0658011
195	0x3d024711	0.031806055
196	0x3d6aa106	0.05728247
197	0x3d22f55c	0.039784774
198	0xbd2e1cbe	-0.04250788
199	0xbd0d85cd	-0.03455143
200	0xbd23d061	-0.039993647
201	0xbcb95a3d	-0.022626037
202	0x3d5359c6	0.051599286
203	0xbb8c5fe8	-0.004283894
204	0xbda5e901	-0.081010826
205	0xbdf6f43d	-0.120583035
206	0x3d0dcdb2	0.034619994
207	0xbda5d354	-0.08096948
208	0x3d900460	0.070320845
209	0xbcb058b6	-0.021526676
210	0x3dc48bd2	0.09596981
211	0x3c729ee8	0.014808394
212	0x3dd3005d	0.10302804
213	0x3d004609	0.03131679
214	0x3cb860a3	0.022507017
215	0x3d7a645e	0.061130874
216	0x3dc3752f	0.09543835
217	0x3b80af21	0.003927127
218	0x3dab50b0	0.08364999
219	0xbc79c4c5	-0.015244667
220	0x3ccff85a	0.025386978
221	0xbc8519d3	-0.016247666
222	0x3cc58671	0.024111958
223	0xbc076ff0	-0.008266434
224	0xbdc69553	-0.0969645
225	0x3c45dd4e	0.012076689
226	0xbd82e648	-0.06391579
227	0x3d07c3ba	0.033145644
228	0xbd85909e	-0.06521724
229	0x3db7ad4e	0.08968602
230	0x3d14c605	0.03632166
231	0xbcdc0aeb	-0.026860675
232	0x3bf24423	0.0073933764
233	0xbcb047c6	-0.0215186
234	0x3d9fa8a3	0.07795837
235	0xbde38faa	-0.11111386
236	0xbdd5073b	-0.1040177
237	0xbd28a7bf	-0.0411756
238	0xbc12ef91	-0.00896825
239	0x3cbb78e4	0.022884794
240	0x3d0fe432	0.035129733
241	0xbd4efdfd	-0.05053519
242	0x3c318440	0.0108347535
243	0x3e11de4e	0.14244959
244	0xbd89fe4e	-0.06737958
245	0xbdd3fb54	-0.103506714
246	0x3ccbf047	0.024894847
247	0x3d058894	0.032600954
248	0x3d2d935b	0.042376857
249	0xbdac29ca	-0.08406408
250	0xbd5efa0e	-0.05443769
251	0x3aff4753	0.0019476212
252	0x3d0ada27	0.033899453
253	0x3d87333b	0.06601568
254	0xbd6ce1b3	-0.05783243
255	0xbdb12a62	-0.08650662

l1.0.bias f4 [256]
0	0x3eae3365	0.34023586
1	0x3e5ed383	0.21760373
2	0x3e38b663	0.18038325
3	0x3e6bf486	0.23042497
4	0xbd842beb	-0.06453689
5	0xbe2b41cd	-0.1672432
6	0xbd026435	-0.031833846
7	0xbd37a4fb	-0.044835072
8	0xbd8f57b5	-0.06999151
9	0x3e213d22	0.15745977
10	0xbe474886	-0.19461259
11	0xbe7c8cf1	-0.2466314
12	0xbe8298c1	-0.25507167
13	0x3e353da7	0.176993
14	0x3e5f9490	0.21834016
15	0xbe9b7037	-0.3035905
16	0xbe241cd8	-0.16026628
17	0xbe301ad2	-0.17197731
18	0x3dbe17e2	0.09281899
19	0xbe4c515e	-0.19952914
20	0xbd9c6694	-0.07636753
21	0x3e7e1cc0	0.24815655
22	0xbd21f196	-0.039537035
23	0x3e6090d1	0.21930243
24	0xbe4bb91e	-0.19894835
25	0xbe27dfcb	-0.16393964
26	0x3d9c75c7	0.07639652
27	0x3de6838c	0.11255559
28	0xbded29d6	-0.11580245
29	0xbe6a429e	-0.22876975
30	0xbe681def	-0.22667669
31	0xbd8a4b62	-0.067526594
32	0x3e3749f1	0.178993
33	0x3d8dfcdf	0.06932997
34	0xbd93b905	-0.07213024
35	0xbd8df950	-0.06932318
36	0xbe8487a7	-0.25884745
37	0x3e8b227c	0.27174747
38	0xbd45d910	-0.04830271
39	0xbdce6b7f	-0.10079097
40	0x3e3ab748	0.18233979
41	0xbea0bbc4	-0.31393254
42	0xbe9673a3	-0.293851
43	0x3d2929e9	0.041299734
44	0xbe37df2e	-0.1795623
45	0xbd60e5a9	-0.05490652
46	0x3e1d7279	0.15375699
47	0xbe74e0df	-0.23913907
48	0x3e8ab910	0.27094316
49	0x3e183d46	0.14867124
50	0x3e5a1540	0.21297169
51	0x3bc8b614	0.006125221
52	0x3dee8c91	0.11647905
53	0xbd0aaee5	-0.0338582
54	0xbe8a1bf0	-0.2697444
55	0xbdf93668	-0.1216858
56	0xbe0934b5	-0.13399012
57	0x3e70f93b	0.23532574
58	0x3e70210d	0.23450108
59	0xbe8e0d70	-0.27744627
60	0x3e4f2d21	0.20232059
61	0x3e1cde86	0.15319261
62	0x3e1ac17a	0.15112868
63	0x3e90bb65	0.2826797
64	0xbe25a5cc	-0.16176528
65	0xbe70e51b	-0.23524897
66	0xbd9c7311	-0.07639135
67	0xbe2a7017	-0.16644321
68	0x3e18a61c	0.14907116
69	0x3e825917	0.25458595
70	0x3de91a11	0.11381925
71	0xbe86ef5a	-0.26354486
72	0xbdc7a6dd	-0.097486235
73	0x3d97af2b	0.074064575
74	0x3e98baf3	0.2983013
75	0xbdfcba9b	-0.1234028
76	0xbe11ecf6	-0.1425055
77	0xbdb7df8b	-0.08978184
78	0x3dd46e10	0.10372555
79	0xbd1e657d	-0.038671006
80	0xbe4829cb	-0.19547193
81	0x3c5d72a1	0.013516099
82	0xbe9159ea	-0.2838891
83	0xbd9d46ce	-0.076795205
84	0x3e896caa	0.26840717
85	0x3e10e895	0.14151223
86	0x3e4d119f	0.20026253
87	0x3e4322ca	0.1905624
88	0x3e18febb	0.14940922
89	0x3e1740a0	0.14770746
90	0xbe20c774	-0.15701085
91	0x3e660407	0.22462474
92	0xbcbb993b	-0.022900214
93	0x3ea4dc14	0.32199156
94	0xbdff4b0a	-0.124654844
95	0x3d87b87d	0.06626985
96	0xbe89587d	-0.26825324
97	0x3dc3d20b	0.09561547
98	0xbe75d46a	-0.24006811
99	0x3e741904	0.23837668
100	0xbe15d87a	-0.1463336
101	0x3e5748a4	0.21023804
102	0xbd8ad799	-0.06779403
103	0x3e5a0bbb	0.21293537
104	0x3e4c99cb	0.19980542
105	0xbe80c172	-0.25147587
106	0xbe1985af	-0.14992402
107	0x3e979369	0.29604653
108	0x3c922c22	0.01784331
109	0xbe70b74f	-0.23507427
110	0xbe14c76f	-0.14529203
111	0x3e47cb81	0.19511224
112	0xbe56fd2a	-0.20995012
113	0x3dd88ea6	0.10574083
114	0xbe6f628d	-0.23377438
115	0x3ead0b0a	0.33797485
116	0x3e8be44d	0.27322617
117	0xbde9807e	-0.11401461
118	0x3dd27e87	0.102780394
119	0xbd4b21b3	-0.049592685
120	0xbe99d4d2	-0.30045182
121	0xbe0659fa	-0.13120261
122	0x3e9d56a2	0.30730158
123	0x3e1ccce5	0.15312536
124	0xbe313142	-0.17303947
125	0xbe2583d9	-0.16163577
126	0x3d85977a	0.065230325
127	0x3db51104	0.08841136
128	0x3d76310e	0.060105376
129	0xbe5813d0	-0.21101308
130	0x3e8c1eb6	0.2736718
131	0xbe240046	-0.1601573
132	0xbe113808	-0.1418153
133	0xbe23f569	-0.16011585
134	0xbe3b3afe	-0.18284222
135	0xbbd16dda	-0.006391269
136	0xbe90ce27	-0.28282282
137	0x3e909ffe	0.28247064
138	0xbe5225f9	-0.20522298
139	0xbe946473	-0.28982887
140	0x3d18155c	0.037129745
141	0x3d041c9e	0.032253854
142	0xbd3ca9ae	-0.046060257
143	0xbe14e268	-0.14539492
144	0xbe56f3d7	-0.20991455
145	0x3d59610c	0.053071067
146	0x3e0c1d9e	0.13683173
147	0xbdbc4540	-0.09192896
148	0xbe1d8441	-0.15382482
149	0x3dde1b13	0.10845008
150	0xbe3c99b3	-0.18418007
151	0x3e7e11e9	0.2481152
152	0xbc8926df	-0.016742168
153	0x3e58e450	0.21180844
154	0x3e0ff3b6	0.14057812
155	0x3e0ceed9	0.13762988
156	0xbcf9b541	-0.030481936
157	0xbc98d7de	-0.018657621
158	0x3b36d0de	0.002789549
159	0x3e1b011e	0.15137145
160	0xbe76b071	-0.24090745
161	0x3b1702b4	0.0023042383
162	0xbd9f2771	-0.07771195
163	0x3e03d655	0.1287473
164	0xbe717306	-0.23579034
165	0x3de2785f	0.11058115
166	0xbe44bdf6	-0.1921309
167	0x3e1079df	0.1410899
168	0xbe84a41b	-0.25906453
169	0x3e4cbc43	0.19993691
170	0x3e4b99c4	0.19882876
171	0x3cd4af8d	0.025962615
172	0xbe80b21a	-0.2513588
173	0x3d32f89e	0.04369413
174	0xbdd1de8a	-0.10247524
175	0x3e5c6984	0.21524626
176	0xbd4d188a	-0.05007223
177	0xbdbc1ced	-0.09185205
178	0x3e1ba622	0.15200093
179	0xbe50d7c1	-0.20394804
180	0xbe8f1191	-0.2794309
181	0x3d80a564	0.06281546
182	0x3ded6ea9	0.115933724
183	0xbe73b364	-0.23798901
184	0xbdc6f248	-0.0971418
185	0xbe1eda71	-0.15513016
186	0x3d940a1d	0.072284915
187	0x3e4774ee	0.19478199
188	0xbe513fcc	-0.20434493
189	0xbe10afb7	-0.1412953
190	0xbe4f52e2	-0.20246461
191	0xbdc81a98	-0.09770697
192	0x3e89ee47	0.26939604
193	0x3d704e2a	0.058668293
194	0x3e60eea2	0.21966031
195	0xbe222c8a	-0.15837303
196	0xbe9017c9	-0.28143147
197	0xbe9cae73	-0.30601844
198	0x3d9438fe	0.07237433
199	0xbe750264	-0.23926693
200	0x3e3910b5	0.1807278
201	0xbe7c08b9	-0.24612702
202	0xbc6324c2	-0.013863744
203	0xbd3f8a9f	-0.04676306
204	0x3dac4172	0.0841092
205	0xbe1e65ce	-0.15468523
206	0x3e2761f0	0.16345954
207	0x3df84d97	0.12124174
208	0xbe39c0fb	-0.18140022
209	0x3e9daec2	0.30797392
210	0xbe683d4e	-0.22679636
211	0xbd421d53	-0.047391247
212	0xbe72e4df	-0.2372012
213	0x3dd07657	0.101788215
214	0xbe208f03	-0.15679555
215	0xbd846abc	-0.064656705
216	0xbd077a62	-0.033075698
217	0xbe843c19	-0.258271
218	0xbe45f442	-0.19331458
219	0xbdbef752	-0.09324516
220	0x3de09872	0.10966577
221	0x3cb4ed4c	0.022085808
222	0x3e5c0dc0	0.2148962
223	0x3e61a431	0.2203529
224	0xbd1ea05c	-0.03872715
225	0xbe81cb37	-0.25350353
226	0xbe852f82	-0.26012808
227	0x3e2a6996	0.1664184
228	0x3da9e86a	0.082962826
229	0x3e848e75	0.25889936
230	0x3e510cf4	0.20415097
231	0x3e34afac	0.17645139
232	0xbdd95238	-0.10611385
233	0x3e8200d0	0.25391245
234	0x3db8380f	0.08995067
235	0xbe514ffc	-0.20440668
236	0xbe9e9dba	-0.3097971
237	0x3e43e0e4	0.19128758
238	0xbe36db45	-0.17857082
239	0x3e042577	0.12904917
240	0xbe40e971	-0.18839051
241	0x3e94e7aa	0.29082996
242	0xbe2b3467	-0.16719209
243	0xbdc80135	-0.09765855
244	0xbe7eac80	-0.24870491
245	0xbe8d0b1d	-0.2754754
246	0x3e29a559	0.16566981
247	0xbe5932ba	-0.21210757
248	0xbe683a28	-0.22678435
249	0x3e0735fb	0.13204186
250	0xbe6caf74	-0.23113805
251	0x3e61866b	0.22023933
252	0xbeb03ce1	-0.34421447
253	0xbe4e2d38	-0.20134437
254	0x3ea24e70	0.31700468
255	0x3d801c4e	0.06255399

l1.1.weight f4 [784, 256]
0	0xbd78d3d7	-0.0607489
1	0xbc98ac0b	-0.018636724
2	0x3de4beb8	0.11169189
3	0xbd1428d3	-0.036171746
4	0xbd18e942	-0.037331827
5	0xbd10061b	-0.035162073
6	0x3d08c11e	0.033387296
7	0x3dcc5c42	0.09978534
8	0xbadd4356	-0.001688103
9	0x3c9e3375	0.019311646
10	0xbb3908b0	-0.0028233938
11	0xbb47f407	-0.0030510442
12	0xbcbaba20	-0.02279383
13	0x3d8c81b9	0.0686068
14	0x3cccc2a9	0.024995165
15	0xbd66c8fe	-0.056344025
16	0xbc806508	-0.015673175
17	0xbb19fcda	-0.0023496659
18	0x3d8e356e	0.06943785
19	0x3dbcc14a	0.092165545
20	0xbd22efde	-0.039779536
21	0x3db7390e	0.08946429
22	0xbd066846	-0.032814287
23	0xbd4fe39c	-0.050754175
24	0xbdab8556	-0.08375041
25	0x3d5b1953	0.053490948
26	0xbda5509f	-0.08072018
27	0x3db7d939	0.08976979
28	0xbd9ee07c	-0.07757661
29	0x3d2b2b52	0.04178936
30	0xbdc4939c	-0.09598467
31	0xbd7bb1fd	-0.06144904
32	0x3d514de1	0.05109966
33	0x3da21a2b	0.079151474
34	0xbd0a55f3	-0.033773374
35	0x3d2924dd	0.04129492
36	0xbd663877	-0.056206193
37	0x3c3dfda3	0.011596116
38	0x3d3e8646	0.046514772
39	0x3e0404c5	0.12892444
40	0xbbe524c2	-0.0069929073
41	0x3d763880	0.060112476
42	0x3d6e5e7d	0.05819558
43	0x3d7c2aba	0.061564185
44	0xbce14cd4	-0.027502455
45	0x3d4d7331	0.050158683
46	0xbb83f58a	-0.0040270733
47	0xbc3858d0	-0.011251643
48	0x3df3135d	0.11868928
49	0x3d5176a8	0.05113855
50	0x3d99e646	0.07514624
51	0x3c8c271f	0.017108498
52	0x3d908ada	0.07057734
53	0x3daf7932	0.08568038
54	0xbdec54f2	-0.115396395
55	0xbc85578d	-0.016277099
56	0x3c1b3b0b	0.009474526
57	0xbd11e27d	-0.035616387
58	0xbd458feb	-0.048232954
59	0x3bb1348e	0.0054078763
60	0x3d7af633	0.06126995
61	0xbc4b4299	-0.012406015
62	0xbd929f12	-0.071592465
63	0x3e298144	0.16553217
64	0xbdd7ba1f	-0.10533547
65	0x3d57de56	0.05270227
66	0xbbeb5af8	-0.007182475
67	0xbb87da28	-0.0041458793
68	0x3d7e2d4d	0.06205492
69	0x3c4c2375	0.0124596255
70	0xbd9626f1	-0.07331646
71	0x3dfa4525	0.122202195
72	0xbd975235	-0.073887266
73	0x3d01cbcd	0.0316885
74	0x3d514175	0.051087815
75	0x3d5deb0c	0.054179236
76	0xbd2dd657	-0.04244074
77	0x3cbaadc0	0.022787929
78	0xbd32a481	-0.043613914
79	0xbc8efe48	-0.017455235
80	0xb9e205e7	-0.00043110477
81	0x3dac965a	0.08427115
82	0x3c177853	0.009244996
83	0xbdd7b9b2	-0.105334654
84	0x3d675f5e	0.056487434
85	0x3dd582ec	0.10425362
86	0x3d632b34	0.055461124
87	0xbd491091	-0.049088065
88	0x3c511267	0.012760735
89	0x3d8fdc4f	0.070244424
90	0x3cda1b57	0.026624365
91	0x3b9669fa	0.00459027
92	0xbd9d064f	-0.07667219
93	0xbdd5ec7b	-0.10445496
94	0xbd46c4c3	-0.04852749
95	0xbd2e4886	-0.042549632
96	0xbcf0557a	-0.029337633
97	0xbd5c691d	-0.05381118
98	0x3d215d35	0.03939553
99	0xbb63165e	-0.0034650783
100	0x3d1c288f	0.038124617
101	0xbcbee99f	-0.023304759
102	0x3c62d6bf	0.013845145
103	0x3a8446c0	0.0010091886
104	0xbc1bba46	-0.00950486
105	0xbcb14f41	-0.021644237
106	0xbde55d5e	-0.11199449
107	0x3c98571e	0.018596228
108	0xbd4909b9	-0.049081538
109	0xbde1768c	-0.11008939
110	0x3d9a2a4e	0.075276
111	0x3d900276	0.070317194
112	0x3e08905a	0.13336316
113	0x3d415207	0.047197368
114	0x3d23e473	0.040012788
115	0x3e0bdd01	0.13658525
116	0x3d78dc75	0.06075712
117	0xbcfd34b6	-0.030908924
118	0xbdb42f8f	-0.087981336
119	0x3d04265c	0.032263145
120	0x3d83582d	0.064133026
121	0xbca5656a	-0.02018996
122	0xbdc19d22	-0.09453799
123	0x3c80fdd4	0.015746035
124	0x3c2d78c5	0.010587876
125	0x3cdbd373	0.026834225
126	0x3dc11021	0.094269045
127	0x3cfaacf4	0.030600049
128	0x3d886db9	0.06661553
129	0xbd938e4c	-0.07204875
130	0xbdc0394a	-0.09385927
131	0x3c811795	0.015758315
132	0x3e11c5fc	0.14235681
133	0xbcc9f452	-0.024652634
134	0xbdca4052	-0.098755494
135	0xbd48dc00	-0.049037933
136	0x3b8df87e	0.004332601
137	0x3d9d44af	0.07679116
138	0xbe096759	-0.1341833
139	0xbdd95eb8	-0.10613769
140	0xbddea85a	-0.10871954
141	0x3c7afa0b	0.015318404
142	0x3d765865	0.060142893
143	0x3d36e77a	0.044654347
144	0xbd8b8ead	-0.068143226
145	0xbd16a39b	-0.03677712
146	0x3cba171f	0.022716103
147	0x3db6e5be	0.089305386
148	0xbcb1ec48	-0.021719113
149	0x3e0d6484	0.13807875
150	0x3c816a10	0.015797645
151	0xbdb9d65c	-0.09074089
152	0x3d96f4f8	0.07370943
153	0xbd1e81bc	-0.038697943
154	0x3dc71092	0.097199574
155	0xbdd0893a	-0.10182424
156	0x3cb2bd51	0.021818789
157	0x3dd1ea80	0.102498055
158	0xbd47a1f2	-0.048738427
159	0x3cbe12f4	0.023202397
160	0xbb8966d2	-0.0041931653
161	0xbb86ca73	-0.0041134893
162	0x3d3d04db	0.04614721
163	0x3d1cf2e7	0.038317587
164	0xbe0269c2	-0.12735656
165	0x3d755c87	0.059902694
166	0xbc3c807a	-0.011505241
167	0xbc37b9a5	-0.011213695
168	0xbd6eaaf7	-0.058268514
169	0xbd9b5d9c	-0.07586214
170	0x3dd62dc7	0.1045795
171	0xbbbf161e	-0.005831494
172	0xbc20458a	-0.009782204
173	0x3dc4bf84	0.09606841
174	0x3e0e327e	0.13886449
175	0xbb58eb53	-0.0033099249
176	0x3df0efac	0.11764464
177	0x3cebdba4	0.028791256
178	0x3d87834e	0.06616841
179	0x3d1efd65	0.038815875
180	0x3dc66386	0.09686951
181	0x3d70c0ec	0.058777735
182	0x3d9b3d0a	0.07580002
183	0xbd199687	-0.03749707
184	0xbd200978	-0.03907153
185	0x3a374444	0.00069910684
186	0x3d5eb6ee	0.054373674
187	0xbd56a2a3	-0.052401196
188	0xbdb2cc24	-0.08730343
189	0xbd8e21a6	-0.06940012
190	0xbda029e9	-0.07820494
191	0xbd01d4b5	-0.031696994
192	0x3b28ae57	0.002573868
193	0x3dce58f1	0.10075558
194	0xbcc2f641	-0.023799064
195	0xbd93e028	-0.07220489
196	0x3dece612	0.1156732
197	0xbd2797c3	-0.040916216
198	0x3dd70c4a	0.10500391
199	0xbcbfc361	-0.023408594
200	0xbbb4ce08	-0.005517725
201	0xbc1aca5a	-0.009447658
202	0x3cf41beb	0.029798469
203	0x3d2b7db9	0.041867945
204	0x3d232290	0.039827883
205	0xbd706dd5	-0.058698494
206	0x3d1c34ff	0.03813648
207	0x3c6c0e04	0.014407638
208	0xbc8cd05c	-0.017189197
209	0x3dc1133f	0.09427499
210	0xbb26ab6d	-0.0025431768
211	0x3d0d7777	0.03453776
212	0x3d343425	0.04399504
213	0xbbc57638	-0.0060260557
214	0xbc031de9	-0.008002737
215	0x3cfc42e1	0.03079361
216	0x3d29e05c	0.04147373
217	0xbdddb82d	-0.10826144
218	0x3d9bf60c	0.07615289
219	0x3cf74d9d	0.030188376
220	0x3db7edf5	0.089809336
221	0x3cdde9e1	0.027089061
222	0x3c4c9631	0.01248698
223	0xbd2dfce9	-0.042477522
224	0xbab8879f	-0.0014078504
225	0x3e036911	0.12833048
226	0x3d5b4ddb	0.053541046
227	0xbc36f319	-0.011166357
228	0xbd144008	-0.036193877
229	0xbc8c671a	-0.017139006
230	0xbd44f99a	-0.0480896
231	0xbcfc8bf7	-0.03082846
232	0xbdf6c0ae	-0.120484695
233	0xbcbd542d	-0.023111427
234	0x3df225fe	0.11823653
235	0x3d811bb3	0.06304111
236	0x3d931487	0.0718165
237	0xbd75e84c	-0.06003599
238	0xbb25002a	-0.00251771
239	0x3ced1812	0.028942142
240	0x3d5bb6ef	0.053641256
241	0xbd015e6d	-0.031584192
242	0x3abbc4f5	0.0014325666
243	0xbd257fb1	-0.04040498
244	0x3d7ec951	0.06220371
245	0xbd2b2785	-0.041785736
246	0x3d48cab1	0.049021427
247	0x3dee4fdc	0.11636326
248	0xbd490c0e	-0.049083762
249	0xbc8259e5	-0.015912006
250	0x3d97336b	0.07382854
251	0x3dc2a3f5	0.095039286
252	0xbc9f08c2	-0.019413356
253	0xbc95d898	-0.018291757
254	0xbcb6937f	-0.022287128
255	0x3d3b9a2d	0.04580133

l1.1.bias f4 [784]
0	0x3d357ebf	0.044310328
1	0xbe0930a5	-0.13397463
2	0x3cc8a30d	0.024491811
3	0x3e054c7d	0.13017459
4	0x3dadbdab	0.08483442
5	0x3c113003	0.008861545
6	0xbd240dcc	-0.04005222
7	0x3d889cb1	0.066705115
8	0xbcc52235	-0.024064163
9	0x3de3d83f	0.1112523
10	0x3d565e29	0.052335892
11	0x3e43ade8	0.19109309
12	0x3db646c5	0.08900217
13	0x3c559389	0.013035663
14	0x3cad45f6	0.021151524
15	0xbd4ecb75	-0.050487
16	0xbc981d33	-0.01856861
17	0x3cac3e51	0.021025809
18	0x3db45912	0.08806051
19	0x3dee5de1	0.11639
20	0x3d0ae1e1	0.03390682
21	0x3c4b5629	0.012410679
22	0xbb446140	-0.0029965192
23	0xbcacea2f	-0.021107761
24	0x3dcf74db	0.1012971
25	0xbc88bad8	-0.016690657
26	0x3dbf731f	0.093481295
27	0x3d006add	0.031351913
28	0x3deb1c31	0.114799865
29	0x3d9325e4	0.071849614
30	0x3d3b9585	0.04579689
31	0x3dfbd568	0.122965634
32	0xbcbe4e02	-0.023230556
33	0x3dd6a30e	0.10480319
34	0xbd86fe31	-0.06591452
35	0x3df6569e	0.1202824
36	0xbd43840b	-0.047733348
37	0xbc68443c	-0.014176425
38	0x3c214d2e	0.009845061
39	0xbceae14c	-0.028671883
40	0xbc45c908	-0.012071855
41	0xbd21d3af	-0.039508518
42	0x3e504c26	0.20341548
43	0x3ba9c700	0.0051811934
44	0xbd7aa33a	-0.06119082
45	0xbde3f80b	-0.11131295
46	0xbdfb1518	-0.12259883
47	0x3dbdc436	0.0926594
48	0xbd760e6d	-0.06007235
49	0x3e4c5a26	0.19956264
50	0x3e077942	0.1322985
51	0x3de4841f	0.111580126
52	0x3d2f5b91	0.042811934
53	0x3d718ce6	0.05897226
54	0xbca3ad26	-0.019980025
55	0x3d1d7618	0.0384427
56	0x3e351433	0.17683487
57	0xbcfdbc4e	-0.03097358
58	0xbd0065a3	-0.03134693
59	0xbcee5d6b	-0.02909728
60	0xbdbbadc3	-0.09164002
61	0x3d5b9971	0.05361313
62	0xbd3032d4	-0.043017223
63	0x3e071c6c	0.13194436
64	0xbcd3c82b	-0.025852283
65	0x3ac2b682	0.0014855417
66	0xbdd7eaeb	-0.10542854
67	0x3d504e6e	0.050856046
68	0xbd3feae8	-0.046854883
69	0x3d6aff6f	0.057372507
70	0x3e1d1571	0.1534021
71	0x3c173b8b	0.009230505
72	0xbca70fce	-0.020393278
73	0xbd044661	-0.03229368
74	0x3d88a8b3	0.06672802
75	0x3c853a91	0.016263278
76	0xbae3af0b	-0.0017370892
77	0x3e105856	0.14096197
78	0x3c977d61	0.018492403
79	0xbc80b063	-0.015709108
80	0xbd0187fd	-0.03162383
81	0x3d1df374	0.038562253
82	0x3d8b8da0	0.06814122
83	0x3d05f25b	0.03270183
84	0x3e31dd95	0.17369683
85	0x3e1a6115	0.15076096
86	0x3d2ad083	0.04170276
87	0x3cb62e5f	0.022238908
88	0xbcb9c946	-0.022678982
89	0x3e000b60	0.12504339
90	0x3e370cb9	0.17875947
91	0x3e4d4299	0.20044936
92	0x3df91324	0.12161854
93	0x3d98234e	0.07428609
94	0x3de39d5b	0.111139975
95	0x3e41f929	0.18942703
96	0x3e09bb4a	0.13450351
97	0x3d4c99ba	0.049951293
98	0xbd83abdd	-0.06429265
99	0x3b93f2f0	0.0045150444
100	0x3d0ebc55	0.034847576
101	0xbd86bfb5	-0.06579534
102	0xbdab640e	-0.08368693
103	0xbdb6a203	-0.0891762
104	0xbba7425d	-0.0051043467
105	0x3ca5837c	0.020204298
106	0x3a68a74e	0.0008875028
107	0x39bd43f8	0.0003609953
108	0xbce19b15	-0.02753977
109	0xbd94b61c	-0.07261297
110	0xbde45c32	-0.11150397
111	0x3a466f47	0.0007569682
112	0x3e0ddcd1	0.13853766
113	0x3d48aab0	0.048990905
114	0x3da0e84b	0.07856806
115	0xbc15e598	-0.009148978
116	0xbc772f0e	-0.015086902
117	0x3c0f86ee	0.008760197
118	0xbd3ce504	-0.046116844
119	0x3a98099a	0.0011599541
120	0x3d36ce53	0.04463036
121	0x3dade0fe	0.084901795
122	0xbb627ca8	-0.0034559164
123	0xbd66aee8	-0.056319147
124	0xbd6f5e62	-0.05843962
125	0x3d93af45	0.072111644
126	0xbcb1d94b	-0.021710059
127	0x3d005559	0.031331394
128	0x3d832377	0.06403249
129	0x3d9cb84f	0.076523416
130	0xbc363024	-0.011119876
131	0xbc94b61d	-0.018153245
132	0x3d53e47c	0.05173157
133	0x3d41f542	0.047353037
134	0x3e1682f1	0.14698388
135	0x3e0a3695	0.13497384
136	0x3e321995	0.17392571
137	0x3d6eca9b	0.05829869
138	0xbd707aec	-0.058710977
139	0x3dc191b5	0.094516195
140	0xbd7ee2bc	-0.06222795
141	0xbce32bb4	-0.0277308
142	0xbcd435c2	-0.02590454
143	0xbd2173a0	-0.03941691
144	0xbda0ac9a	-0.07845421
145	0xbd0efb5b	-0.03490768
146	0x3d9be470	0.0761193
147	0x3c296c89	0.010340818
148	0xbd7d2e80	-0.061811924
149	0xbd3ac032	-0.045593448
150	0xbc314a82	-0.010820987
151	0xbdb086b6	-0.08619444
152	0xbd68aeb6	-0.056807242
153	0x3d107274	0.0352654
154	0xbd8bfc61	-0.06835247
155	0x3d153a2a	0.036432423
156	0x3e2bc201	0.16773225
157	0x3df16a21	0.117878206
158	0x3bc46486	0.0059934286
159	0x3c5a6c45	0.0133314775
160	0x3d449723	0.047995698
161	0x3dcb5c09	0.09929664
162	0x3e024ae1	0.12723877
163	0x3df837ea	0.1212004
164	0xbcb16c2d	-0.021658028
165	0xbd08745a	-0.033314086
166	0xbd1a8c57	-0.037731495
167	0x3d005007	0.03132632
168	0x3e04030c	0.12891787
169	0x3de1d601	0.11027146
170	0x3c827975	0.015927056
171	0xbc3a579d	-0.011373428
172	0xbdc8cd5d	-0.09804795
173	0xbd2eba3f	-0.042658087
174	0x3dada260	0.08478236
175	0xbbf05c42	-0.0073352167
176	0x3db5dad8	0.08879632
177	0x3b848427	0.004044074
178	0x3cc88c52	0.024480972
179	0x3d1eb898	0.03875026
180	0xbd6b3d2f	-0.057431396
181	0x3db4ffdf	0.08837866
182	0x3d26c9d0	0.040719807
183	0x3d535733	0.05159683
184	0x3dd135a7	0.102153115
185	0x3cfa734d	0.030572558
186	0xbdc814f0	-0.097696185
187	0x3dab1470	0.083535075
188	0x3e1eb69a	0.15499344
189	0xbcba289a	-0.022724438
190	0x3d5c33d2	0.053760357
191	0xbc8afca3	-0.01696617
192	0xbd0d0aaf	-0.034434017
193	0x3d7a41b8	0.06109783
194	0x3dbaa8cb	0.09114226
195	0x3e364146	0.17798337
196	0x3d791b79	0.060817216
197	0xbde3dd12	-0.1112615
198	0xbd6cff02	-0.057860382
199	0xbe1561dc	-0.14588112
200	0xbdfc984c	-0.12333736
201	0xbd5d4b9d	-0.05402719
202	0x3cd0e0c6	0.025497805
203	0xbd06b9bf	-0.032891985
204	0xbdb549ac	-0.088519424
205	0xbc04c3c9	-0.008103319
206	0x3d882c49	0.06649072
207	0x3d8e733f	0.06955575
208	0xbd2da828	-0.042396694
209	0x3b217709	0.00246376
210	0xbd051f5a	-0.032500602
211	0xbb372154	-0.002794345
212	0x3ca90d72	0.020636294
213	0xbc99df52	-0.018783245
214	0x3d9206a7	0.07130175
215	0xbb4bfde2	-0.0031126668
216	0x3a041279	0.0005038153
217	0x3cae2ea1	0.021262469
218	0x3e06aed2	0.13152626
219	0xbd1d3194	-0.03837736
220	0x3ced2a6c	0.028950892
221	0x3aa60d22	0.0012668709
222	0xbd6832a4	-0.05668892
223	0x3db1762f	0.0866512
224	0x3d27e53e	0.040990107
225	0xbda0a2f5	-0.078435816
226	0xbd98383b	-0.074326
227	0xbd8cf6c2	-0.06883003
228	0xbd3393f4	-0.04384227
229	0x3ca9b6cb	0.020717045
230	0xbcccd9c4	-0.025006182
231	0xbc90bd43	-0.017668372
232	0x3e06a180	0.13147545
233	0x3ca950a7	0.02066834
234	0x3d259045	0.04042079
235	0x3cfba853	0.030719912
236	0xbd5d2257	-0.053987827
237	0xbb373810	-0.0027957
238	0xbdef4ac9	-0.11684186
239	0x3960b24c	0.00021428725
240	0x3d459c3f	0.04824471
241	0x3d962f0f	0.073331945
242	0xbdcb5afc	-0.09929463
243	0xbb39a1b1	-0.0028325135
244	0xbc5c67e4	-0.013452504
245	0x3e13b5c7	0.14424811
246	0x3dc92383	0.098212264
247	0xbdabbc25	-0.08385495
248	0xbe215f70	-0.15759063
249	0x3cda7cc7	0.026670827
250	0xbcdf1269	-0.027230458
251	0x3d66f8a7	0.056389477
252	0x3ce5c408	0.028047577
253	0xbdd0bd3a	-0.10192342
254	0xbd0fc7a9	-0.03510252
255	0xbd9c5698	-0.07633704

conv_blocks.0.weight f4 [8, 16, 3, 3]
0	0xbe1ec753	-0.15505724
1	0xbdb115ff	-0.086467735
2	0xbd902f8a	-0.07040317
3	0xbcf5cb11	-0.030004056
4	0xbde0bf79	-0.109740205
5	0xbcd794bd	-0.026316041
6	0x3ca646f6	0.020297509
7	0x3d8250f6	0.06363098
8	0x3bf5c467	0.0075002196
9	0xbd60286d	-0.054726053
10	0xbd7f415f	-0.062318202
11	0x3d20aa58	0.039224952
12	0x3d2a9b57	0.04165205
13	0x3db3082d	0.08741794
14	0xbdf231c1	-0.11825896
15	0x3dfd31c5	0.123630084
16	0xbd88db47	-0.06682449
17	0xbda75d97	-0.08172148
18	0xbce721f5	-0.028214434
19	0xbd2d6063	-0.04232825
20	0x3d0f9edf	0.03506362
21	0xbdd8bd82	-0.10583021
22	0xbdbe4882	-0.092911735
23	0xbe32130d	-0.1739008
24	0xbe68c244	-0.22730356
25	0x3e297e2b	0.16552036
26	0xbda14be2	-0.078758016
27	0x3cb8139b	0.022470286
28	0x3d5559f0	0.052087724
29	0x3d8ad76c	0.0677937
30	0xbe0669d9	-0.13126315
31	0x3d0b0efa	0.03394983
32	0xbc3b7f8b	-0.011443983
33	0xbd298023	-0.041381966
34	0x3c738a1e	0.014864473
35	0x3cd308cd	0.025761032
36	0x3dac2914	0.084062725
37	0xbe2a0467	-0.16603242
38	0xbdfae41d	-0.122505404
39	0x3d4a3b9e	0.04937326
40	0xbdaa4f3a	-0.083158925
41	0xbdbdf952	-0.0927607
42	0x3d450dca	0.048108853
43	0x3e6558a7	0.223971
44	0x3c806637	0.01567374
45	0xb8971a3d	-7.205128e-05
46	0x3c76941c	0.01504996
47	0x3c5c95b9	0.013463431
48	0xbdbd073f	-0.09229898
49	0xbda1eec6	-0.079068705
50	0xbb92e80a	-0.0044832276
51	0x3e19a6bd	0.15005012
52	0xbdc4997f	-0.095995896
53	0x3e68cc0c	0.22734088
54	0xb985cf1d	-0.00025522048
55	0x3de7a31b	0.11310407
56	0x3e05b821	0.13058521
57	0x3d22a489	0.039707694
58	0xbd705d90	-0.05868298
59	0xbd1b00d3	-0.037842583
60	0x3e8266ac	0.25468957
61	0x3c9587b2	0.018253181
62	0xbdfcfae4	-0.12352541
63	0xbbb827d4	-0.0056199823
64	0xbe0f347b	-0.13984863
65	0xbdc2495c	-0.094866484
66	0xbe6b2c42	-0.22966102
67	0x3de5803c	0.112060994
68	0x3d40a86b	0.047035616
69	0x3c78777a	0.015165204
70	0x3cf36f99	0.0297163
71	0xbc8e29de	-0.017353948
72	0xbd2b4f25	-0.041823525
73	0x3e5f972f	0.21835016
74	0xbdcb825f	-0.09936976
75	0x3e089205	0.13336952
76	0x3e07743c	0.13227934
77	0x3e24c8a9	0.16092171
78	0xbc69b544	-0.0142644085
79	0x3d5dc2a2	0.054140694
80	0xbd97f441	-0.074196346
81	0x3d50b4a4	0.050953522
82	0x3bb7ffa7	0.005615193
83	0x3d178d6e	0.037000112
84	0x3de56a98	0.11201972
85	0x3c219eac	0.0098644905
86	0xbe2efce8	-0.17088664
87	0x3d60a22c	0.05484216
88	0x3d82e2e2	0.06390931
89	0xbc781738	-0.0151422545
90	0x3e74d6ff	0.2391014
91	0x3cb211eb	0.02173706
92	0xbd966ea0	-0.07345319
93	0xbe0cf8d5	-0.13766797
94	0x3d4bc6b2	0.049750037
95	0xbcd23b06	-0.02566291
96	0x3e1afe44	0.15136057
97	0x3dd9b1c8	0.10629612
98	0x3e4362bd	0.19080634
99	0xbdd4dd2a	-0.10393746
100	0xbe5b0c0e	-0.21391317
101	0x3d4f673f	0.050635573
102	0xbe237246	-0.1596156
103	0xbdc49275	-0.09598247
104	0xbca5f549	-0.020258563
105	0xbd559831	-0.052147094
106	0x3d2cd35f	0.042193767
107	0x3e1a9c28	0.15098631
108	0xbe22503b	-0.15850918
109	0xbd83f50e	-0.06443225
110	0xbb6a3e44	-0.003574268
111	0x3e332f41	0.17498495
112	0xbdcd065a	-0.10010977
113	0xbcdebfdc	-0.027191095
114	0xbd59446b	-0.053043764
115	0x3d6bfd8f	0.05761486
116	0xbe2d78c8	-0.16940606
117	0xbe05c1b7	-0.13062178
118	0xbca37be6	-0.01995654
119	0x3deab103	0.114595436
120	0xbe6ae23c	-0.22937864
121	0xbdfe0b95	-0.12404553
122	0xbe2d3a1a	-0.16916695
123	0xbe62427c	-0.22095674
124	0xbe206081	-0.15661813
125	0x3d207b9d	0.039180387
126	0xbc0dfa2e	-0.0086656045
127	0x3d9781f6	0.07397835
128	0xbcd840cb	-0.026398083
129	0x3e2b7234	0.16742784
130	0x3d3291a2	0.043595918
131	0xbde9511b	-0.11392423
132	0x3d80aadc	0.06282589
133	0x3cafbd63	0.021452611
134	0x3d829b6a	0.06377299
135	0x3e03d55c	0.12874359
136	0xbdf45be1	-0.11931587
137	0x3da30099	0.07959098
138	0x3dcb13ae	0.09915863
139	0xbe497ff5	-0.19677718
140	0xbe27552f	-0.16341089
141	0xbd40c09c	-0.047058687
142	0xbda87668	-0.08225709
143	0x3e0ccefb	0.13750832
144	0xbcb5957c	-0.022166006
145	0xbe43667b	-0.19082062
146	0x3d2b1ac8	0.041773587
147	0x3e128444	0.14308268
148	0x3e4d56ce	0.20052645
149	0xbdf2c499	-0.11853904
150	0xbd07fe8f	-0.03320175
151	0x3de37c39	0.11107678
152	0xbcce04f1	-0.02514884
153	0x3e2582b5	0.16163142
154	0x3e3155e9	0.17317928
155	0x3e0c7d2d	0.13719626
156	0x3ccf1eab	0.025283178
157	0x3e449a17	0.19199406
158	0xbda40793	-0.08009257
159	0x3d7f72a0	0.062365174
160	0x3c88ae50	0.016684681
161	0xbe7cdaa6	-0.24692783
162	0xbe3c84a6	-0.18409976
163	0x3da20961	0.07911945
164	0x3bead9b7	0.007167067
165	0x3cebdc4e	0.028791573
166	0xbda6309f	-0.081147425
167	0xbd9fcd0a	-0.0780278
168	0xbd942b19	-0.07234783
169	0x3cce745c	0.025201969
170	0x3d59b4b8	0.053150862
171	0xbcd01328	-0.02539976
172	0x3cfa5f5d	0.03056305
173	0x3d109458	0.03529772
174	0xbe34fe28	-0.17675078
175	0x3df9a74f	0.12190115
176	0xbd4115f1	-0.047140066
177	0x3d9b89c9	0.0759464
178	0xbd922b1d	-0.071371295
179	0x3d2cffdd	0.042236198
180	0x3e5f7bf0	0.21824622
181	0xbd32f43a	-0.043689944
182	0xbdfa0461	-0.122078665
183	0xbe63496c	-0.22195977
184	0xbde1baa3	-0.11021926
185	0x3caf0d78	0.021368727
186	0xbe2cdf7a	-0.16882125
187	0x3d416a03	0.04722024
188	0xbd7b226c	-0.061312124
189	0x3e46d0fa	0.19415656
190	0x3e35e8b2	0.17764547
191	0x3de6f4bb	0.112771474
192	0xbe0d0e91	-0.13775088
193	0xbc9a876a	-0.018863399
194	0x3d075ed2	0.033049412
195	0x3c422f02	0.011852028
196	0xbde12084	-0.1099253
197	0x3e319799	0.17342986
198	0x3de6239d	0.112372614
199	0x3e0fbbd5	0.14036496
200	0xbd9a3a8a	-0.07530697
201	0x3db32f6c	0.087492794
202	0xbda7cd0a	-0.08193405
203	0xbdf00caf	-0.11721169
204	0x3e676ee3	0.22600894
205	0xbc955efd	-0.01823377
206	0xbdf98b79	-0.121848054
207	0x3cc03a98	0.02346544
208	0xbb232e0d	-0.0024899275
209	0xbd10f99a	-0.03539429
210	0xbdd98dd2	-0.10622753
211	0x3e6ee275	0.23328574
212	0x3dde1b2c	0.108450264
213	0x3daab5a1	0.08335424
214	0x3e396924	0.18106514
215	0x3dac27cd	0.08406029
216	0xbd259c77	-0.04043242
217	0xbd1f719a	-0.0389267
218	0xbd8f6500	-0.07001686
219	0x3d52bb00	0.05144787
220	0x3e7c898e	0.24661848
221	0x3dd62984	0.10457137
222	0x3d975d75	0.073908724
223	0x3d965ffd	0.07342527
224	0xbe01f720	-0.12691927
225	0x3d4dd696	0.050253473
226	0xbd0ee0a7	-0.034882214
227	0xbe083c3f	-0.13304232
228	0x3d291123	0.04127611
229	0x3e2be15f	0.16785191
230	0xbe00f775	-0.12594397
231	0x3e0f9bc4	0.14024264
232	0x3d9461b5	0.07245199
233	0x3d4ed64a	0.05049733
234	0xbd338912	-0.043831892
235	0x3c587cc8	0.013213344
236	0x3e2393f9	0.15974416
237	0xbe10939b	-0.14118807
238	0x3dac6f8b	0.08419713
239	0x3d8e9fae	0.0696405
240	0xbcc65a2d	-0.024212921
241	0x3e253c3a	0.16136256
242	0x3df36da7	0.11886149
243	0xbd9f2e93	-0.07772555
244	0x3daff15a	0.08590956
245	0xbcabb307	-0.02095939
246	0x3d97b1c6	0.074069545
247	0xbd9590a9	-0.07302982
248	0x3d2fb350	0.042895615
249	0x3e597ab4	0.21238214
250	0x3ce9911b	0.028511574
251	0x3ddfb9b3	0.10924091
252	0xbd027b30	-0.031855762
253	0x3d92d6a1	0.071698435
254	0xbc928bd8	-0.017888948
255	0xbdce4ca3	-0.10073211

conv_blocks.0.bias f4 [8]
0	0xbcd0315d	-0.025414163
1	0x3c5a01be	0.013306079
2	0xbcd2b1ff	-0.02571964
3	0x3ddd8ec1	0.10818244
4	0x3e15ec91	0.14641024
5	0x3c0a99fc	0.008459564
6	0x3dfba15b	0.122866355
7	0x3d8194e3	0.06327226

conv_blocks.3.weight f4 [4, 8, 3, 3]
0	0xbdc0c103	-0.09411814
1	0xbde764c5	-0.11298517
2	0xbd45fd54	-0.048337296
3	0xbc2e8493	-0.010651725
4	0x3e66999a	0.22519532
5	0x3e3aa2d6	0.1822618
6	0x3e0bdef5	0.1365927
7	0x3d2b3534	0.041798785
8	0xbdc5b892	-0.096543446
9	0xbbaae556	-0.0052153273
10	0x3e1e00ec	0.15430039
11	0xbcf78dfc	-0.03021907
12	0x3e42939c	0.19001621
13	0x3e005219	0.12531318
14	0x3ddbafb6	0.107268736
15	0x3e0ba62b	0.13637607
16	0x3e3f40ef	0.18677114
17	0x3dff0b37	0.12453311
18	0x3e394e65	0.18096311
19	0x3e5950b8	0.21222198
20	0xbcd0d92c	-0.02549418
21	0x3e935eab	0.28783163
22	0x3ea768ff	0.32697293
23	0xbd1af94d	-0.037835408
24	0x3e870940	0.26374245
25	0x3e8101eb	0.25196776
26	0x3d8a09f1	0.067401774
27	0xbdbae892	-0.091263905
28	0x3cd49333	0.025949096
29	0xbdbf3b18	-0.09337443
30	0x3cc938c1	0.024563195
31	0xbe0ec0f8	-0.13940799
32	0xbe339849	-0.17538561
33	0x3d15ff6c	0.036620542
34	0xbe9066e5	-0.28203502
35	0xbe20e09d	-0.15710683
36	0x3e1c574a	0.15267673
37	0x3e8d982e	0.27655166
38	0x3cc13b5c	0.023587875
39	0x3dc1e827	0.09468108
40	0x3cd9c05c	0.026580982
41	0xbcbcebd6	-0.023061674
42	0x3cdbfbab	0.026853403
43	0xbe8822bf	-0.2658901
44	0xbd82d215	-0.06387726
45	0xbe6ed6f7	-0.2332419
46	0xbcc7e46b	-0.02440091
47	0x3dc824ed	0.09772668
48	0x3c532c9a	0.012889052
49	0xbdd1cd0c	-0.10244188
50	0xbe12a9d6	-0.143226
51	0x3de0337d	0.109473206
52	0xbda023d0	-0.07819331
53	0xbe854f01	-0.26036838
54	0xbd588867	-0.05286446
55	0x3e69a0df	0.22815274
56	0x3e96a9b9	0.29426363
57	0xbd238927	-0.03992572
58	0x3ebcabed	0.3684992
59	0x3e3b7180	0.18305016
60	0x3d22ea94	0.039774492
61	0x3e50b769	0.20382465
62	0x3dfde727	0.123976044
63	0xb91470c3	-0.00014156387
64	0xbe207fb0	-0.15673709
65	0xbe84659c	-0.25858772
66	0xbdbf2086	-0.09332375
67	0xbda56a6c	-0.08076939
68	0x3c9d1ccf	0.019178776
69	0xbc21e13a	-0.009880358
70	0x3e396b6d	0.18107386
71	0x3e914ab5	0.2837731
72	0xbddbd51d	-0.107340075
73	0xbe703a8d	-0.23459835
74	0xbe4a82a6	-0.19776401
75	0x3d1ee628	0.038793713
76	0x3e30a392	0.17249897
77	0x3e9528a5	0.29132572
78	0xbd3c281f	-0.0459367
79	0x3d44ed9e	0.048078172
80	0x3caec38e	0.021333482
81	0x3bb966e1	0.005658016
82	0xbdd7faeb	-0.10545906
83	0xbdf372c2	-0.11887123
84	0x3d4b9444	0.049701944
85	0x3e7513ff	0.23933409
86	0x3e12dd6a	0.14342275
87	0x3db88cb2	0.090112105
88	0x3e2fc54e	0.1716511
89	0x3e388e47	0.18023024
90	0x3d717e97	0.058958616
91	0x3d22c1f2	0.039735742
92	0xbd6dae17	-0.058027353
93	0x3e807f54	0.25097144
94	0x3eb3ba60	0.3510313
95	0xbdb6a33f	-0.089178555
96	0x3dd2a9c7	0.10286289
97	0x3e7ff685	0.24996383
98	0xbd55c9c8	-0.052194387
99	0xbd8df870	-0.06932151
100	0x3e0c00af	0.13672136
101	0x3dad07a6	0.084487244
102	0x3e305089	0.17218222
103	0xbe3cd705	-0.18441398
104	0xbe4821fc	-0.19544214
105	0x3cc462e7	0.023972942
106	0xbe3937b4	-0.18087655
107	0xbd3efc01	-0.04662705
108	0xbe199819	-0.14999427
109	0x3ca0f18d	0.01964643
110	0x3ccb0235	0.024781326
111	0x3e646c21	0.22306873
112	0x3eae36d9	0.3402622
113	0xbc4d1f6d	-0.0125196995
114	0x3e0828ec	0.1329686
115	0xbc3d8bef	-0.011569007
116	0x3d323979	0.04351184
117	0x3da0607d	0.07830904
118	0xbde93254	-0.113865525
119	0x3d8a1e0f	0.067440145
120	0xbe6fdeb5	-0.234248
121	0x3d9d6387	0.07684999
122	0xbc07c524	-0.008286748
123	0x3dce187f	0.10063266
124	0x3e0dd871	0.13852097
125	0x3d356b24	0.04429163
126	0xbe0d3120	-0.13788271
127	0x3e189022	0.14898732
128	0x3df284cb	0.118417345
129	0xbe18f7a6	-0.1493822
130	0x3ee17a95	0.44038835
131	0x3e8c5cf6	0.27414674
132	0x3d0936a6	0.033499382
133	0xbbc55d73	-0.006023103
134	0x3e2dcead	0.16973372
135	0x3d6f0d3a	0.058362223
136	0x3e04d5f2	0.12972239
137	0x3e2390a5	0.15973146
138	0x3e1a8de1	0.15093185
139	0xbdd8becc	-0.105832666
140	0xbe626374	-0.22108251
141	0x3d9c4c6b	0.07631763
142	0x3a904cf6	0.0011009264
143	0x3eb4e6f5	0.35332456
144	0xbd8ca9bc	-0.06868312
145	0x3e106759	0.14101924
146	0x3e8a80fd	0.27051535
147	0x3da327fb	0.0796661
148	0x3e1549e4	0.14578968
149	0x3da545c4	0.08069947
150	0xbc918f90	-0.017768651
151	0x3d042320	0.03226006
152	0xbe1722d9	-0.14759387
153	0x3daa693e	0.083208546
154	0x3d5c29e0	0.053750873
155	0x3d15b042	0.036545046
156	0x3e5b731a	0.21430627
157	0x3e4a9553	0.19783525
158	0x3e8b9cf5	0.27268186
159	0xbcae7917	-0.021297975
160	0xbcc82edb	-0.024436405
161	0xbe1dd3d3	-0.15412836
162	0x3e178315	0.14796098
163	0x3e62caa0	0.22147608
164	0xbdb0e589	-0.0863753
165	0x3e79a8cd	0.24380799
166	0x3e8b7cd3	0.2724367
167	0xbc9fb806	-0.019496929
168	0x3cea98e5	0.028637359
169	0x3cea5107	0.02860309
170	0xbdceac79	-0.1009149
171	0x3bcc3a08	0.006232504
172	0xbd915eec	-0.07098183
173	0x3d40bfd8	0.047057956
174	0x3c8c2952	0.017109547
175	0xbe616ead	-0.22014876
176	0x3bed2746	0.007237348
177	0xbe1fc5e6	-0.15602836
178	0xbcf97e3b	-0.0304557
179	0x3dcc0cb5	0.09963361
180	0x3e265fbf	0.16247462
181	0x3e1b4d29	0.15166153
182	0xbdb8b788	-0.09019381
183	0x3e400b1b	0.18754236
184	0x3e3699a9	0.17832054
185	0xbd9cc3e4	-0.07654551
186	0xbd5b7215	-0.053575594
187	0x3df64ca5	0.120263375
188	0x3d1ff09c	0.039047822
189	0xbb0541e0	-0.0020333454
190	0xbd99d8e0	-0.07512069
191	0xbc91eeae	-0.017814007
192	0x3e167213	0.14691953
193	0x3e9838af	0.29730746
194	0x3ae43e9e	0.0017413681
195	0x3e2398ca	0.15976253
196	0x3d44bd7a	0.04803226
197	0xbe07731b	-0.13227503
198	0x3db3b03f	0.08773851
199	0x3e859d03	0.26096353
200	0x3e1bf0ee	0.15228626
201	0xbbadc57d	-0.0053030835
202	0x3be5fa69	0.0070183766
203	0xbd6e93b5	-0.058246333
204	0x3d8279e6	0.063709065
205	0xbd94669f	-0.07246136
206	0xbe400f69	-0.18755879
207	0xbd0db2e0	-0.034594417
208	0xbe8ccc79	-0.2749975
209	0xbb3631e6	-0.0027800738
210	0x3d22b302	0.039721496
211	0x3db40d4b	0.08791598
212	0x3d9f21bc	0.07770106
213	0xbcb8b9df	-0.022549568
214	0x3b15a2bf	0.00228326
215	0xbe090fa1	-0.13384868
216	0x3d00052d	0.031254936
217	0x3e97cac0	0.29646873
218	0x3e0d7ef7	0.13817964
219	0x3d4b2109	0.04959205
220	0xbe9d73ec	-0.30752504
221	0xbdcec87e	-0.100968346
222	0x3e393bde	0.18089244
223	0xbc813a88	-0.01577498
224	0x3da23746	0.07920699
225	0xbb70e755	-0.0036758978
226	0x3dab8857	0.08375614
227	0x3d2ebf93	0.04266317
228	0xbe6b1561	-0.22957374
229	0xbe62662b	-0.22109286
230	0xbe9941a0	-0.2993288
231	0x3e370637	0.17873465
232	0xbdf5f06d	-0.12008748
233	0xbdfc561e	-0.12321113
234	0xbde232f9	-0.110448785
235	0xbdecd106	-0.115633056
236	0x3df3d561	0.11905933
237	0xbe8dc0c9	-0.27686146
238	0xbe6c856d	-0.23097773
239	0x3d7a7aa7	0.061152127
240	0x3e0e8402	0.13917544
241	0xbde2f0ef	-0.11081111
242	0x3d812f36	0.06307833
243	0x3cfc0a59	0.030766653
244	0x3c848911	0.01617864
245	0x3e19b718	0.15011251
246	0xbd608c25	-0.054821152
247	0x3e2ea27e	0.17054173
248	0x3e41cca5	0.18925722
249	0xbe2cb17f	-0.16864584
250	0x3e3603af	0.17774843
251	0xbcb71293	-0.022347724
252	0x3e1c33c3	0.1525412
253	0xbc148365	-0.00906453
254	0x3d6e1e4b	0.05813436
255	0xbde7780f	-0.11302196

conv_blocks.3.bias f4 [4]
0	0x3e3d7bc9	0.18504252
1	0x3df9fcda	0.12206431
2	0x3e149593	0.14510183
3	0x3daeb8b5	0.08531324

conv_blocks.6.weight f4 [1, 4, 3, 3]
0	0xbed02222	-0.4065104
1	0xbec66b39	-0.3875368
2	0xbe859ac7	-0.26094648
3	0xbec397ca	-0.38201743
4	0xbf16d07f	-0.5891189
5	0xbefea828	-0.49737668
6	0xbe765795	-0.24056847
7	0xbf121c30	-0.5707426
8	0xbe29f47e	-0.16597173
9	0xbd2408dd	-0.040047515
10	0xbed3e005	-0.4138185
11	0xbe875ef9	-0.26439646
12	0xbeaf729e	-0.34267133
13	0xbef78c5e	-0.4834928
14	0xba8c5ec7	-0.0010709398
15	0x3d9a7eb3	0.07543697
16	0xbc05ea8c	-0.008173596
17	0x3e56acd0	0.2096436
18	0x3e875a66	0.26436156
19	0x3db8229f	0.089909784
20	0x3e7fa92b	0.24966876
21	0x3d5e7b26	0.054316662
22	0xbebb0b2d	-0.36531964
23	0xbdc409d8	-0.0957219
24	0xbcb55442	-0.022134904
25	0xbe98904e	-0.29797596
26	0xbd8dea9f	-0.06929516
27	0x3d0fe8a6	0.03513398
28	0x3e035518	0.1282543
29	0x3e150741	0.14553548
30	0x3e185ea9	0.1487986
31	0x3eff0624	0.49809372
32	0x3e1cc108	0.1530801
33	0x3e318e4f	0.17339443
34	0x3e4959a4	0.19663101
35	0xbd802de3	-0.06258752
