mnist_gan/MNIST_GAN_CNN/save/G--30.ckpt (torch_old, 945929 bytes, 9 tensors)

l1.0.weight f4 [256, 128]
0	0x3d473aad	0.048639942
1	0x3db76900	0.08955574
2	0xbc9d4842	-0.019199494
3	0xbcb9cb5d	-0.022679979
4	0x3c532ae7	0.012888647
5	0x3ded1986	0.11577134
6	0xbdb697b3	-0.08915653
7	0xbdd99db8	-0.106257856
8	0x3d81b3c5	0.063331164
9	0xbce4c0e4	-0.027924009
10	0xbca87b66	-0.020566653
11	0x3cd4696e	0.025929179
12	0xbc4fd22a	-0.012684384
13	0xbd9082fa	-0.07056232
14	0xbd83b3dc	-0.0643079
15	0xbbfce3e0	-0.0077175945
16	0x3d314a10	0.043283522
17	0xbdddb3b7	-0.108252935
18	0x3c99cfb0	0.01877579
19	0x3d39e435	0.04538365
20	0xbc4ed5e6	-0.01262424
21	0x3cb8c37f	0.022554157
22	0xbde53cd2	-0.11193241
23	0x3df5ec62	0.12007977
24	0x3dfb8824	0.12281826
25	0x3d5d0084	0.05395557
26	0x3d3d38b3	0.04619665
27	0xbcbaf549	-0.02282204
28	0xbd06cd12	-0.032910414
29	0x3cedee77	0.029044373
30	0x3d8c046c	0.06836781
31	0x3d5cb26e	0.0538811
32	0x3d20a16c	0.039216444
33	0xbc86d3e0	-0.016458452
34	0xbc646c87	-0.013941891
35	0x3c5fb9d1	0.013655142
36	0x3d458f58	0.048232406
37	0xbdb0f8f7	-0.08641236
38	0xbc648b01	-0.013949157
39	0x3c000adf	0.007815092
40	0x3d274870	0.040840566
41	0x3ce41f9a	0.0278471
42	0x3e1b11c5	0.15143497
43	0xbcb102e2	-0.02160782
44	0x3c0ed412	0.008717554
45	0x3c2260b3	0.00991075
46	0x3cf67f4c	0.030089997
47	0xbde562ec	-0.112005085
48	0x3d836bcb	0.06417044
49	0x3db92afc	0.09041402
50	0xbce3861f	-0.027773915
51	0x3c9a17bb	0.018810144
52	0x3d7878ca	0.06066207
53	0xbdc4d649	-0.09611184
54	0xbcb8ecfa	-0.022573937
55	0xbcd230dd	-0.025658065
56	0x3db27857	0.08714359
57	0x3cda21b0	0.026627392
58	0xbd92dcd9	-0.071710296
59	0x3d58d46c	0.052936956
60	0xbd1cde71	-0.038298074
61	0x3d2b69f8	0.041849107
62	0x3cae1950	0.021252304
63	0xbd9e8c13	-0.07741561
64	0x3cf7de80	0.030257463
65	0x3d06adf8	0.032880753
66	0x3dd657e5	0.10465983
67	0x3c31c051	0.010849074
68	0xbe339170	-0.17535949
69	0xbd996b28	-0.074911416
70	0x3d9e535b	0.077307425
71	0xbd04251f	-0.032261964
72	0x3cee6dc2	0.029105071
73	0xbd6c59b6	-0.057702743
74	0x3c80a437	0.015703304
75	0xbdaaaf0f	-0.08334171
76	0x3daacbc2	0.08339645
77	0x3d9109f0	0.070819736
78	0x3df6f4c2	0.120584026
79	0x3de0e648	0.10981423
80	0xbda8f0ee	-0.08249079
81	0xbd93a0e8	-0.07208425
82	0x3d828089	0.063721724
83	0x3d9f0b28	0.077658
84	0x3d0a0f08	0.03370574
85	0xbdfaccdf	-0.12246107
86	0xbd224962	-0.039620765
87	0x3c4d08e1	0.012514324
88	0xbe0deb0f	-0.13859199
89	0x3dd290fa	0.10281558
90	0x3d13bbc6	0.036067747
91	0xbbf745d6	-0.007546167
92	0x3de20389	0.110358305
93	0xbdd3462a	-0.10316117
94	0x3d4b5d36	0.04964944
95	0x3d13f598	0.03612289
96	0x3d70f31e	0.058825605
97	0xbdd48e8b	-0.103787504
98	0xbc291336	-0.010319522
99	0xbca75f16	-0.020431083
100	0xbd53092d	-0.051522423
101	0x3d834b0a	0.06410797
102	0x3d99b331	0.07504881
103	0xbd85700a	-0.065155104
104	0x3b2321b5	0.0024891917
105	0x3baca18d	0.005268282
106	0x3c0178ac	0.007902306
107	0xbdb842fd	-0.08997152
108	0x3d23ad22	0.039960034
109	0xbe255ac2	-0.16147903
110	0x3c0559ba	0.008139068
111	0xbd1fcb7c	-0.039012417
112	0xbbb47ee0	-0.0055082887
113	0x3d8ae28b	0.06781491
114	0xbd248d9a	-0.040174104
115	0x3d8eba90	0.06969178
116	0x3ddd97da	0.10819979
117	0x3d6313fb	0.055438977
118	0x3c63d3e4	0.013905499
119	0x3c533588	0.012891181
120	0xbd29ac10	-0.041423857
121	0xbc760670	-0.015016183
122	0xbd61dc37	-0.055141654
123	0xbcf2c23c	-0.029633634
124	0x3cae25bf	0.021258233
125	0xbd4d1051	-0.05006439
126	0x3d335295	0.04377993
127	0xbd864b89	-0.06557376
128	0xbd2bcf50	-0.041945755
129	0x3cf4e431	0.029893966
130	0x3d0a2521	0.033726815
131	0xbc36e901	-0.011163951
132	0xbd96934b	-0.07352313
133	0xbc94a5d1	-0.018145474
134	0x3c795f7b	0.015220518
135	0xbdba22af	-0.090886466
136	0xbc9d3dc3	-0.01919449
137	0x3d8606de	0.065442786
138	0x3b54db35	0.003247929
139	0xbc58820d	-0.0132146
140	0x3d0b0cfe	0.033947937
141	0xbdadcd22	-0.084863916
142	0xbd92054d	-0.07129917
143	0xbaaa47ab	-0.001299133
144	0x3e085ccf	0.13316654
145	0xbdfdc17c	-0.1239042
146	0xbdbfb868	-0.093613446
147	0x3d90b225	0.070652284
148	0x3d91eb62	0.07124974
149	0x3da688c2	0.08131553
150	0xbd8173b1	-0.063208945
151	0x3d764098	0.060120195
152	0x3dbcb3bd	0.0921397
153	0x3cb3b54e	0.021937039
154	0x3dd65f56	0.10467403
155	0x3c26a301	0.010170699
156	0x3e051c31	0.12999035
157	0x3deb2371	0.11481369
158	0xbd31a47c	-0.043369755
159	0x3d6ea49d	0.058262456
160	0xbd9b1ed7	-0.075742416
161	0xbcc64208	-0.024201408
162	0xbce23860	-0.027614772
163	0x3e0338dc	0.12814659
164	0x3cf17766	0.029475879
165	0xbe0e06cd	-0.13869782
166	0xbd81b2c4	-0.06332925
167	0xbd169c24	-0.03677
168	0x3ca90d53	0.020636236
169	0xbde57a8c	-0.112050146
170	0xbd840b35	-0.0644745
171	0x3bc2b26a	0.005941679
172	0x3b99c512	0.004692682
173	0xbda70d23	-0.081568025
174	0x3c8e963e	0.017405625
175	0x3d270036	0.040771686
176	0x3d24e68e	0.040258937
177	0x3dc84bfb	0.09780117
178	0xbd56de1f	-0.052457925
179	0xbc5f42de	-0.013626782
180	0xbdd0061c	-0.10157415
181	0xbdbaffd8	-0.091308296
182	0xbd01339b	-0.031543355
183	0x3d88572c	0.06657252
184	0x3ccadf8a	0.024764795
185	0xbd03495a	-0.032052375
186	0x3d8236bc	0.06358096
187	0x3da0e424	0.07856014
188	0xbe13ac7e	-0.1442127
189	0xbbb77ce6	-0.005599606
190	0xbd533792	-0.051566668
191	0xbc11710a	-0.008877048
192	0x3e062ad5	0.13102277
193	0x3db588e4	0.088640004
194	0xbd93ca3c	-0.072163075
195	0x3d536e37	0.05161878
196	0x3cdba6e3	0.026812976
197	0x3d3d2187	0.046174552
198	0xbdb7a293	-0.089665554
199	0xbc597f05	-0.013274913
200	0xbcafacd5	-0.021444717
201	0x3d0534c2	0.032521017
202	0xba37b4db	-0.00070078456
203	0xbd02c2fd	-0.031924237
204	0xbdf902cd	-0.12158737
205	0xbe122832	-0.14273146
206	0x3d0fc63a	0.035101153
207	0xbdb6b23b	-0.089207135
208	0x3d71cd5c	0.059033737
209	0xbc14182d	-0.009038967
210	0x3d948080	0.07251072
211	0x3d93bcfe	0.07213782
212	0x3dc05d1f	0.093927614
213	0x3d576681	0.05258799
214	0x3d43cfe1	0.04780567
215	0x3e05d81b	0.13070719
216	0x3d89ccab	0.067284904
217	0xbbc34548	-0.0059591867
218	0x3dcdf6da	0.10056849
219	0xbba0a5d9	-0.004902583
220	0x3cbd9311	0.023141416
221	0xbbc49be5	-0.0060000294
222	0x3b743fc0	0.0037269443
223	0x3d1fa62f	0.038976844
224	0xbd867176	-0.0656461
225	0xbd9d4aeb	-0.07680305
226	0xbd2d63f6	-0.04233166
227	0x3d502272	0.0508141
228	0xbd3a72a2	-0.04551948
229	0x3df91952	0.121630326
230	0x3d4a1645	0.049337644
231	0x3d5d181d	0.053978074
232	0x3cca1033	0.024665928
233	0xbcaf2d21	-0.021383824
234	0x3df18739	0.1179337
235	0xbe190110	-0.14941812
236	0xbdcea237	-0.10089534
237	0xbd85b72d	-0.06529079
238	0x3b2acd0b	0.0026062157
239	0xba349a1c	-0.0006889419
240	0x3d0e9bd5	0.03481658
241	0xbccd652c	-0.025072657
242	0x3bbbd9e5	0.005732762
243	0x3e0ff65e	0.14058825
244	0xbd045363	-0.032306086
245	0xbd851a9f	-0.06499218
246	0x3cca64b8	0.02470623
247	0x3d06bb1a	0.032893278
248	0x3d26329f	0.04057562
249	0xbdcb11da	-0.09915514
250	0xbd6a9c26	-0.05727782
251	0x3ce68bac	0.028142773
252	0xbbd5741e	-0.0065140864
253	0x3d5ecb1e	0.054392926
254	0xbd429cfc	-0.047512993
255	0xbe01e3d6	-0.12684569

l1.0.bias f4 [256]
0	0x3ed9284e	0.42413563
1	0x3e96a547	0.29422972
2	0x3e4555a0	0.19270945
3	0x3e886825	0.26641956
4	0xbe332530	-0.17494655
5	0xbe652ad0	-0.22379613
6	0xbdabc991	-0.08388055
7	0xbdd27962	-0.10277058
8	0xbd59e751	-0.053199116
9	0x3e625a47	0.2210475
10	0xbe5a1acc	-0.21299285
11	0xbe969f12	-0.29418236
12	0xbe759289	-0.2398168
13	0x3e4dbd97	0.20091854
14	0x3e63c9dd	0.22244973
15	0xbec81edd	-0.39086047
16	0xbe649e1d	-0.2232594
17	0xbe266d45	-0.1625262
18	0x3de9c2fa	0.11414142
19	0xbe98ff67	-0.29882357
20	0xbd90d5bc	-0.070720166
21	0x3e9462f1	0.28981736
22	0xbddcc58e	-0.10779868
23	0x3e8d8a47	0.2764456
24	0xbe823155	-0.25428262
25	0xbe766f82	-0.24065974
26	0x3dd583b2	0.104255095
27	0x3e151997	0.14560543
28	0xbe156093	-0.14587621
29	0xbea03937	-0.3129365
30	0xbe5131d0	-0.20429158
31	0xbd96c24e	-0.073612794
32	0x3e93e9c8	0.28889298
33	0x3dd6c835	0.10487405
34	0xbddb493b	-0.10707327
35	0xbe112d2a	-0.14177385
36	0xbeadeac6	-0.3396818
37	0x3ea08d83	0.31357965
38	0xbd9bdb2f	-0.07610165
39	0xbe20279e	-0.15640113
40	0x3e724b70	0.2366159
41	0xbecc1d03	-0.39865884
42	0xbeb0ce9e	-0.34532636
43	0x3d3b148a	0.045673884
44	0xbe800ef8	-0.2501142
45	0xbde74187	-0.11291795
46	0x3e45c64c	0.19313926
47	0xbe95bb08	-0.29244256
48	0x3e987285	0.2977487
49	0x3e6e3e4d	0.23265953
50	0x3e949d8f	0.29026458
51	0x3bb1202a	0.0054054456
52	0x3e5632ff	0.20917891
53	0xbd0ff6c0	-0.03514743
54	0xbe95a034	-0.29223788
55	0xbe3ec96d	-0.18631525
56	0xbe4e82df	-0.20167111
57	0x3ea7ab6e	0.32747978
58	0x3ea933d4	0.33047354
59	0xbecb053b	-0.39652428
60	0x3e3e3fec	0.18579072
61	0x3e8017be	0.25018114
62	0x3e6c6ccd	0.23088379
63	0x3ea27a32	0.31733853
64	0xbe8af420	-0.27139378
65	0xbea8220d	-0.3283848
66	0xbdf44800	-0.119277954
67	0xbe515aec	-0.2044484
68	0x3e2a8417	0.16651951
69	0x3eb40285	0.35158172
70	0x3e3aa94c	0.18228644
71	0xbec3fa8a	-0.38277084
72	0xbe0c0c39	-0.13676538
73	0x3de55d45	0.111994304
74	0x3ebf2507	0.37332937
75	0xbdfb58f8	-0.12272829
76	0xbe2d51f3	-0.16925792
77	0xbe394291	-0.180918
78	0x3e0f737c	0.14008898
79	0xbd665f24	-0.056243077
80	0xbe8687ef	-0.26275584
81	0x3cb5cbe5	0.022191951
82	0xbecd4303	-0.40090188
83	0xbe1f56d6	-0.15560469
84	0x3eb28d14	0.3487326
85	0x3e243896	0.16037211
86	0x3e8e3867	0.27777407
87	0x3e846735	0.2585999
88	0x3e276490	0.16346955
89	0x3e15e885	0.1463948
90	0xbe7170d3	-0.23578195
91	0x3e8fd5e1	0.28092864
92	0xbc8f7b36	-0.017514806
93	0x3ee6b199	0.4505737
94	0xbe23a7ed	-0.15982027
95	0x3e1725f9	0.14760579
96	0xbe99cfb9	-0.30041292
97	0x3da8b28c	0.0823718
98	0xbeacaf9d	-0.33727732
99	0x3e9a75bc	0.3016795
100	0xbe807191	-0.25086644
101	0x3e9c3055	0.30505624
102	0xbdaee1de	-0.085391745
103	0x3e99a671	0.30009797
104	0x3e77a3c5	0.24183567
105	0xbea5dfb0	-0.32397223
106	0xbe00bd5c	-0.12572235
107	0x3edbfd6e	0.4296679
108	0x3cb1115b	0.021614721
109	0xbe88b56d	-0.26700917
110	0xbe51d8da	-0.20492879
111	0x3e8e6f6c	0.27819383
112	0xbe944f28	-0.2896664
113	0x3e4de3b8	0.20106399
114	0xbe99e911	-0.30060628
115	0x3ee0a21e	0.43873686
116	0x3e9e4a21	0.3091593
117	0xbe411757	-0.1885656
118	0x3e3a785a	0.18209973
119	0xbd41445a	-0.047184326
120	0xbec2facb	-0.38081965
121	0xbe109643	-0.1411982
122	0x3ed07bc0	0.40719414
123	0x3e4a5f82	0.19762996
124	0xbe8b981f	-0.27264497
125	0xbe6de46d	-0.23231669
126	0x3dadb10d	0.084810354
127	0x3dea57e4	0.11442545
128	0x3dd735b5	0.10508291
129	0xbe93bf93	-0.28857097
130	0x3ebe0bcc	0.37118375
131	0xbe4554c2	-0.19270614
132	0xbe61cdfd	-0.22051235
133	0xbe6f2cd2	-0.23356941
134	0xbe89b613	-0.26896724
135	0xbdb72c34	-0.08943978
136	0xbebca0dc	-0.36841476
137	0x3ebe220f	0.3713536
138	0xbe6b8a53	-0.23001985
139	0xbebd48e2	-0.36969668
140	0x3d72eb46	0.059306405
141	0x3d9f9e0c	0.07793817
142	0xbd188b61	-0.037242297
143	0xbe5c39ca	-0.2150642
144	0xbe899c8e	-0.26877254
145	0x3d09dc46	0.033657335
146	0x3e573877	0.21017633
147	0xbe0f836b	-0.14014976
148	0xbe6c79b3	-0.230933
149	0x3d997b55	0.07494227
150	0xbe6bcfb7	-0.23028456
151	0x3ea9c1d9	0.33155707
152	0x3badc9bf	0.005303591
153	0x3ec19efa	0.37816602
154	0x3dfc73e3	0.12326791
155	0x3e4a79e9	0.19773068
156	0xbe0a6a4b	-0.1351711
157	0xbc3a694e	-0.011377646
158	0x3d8121f3	0.063053034
159	0x3e23c88a	0.15994468
160	0xbeb4faf7	-0.3534772
161	0xbc9d7c59	-0.019224333
162	0xbda59428	-0.08084899
163	0x3e47eaae	0.19523117
164	0xbea2075c	-0.3164624
165	0x3e337ae6	0.17527351
166	0xbe8f3768	-0.2797196
167	0x3e504dc2	0.20342162
168	0xbe986f91	-0.29772618
169	0x3e896394	0.26833785
170	0x3e6c45a1	0.23073436
171	0x3d4d6506	0.05014517
172	0xbe9d8734	-0.30767214
173	0x3ceed48f	0.02915409
174	0xbe2a868d	-0.1665289
175	0x3e6c8946	0.2309924
176	0xbde39a2c	-0.1111339
177	0xbdf6dc13	-0.120536946
178	0x3e2f9b58	0.17149103
179	0xbe87d7ca	-0.2653182
180	0xbecf5773	-0.40496406
181	0x3d60299c	0.05472718
182	0x3dc93e90	0.09826386
183	0xbe8c6348	-0.27419496
184	0xbe1893b3	-0.14900093
185	0xbe65d0d9	-0.2244295
186	0x3de03e38	0.10949367
187	0x3e70a7b0	0.23501468
188	0xbe514777	-0.20437418
189	0xbe214208	-0.15747845
190	0xbe79aff5	-0.24383529
191	0xbe06a061	-0.13147117
192	0x3e9d0b4b	0.30672678
193	0x3da16124	0.07879856
194	0x3ea9b940	0.33149147
195	0xbe239265	-0.15973814
196	0xbec6d388	-0.3883326
197	0xbeb6af32	-0.35680538
198	0x3c80d292	0.015725408
199	0xbea4bf8d	-0.32177392
200	0x3e57ae95	0.21062692
201	0xbea11950	-0.31464624
202	0xbd04461d	-0.032293428
203	0xbd9abf88	-0.07556063
204	0x3df3318e	0.11874686
205	0xbe6ab31c	-0.22919887
206	0x3e6e0cca	0.23247066
207	0x3decfcc6	0.1157165
208	0xbe92eac3	-0.28694734
209	0x3ebf42bc	0.37355602
210	0xbe95a69e	-0.2922868
211	0xbd7131e4	-0.05888547
212	0xbe8f6b67	-0.2801163
213	0x3e10db89	0.14146246
214	0xbe35987c	-0.1773395
215	0x3b0c1cab	0.0021379392
216	0xbcf7b8a7	-0.030239416
217	0xbe9e1da5	-0.30881992
218	0xbe8f16fe	-0.2794723
219	0xbd787c49	-0.060665403
220	0x3e447f52	0.19189194
221	0x3d96216c	0.073305935
222	0x3e8b5701	0.27214816
223	0x3e87900b	0.26477084
224	0xbd5b1ca0	-0.053494096
225	0xbebd4bdf	-0.36971948
226	0xbeb25843	-0.34832963
227	0x3e7a1fa5	0.24426134
228	0x3db59894	0.088669926
229	0x3ec7e25c	0.39039886
230	0x3e9091c8	0.28236222
231	0x3e7d557f	0.24739645
232	0xbdd27f04	-0.102781326
233	0x3eb39129	0.35071686
234	0x3e031f7c	0.12804979
235	0xbea135d6	-0.31486386
236	0xbed853d4	-0.42251456
237	0x3eacf31a	0.33779222
238	0xbe839618	-0.2570045
239	0x3e22cf6d	0.15899439
240	0xbe53507e	-0.20636174
241	0x3ee5e5a8	0.44901776
242	0xbe8c8cd5	-0.27451196
243	0xbe3b9003	-0.18316655
244	0xbecaefca	-0.3963607
245	0xbead0544	-0.3379308
246	0x3e476a14	0.1947406
247	0xbea948c3	-0.33063325
248	0xbe966faa	-0.29382068
249	0x3e00c2f6	0.12574372
250	0xbea2d194	-0.3180052
251	0x3e8631b6	0.262098
252	0xbee8cc3b	-0.45468315
253	0xbe93a48f	-0.28836486
254	0x3ebf7a47	0.37397978
255	0x3da29632	0.07938804

l1.1.weight f4 [784, 256]
0	0xbc223002	-0.009899141
1	0xbdb9d868	-0.09074479
2	0x3dd8fb51	0.1059481
3	0xbccdefa7	-0.02513869
4	0xbc17fade	-0.00927612
5	0xbcbc0c32	-0.022955034
6	0x3d214a53	0.03937752
7	0x3da05164	0.07828024
8	0x3db934c9	0.09043271
9	0xbc8c45b8	-0.017123088
10	0xbb42c04f	-0.0029716676
11	0x3d06b4a6	0.032887124
12	0xbd1626ee	-0.03665822
13	0x3d5b1d16	0.053494535
14	0x3d306a2b	0.04307
15	0xbda21e02	-0.0791588
16	0x3bed6471	0.0072446396
17	0xbd61ad40	-0.055096865
18	0x3d46ec0b	0.048564952
19	0x3dad1927	0.08452063
20	0x3c8998e3	0.016796535
21	0xba5865b9	-0.0008254904
22	0x3bbdf098	0.0057965033
23	0xbdd7c1aa	-0.10534985
24	0xbd5bc567	-0.053655054
25	0x3da334c6	0.0796905
26	0xbcc1c9c2	-0.023655776
27	0x3d5fbb0f	0.054621752
28	0xbc36da1e	-0.011160402
29	0x3c94390f	0.018093614
30	0xbd92fd1e	-0.071771845
31	0xbd6f491f	-0.058419343
32	0xbd1aa072	-0.03775067
33	0x3b9a8532	0.004715585
34	0xbd65f97b	-0.056146126
35	0x3c919ae2	0.01777405
36	0x3d433db2	0.04766626
37	0x3d5f06de	0.05444991
38	0x3d23fee4	0.040038005
39	0x3dcacf7d	0.099028565
40	0xbd4e5ea4	-0.050383225
41	0x3d9bc42b	0.076057754
42	0x3d495321	0.049151544
43	0x3c4123db	0.011788334
44	0xbc261dd8	-0.010138951
45	0x3db9db4f	0.09075033
46	0x3cb5e543	0.022204047
47	0xbcfe5521	-0.031046452
48	0x3da7654f	0.0817362
49	0x3c9344fa	0.017977227
50	0x3d4f91bf	0.050676104
51	0xbdde87b0	-0.10865724
52	0xbd17b573	-0.037038278
53	0x3d00d901	0.03145695
54	0xbbfba84d	-0.007679975
55	0xbb81535f	-0.003946706
56	0x3d662ef6	0.05619713
57	0xbdc3ad0d	-0.09554491
58	0xbe15f6ea	-0.14644971
59	0x3ca359d7	0.0199403
60	0x3df9e17a	0.12201209
61	0xbd405ef6	-0.04696556
62	0xbdd04956	-0.10170238
63	0x3dff17aa	0.124556854
64	0x3c948d52	0.018133793
65	0x3ddb26cd	0.1070076
66	0x3d79b3fb	0.06096266
67	0xbad0b89a	-0.0015924156
68	0x3c6700dc	0.014099326
69	0xbd19414e	-0.037415795
70	0xbe1ec685	-0.15505417
71	0x3e1aa7f3	0.1510313
72	0xbdb4e3de	-0.08832525
73	0x3d0e2cbb	0.034710627
74	0x3cf26f1a	0.029593993
75	0x3d215a02	0.03939248
76	0xbda8f619	-0.082500644
77	0x3df51b13	0.119680546
78	0xbd9dd9f5	-0.07707588
79	0x3c9bc7de	0.019016203
80	0x3b70c483	0.0036738224
81	0x3d68705d	0.056747783
82	0x3d3058db	0.04305349
83	0xbd42efcc	-0.04759197
84	0x3d05f3ef	0.032703336
85	0x3d4a76af	0.04942959
86	0x3ca79187	0.020455135
87	0xbd393d77	-0.045224633
88	0x3dba2b85	0.09090332
89	0x3d079ec0	0.03311038
90	0x3da9647a	0.082711175
91	0x3bc6deac	0.006069025
92	0xbd2b711b	-0.041855913
93	0xbdd399ab	-0.10332044
94	0x3bc4cb01	0.0060056453
95	0xbd3dbbc8	-0.04632166
96	0xbbfe70d8	-0.007764917
97	0x3d3d3973	0.046197366
98	0x3da9525e	0.082676634
99	0x3cdf2f42	0.027244214
100	0x3dbf39b4	0.09337178
101	0xbd96d18a	-0.07364185
102	0x3d81f3c1	0.063453205
103	0xbc9c91c1	-0.01911247
104	0xbda61f92	-0.0811149
105	0xbd31fd13	-0.04345424
106	0xbdf704d5	-0.120614685
107	0xbd779603	-0.060445797
108	0xbd39f9b5	-0.045404155
109	0xbda70c68	-0.08156663
110	0x3c27d06e	0.010242565
111	0x3c81afb2	0.015830848
112	0x3dc8d235	0.09805719
113	0xbd2fefa7	-0.04295316
114	0x3d897b85	0.067130126
115	0x3d15ff6f	0.036620554
116	0x3c9a957b	0.018870106
117	0xbc9076b9	-0.017634736
118	0xbdaf5fc3	-0.08563187
119	0x3d122c21	0.035686616
120	0x3c9b50f7	0.018959505
121	0xbdb6a970	-0.089190364
122	0xbda3aec2	-0.07992317
123	0x3cb70291	0.022340091
124	0x3d97621e	0.07391761
125	0x3d59d0b4	0.05317755
126	0x3d294544	0.041325822
127	0xbc298d31	-0.010348604
128	0xbd514b6d	-0.051097322
129	0x3d91d3b8	0.0712046
130	0xbe08750e	-0.13325903
131	0xbb7a455b	-0.0038188312
132	0x3e02e039	0.12780847
133	0xbc2a6879	-0.010400885
134	0x3c4dd396	0.012562653
135	0x3cca4fc8	0.024696246
136	0x3d38ec86	0.04514744
137	0xbab8f029	-0.0014109659
138	0xbd5286f9	-0.05139825
139	0xbd10b749	-0.035331044
140	0xbdc9764f	-0.09837019
141	0xbc87875d	-0.016544038
142	0xbd1db3ff	-0.038501736
143	0x3c8944ae	0.016756382
144	0xbc817053	-0.01580063
145	0x3d0c1fd7	0.034210052
146	0x3d31802c	0.043335125
147	0x3d7b0c56	0.06129106
148	0x3d265ab7	0.040613856
149	0x3dd963c5	0.10614733
150	0xbcd45e60	-0.025923908
151	0xbdf7f1ef	-0.12106692
152	0x3d60fc5a	0.05492816
153	0xbded3b79	-0.11583609
154	0x3e021f48	0.12707245
155	0xbe0ce132	-0.1375778
156	0x3d9ecdd6	0.07754104
157	0x3d51831a	0.05115042
158	0xbdc0ce19	-0.0941431
159	0x3d50bffb	0.050964337
160	0x3cba19d7	0.0227174
161	0x3c49eabf	0.012324034
162	0x3cd942a5	0.026521036
163	0x3c463faf	0.012100144
164	0xbcc6d489	-0.024271267
165	0xbd77f9c4	-0.06054093
166	0x3d90e7e1	0.070754774
167	0xbd49f802	-0.049308784
168	0x3d6475c0	0.055776358
169	0xbd013a7d	-0.03154992
170	0x3ba2370e	0.0049504107
171	0x3aafc78d	0.0013410911
172	0xbc85e0a7	-0.016342474
173	0x3de20193	0.110354565
174	0x3d8d488f	0.06898605
175	0x3c1cb8c6	0.009565538
176	0x3db52f20	0.08846879
177	0x3c8f8c32	0.017522905
178	0xbb0aff0d	-0.002120915
179	0x3d18d2d0	0.03731042
180	0x3dcba9bd	0.099444844
181	0x3d8f4fd9	0.069976516
182	0x3d50739c	0.050891504
183	0x3c917ed2	0.017760668
184	0x3d3b85fb	0.04578207
185	0x3d55a186	0.052155994
186	0x3c5ee8e7	0.013605333
187	0xbcc80af4	-0.024419285
188	0xbda05a33	-0.07829704
189	0xbd92894e	-0.07155095
190	0xbd660c6f	-0.0561642
191	0xbc83d08d	-0.016090656
192	0xbcf81dad	-0.030287588
193	0x3d0ea69a	0.034826852
194	0xbd46f44f	-0.048572835
195	0xbdb522ef	-0.08844554
196	0x3e155e3f	0.14586733
197	0xbd38210f	-0.044953402
198	0x3d630b81	0.055430893
199	0xbd126d15	-0.03574856
200	0xbc2e9b4b	-0.010657142
201	0x3d96f7f4	0.07371512
202	0x3d814a13	0.06312957
203	0x3d8c5ccc	0.06853637
204	0x3d5f49d1	0.054513756
205	0xbce6dc82	-0.028181318
206	0x3b995e13	0.004680404
207	0x3da95cd9	0.082696624
208	0x3c35e8aa	0.011102835
209	0x3d484a54	0.04889901
210	0xbc5caebd	-0.013469395
211	0x3d096ffa	0.033554055
212	0xbc8f67ca	-0.017505545
213	0x3c83d457	0.016092462
214	0x3acd14b1	0.0015646425
215	0xbc8db3ba	-0.017297614
216	0x3ca5ac6b	0.020223817
217	0xbdb6e7d2	-0.08930935
218	0x3d8ce694	0.06879917
219	0x3c930247	0.017945422
220	0x3bce76fc	0.006300805
221	0xbbc3e694	-0.005978415
222	0x3db0296f	0.08601653
223	0xbcf62d34	-0.030050851
224	0xbc8f272c	-0.017474733
225	0x3e0ae8df	0.13565396
226	0x3d0be28e	0.034151606
227	0xbd4dd9a6	-0.050256394
228	0xbd803cf1	-0.06261624
229	0xbdd0d018	-0.10195941
230	0xbd5523ed	-0.052036215
231	0xbdb26584	-0.08710769
232	0xbd3b895f	-0.045785304
233	0xbda9ee0f	-0.08297359
234	0x3d1e10e3	0.038590323
235	0x3d85828c	0.065190405
236	0x3c21176f	0.009832247
237	0xbe05618f	-0.13025497
238	0x3da7af21	0.081877
239	0x3b390d3a	0.0028236643
240	0xbbd97df5	-0.0066373297
241	0xbd21c1bf	-0.03949141
242	0x3d186114	0.037201956
243	0x3c1b10f4	0.009464491
244	0x3e057df5	0.1303633
245	0xbd0d746c	-0.034534857
246	0x3cc1cd94	0.023657598
247	0x3de7b4ab	0.113137566
248	0x3d093cf2	0.033505388
249	0x3c65b3ab	0.014019887
250	0x3d67f208	0.056627303
251	0x3d02d3e8	0.03194037
252	0xbc166456	-0.009179195
253	0x3d889c4c	0.06670436
254	0x3acd8af5	0.0015681671
255	0x3d94f4fe	0.07273291

l1.1.bias f4 [784]
0	0x3a7b74af	0.00095922773
1	0xbe5d60cf	-0.21618961
2	0xbc55b22a	-0.013042966
3	0x3dcad714	0.09904304
4	0x3de6bb04	0.11266139
5	0xbcc32d52	-0.023825321
6	0xbd843a03	-0.06456377
7	0x3d5bcbec	0.053661272
8	0x3d018b48	0.03162697
9	0x3d9c59fd	0.076343514
10	0x3d5fd7c6	0.054649137
11	0x3e80f1ee	0.25184578
12	0x3df7e6eb	0.12104591
13	0x3d27e15d	0.040986408
14	0xbc845cdd	-0.016157562
15	0xbc866a5a	-0.016408134
16	0xbc8ccead	-0.017188394
17	0xbb840004	-0.004028322
18	0x3dabcc89	0.08388621
19	0x3d6dc131	0.05804557
20	0x3da7762d	0.08176837
21	0x3da5fe5d	0.081051566
22	0xbc0016a4	-0.007817898
23	0x3b2b427e	0.0026132162
24	0x3db59a7e	0.08867358
25	0xbdae11e6	-0.084995076
26	0x3e00c308	0.12574399
27	0x3d8c1453	0.06839814
28	0x3deedbce	0.11663018
29	0x3d6ff440	0.058582544
30	0x3d88e110	0.06683552
31	0x3de095be	0.10966061
32	0xbd8d88e1	-0.06910873
33	0x3d91f020	0.07125878
34	0xbd02736f	-0.031848367
35	0x3d6f1fe0	0.058380008
36	0xbdd6d23e	-0.10489319
37	0x3d1e90c9	0.038712297
38	0x3d4cc9bc	0.049997076
39	0xbd590d7e	-0.052991383
40	0xbd1554e1	-0.0364579
41	0xbdd4e31a	-0.10394879
42	0x3e485fac	0.19567746
43	0x3ba3e79c	0.005001975
44	0xbd086168	-0.03329602
45	0xbd97f5c2	-0.074199215
46	0xbd4e5f7e	-0.050384037
47	0x3ca91575	0.020640114
48	0xbd7a0133	-0.0610363
49	0x3e6060db	0.21911947
50	0x3e432a85	0.19059189
51	0x3e0b5825	0.13607843
52	0x3d492bff	0.049114224
53	0x3cc6a18e	0.024246957
54	0x3bc926be	0.0061386516
55	0x3d7b8458	0.06140551
56	0x3e401a9d	0.18760152
57	0xbd0c5b4b	-0.03426675
58	0xbcd574ed	-0.026056731
59	0xbdec141d	-0.11527274
60	0xbe225697	-0.15853344
61	0xbd07704a	-0.03306607
62	0xbdc3eb07	-0.09566312
63	0x3db550ec	0.08853325
64	0xbc739a49	-0.014868327
65	0xbd0a0ff1	-0.03370661
66	0xbe2cb0ba	-0.16864291
67	0xbd77e854	-0.0605243
68	0xbd0c13c3	-0.034198534
69	0x3c9295a8	0.017893627
70	0x3e59524f	0.21222804
71	0x3ce3703e	0.027763482
72	0xbcb1deb7	-0.021712644
73	0xbcd1f7ab	-0.025630793
74	0x3adde4e9	0.0016929182
75	0x3ca0cc8a	0.019628782
76	0x3d4154c2	0.047199972
77	0x3dd2bc92	0.10289873
78	0xbd652cad	-0.05595081
79	0x3bce60c5	0.006298157
80	0xbd19a899	-0.037514303
81	0xbc833fe1	-0.01602167
82	0x3dbafc01	0.09130097
83	0x3d46ecda	0.048565723
84	0x3e144887	0.14480792
85	0x3dc5576d	0.09635816
86	0x3cafbf26	0.021453451
87	0x3d427127	0.04747119
88	0xbd250cc1	-0.040295366
89	0x3e081475	0.13289054
90	0x3e144cb1	0.1448238
91	0x3e2b4dc9	0.16728891
92	0x3da15abd	0.07878635
93	0x3d619638	0.0550749
94	0x3e3a071b	0.18166773
95	0x3e666ca3	0.22502379
96	0x3e51f469	0.20503391
97	0x3c6762a1	0.014122636
98	0xbd9298a4	-0.0715802
99	0xbd28ada5	-0.041181225
100	0x3cc23d4c	0.02371087
101	0xbd771e20	-0.060331464
102	0xbe59d7e7	-0.21273766
103	0xbdd7dd9a	-0.10540314
104	0x3ccde535	0.025133708
105	0x3d79a60f	0.06094938
106	0xbcb52e58	-0.022116825
107	0xbd146abf	-0.036234614
108	0xbd1687d1	-0.03675062
109	0xbd62e005	-0.055389423
110	0xbe168902	-0.14700702
111	0x3b996d53	0.004682222
112	0x3d077731	0.033072654
113	0x3d8db85a	0.06919928
114	0x3d815d9d	0.063166834
115	0xbbc13f6b	-0.0058974526
116	0xbd9d0bb1	-0.076682456
117	0xbcb6c89b	-0.022312453
118	0xbcb27f78	-0.021789297
119	0xbb1b8e08	-0.002373578
120	0x3dab25ba	0.08356805
121	0x3de831ba	0.113376096
122	0x3c6900a6	0.014221346
123	0xbd3fd637	-0.04683515
124	0xbd9769a0	-0.07393193
125	0x3d94723a	0.072483495
126	0xbc9e521d	-0.019326264
127	0x3d42ce93	0.047560286
128	0x3dea3074	0.11435023
129	0x3d6dd430	0.058063686
130	0x3c211c63	0.009833428
131	0xbd747866	-0.059685133
132	0x3d7b4bb9	0.06135151
133	0x3b996aac	0.0046819057
134	0x3e42e0f5	0.19031127
135	0x3de5f01b	0.11227437
136	0x3e43b221	0.1911092
137	0x3e0724d7	0.13197647
138	0xbd96e029	-0.07366974
139	0x3d445222	0.04792989
140	0xbe013581	-0.12618066
141	0xbcfcadbc	-0.030844562
142	0x3ca615b4	0.02027402
143	0x3c9860e9	0.018600898
144	0xbe1aac75	-0.1510485
145	0x3d482fc2	0.04887367
146	0x3a028f1d	0.0004980432
147	0xbdb43943	-0.08799984
148	0xbd9eb808	-0.07749945
149	0xb8fb204b	-0.00011974628
150	0x3c81ad10	0.015829593
151	0xbdb5650f	-0.08857166
152	0xbda8ea02	-0.082477584
153	0x3d9231b5	0.07138387
154	0xbd6dc2a1	-0.05804694
155	0x3deaf166	0.11471824
156	0x3e54dea4	0.20788056
157	0x3de9ea40	0.11421633
158	0x3cbfeb73	0.0234277
159	0x3d4512ce	0.048113637
160	0x3d1697a4	0.03676571
161	0x3d583743	0.052787077
162	0x3de2b95e	0.11070512
163	0x3e0013a2	0.1250749
164	0xbcdfdf34	-0.027328111
165	0xbbfb9e41	-0.0076787774
166	0xbd116909	-0.03550056
167	0x3d060aee	0.032725267
168	0x3df7daf0	0.12102306
169	0x3e1d1ac0	0.15342236
170	0x3c3ecf75	0.011646141
171	0xbc4c6203	-0.01247454
172	0xbdf171e7	-0.11789303
173	0xbc8dbbd3	-0.017301476
174	0x3d6248a2	0.05524505
175	0xbd7ad69b	-0.06123982
176	0x3ce02bab	0.027364573
177	0x3a888041	0.0010414199
178	0x3b0edd94	0.0021799551
179	0x3d68049f	0.056645032
180	0xbaefeda7	-0.0018305079
181	0x3d997dcc	0.07494697
182	0x3c23e9a7	0.0100044375
183	0x3e188363	0.1489387
184	0x3e1f9217	0.15583073
185	0x3c8d1ce7	0.017225696
186	0xbe1d6e68	-0.15374148
187	0x3d8efb8a	0.06981571
188	0x3e359a70	0.17734694
189	0xbce65545	-0.028116832
190	0x3e25a26a	0.16175237
191	0xbd1c1a94	-0.038111284
192	0xbdc1daf0	-0.09465587
193	0xbca9ec90	-0.020742685
194	0x3dc47dd2	0.09594311
195	0x3e242e17	0.16033207
196	0x3d8dfc76	0.06932919
197	0xbdc52102	-0.09625436
198	0xbde526ab	-0.11189016
199	0xbe23ef5c	-0.16009277
200	0xbe0f4af2	-0.13993433
201	0xbd92b91e	-0.071642146
202	0xbc30e1b8	-0.010796003
203	0xbd616d8d	-0.055036116
204	0xbdb8a6ca	-0.090161875
205	0x3d1e67e0	0.03867328
206	0x3d90400a	0.070434645
207	0x3d8c1bb5	0.06841222
208	0xbdeba70a	-0.115064695
209	0x3c8fad2c	0.01753863
210	0xbda9e085	-0.08294777
211	0x3d07574e	0.033042245
212	0x3c633de4	0.013869736
213	0xbd0c5c54	-0.03426774
214	0x3c372d5c	0.011180248
215	0x3d81bffd	0.06335447
216	0x3db096ad	0.08622489
217	0x3b064114	0.0020485567
218	0x3d90c9d9	0.070697494
219	0xbb3d8f62	-0.0028924574
220	0x3be50c0a	0.0069899606
221	0x3c1c4748	0.009538479
222	0xbae83e1d	-0.0017718707
223	0x3e555dff	0.20836638
224	0xbc95c349	-0.018281596
225	0xbdc9b4ca	-0.09848936
226	0xbd970503	-0.07374003
227	0xbd8d84d7	-0.06910103
228	0xbd56af27	-0.052413132
229	0x3d896305	0.067083396
230	0x3ca54d21	0.02017838
231	0xbc11bba1	-0.008894832
232	0x3df59c1d	0.11992667
233	0x3d0ae89d	0.033913244
234	0x3d7619e5	0.06008329
235	0x3d897d86	0.06713395
236	0xbd9abf4d	-0.07556019
237	0xbbfb5eb8	-0.0076712035
238	0xbd7e75d7	-0.0621241
239	0x3d632dd6	0.055463634
240	0x3d79a0cf	0.060944375
241	0x3e13c9b9	0.1443242
242	0xbd92c2aa	-0.071660355
243	0xba020fd0	-0.00049614627
244	0x3d17ffcd	0.037109185
245	0x3e026c28	0.12736571
246	0x3e0d3c5f	0.13792561
247	0xbdbcdbdb	-0.092216216
248	0xbe524905	-0.20535667
249	0x3c1dda34	0.009634543
250	0x3c2dd70d	0.010610354
251	0x3dc909ae	0.098162994
252	0x3d8d167c	0.06889054
253	0xbe1aec01	-0.15129091
254	0xbd45ec78	-0.048321217
255	0xbd5a5d03	-0.05331136

conv_blocks.0.weight f4 [8, 16, 3, 3]
0	0xbdd8154d	-0.10550938
1	0xbd323253	-0.043505024
2	0xbe1aed7e	-0.15129659
3	0xbd41fa32	-0.047357745
4	0xbe1ca8f9	-0.15298833
5	0x3ab04f57	0.001345138
6	0xb9e61c97	-0.0004389032
7	0x3d57932a	0.05263058
8	0x3d23be54	0.039976433
9	0xbe2bd295	-0.1677955
10	0xbdc099b6	-0.09404318
11	0x3c6e2e83	0.014537456
12	0x3cb97015	0.022636453
13	0xbc57d1c7	-0.013172573
14	0xbcb77f3a	-0.022399534
15	0x3e003fd6	0.12524351
16	0xbdafc551	-0.08582557
17	0xbc47c1ea	-0.012192229
18	0xbe020715	-0.12698014
19	0xbdf81a90	-0.121144414
20	0x3d14b844	0.036308542
21	0xbe0f007c	-0.13965029
22	0xbdd363b4	-0.10321751
23	0xbe5f2c5b	-0.21794264
24	0xbe7bed1d	-0.2460217
25	0x3e423058	0.18963754
26	0xbdbc7e54	-0.09203783
27	0x3d49a4c2	0.04922939
28	0x3caaf51c	0.02086883
29	0x3db3b4bf	0.08774709
30	0xbe1de09a	-0.1541771
31	0x3d1289ab	0.03577582
32	0xbdb6551f	-0.08902954
33	0xbdf85b42	-0.12126781
34	0x3b6e7f37	0.0036391744
35	0x3dc343ca	0.09534414
36	0x3dc322cf	0.095281236
37	0xbdabf67d	-0.08396623
38	0xbda1fdf8	-0.07909769
39	0x3d88b012	0.06674208
40	0xbe1b69f0	-0.1517713
41	0xbc7fe7d0	-0.015619233
42	0x3d41f7a5	0.047355313
43	0x3e7977d9	0.24362125
44	0xbc13045a	-0.008973205
45	0xbdd30c22	-0.103050485
46	0x3d9e7bd0	0.07738459
47	0xbd300a98	-0.042978853
48	0xbdf04f87	-0.11733919
49	0xbd449684	-0.047995105
50	0xbd9556e5	-0.072919644
51	0x3e0f52a1	0.13996364
52	0xbe0e74c9	-0.13911738
53	0x3de9dda5	0.114192285
54	0xbdaf3d07	-0.08556562
55	0x3dcf64c8	0.101266444
56	0x3df6f82f	0.12059056
57	0x3ca34eb2	0.019934986
58	0x3d3151fa	0.04329107
59	0xbccd2cc7	-0.025045766
60	0x3e6e8628	0.23293364
61	0x3cd760d7	0.026291294
62	0xbe1d3e88	-0.15355885
63	0xbd85469a	-0.06507607
64	0xbdc6821b	-0.096927844
65	0xbdd4eeef	-0.103971355
66	0xbe63605c	-0.22204727
67	0x3d3dac11	0.046306673
68	0x3da319ec	0.079639286
69	0xbd1a3add	-0.037653793
70	0x3cfcaf24	0.030845232
71	0xbd646d0b	-0.055768054
72	0x3c72c987	0.014818556
73	0x3e887764	0.26653588
74	0xbe2d849c	-0.16945118
75	0x3e2e0c17	0.169968
76	0x3e3b173a	0.18270579
77	0x3ddea374	0.1087102
78	0xbd77aeec	-0.060469553
79	0x3e1e6cd4	0.15471202
80	0xbd8e401d	-0.069458224
81	0x3d35c312	0.044375487
82	0x3caa41a5	0.020783255
83	0xbd149ec9	-0.03628424
84	0x3d8a7d96	0.06762235
85	0xbcd0efee	-0.025505032
86	0xbe02647d	-0.12733646
87	0x3e24769c	0.16060871
88	0x3dd5bc50	0.104363084
89	0xbd4ab7cd	-0.049491692
90	0x3e9cff62	0.30663592
91	0x3d40f639	0.047109816
92	0xbd371b20	-0.044703603
93	0xbe193321	-0.1496091
94	0x3d974bad	0.07387481
95	0xbca9c911	-0.020725759
96	0x3e30c857	0.17263924
97	0xbd03ff3d	-0.032225836
98	0x3e8e5a8c	0.27803457
99	0xbbc831a8	-0.006109435
100	0xbe1fe445	-0.15614422
101	0x3d8c0bd9	0.06838197
102	0xbe7929ae	-0.24332306
103	0xbe5faf83	-0.21844296
104	0xbc8afbd0	-0.016965777
105	0x3dad1ac5	0.084523715
106	0x3de7625b	0.11298057
107	0x3dc1cc85	0.09462837
108	0xbe26a691	-0.16274478
109	0xbde6ae58	-0.11263722
110	0xbc6dcdd2	-0.014514403
111	0x3e2c48e0	0.16824675
112	0xbdbc060c	-0.09180841
113	0x3cd5387c	0.02602791
114	0xbe0d347d	-0.13789554
115	0xbb6aa8d3	-0.0035806193
116	0xbe1a9566	-0.15096053
117	0xbe0b09c7	-0.13577949
118	0xbde10e5a	-0.109890655
119	0x3b08039b	0.0020754102
120	0xbe6ff73b	-0.23434155
121	0xbda8762b	-0.08225664
122	0xbe295216	-0.1653522
123	0xbe796f6b	-0.24358909
124	0xbe39d741	-0.18148519
125	0x3ac4ce02	0.0015015008
126	0xbcbac652	-0.022799645
127	0x3e25fccf	0.1620972
128	0xbd892f07	-0.06698423
129	0x3e3182cc	0.17335051
130	0x3d47db3a	0.048793055
131	0xbbe06604	-0.0068480987
132	0x3d689046	0.056778215
133	0xbcc1f03f	-0.023674129
134	0x3cd18679	0.025576817
135	0x3e5dc855	0.21658452
136	0xbe201ddd	-0.15636392
137	0x3dc90feb	0.09817489
138	0x3df30074	0.11865321
139	0xbe847d00	-0.25876617
140	0xbe3f9c91	-0.18712069
141	0x3cd4c68c	0.02597358
142	0xbd424094	-0.047424868
143	0x3d4a4c27	0.04938903
144	0xbda13ed7	-0.07873314
145	0xbe431d99	-0.1905426
146	0x3dab7630	0.08372152
147	0x3dc072f3	0.09396925
148	0x3e5d4539	0.21608438
149	0xbe1078c2	-0.14108565
150	0x3c87d9a5	0.016583273
151	0x3d2a5b91	0.04159123
152	0x3d100e24	0.035169736
153	0x3db1af1b	0.08675977
154	0x3e3fc2b8	0.18726623
155	0x3dcffb4d	0.10155354
156	0xbd567284	-0.052355304
157	0x3e7069aa	0.23477808
158	0xbdaa523b	-0.083164655
159	0x3c72abfe	0.014811514
160	0x3d8a2317	0.06744974
161	0xbe8fbe0b	-0.2807468
162	0xbe1c5125	-0.15265329
163	0x3bfa4aa9	0.0076382947
164	0x3cc7491a	0.02432685
165	0x3db1c63f	0.086803906
166	0xbdf37731	-0.11887968
167	0xbdce7c02	-0.10082246
168	0xbc9b4386	-0.018953096
169	0x3d9879b3	0.07445087
170	0xba784d6c	-0.0009471986
171	0x3ca7f18f	0.020500926
172	0x3d096a6c	0.033548757
173	0xbac97de4	-0.0015372601
174	0xbde959c9	-0.11394078
175	0x3d544647	0.051824834
176	0xbdf1c257	-0.118046455
177	0x3da9b890	0.08287156
178	0xbe2efdc8	-0.17088997
179	0xbd2721d2	-0.040803738
180	0x3e6475ec	0.22310609
181	0xbdfd3891	-0.12364305
182	0xbe08c4fa	-0.1335639
183	0xbe4e40e3	-0.2014194
184	0xbd856415	-0.0651323
185	0x3b6445f3	0.0034831732
186	0xbe11896a	-0.14212576
187	0xbd88b5ba	-0.066752866
188	0xbdb36f41	-0.087614544
189	0x3e2dfd74	0.16991216
190	0x3e53b966	0.20676193
191	0x3dacd4ab	0.08439001
192	0xbd848ad8	-0.06471795
193	0x3cc54d9a	0.024084855
194	0x3dbbec73	0.091759585
195	0xbcb3d0a1	-0.021950068
196	0xbe28c014	-0.16479522
197	0x3e3d8006	0.18505868
198	0x3df12d43	0.11776211
199	0x3db6e597	0.089305095
200	0xbd9420b1	-0.07232798
201	0x3d227e75	0.03967138
202	0xbde51d48	-0.111872256
203	0xbdddf285	-0.108372726
204	0x3e556a1c	0.20841259
205	0xbdd356be	-0.10319279
206	0xbd94f176	-0.072726175
207	0x38b479e1	8.6057706e-05
208	0xbd6afee6	-0.057371996
209	0xbd3195d5	-0.04335578
210	0xbe0b19cb	-0.13584058
211	0x3eaa3ee4	0.33251107
212	0x3e00a1c3	0.12561707
213	0x3df56d08	0.11983687
214	0x3e51b854	0.20480472
215	0x3d47ae61	0.048750285
216	0x3ca29323	0.01984555
217	0xbcba6075	-0.022751072
218	0xbda8bc6a	-0.08239062
219	0x3ddc18fa	0.107469514
220	0x3ebaf75a	0.3651684
221	0x3e0ee944	0.13956171
222	0x3dcefe8a	0.10107143
223	0x3d7e48ee	0.06208127
224	0xbdf473c2	-0.119361416
225	0x3c4e527f	0.012592911
226	0xbda45445	-0.08023886
227	0xbe12c989	-0.14334692
228	0x3c4e9bef	0.01261042
229	0x3e46c0a8	0.1940943
230	0xbdea38a1	-0.11436582
231	0x3d7df41d	0.062000383
232	0x3c40f2b8	0.011776619
233	0x3dab4150	0.08362067
234	0xbd8624cc	-0.06549987
235	0xbc3d2999	-0.011545562
236	0x3e0e9335	0.13923343
237	0xbe3bebcf	-0.18351673
238	0x3d5225c4	0.051305547
239	0x3d89213a	0.066957906
240	0xbe097f65	-0.13427503
241	0x3e565947	0.20932494
242	0x3e33b403	0.17549138
243	0xbe055cfc	-0.13023752
244	0x3da89bae	0.082328185
245	0xbc9b35f5	-0.018946627
246	0x3d28b18a	0.04118494
247	0xbbd30cd1	-0.006440737
248	0x3e0c5265	0.13703306
249	0x3df7d82e	0.1210178
250	0xbb9e9f82	-0.004840792
251	0x3e4cdf03	0.20006947
252	0x3cdfebcd	0.027334118
253	0x3da4c1e1	0.08044792
254	0xba97dbdb	-0.0011585908
255	0xbdb773a5	-0.08957604

conv_blocks.0.bias f4 [8]
0	0x3d9b1e08	0.075740874
1	0xbcd02465	-0.02540798
2	0xbd9c5eee	-0.07635294
3	0x3e1e3131	0.15448453
4	0x3e39b5b8	0.18135726
5	0x3d081d4d	0.03323107
6	0x3d4db0f3	0.05021758
7	0xbbfb704f	-0.0076733003

conv_blocks.3.weight f4 [4, 8, 3, 3]
0	0xbe2b83b2	-0.16749457
1	0xbe2c194f	-0.1680653
2	0xbd27b914	-0.04094799
3	0xbb3a9f8b	-0.0028476443
4	0x3e88d7ff	0.26727292
5	0x3e04987b	0.12948792
6	0xbd9b09e7	-0.07570248
7	0x3c96d8d0	0.018413931
8	0xbdec22e7	-0.115300946
9	0x3cad92ef	0.021188227
10	0x3e01e638	0.12685478
11	0xbb1193e5	-0.0022213396
12	0x3eb2a20f	0.34889266
13	0x3e0b8f6e	0.13628933
14	0x3e6ceab5	0.23136409
15	0x3dd316d2	0.10307087
16	0x3e4521e4	0.1925121
17	0x3e4fef93	0.20306234
18	0x3dbdf05b	0.0927436
19	0x3e7d835f	0.24757145
20	0x3d8ce8ed	0.068803646
21	0x3df55d89	0.11980731
22	0x3e7f8411	0.24952723
23	0x3da352bd	0.079747654
24	0x3e08abbc	0.13346761
25	0x3e1b45c4	0.15163332
26	0x3c6e7ca3	0.014556083
27	0xbd714a55	-0.05890878
28	0xbd595cea	-0.053067125
29	0xbe2de472	-0.16981676
30	0x3e12ecbd	0.14348121
31	0xbdc0d130	-0.09414899
32	0xbe2434ed	-0.16035815
33	0x3db13251	0.08652175
34	0xbe904c10	-0.2818303
35	0xbe005fa3	-0.12536483
36	0x3d9de5ad	0.07709823
37	0x3e523b9e	0.20530555
38	0x3cf731d8	0.030175135
39	0x3da1d499	0.07901878
40	0x3c6847ff	0.014177321
41	0xbd9bbf57	-0.076048546
42	0x3d5c4af3	0.053782415
43	0xbe63fe06	-0.22264871
44	0xbe116c02	-0.14201358
45	0xbe9e04b4	-0.30862963
46	0xbdc16670	-0.094433665
47	0x3ca45d6a	0.020064075
48	0x3bc42d84	0.005986871
49	0x3de13eca	0.10998304
50	0xbdcd6418	-0.10028857
51	0x3e17c489	0.14821066
52	0xbbb2074f	-0.005433
53	0xbe944551	-0.28959134
54	0xbdd4fd91	-0.103999265
55	0x3e3077cf	0.17233203
56	0x3e399f71	0.18127228
57	0x3d44fad6	0.04809078
58	0x3eb0cdb5	0.34531942
59	0x3e2d0298	0.1689552
60	0x3dc3d834	0.09562722
61	0x3e72e103	0.23718648
62	0x3e1eb81e	0.15499923
63	0x3c6f8fde	0.014621703
64	0xbdf40631	-0.119152434
65	0xbe84c2f4	-0.25929987
66	0xbd623f9a	-0.055236436
67	0xbe23f96a	-0.16013113
68	0xbddd17ed	-0.10795579
69	0xbd2a46e0	-0.041571498
70	0x3db1e63b	0.08686491
71	0x3e6296aa	0.22127786
72	0xbe202645	-0.15639599
73	0xbeae9b8a	-0.34103042
74	0xbe66e9d8	-0.22550142
75	0xbd223d67	-0.03960934
76	0x3e409471	0.18806626
77	0x3e47219c	0.19446415
78	0xbe13dff4	-0.144409
79	0x3da0bf00	0.0784893
80	0xbe06ed95	-0.13176568
81	0xbdaf0db3	-0.08547535
82	0xbe3a1f8a	-0.18176094
83	0xbeb2b283	-0.3490182
84	0x3d4fbd6b	0.050717752
85	0x3e2148b9	0.15750398
86	0x3d21fb46	0.039546274
87	0x3da57dfb	0.080806695
88	0x3dafe8d9	0.08589334
89	0x3d6d147a	0.057880856
90	0xbea80628	-0.32817197
91	0xbdf4e2c5	-0.11957315
92	0xbe9894b4	-0.2980095
93	0x3daa3af8	0.08312029
94	0x3ead62cc	0.3386444
95	0xbd897d7d	-0.06713388
96	0x3d125cd4	0.03573306
97	0x3e98535a	0.29751092
98	0xbd8248b9	-0.06361527
99	0xbe2deadd	-0.16984124
100	0x3d6936ac	0.056936905
101	0x3e02352a	0.12715593
102	0x3eb372bc	0.35048473
103	0xbe69fb88	-0.22849858
104	0xbe8d372e	-0.2758116
105	0x3dde427f	0.10852527
106	0xbe88222f	-0.2658858
107	0xbd8bb843	-0.068222545
108	0xbe6214c2	-0.22078231
109	0x3e1f60a1	0.15564205
110	0x3e23b667	0.1598755
111	0x3e60e9a6	0.2196413
112	0x3ecc076b	0.3984941
113	0x3d202619	0.039098833
114	0x3da90a0b	0.08253869
115	0xbd8ce9ad	-0.068805076
116	0xbccfb554	-0.025355019
117	0x3d98e767	0.074660115
118	0xbe533199	-0.20624389
119	0x3e4b32e0	0.19843626
120	0xbeae5b08	-0.34053826
121	0x3da62b8d	0.081137754
122	0xbdef1c35	-0.11675302
123	0x3d5f8984	0.054574504
124	0x3e68de8e	0.22741148
125	0xbda2ab30	-0.07942808
126	0xbe2c2864	-0.16812283
127	0xbec47c2d	-0.3837599
128	0x3d824a75	0.06361858
129	0xbe935f58	-0.2878368
130	0x3e4ab59b	0.1979584
131	0xbe32fc62	-0.17479089
132	0xbe1498f0	-0.14511466
133	0xbd9df263	-0.07712247
134	0x3c7cef92	0.015437977
135	0x3cfb7e6e	0.030699935
136	0x3e4836e0	0.19552183
137	0x3d11e813	0.035621714
138	0x3e0c6f36	0.13714299
139	0xbec74946	-0.3892309
140	0xbea28f6c	-0.31750047
141	0x3d3143d3	0.043277573
142	0x3cb88bb0	0.022527546
143	0x3e84565f	0.25847146
144	0xbdc80d09	-0.09768111
145	0xbd24f922	-0.040276654
146	0x3df0743d	0.11740921
147	0x3e8f51c2	0.27992064
148	0x3e9a320f	0.30116317
149	0x3e744ff9	0.23858632
150	0xbdb77c9e	-0.08959316
151	0xbe01b6dd	-0.12667413
152	0x3d243d7d	0.040097702
153	0x3ca662e9	0.020310836
154	0x3de5464d	0.111950494
155	0x3d6f231a	0.058383085
156	0x3d6507a7	0.0559155
157	0xbde6d9cc	-0.1127201
158	0x3e9e31aa	0.30897266
159	0xbd7df568	-0.062001616
160	0xbd18d3b5	-0.037311275
161	0xbe3676b3	-0.17818718
162	0x3b091f55	0.0020923216
163	0x3cf97037	0.030449016
164	0xbea88322	-0.32912546
165	0x3e333700	0.1750145
166	0x3c340a04	0.010988716
167	0xbd8b3577	-0.06797307
168	0xbe2a72b1	-0.16645314
169	0xbedac371	-0.42727235
170	0xbda78ea0	-0.081815004
171	0x3e1e855a	0.15480557
172	0xbdba7486	-0.09104256
173	0xbdf784a1	-0.12085844
174	0xbaa4ecbb	-0.0012582758
175	0xbe410530	-0.18849635
176	0x3c8e9289	0.017403858
177	0xbe4770c1	-0.19476606
178	0x3d5574f0	0.052113473
179	0x3d8dd272	0.06924905
180	0x3eacf5d0	0.3378129
181	0x3db39aad	0.087697364
182	0xbcdda9eb	-0.027058562
183	0x3e598b4b	0.21244542
184	0xbcb1b6e5	-0.021693656
185	0xbe0098b1	-0.12558247
186	0xbe384ad7	-0.17997299
187	0xbd162eec	-0.036665842
188	0x3defa4fd	0.11701391
189	0xbe0b5e6d	-0.1361024
190	0xbc068ce7	-0.008212305
191	0xbc0d3664	-0.008618925
192	0x3dd8ba8b	0.10582455
193	0x3df57063	0.11984327
194	0xbdf6d600	-0.12052536
195	0x3e52927f	0.20563696
196	0xbe82d628	-0.25554013
197	0x3caba4fe	0.020952698
198	0xbe253566	-0.16133651
199	0x3e00247a	0.12513915
200	0x3cbcb137	0.023033721
201	0xbd8d6fb6	-0.06906073
202	0x3e5f89d6	0.21829924
203	0xbea2c9aa	-0.31794482
204	0xbca9072c	-0.020633303
205	0xbec0cfeb	-0.3765863
206	0xbe9f03b1	-0.31057504
207	0xbce9386a	-0.028469283
208	0xbeb0af6a	-0.3450883
209	0xbdbc7d68	-0.09203607
210	0xbdd5c7b6	-0.104384825
211	0x3b8cccb0	0.0042968616
212	0x3e58bf7b	0.21166794
213	0x3c2b5979	0.010458344
214	0x3d8c11ce	0.068393335
215	0xbe2674c1	-0.16255476
216	0xbd0cfd72	-0.03442139
217	0x3e376fe3	0.17913775
218	0x3d81380f	0.063095205
219	0x3dd5c89e	0.10438655
220	0xbe80ea6f	-0.2517886
221	0x3c8d9124	0.017281123
222	0x3e864789	0.26226452
223	0x3d8d71f6	0.06906502
224	0x3e51e23f	0.20496462
225	0xbd7305c1	-0.05933166
226	0xbdd73b82	-0.10509397
227	0x3e03e1cb	0.12879102
228	0xbe7c38d7	-0.24631058
229	0xbe85abf8	-0.26107764
230	0xbe8166b1	-0.2527366
231	0xbdbcd4a4	-0.092202455
232	0xbea1d70b	-0.31609377
233	0xbe53023a	-0.20606318
234	0xbd740967	-0.05957928
235	0xbe7d32e8	-0.2472645
236	0xbbe0d226	-0.006860989
237	0xbef347e6	-0.47515792
238	0xbe5e0ad2	-0.21683815
239	0x3c941e24	0.018080778
240	0x3d5ca416	0.053867422
241	0xbdf5c2dc	-0.12000057
242	0xbd3b55bd	-0.045736063
243	0x3c892293	0.01674012
244	0x3db84538	0.089975774
245	0x3dbc13f2	0.09183492
246	0xbd7fcdf6	-0.06245228
247	0x3da2619f	0.07928776
248	0x3e042acd	0.12906952
249	0xbe008d84	-0.12553984
250	0x3e2fea33	0.17179184
251	0x3d2c7e85	0.042112846
252	0x3e3c0b8f	0.18363784
253	0xbdc2df2d	-0.09515224
254	0x3d96fc17	0.07372301
255	0xbd3351f3	-0.043779325

conv_blocks.3.bias f4 [4]
0	0x3e8e08da	0.27741128
1	0x3dee4b79	0.11635489
2	0x3d204421	0.039127473
3	0x3f22f891	0.6366053

conv_blocks.6.weight f4 [1, 4, 3, 3]
0	0xbea49af2	-0.32149464
1	0xbdc864d7	-0.09784859
2	0xbeccf81a	-0.40033036
3	0xbef3e1a3	-0.47633085
4	0xbe779744	-0.24178797
5	0xbef74bab	-0.48299918
6	0xbe91257e	-0.28348917
7	0xbe8b3900	-0.27191925
8	0xbdabc4ff	-0.083871834
9	0xbee03641	-0.43791392
10	0xbf18be66	-0.59665525
11	0xbe61a521	-0.22035648
12	0xbf8814f2	-1.0631392
13	0xbeff8308	-0.49904656
14	0x3cda387e	0.026638266
15	0xbe95d00d	-0.29260293
16	0xb93b9ef7	-0.00017892929
17	0xbd03a3e8	-0.032138735
18	0x3dd7a01a	0.10528584
19	0x3c204d56	0.009784063
20	0x3e8489d3	0.25886402
21	0x3cc4523a	0.02396499
22	0xbef15b50	-0.47139978
23	0xbed91d31	-0.42405084
24	0xbe1f67b8	-0.1556691
25	0xbf37d379	-0.71807057
26	0xbeb1c615	-0.34721437
27	0x3c1a19ac	0.009405535
28	0x3e9f00ac	0.310552
29	0xbd55a016	-0.052154623
30	0x3d8adc41	0.06780291
31	0x3ef94fae	0.48693603
32	0x3da17d5f	0.07885241
33	0x3dc6fcce	0.097161874
34	0x3e8a029b	0.26955113
35	0xbe3b0c0e	-0.18266317
