mnist_gan/MNIST_GAN_CNN/save/G--40.ckpt (torch_old, 945929 bytes, 9 tensors)

l1.0.weight f4 [256, 128]
000000 c5 7b 8f 3d d3 5e fb 3d 80 0d ef 3b a5 2c cb bc
       0.07006029 0.12273946 0.0072953105 -0.024801562
000010 96 b0 98 3c 19 cf 13 3e 3c 6c ae bd e2 21 e0 bd
       0.01863889 0.1443447 -0.08516738 -0.10943963
000020 58 d2 73 3d 7e f9 29 bd 99 ad 33 bd 34 b3 3a 3c
       0.05952677 -0.0414977 -0.043866728 0.011395264
000030 bb 11 06 bd bd bc 42 bd 1a d0 76 bd ca 21 4c bc
       -0.032731753 -0.047543276 -0.060257055 -0.012459228
000040 71 b7 10 3d e7 70 cf bd 7f 75 53 3d 06 1a 01 3d
       0.035331193 -0.10128956 0.051625725 0.03151896
000050 14 3c ee bc 89 da 8a 3c a0 aa e9 bd a3 70 cd 3d
       -0.029081382 0.016949909 -0.11409497 0.100312494
000060 19 09 09 3e c0 38 7c 3d a7 fe 1e 3d aa 57 1a bc
       0.13382377 0.06157756 0.038817074 -0.009420315
000070 ae f9 34 bd 1b 14 89 3d 60 1f a8 3d 46 02 19 3d
       -0.044183426 0.06693288 0.08209109 0.037355684
000080 cf 7d 2d 3d a2 b4 cd bb 1d 8e 63 bc ac b5 97 bb
       0.04235631 -0.0062776366 -0.013888863 -0.0046298113
000090 dc fb 72 3d b5 12 4c bd 7d f9 74 bc 53 0e b6 3b
       0.059322223 -0.049822528 -0.014952061 0.005555907
0000a0 bf bb 35 3d 1c 64 1c 3d af 22 31 3e 0a 9f 13 bd
       0.0443685 0.03818141 0.17298387 -0.036040343
0000b0 4f 94 5e 3c 75 3e 38 bb 28 ae 3b 3d 0b a5 e9 bd
       0.013585164 -0.00281134 0.045820385 -0.114084326
0000c0 cd f5 3c 3d 44 a2 9a 3d 8c 0a 75 bd 96 60 ce bb
       0.04613285 0.07550481 -0.05982451 -0.006298135
0000d0 f6 cc 13 3d 25 06 c1 bd 6f ce 04 bd 78 a3 15 bd
       0.036084138 -0.09425 -0.032423433 -0.03653285
0000e0 fb 48 9b 3d 8e 29 e8 3c 1e 76 84 bd b1 0e 9a 3d
       0.07582279 0.028340127 -0.064678416 0.075223334
0000f0 a6 36 59 bd 4e f1 34 3d aa b9 0e bc 54 99 ba bd
       -0.053030632 0.04417544 -0.008711258 -0.09111276
000100 00 a6 4e 3d 08 95 bc 3c 03 b6 f6 3d 0e 32 a5 3c
       0.05045128 0.023020282 0.12046435 0.02016547
000110 7f ed 3f be 56 7f d5 bd 39 fb 73 3d 7c 9b b3 bc
       -0.18742941 -0.10424678 0.059565756 -0.021924727
000120 6e 43 0d 3d 9a 80 81 bd 61 5b 16 3d 6a b8 d4 bd
       0.034488134 -0.06323357 0.03670824 -0.10386737
000130 bd fd 97 3d b2 20 b6 3d b8 ec b5 3d 24 f3 cb 3d
       0.074214436 0.08892955 0.08883041 0.09958485
000140 7d eb b4 bd 57 8e 40 bd 7b 32 77 3d fe 3b b3 3d
       -0.08833978 -0.047010746 0.060350876 0.08751677
000150 1a 2b f3 3c 76 22 0b be 73 09 1e bd 1e 11 a9 3b
       0.029683638 -0.13587365 -0.03858323 0.005159511
000160 df 04 1b be eb 91 da 3d 40 81 79 3d c7 30 17 bc
       -0.15138577 0.10672363 0.060914278 -0.009227938
000170 72 04 00 3e ce 71 b2 bd 62 e7 3a 3d 07 c0 17 38
       0.12501696 -0.08713113 0.04563082 3.6180045e-05
000180 e1 3b 6a 3d 6b f2 c7 bd cf 94 64 ba e7 48 dc bc
       0.05718601 -0.097630344 -0.0008719684 -0.026890231
000190 8f 4a 1c bd 46 49 84 3d 22 d1 d1 3d c7 87 81 bd
       -0.038157042 0.06459288 0.10244967 -0.063247256
0001a0 0e 34 5c 3c 78 43 b4 3c 25 4c 1e 3c c7 18 c4 bd
       0.013440145 0.022004828 0.009661709 -0.095750384
0001b0 b4 cb 02 3d 94 33 2c be 43 0f 48 3c 24 db 62 bd
       0.031932548 -0.1681655 0.01221067 -0.05538477
0001c0 bf 42 02 3b 5b aa fd 3c c0 0a 0b bd 20 a7 83 3d
       0.001987621 0.03096502 -0.0339458 0.06428361
0001d0 8d 3e c8 3d c8 e4 3d 3d 24 d4 e3 bb f2 20 41 3d
       0.097775556 0.04636076 -0.0069527794 0.04715056
0001e0 f5 ba 2f bd 91 cc b6 bb 11 35 16 bd 57 bd a4 3b
       -0.042902905 -0.0055785854 -0.0366717 0.005027454
0001f0 e2 f0 10 3d 94 2f ca bc 84 fc 33 3d 0a 8c b3 bd
       0.035385974 -0.02468089 0.04394199 -0.08766945
000200 fb 2a 78 3c 17 dc 6b 3d 26 40 1e 3d 17 39 93 3b
       0.015146966 0.05758294 0.038635395 0.0044928896
000210 fd 4f 42 bd fe ca 04 bd b8 25 af 3c 0f 03 df bd
       -0.047439564 -0.03242015 0.02138029 -0.10889255
000220 07 b0 b2 3c b5 8b 66 3d 8c 68 b9 bc 0a f8 0e bd
       0.021812452 0.05628558 -0.02263286 -0.034904517
000230 c3 a8 c8 3c 22 47 a3 bd a6 a3 d3 bd 6f 13 aa 3c
       0.024494534 -0.07972552 -0.10333948 0.02076122
000240 be 99 07 3e 3c 41 d6 bd fc 51 99 bd d2 2d c9 3d
       0.13242242 -0.10461661 -0.074863404 0.09823193
000250 43 7f 65 3d 1a 84 a7 3d e5 a0 91 bd d8 c5 a5 3d
       0.05602957 0.08179493 -0.07110766 0.08094376
000260 58 7f d0 3d 58 6e 18 bc 7a 7f a0 3d 0b 99 ad bb
       0.10180539 -0.009303652 0.07836814 -0.005297785
000270 33 a3 21 3e 16 e0 e7 3d d8 31 45 bd e3 7d 98 3d
       0.15784912 0.11322038 -0.048143238 0.07445886
000280 80 8c 9f bd ad e7 76 bc de 40 19 bd 4e b8 ce 3d
       -0.0779047 -0.015069884 -0.037415378 0.10093747
000290 3c e6 b7 bb 50 2e e9 bd d0 4e 5f bd fb 7f 4f bd
       -0.005612163 -0.113857865 -0.05451852 -0.05065916
0002a0 98 07 0c bc 60 97 f9 bd 56 de b9 bd e0 13 8d 3b
       -0.008546732 -0.121870756 -0.0907561 0.004305348
0002b0 35 23 34 bc 11 61 8f bd 79 f6 5d 3c 89 52 36 3d
       -0.010994722 -0.07000936 0.013547533 0.044512305
0002c0 b3 11 3d 3d 2a 38 d1 3d 03 6d a0 bd 44 4f 99 bc
       0.046159457 0.102157906 -0.07833292 -0.018714555
0002d0 8e 9f bc bd 92 bc f3 bd 32 9d 8b bd b8 c3 45 3d
       -0.0921012 -0.11901201 -0.06817092 0.048282355
0002e0 6b e6 e0 3c fe 85 22 bd 92 de 96 3d 81 2a a1 3d
       0.027453622 -0.039678566 0.07366671 0.07869435
0002f0 53 78 2e be 69 f8 f1 3a 85 d7 1a bd 1d 51 a6 bb
       -0.17038088 0.0018460873 -0.03780319 -0.0050755874
000300 3f 86 0a 3e be c9 89 3d ac 2c 52 bd e2 5f 64 3d
       0.13527773 0.067279324 -0.051312134 0.055755503
000310 90 f7 f6 3c 70 39 7f 3d d2 b4 d7 bd b5 95 0d bc
       0.030147344 0.062310636 -0.105325356 -0.00864165
000320 1d ac 42 bd 88 4c 66 3d be 42 57 3b 22 13 04 bd
       -0.04752742 0.05622533 0.0032846178 -0.03224481
000330 0d 84 12 be a4 39 f6 bd 12 f9 0b bc c9 53 a5 bd
       -0.14308186 -0.12022713 -0.00854327 -0.080726214
000340 82 26 a4 3d 79 d4 6b bb c4 f5 97 3d 97 37 a2 3d
       0.08015157 -0.0035984798 0.07419923 0.07920759
000350 22 b3 80 3d 85 d9 25 3d 7c c4 52 3d 61 ae 06 3e
       0.06284167 0.040490646 0.051456913 0.13152458
000360 98 d3 6d 3d 43 92 ed bc b6 90 cf 3d 70 7e c0 bc
       0.05806312 -0.029000407 0.10135023 -0.02349779
000370 8a 81 8e 3c 16 be 4c bc 10 1d 9c bc d3 56 b1 3d
       0.017395753 -0.012496492 -0.019056827 0.086591385
000380 a2 49 2b bd e9 6f 8a bd 15 7d 98 bc 20 cc 6c 3d
       -0.04181827 -0.067596264 -0.018614331 0.057811856
000390 b3 11 80 bd 68 7e f3 3d 72 51 9e 3c 45 c2 69 3d
       -0.06253376 0.118893445 0.019325946 0.057070035
0003a0 96 cf de 3c 3d a1 1f ba a7 5c 05 3e 9b 68 1c be
       0.027198594 -0.0006089395 0.13023625 -0.15274279
0003b0 54 a3 ed bd 78 36 65 bd 0e f0 55 bc e9 83 df bb
       -0.11603418 -0.05596015 -0.013057722 -0.006821145
0003c0 e6 aa d0 3c ea 44 ba bc c1 19 ae 3b 62 13 13 3e
       0.025472116 -0.022737939 0.0053131287 0.14362863
0003d0 5c cc 3b bd b3 b8 9a bd 7e cd c5 3b 32 49 c3 3c
       -0.04584919 -0.0755476 0.0060364595 0.023838613
0003e0 0b 99 b7 3c af 36 e3 bd 76 08 3b bd c4 42 2a 3d
       0.022411844 -0.110944144 -0.045662366 0.04156758
0003f0 03 fe 82 bc 48 73 e0 3c cc 82 61 bd 4c 4b 0b be
       -0.015990263 0.02739872 -0.05505638 -0.13602942

l1.0.bias f4 [256]
000000 08 9d e2 3e 86 cc a1 3e ae 9d 45 3e b8 c1 94 3e
       0.4426043 0.31601351 0.19298431 0.29054046
000010 e8 97 40 be 16 df 81 be 7d 73 80 bd 4a f5 03 be
       -0.18807948 -0.25365514 -0.06272028 -0.12886539
000020 1b 84 99 bd 0e 05 8e 3e e0 18 50 be 0f 7b b3 be
       -0.074959 0.2773823 -0.20321989 -0.35054824
000030 0d f3 80 be d2 81 39 3e 76 bb 88 3e d4 44 db be
       -0.25185433 0.18115929 0.2670552 -0.4282595
000040 92 e6 6e be ed 8b 4a be 5b 4c 0a 3e 40 e9 b2 be
       -0.23330143 -0.1977994 0.1350569 -0.3494358
000050 e9 b7 cb bd f5 13 a0 3e 3c 5e 10 be 07 ac 9c 3e
       -0.099471875 0.31265226 -0.14098448 0.30599996
000060 24 97 8d be f7 78 92 be ba 86 d7 3d c6 4d 2b 3e
       -0.27654374 -0.28607914 0.10523744 0.16728887
000070 44 7f 15 be 0b 5d c0 be 90 02 55 be ff 36 d6 bd
       -0.14599329 -0.37570986 -0.20801759 -0.104597084
000080 4c a4 98 3e a2 7e b4 3d f5 b2 07 be a6 f7 22 be
       0.2981285 0.08813216 -0.1325186 -0.15914783
000090 bb 65 c8 be 5a 31 a4 3e e3 92 c5 bd 0b 8e 52 be
       -0.39140114 0.32068902 -0.09647157 -0.20561998
0000a0 7e 7c 8c 3e 17 7a df be cb b3 bd be 2b b4 2e 3d
       0.2743873 -0.43647835 -0.37051234 0.04265229
0000b0 0c 83 88 be 27 84 06 be 21 b8 48 3e 46 fd b3 be
       -0.2666248 -0.1313635 0.1960149 -0.3515417
0000c0 84 c3 a8 3e c9 0c 8f 3e e0 31 a8 3e 39 5d c9 bb
       0.32961667 0.27939442 0.32850552 -0.006145146
0000d0 2e d5 6d 3e 38 6f fe bc 9b b1 ab be c0 cc 65 be
       0.23225853 -0.031058893 -0.3353394 -0.22441387
0000e0 2b 6b 7c be 41 6e c4 3e aa e6 ae 3e 17 76 ec be
       -0.24650256 0.38365367 0.34160358 -0.46183845
0000f0 37 6e 59 3e 77 69 76 3e 20 e8 8a 3e 14 ac a6 3e
       0.2123345 0.24063669 0.27130222 0.3255316
000100 c0 1e 95 be 63 90 c3 be 81 6e 13 be dc bf 69 be
       -0.29125023 -0.38196096 -0.14397623 -0.22827095
000110 ba 74 3f 3e 1f f7 c9 3e 84 3a 4e 3e 3b e1 d5 be
       0.18696871 0.3944635 0.2013951 -0.417734
000120 fc 2f 27 be af 60 0d 3e 54 4e d7 3e 09 5d dc bd
       -0.16326898 0.13806413 0.42051947 -0.107599325
000130 06 92 5f be 7a 7f 6a be ff f3 2a 3e ee 2d 8f bd
       -0.21833047 -0.22900191 0.1669464 -0.06991182
000140 fb 00 9e be 20 05 b0 3c 6d f0 e0 be 03 dd 60 be
       -0.30860123 0.021486819 -0.4393343 -0.2195931
000150 96 d7 c2 3e 7d 00 54 3e f0 28 ae 3e 75 33 8b 3e
       0.38055104 0.20703311 0.34015608 0.27187696
000160 b5 b4 2f 3e a7 73 31 3e f1 93 8a be 78 3c a3 3e
       0.17158778 0.17329274 -0.27065995 0.31882071
000170 d3 c3 68 bc 8c 4d 01 3f b4 39 33 be ad 00 1f 3e
       -0.014206844 0.5050895 -0.17502481 0.15527602
000180 7e da b7 be 77 d9 85 3d 36 14 ba be 3f 3c a9 3e
       -0.35908884 0.06535619 -0.36343545 0.33053777
000190 b2 7c 90 be 78 cd bb 3e c7 33 07 be a5 ee ae 3e
       -0.28220135 0.36680198 -0.13203345 0.34166446
0001a0 2e da 8a 3e be a4 aa be 0e 28 1e be dd 04 f8 3e
       0.27119583 -0.33328813 -0.15444967 0.4844121
0001b0 ba 9f 59 3d 50 ec 8c be 83 3b 6b be cd 2b a8 3e
       0.053130843 -0.27524042 -0.2297192 0.32845917
0001c0 13 cc 8f be 50 d9 80 3e 12 e5 9f be b1 f9 03 3f
       -0.28085384 0.25165796 -0.31229454 0.51552874
0001d0 7b f7 af 3e 28 ee 52 be 09 cd 45 3e 35 79 a2 bd
       0.343685 -0.20598662 0.19316496 -0.07933275
0001e0 ac b0 d2 be aa 4f 17 be 0b 14 d6 3e 92 b1 48 3e
       -0.41150415 -0.14776483 0.41812167 0.19598988
0001f0 f3 2f 8b be e2 77 79 be a1 b3 8c 3d d1 cd ce 3d
       -0.2718502 -0.24362138 0.06870199 0.1009785
000200 7d e1 09 3e b2 59 9f be 09 fc d2 3e 3d 27 47 be
       0.13464923 -0.3112312 0.41207913 -0.19448562
000210 23 f2 7e be d3 5a 86 be 47 b4 9f be 13 f4 d7 bd
       -0.24897055 -0.26241168 -0.31192228 -0.105446
000220 f4 af c9 be c2 9a ce 3e 3c 97 8d be 38 9b d5 be
       -0.39392054 0.40352446 -0.27654445 -0.41719985
000230 a0 25 15 3d 59 1f e2 3d a3 71 6d bc 2f 1e 5c be
       0.036412835 0.11041135 -0.014492425 -0.21495889
000240 a4 91 9c be 81 ae 13 3d 84 95 69 3e 61 b2 16 be
       -0.30579865 0.03605509 0.22810942 -0.14716484
000250 aa c0 80 be ca ba be 3d ae 84 87 be e7 49 b7 3e
       -0.2514699 0.09312971 -0.26468414 0.3579857
000260 f3 04 77 bc 7e cc d3 3e ff 77 0b 3e dd 5e 54 3e
       -0.015076864 0.41366953 0.13619994 0.20739312
000270 40 e4 16 be 79 a3 00 bc c2 74 7b 3d 0d 3b 2b 3e
       -0.14735508 -0.007851475 0.061390646 0.16721745
000280 a9 c6 be be 6e 9a 9f bc cb af 9e bd 2f d0 73 3e
       -0.3726094 -0.019482818 -0.077483736 0.23809884
000290 ee 73 b4 be de 68 6e 3e e9 03 b5 be 17 fc 57 3e
       -0.35244697 0.23282191 -0.35354546 0.21092258
0002a0 0e 85 ab be 8e 0b a0 3e df 11 86 3e d6 a0 95 3d
       -0.3349995 0.31258816 0.2618551 0.07306068
0002b0 48 79 a8 be 84 e0 61 3d ae cb 36 be 8b 10 82 3e
       -0.3290503 0.055145755 -0.17851135 0.25403246
0002c0 60 9e 11 be 51 b4 03 be b8 1e 38 3e 6b dc 8d be
       -0.14220572 -0.12861754 0.17980468 -0.27707228
0002d0 69 14 e2 be 05 7c 72 3d 73 e5 cc 3d 20 20 a4 be
       -0.44156197 0.059200305 0.100047015 -0.3205576
0002e0 2b 87 53 be 76 e9 83 be 78 58 1d 3e 52 a8 84 3e
       -0.20657031 -0.25764054 0.1536578 0.25909668
0002f0 67 5c 6b be 89 20 50 be fd a2 8b be 73 71 fc bd
       -0.22984467 -0.20324911 -0.27272788 -0.12326326
000300 21 89 a7 3e 7d 9a aa 3d 65 6d c3 3e d9 46 40 be
       0.3272181 0.083302476 0.381694 -0.18777026
000310 5e fb d1 be f1 eb c3 be af bb 99 3c b7 e1 b7 be
       -0.4101209 -0.38265947 0.018766252 -0.35914394
000320 7b 4e 5b 3e f2 89 b3 be 4c fb 31 bd 19 0a 9f bd
       0.21416657 -0.3506618 -0.043452546 -0.07765598
000330 f0 cc 0c 3e 0f 1e 8a be a6 79 92 3e 4c b7 d0 3d
       0.13750052 -0.26976058 0.28608435 0.10191211
000340 1a c9 ac be 09 ce c9 3e e7 fd b0 be bd 52 5e bd
       -0.33747178 0.39415005 -0.34568712 -0.054278124
000350 d7 e5 96 be 44 cd 1a 3e 9e 26 47 be 81 a8 bc 3c
       -0.2947223 0.15117365 -0.19448325 0.023029568
000360 ca 14 c5 bb d0 8a ae be 9e 2a 92 be 5c 18 9b bd
       -0.006014441 -0.3409028 -0.2854814 -0.075730056
000370 fc 80 68 3e 10 22 c7 3d 32 df 91 3e db c9 93 3e
       0.22705454 0.09723294 0.28490597 0.2886494
000380 32 39 e4 bc 9e 92 cf be 0a de b3 be cb c1 8c 3e
       -0.027859304 -0.40541548 -0.3513034 0.27491602
000390 e2 f6 d0 3d 22 1c ed 3e 70 f6 ae 3e 48 22 83 3e
       0.10203339 0.46310526 0.34172392 0.25612092
0003a0 7b c6 2a be 0d d5 d3 3e 29 4c 10 3e 5f e4 c0 be
       -0.16677277 0.41373482 0.14091553 -0.37674233
0003b0 d4 c6 e8 be 2e 72 bf 3e 29 71 a2 be b5 3d 4e 3e
       -0.45464194 0.373918 -0.3172696 0.20140727
0003c0 b7 5d 5b be 7d 41 00 3f 7d 3f ae be 34 71 4b be
       -0.21422468 0.5009993 -0.34032813 -0.19867402
0003d0 68 7d e5 be 26 ee ba be e3 83 53 3e ce 19 bc be
       -0.4482224 -0.36509818 0.2065578 -0.36738437
0003e0 b6 2e b1 be 49 43 ef 3d 3a d1 b8 be d4 06 95 3e
       -0.3460595 0.116827555 -0.36097127 0.29106772
0003f0 9b 70 06 bf ca e1 9f be 67 78 cd 3e 39 d5 c4 3d
       -0.5251557 -0.3122695 0.40130922 0.096109815

l1.1.weight f4 [784, 256]
000000 25 a2 a8 3c 62 17 14 be 33 2c f2 3d 09 f5 9a bc
       0.020585129 -0.14462045 0.118248366 -0.01891567
000010 b2 09 11 3d 8a fc 32 bc 3e f7 d6 3c 81 6e f5 3d
       0.035409637 -0.010924468 0.026240941 0.119839676
000020 34 d3 ca 3d 56 ea 29 bd 34 26 eb 3b 80 0f ca 3d
       0.09903565 -0.041483246 0.007176185 0.09866238
000030 35 17 0e bd 64 48 25 3c a7 13 10 3d 93 6c 7a bd
       -0.0346901 0.01008806 0.035174992 -0.0611387
000040 53 41 44 bd 19 26 8a bd b3 95 d0 3b 6e 36 92 3d
       -0.04791386 -0.06745548 0.006365502 0.07139288
000050 09 df 86 3d 03 b6 48 3b 76 a8 86 3b 2a 96 ea bd
       0.06585509 0.0030626066 0.0041094376 -0.11454423
000060 e7 a5 d0 bc f4 50 c7 3d e3 d5 83 3b 53 bd 78 3d
       -0.025469733 0.097322375 0.0040233 0.06072743
000070 01 8d ef 3c ba 75 b7 3c 6b a3 12 bd c0 3f 84 bd
       0.02924204 0.022395004 -0.03580038 -0.06457472
000080 00 0b 0f be 62 9f 08 bc 62 84 c7 bc 0e bb 34 3d
       -0.1396904 -0.008338781 -0.024355117 0.0441237
000090 6b ea a1 3c aa 3c 7e 3d 0b 37 71 ba b2 23 a1 3d
       0.0197651 0.062069573 -0.00092016225 0.078681365
0000a0 c1 2a aa bd c7 28 8a 3d 79 bd 8d 3d e1 ec 97 bb
       -0.08308936 0.06746059 0.06920905 -0.0046363925
0000b0 1f bf 3e 3c a4 b4 9f 3d 35 a1 42 3d e7 3a 9a 3c
       0.0116422465 0.07798126 0.04751702 0.018826915
0000c0 60 d1 8c 3d 9e b7 23 bd 7f b8 a5 3c 4e c1 ee bd
       0.068758726 -0.039970033 0.020229576 -0.11657964
0000d0 a7 3e b1 bd 73 0c 8f 3d 68 6d 64 3d 5f c2 0a 3c
       -0.08654528 0.069847964 0.0557684 0.008469193
0000e0 34 45 d6 3d 8f f2 0c be c3 c3 50 be 11 9e 57 3d
       0.10462418 -0.13764404 -0.20387177 0.05264098
0000f0 11 94 06 3e 77 fb ad bd 0b 6b fd bd 2c 15 ac 3d
       0.1314242 -0.08495229 -0.123739325 0.08402476
000100 f2 bf 93 3d 9c d2 c3 3d 6b 4f 85 3d a2 76 1a 3d
       0.07214345 0.09561655 0.065092884 0.037710793
000110 8b 12 b5 3c 92 24 b7 bc 40 f9 56 be b9 a2 45 3e
       0.022103569 -0.022356305 -0.20993519 0.19300355
000120 14 89 b1 bd 76 d7 2b 3d 1d 0d bd 3b bf 11 6a 3d
       -0.08668724 0.041953526 0.0057693855 0.05714583
000130 4b 33 99 bd 4d fb 0a 3e 73 e4 43 bd 33 7e 42 3d
       -0.074804865 0.13572426 -0.047825288 0.047483634
000140 0a 93 a0 3c 08 9c 46 bc 89 3c b2 3d 00 02 91 bb
       0.019601364 -0.012122162 0.087029524 -0.0044252872
000150 90 f8 b3 bc 3c 0c 18 3d 07 39 71 bd e3 7d 75 bd
       -0.02196911 0.037121043 -0.058892276 -0.059934508
000160 5c 45 99 3d 00 bd 9a 3d 13 65 b2 3d af 05 76 3c
       0.074839324 0.0755558 0.087106846 0.0150160035
000170 2d 8c 84 bc 95 ba 97 bd c8 95 39 3c 4e 75 e7 bc
       -0.016180122 -0.074086346 0.011327215 -0.028254177
000180 da 41 ee 3c 55 53 e3 3c e8 ce 0c 3e c9 2b ee bb
       0.029084135 0.027749697 0.13750803 -0.007268403
000190 f8 ae c7 3d 19 74 af bd f1 16 e2 3d bd ba 3a bc
       0.097501695 -0.08567066 0.11039532 -0.011397061
0001a0 8f 7c dd bd 9e 3f 72 bc da eb 33 be 1c 12 a9 bd
       -0.10814773 -0.014785675 -0.17570439 -0.08255407
0001b0 48 10 d9 bb b7 9e 44 bd c7 82 b2 3b d3 d8 d1 bc
       -0.0066242553 -0.048002925 0.005447719 -0.025616085
0001c0 30 94 c0 3d 57 22 a8 bd e9 19 32 3d 7d 79 2c 3d
       0.094032645 -0.08209675 0.04348174 0.042108048
0001d0 4b 8b 8d b9 18 7f 9b 3d 6a 20 cd bd 19 cb b2 3c
       -0.00026997397 0.075926006 -0.10015948 0.02182536
0001e0 88 f5 48 3c ee b6 10 be 8f b0 e5 bd cf 27 8f 3c
       0.01226557 -0.14132282 -0.112153165 0.017475037
0001f0 e5 05 06 3e 13 91 c0 3d 6a 33 8f 3c 85 28 7e bd
       0.13088186 0.09402671 0.01748057 -0.06205036
000200 b8 d8 ec bd 15 ae 0f 3e c6 f4 23 be b1 2c f2 bc
       -0.11564773 0.14031251 -0.16011342 -0.029562326
000210 b3 98 fc 3d fc 7e 8f 3c 5c 12 94 3d a0 9a 8a 3d
       0.123338126 0.017516606 0.07230064 0.06767774
000220 7f 32 ad 3d 2e 1d 35 bd 8c a6 fa bc 1a 45 04 3d
       0.08456897 -0.04421728 -0.030596994 0.032292463
000230 fc c0 d6 bd ec 84 32 bd 22 81 9a bd b5 a5 80 3c
       -0.104860276 -0.043583795 -0.075441614 0.015704015
000240 f1 cf 2e 3d e5 17 f9 3c 94 1a 5e bc 69 3e 42 3d
       0.042678777 0.030406902 -0.013556141 0.0474228
000250 24 2b c5 3d 16 5f eb 3d 6b e3 17 bc 75 aa 34 be
       0.09627369 0.114927456 -0.009270529 -0.17643149
000260 6d 7f 99 3c 93 50 21 be c9 4d 28 3e fc ae ec bd
       0.01873752 -0.15753393 0.16435923 -0.11556813
000270 49 b9 a6 3d b4 4c 8c 3d b5 e7 02 be 79 cc 49 3d
       0.08140809 0.068505675 -0.12783702 0.049267266
000280 a5 2f 3b 3d b3 83 5a 3d 40 6a 79 3c 21 a3 d2 b7
       0.045699734 0.053348254 0.015223086 -2.5109914e-05
000290 b0 2c 4b 3d bd ae d8 bd 1e 9d a6 3d b6 af 7c bd
       0.049603164 -0.10580204 0.081354365 -0.06169101
0002a0 15 15 f4 3d 8a 20 06 3d 5a a4 69 bd c4 ed 1a 3d
       0.119180836 0.032745875 -0.057041503 0.037824407
0002b0 c0 b0 81 bc 1f 1b 2c 3e 48 42 92 3d 36 46 a1 bc
       -0.015831351 0.16807221 0.071415484 -0.0196868
0002c0 ca 5f 91 3d 93 97 dc 3c 7a 48 a8 bc 01 76 91 3d
       0.070983484 0.026927745 -0.020542372 0.071025856
0002d0 0b 81 01 3e 89 22 b3 3d f6 12 b4 bb a2 92 2e 3d
       0.12646882 0.087468214 -0.0054954244 0.04262031
0002e0 b1 58 c7 3d 5a 8f 15 3e 0a 51 2d 3d 78 2c bc 3c
       0.097337134 0.14605466 0.042313613 0.022970423
0002f0 eb a4 b8 bd 29 d4 b0 bd f9 e9 a4 bd b9 33 f7 3c
       -0.090158306 -0.08634216 -0.08052439 0.03017603
000300 a9 1a ae bd ba da f2 bc 85 e4 b2 bd 88 ad 1a bd
       -0.08501179 -0.029645313 -0.08734993 -0.03776315
000310 2f db 20 3e e3 ad 41 bd fd a5 61 3d f9 7f 9c bd
       0.15708612 -0.047284972 0.05508994 -0.07641596
000320 e3 20 4d 3b 44 0e 93 3d 7a 7c 84 3d 23 4a c7 3d
       0.003130012 0.07180455 0.064690545 0.09730937
000330 a3 1e e9 3b 6c b7 65 3d 5e af 13 bc e1 6c 54 3d
       0.007114248 0.056083128 -0.009013979 0.051861648
000340 2c f2 24 3d b6 0c 8b 3c f0 46 57 3c 4a 34 fe 3c
       0.040270016 0.016973834 0.013139471 0.031030793
000350 c2 e3 b7 bc 1d 1b cf bc d1 1e 91 3c 13 d2 36 bc
       -0.02244747 -0.025281483 0.01771489 -0.011158484
000360 8e ba a2 3c 06 96 a5 bd 8a ff fd 3c 73 de 7b 3d
       0.019864347 -0.08085255 0.03100564 0.06149144
000370 3f cc b1 bd e5 a4 6d 3c c2 05 b2 3d 72 bf c3 bc
       -0.08681535 0.014504646 0.086925045 -0.023895
000380 6a 61 8c bd 46 78 23 3e 57 b0 3d 3d d4 44 67 bd
       -0.06854518 0.1596385 0.04631075 -0.056462124
000390 c6 a3 50 bd 55 f2 2f be b3 91 ca bd 2d c2 e2 bd
       -0.050937437 -0.17182286 -0.09891071 -0.11072192
0003a0 08 0b 38 bd c0 a9 22 be 8d cb 03 bc 5b 68 d3 3d
       -0.044932395 -0.15885067 -0.008044136 0.103226386
0003b0 b8 b7 c9 ba 53 66 0d be 38 1c 18 3e 99 a2 30 3c
       -0.0015389835 -0.13808565 0.14854515 0.010780954
0003c0 d8 36 27 bd 98 22 8e bd a7 05 0a 3d af 33 8f 3d
       -0.040823787 -0.06940192 0.033696797 0.0699228
0003d0 60 fe 2f 3e 04 17 92 bd 54 48 3f 3c 4c b5 1b 3e
       0.1718688 -0.07133296 0.011674959 0.15205878
0003e0 e5 04 b4 3d 89 c2 ff bb d3 7e aa 3d 4e 11 ea bc
       0.08789996 -0.007805173 0.08324971 -0.028572705
0003f0 2c 7a 3d 3c 8f 04 bb 3d f4 b9 33 3c dc e8 7d 3d
       0.011564773 0.09131729 0.010969628 0.06198965

l1.1.bias f4 [784]
000000 8c be 25 bd 25 1a 1d be c5 47 80 bd 85 2b 64 3d
       -0.040464923 -0.15342005 -0.06263689 0.055705566
000010 56 7b d9 3d 6e e6 34 bd 45 cf 1f bd 12 0a e6 3c
       0.106192276 -0.044165067 -0.039016027 0.028080974
000020 98 8e 74 3c 03 5e bf 3d 58 5a 4e 3d 5e e9 80 3e
       0.014926575 0.09344103 0.050379127 0.25178045
000030 a5 4c dd 3d 71 24 3b 3d da 44 7b bc 90 73 06 3d
       0.108056344 0.04568905 -0.01533624 0.032825053
000040 be ec 63 bc 0e 7d 8c 3c 6b 05 b9 3d 38 92 10 3d
       -0.013911424 0.017149474 0.090342365 0.035295695
000050 c4 6a 7e 3d 70 13 c2 3d 3b 0f b0 3c 73 b1 8b bc
       0.06211354 0.09476364 0.021491637 -0.017052388
000060 5c b1 eb 3d 8e 2f c8 bd 1a c2 25 3e 67 83 69 3d
       0.11508438 -0.09774695 0.16187325 0.05701008
000070 8a b2 a8 3d 2b 38 72 3d 67 07 47 3d de 8c b2 3d
       0.082371786 0.059135597 0.048591044 0.087182745
000080 2d a5 ab bd da 81 a8 bc be e6 cf 3b 95 ae 81 3d
       -0.08381114 -0.02056973 0.0063446453 0.06332127
000090 dd 77 f5 bd 12 fa 3c 3d 73 7d 64 3d ac 28 6f bd
       -0.11985753 0.046136923 0.0557837 -0.058388397
0000a0 84 25 89 bd 37 b3 2e be 12 e1 6f 3e df 50 8b 3c
       -0.06696609 -0.17060553 0.23425701 0.017006336
0000b0 0b 5e 84 bc 48 63 16 bd 7d 32 ed bb 0d 15 ea 3b
       -0.016158124 -0.036715776 -0.0072386847 0.0071436227
0000c0 c6 cb 34 ba a5 0e 31 3e e4 4b 61 3e 03 e1 21 3e
       -0.00068968197 0.17290743 0.22001606 0.15808491
0000d0 14 6b 33 3d 4d fc 65 3c 19 1e 99 3c 63 c7 00 3e
       0.04380329 0.014037204 0.01869111 0.1257606
0000e0 29 d6 1e 3e a1 9b 17 bc 2d 15 8d bc e2 ca 06 be
       0.15511383 -0.009253413 -0.017222011 -0.13163331
0000f0 92 86 5e be 2a 07 56 bd fe 91 ce bd c0 d3 00 3e
       -0.21731022 -0.052252926 -0.100864395 0.12580776
000100 d0 ff 7c bb 44 f6 f0 3c 41 d5 18 be 78 fa c4 bd
       -0.0038604625 0.029414304 -0.149251 -0.096180856
000110 57 4e ac bc 7e 9b 62 3c 1b 8d 4c 3e 53 4f b7 3c
       -0.02103345 0.013831018 0.19975702 0.022376692
000120 ec 8e 30 bd 31 c1 0a bd 4e 4b 81 bd 85 ec 8a 3c
       -0.04310505 -0.033875648 -0.06313191 0.016958484
000130 28 d0 6a 3d 8b 77 c5 3d 4c 21 b1 bd 55 fa 3f 3b
       0.05732742 0.09641942 -0.08648929 0.0029293497
000140 6d ad 0f 3a fc 59 d0 bc 2c 00 c9 3d a3 94 6e 3c
       0.00054808595 -0.025433533 0.09814486 0.014561805
000150 71 2e fa 3d 4c 68 84 3d 2d 7f c2 3c 37 45 a4 3d
       0.12215889 0.064652056 0.023742283 0.08021014
000160 83 27 00 bd 83 5c 3b 3e d4 ce 28 3e de 8b 6f 3e
       -0.03128768 0.18297009 0.16485149 0.23393199
000170 b1 96 90 3d c9 a4 44 3d 59 ef 3f 3e f7 66 70 3e
       0.07059992 0.048008714 0.18743648 0.23476778
000180 74 d6 80 3e ce 32 0a bb 43 95 38 bd bf da 33 bd
       0.25163615 -0.002108741 -0.045064222 -0.043909784
000190 6b 4f 82 b9 b9 d1 65 bd 97 a3 73 be 11 4b 0b be
       -0.00024854703 -0.05610821 -0.23792873 -0.13602854
0001a0 c4 a4 af 3c ad 3f 11 3d 90 a3 0b 3b e5 a4 31 bc
       0.021440871 0.035461117 0.0021307208 -0.010842537
0001b0 78 35 d2 3c c1 7b b4 bd 33 2a 19 be 4e 21 bd bc
       0.025660262 -0.08812667 -0.14957504 -0.02308717
0001c0 58 d5 78 3b bf b9 7a 3d 0d c6 19 3d fd 88 24 bd
       0.003796896 0.061212298 0.03754239 -0.040169705
0001d0 b6 94 ac bd d2 5b 31 bd 3b 77 dc 3c 62 84 b1 3c
       -0.08426802 -0.043300457 0.026912322 0.02166957
0001e0 bc 09 b6 3d 68 74 01 3e 4e eb d5 3c 76 89 19 bd
       0.088885754 0.12642062 0.026113179 -0.03748461
0001f0 99 b8 06 be c2 20 81 bc 28 b7 03 3d 5c 46 9e 3d
       -0.13156356 -0.01576269 0.032157093 0.07728264
000200 71 66 c0 3d 97 9a d3 3d 6c f5 43 bc 3a d6 92 bd
       0.09394539 0.1033222 -0.011960369 -0.07169767
000210 07 ae e7 3c b8 66 74 3d 43 7e 27 3e e7 fd e3 3d
       0.028281225 0.059668273 0.16356759 0.111324124
000220 36 65 44 3e 11 ff ce 3d 8e 64 7b bd 74 75 b5 3d
       0.19179234 0.10107244 -0.061375193 0.08860293
000230 fa 76 f8 bd 89 ab 74 bc 6a 89 62 bc 20 d8 64 bb
       -0.12132068 -0.014933475 -0.013826707 -0.003491886
000240 2d e7 06 be 1a 6a ff 3c 02 72 d7 3b b0 32 d2 bd
       -0.13174124 0.031178523 0.00657487 -0.10263574
000250 a2 a7 97 bd 26 2d d1 ba d7 80 62 3d 16 67 92 bd
       -0.0740502 -0.001595889 0.055298652 -0.07148568
000260 95 79 4a bd db 2a 7d 3d 47 0e 81 bd c0 96 1f 3e
       -0.049432356 0.06180845 -0.06301551 0.1558485
000270 84 e6 75 3e 55 1a 0f 3e 85 19 29 3c c4 c9 13 3d
       0.24013716 0.13974889 0.010321026 0.03608109
000280 cb a9 dc 3c 7b 5f 10 3d 2c 25 fb 3d d2 75 1c 3e
       0.026936432 0.035247307 0.12262949 0.1527932
000290 ec 62 04 bd ce 7b eb bc 8e ec 45 bd 16 84 b5 3d
       -0.0323209 -0.028745558 -0.0483213 0.08863084
0002a0 93 2f ff 3d 51 2f 15 3e c6 e0 33 3d af ae 02 3b
       0.12460246 0.14568831 0.043915533 0.0019940545
0002b0 45 7f 02 be df a9 52 3c 91 f8 8c 3d ba 64 5c bd
       -0.12743862 0.012857883 0.06883348 -0.053806998
0002c0 aa 97 50 bc 93 59 08 3c b5 27 8d bc e3 9d 3d 3d
       -0.012731472 0.008322137 -0.017230848 0.04629315
0002d0 d8 66 0c 3d bc 82 75 3d 7b 36 51 3d 8b 68 2d 3e
       0.034277767 0.05993913 0.051077347 0.16934411
0002e0 e0 39 1e 3e 54 cb 01 3c e6 d5 4e be 54 ed 9b 3d
       0.15451765 0.007922012 -0.20198783 0.07613626
0002f0 3d eb 4a 3e 6c 63 5a bd 18 a7 0e 3e 49 86 42 bd
       0.19816299 -0.053317472 0.13930929 -0.047491346
000300 ac 6b 06 be db ef 6a bd 95 06 ae 3d e3 d0 1a 3e
       -0.13127011 -0.05735765 0.08497349 0.15118746
000310 ef e0 7e 3c ed 36 27 be ca a5 ef bd ed 3e 3d be
       0.015556558 -0.16329546 -0.11701544 -0.18481036
000320 09 ac f7 bd 75 d0 01 be 16 3f cf 3a a1 f9 23 bd
       -0.1209336 -0.12677176 0.0015811648 -0.040032987
000330 53 f8 1a be 4e 98 26 3d 4b 7b 93 3d be 58 91 3d
       -0.1513379 0.040672593 0.07201251 0.07097004
000340 74 ea f3 bd 50 ea 97 3c 56 60 85 bd b9 04 f9 bb
       -0.11909953 0.018544346 -0.06512515 -0.00759944
000350 c9 0f 91 3c 3e 8b 06 bd 66 4f 80 bc a9 95 bf 3d
       0.017707722 -0.032847635 -0.01566286 0.09354717
000360 f8 13 77 3d 44 82 0a bd 94 f4 e2 3d cf 69 ea 3a
       0.060321778 -0.033815637 0.11081806 0.0017884317
000370 d1 e0 9e 3c 0c ed 0b 3c d1 96 0a bc 66 fc 28 3e
       0.01939431 0.008540403 -0.008458809 0.16502532
000380 7a 7d 18 bd 5b cf c5 bd 54 4d ee bd 8b 09 d2 bd
       -0.03722904 -0.096586905 -0.11635843 -0.102557264
000390 e4 63 d0 bb 35 d2 53 3d 01 60 99 bb 62 06 a8 bc
       -0.006359564 0.05171414 -0.004680634 -0.020510856
0003a0 31 e4 29 3e 43 b0 26 3d a7 b7 2c 3d 5e 5c e2 3d
       0.16590954 0.04069544 0.042167332 0.11052774
0003b0 ae d5 5d bd cf bd 6b 3c 9b be a1 bd ff 49 b7 3c
       -0.05415886 0.014388516 -0.07897683 0.022374151
0003c0 dd 47 98 3d e3 b5 2d 3e de 03 99 bc a9 ec 2a bd
       0.07435582 0.16963916 -0.018678602 -0.041729603
0003d0 58 af 3b bc 62 9a a3 3d 5c 33 17 3e 90 11 0b be
       -0.011455379 0.079884306 0.14765686 -0.13580918
0003e0 a2 46 33 be 37 c1 20 bc 24 e5 32 3c 36 fb c5 3d
       -0.17507413 -0.009811691 0.010918889 0.09667055
0003f0 9f 6a 55 3d e3 8e 24 be d2 fb 95 bd 7c e5 0e bd
       0.052103635 -0.16070132 -0.073234215 -0.034886822

conv_blocks.0.weight f4 [8, 16, 3, 3]
000000 75 9b ab bd 3f 1d 42 bd fa 5e 24 be 55 f7 b5 bc
       -0.083792605 -0.047391172 -0.16051856 -0.022212664
000010 e1 f1 13 be b6 a3 2b 3d 7c 54 3d bd c8 ba 35 3d
       -0.14447738 0.041904174 -0.04622315 0.04436758
000020 1c d9 b6 3c 0a 4f 3c be 34 d2 eb bd 10 57 84 bb
       0.022320323 -0.18389526 -0.115147024 -0.004038699
000030 d4 49 68 3d 66 b5 46 bc 9b 61 7c 3b 7f ed 38 3e
       0.056711033 -0.01212821 0.0038510326 0.18059348
000040 85 88 3e bd 69 10 94 3c 55 e9 24 be 37 ec e2 bd
       -0.046516914 0.018074231 -0.16104634 -0.11080211
000050 5e 01 4c 3d 62 86 dc bd be 28 05 be 67 c2 62 be
       0.04980599 -0.10767819 -0.13003823 -0.22144471
000060 fb f6 69 be b6 ac 34 3e f4 57 a2 bd 11 45 58 3d
       -0.22848122 0.17644009 -0.07926932 0.05280024
000070 e1 84 82 3d a3 b3 91 3d 29 e0 0d be bf 03 25 3d
       0.06373001 0.07114341 -0.13855042 0.040286776
000080 eb c7 bb bd 97 79 fe bd 2d 2a f4 3c 73 eb c9 3d
       -0.09168991 -0.12425535 0.029805267 0.098593615
000090 2b 72 c2 3d d5 4f 6a bd cd aa 56 bd e6 60 65 3d
       0.09494432 -0.05720504 -0.052408982 0.056000613
0000a0 a6 a2 1f be a0 1d 3c bd 1b c1 3b 3d 1f 2f 5a 3e
       -0.15589389 -0.04592669 0.045838457 0.21307038
0000b0 a0 ed a7 bc df 17 0e be 37 44 28 3d 20 63 b8 bd
       -0.02049905 -0.13876294 0.04108068 -0.090032816
0000c0 e1 34 05 be f0 d8 62 bd b2 5f 68 bd 6f f8 0d 3e
       -0.13008453 -0.05538267 -0.056731887 0.13864301
0000d0 69 56 25 be 33 a0 a4 3d 95 27 06 bd 59 c3 08 3e
       -0.16146244 0.08038368 -0.032752592 0.13355769
0000e0 0f a7 13 3e e8 6d 9a 3d 28 8b 98 3d 31 d7 e1 bc
       0.14419197 0.07540494 0.07448417 -0.027568432
0000f0 d8 4f 77 3e c5 ec c0 3d 08 02 1a bd 89 9a ae bd
       0.24151552 0.0942016 -0.037599593 -0.08525569
000100 83 a7 85 bd 90 04 ad bd 5a 2d 6e be e1 1b 1e 3d
       -0.06526091 -0.08448136 -0.23259488 0.038600806
000110 f7 31 64 3d e5 b3 9a bd dc 96 da 3c 57 35 4e bd
       0.055711713 -0.075538434 0.026683263 -0.050343838
000120 2f 48 3b 3c d5 38 81 3e 46 f3 22 be 5b 77 e5 3d
       0.011430784 0.25238672 -0.15913114 0.11204406
000130 19 71 23 3e 1e 75 c4 3d a0 64 85 bd 0c a5 25 3e
       0.15961112 0.09592651 -0.06513333 0.16176242
000140 f0 6a d0 bd 85 7d 0a 3d ca 8b f1 3a 1e d9 0b bd
       -0.10176647 0.03381111 0.0018428501 -0.034142606
000150 08 6a 6b 3d ab 2a 3c 3c a8 6a a9 bd 3f 03 1c 3e
       0.057474166 0.011484782 -0.08272296 0.15235613
000160 af fd 4a 3d c6 59 72 bd 75 8b 9b 3e f1 54 25 bb
       0.049558338 -0.059167646 0.30379835 -0.002522763
000170 0e d9 06 bd 35 8c 41 be d9 7d ca 3d 5a 26 a1 bd
       -0.032921843 -0.18901141 0.09887285 -0.07868643
000180 aa 77 11 3e 6e af 8a bd f5 90 7d 3e 0e d7 04 b9
       0.14205804 -0.06771742 0.24762328 -0.00012668615
000190 76 64 29 be d7 b7 e2 3c 38 97 7d be 65 f8 46 be
       -0.16542229 0.027675552 -0.24764717 -0.19430692
0001a0 14 1d 44 3c 63 63 b0 3d 6a 27 f4 3d 89 7a 84 3d
       0.011969823 0.086127065 0.1192158 0.06468684
0001b0 b5 ff 17 be 44 6d cc bd 30 2b ce bc eb 6d 24 3e
       -0.14843638 -0.09981778 -0.025167078 0.16057555
0001c0 50 39 ac bd 23 7e 00 3d b8 33 aa bd 73 6b c7 3c
       -0.08409369 0.031370293 -0.08310646 0.024343228
0001d0 33 83 13 be c6 9f ef bd c9 06 a8 bd 33 e8 17 3b
       -0.14405517 -0.11700396 -0.08204419 0.0023179173
0001e0 6d 2f 91 be 5c 4a 8d bd be 94 0e be 70 5e 64 be
       -0.28356495 -0.068989486 -0.13923928 -0.2230165
0001f0 d1 8a 4a be 72 8a 9a 3d 83 22 9b bc 2f f5 1e 3e
       -0.19779517 0.075459376 -0.018937355 0.15523218
000200 58 70 47 bd a5 82 58 3e 8a 5c 7a 3d 70 2c cc bc
       -0.048691124 0.21143587 0.06112341 -0.024923533
000210 16 3c 4e 3d 17 a6 79 bd 0d b9 11 3c fc 21 27 3e
       0.05035027 -0.06094941 0.008894217 0.16321558
000220 66 78 0f be ef 9a 9d 3d 43 69 05 3e 08 1f 67 be
       -0.14010772 0.07695567 0.13028435 -0.22570431
000230 99 d0 2b be 2c fd be bc 8d ad 9f bd 3f b5 da 3c
       -0.16778792 -0.023314081 -0.07796774 0.026697753
000240 94 70 cd bd 34 ac 1f be f4 23 74 3d 80 fe d6 3d
       -0.10031238 -0.15593034 0.0596046 0.10497761
000250 93 22 4f 3e a5 4d 04 be e5 7a bf bb 66 ca 2c 3c
       0.20228033 -0.12920244 -0.0058435076 0.010546302
000260 4b b2 6e 3d 78 14 b2 3d f6 11 2f 3e 3b ca 04 3e
       0.058275502 0.0869531 0.17096695 0.1296777
000270 46 af 58 bd 1e 40 80 3e 4b ba ab bd 03 b5 5d bc
       -0.05290153 0.25048918 -0.08385142 -0.013531926
000280 d8 41 9e 3d 0d 12 a4 be 79 fd 0e be 9b 48 c8 3c
       0.077274024 -0.32045022 -0.1396388 0.024448683
000290 b2 f3 ac 3c b7 44 d5 3d 41 fe 11 be a3 9f 94 bd
       0.021112297 0.10413497 -0.14257146 -0.07257011
0002a0 57 c6 76 bc 00 70 9e 3d 57 d4 86 bc 1a a2 35 3d
       -0.015061936 0.07736206 -0.016458673 0.044344045
0002b0 99 10 21 3d 78 e0 b1 3c c8 eb b8 bd 67 87 80 3c
       0.03932247 0.02171348 -0.09029347 0.015689565
0002c0 2c b7 e4 bd 9f 19 09 3d a1 79 57 be 8e fe fa bc
       -0.1116775 0.0334717 -0.21042491 -0.03063896
0002d0 61 a1 3d 3e a8 70 01 be 46 19 b7 bd 19 72 6f be
       0.18518592 -0.12640631 -0.089403674 -0.23383369
0002e0 f2 93 1c bd 13 7f a0 bc ee cb 0d be 3b 84 1a bd
       -0.03822703 -0.019591844 -0.13847324 -0.03772376
0002f0 a8 9f 44 bd a5 26 39 3e f5 0d 82 3e ba d5 c1 3d
       -0.048003823 0.18081148 0.25401273 0.09464593
000300 20 d7 29 bd b1 95 dd 3c c8 c3 0f 3d 1f 30 07 bb
       -0.041464925 0.027048917 0.03509882 -0.0020628048
000310 cb 44 0d be 6a 62 47 3e 64 86 f8 3d d1 f5 b3 3d
       -0.13795774 0.19471136 0.12135008 0.0878712
000320 6c c8 7c bd 0d e2 e9 3c 73 67 ba bd 66 b6 0c be
       -0.061714575 0.028550172 -0.091017626 -0.13741454
000330 e6 d2 42 3e 2d 73 b7 bd 1d 0b ba bd 3d 68 a1 bc
       0.19025764 -0.08957515 -0.09084151 -0.019703025
000340 cf ae 48 bd 3a 74 00 bc 23 e2 d4 bd b1 e5 9c 3e
       -0.048994835 -0.007840211 -0.10394695 0.3064399
000350 f5 c5 e1 3d 5c c7 ca 3d 41 f5 6d 3e 5f b5 b2 3d
       0.110240854 0.09901306 0.23238088 0.08726
000360 84 80 6d 3c 04 32 37 bd d6 c5 cd bd 34 1b 01 3e
       0.014495973 -0.044725433 -0.100475 0.12608033
000370 e4 0a bb 3e 1f 56 11 3e 34 18 a1 3d fe d4 96 3d
       0.36531746 0.14193009 0.078659445 0.07364844
000380 33 33 d9 bd ce cb 0a 3d 33 09 83 bd 41 6c 42 be
       -0.106054686 0.03388577 -0.06398239 -0.18986608
000390 d0 73 d8 3a 58 ea 5d 3e f8 a6 07 be 4b 8d 47 3d
       0.0016514007 0.21671426 -0.13247287 0.04871873
0003a0 c2 c3 2c 3c 84 75 bc 3d 2d bf 30 bd 07 11 c6 3c
       0.010544719 0.09202102 -0.04315107 0.024178041
0003b0 b0 b8 21 3e c7 70 47 be fb 47 95 3c fd 24 a7 3d
       0.15793109 -0.19476615 0.0182228 0.08161352
0003c0 6a 99 03 be b3 1e 39 3e 49 43 50 3e 80 d7 eb bd
       -0.12851492 0.18078117 0.20338167 -0.11515713
0003d0 54 41 91 3d cf ee 29 bc cc 57 ab 3b 60 dc 3a bd
       0.070925385 -0.010371878 0.005228972 -0.045620322
0003e0 dc 25 0d 3e ba 55 a4 3d eb b5 9a bc d2 cc 58 3e
       0.13783973 0.080241635 -0.018885573 0.21171883
0003f0 4a af 67 3d 10 a5 91 3d 2f be f1 3b 49 9b ee bd
       0.056563653 0.07111561 0.007377408 -0.11650712

conv_blocks.0.bias f4 [8]
000000 89 ec 12 3e 08 14 d4 bc cf ba af bd ee f3 29 3e
       0.14348044 -0.025888458 -0.08580553 0.16596958
000010 62 fa 55 3e 80 5e 81 3d 22 dd 47 3d a6 f3 09 bd
       0.20896295 0.063168526 0.048794873 -0.033679627

conv_blocks.3.weight f4 [4, 8, 3, 3]
000000 9f 52 71 bd 8c e6 4b be bd 06 21 bd 86 8b 50 3c
       -0.058916684 -0.19912165 -0.039313067 0.0127285775
000010 12 bd 66 3e 91 d9 e8 3d c3 fb d8 bd ee 3c 75 3d
       0.22533062 0.113696225 -0.10594895 0.05987256
000020 1c ed 08 be a3 cd 45 3c e6 e2 16 3e 95 31 a5 bb
       -0.133717 0.012072953 0.14734992 -0.005041311
000030 47 2e 83 3e 76 76 10 3e 38 16 80 3e 8d eb ce 3d
       0.25621244 0.1410769 0.25016952 0.101035215
000040 2d 09 76 3e 79 08 61 3e a2 14 1f 3d a0 52 4f 3e
       0.24026938 0.21975888 0.038838036 0.20246363
000050 e3 a9 c4 3d 74 63 2c 3e c1 48 82 3e 66 3b 60 3d
       0.09602716 0.16834813 0.25446132 0.054744147
000060 d8 67 01 3e 83 00 24 3e 69 43 8a 3c 30 97 61 bc
       0.1263727 0.1601582 0.016877847 -0.013768956
000070 ee b5 c3 bd 57 e6 31 be 8e f9 07 3e 86 d6 af bd
       -0.09556185 -0.17373024 0.13278791 -0.08585839
000080 a0 ce 3e be b8 af 7c 3d 4d 8f 94 be af eb 44 be
       -0.18633509 0.061691016 -0.2901558 -0.19230531
000090 7f 87 e8 3c 95 4f 3c 3e e8 00 25 bc 9e 5d a2 3d
       0.028384922 0.18389733 -0.010071017 0.07928012
0000a0 89 35 86 3c 81 3d 2d be 64 b2 07 3d 60 54 67 be
       0.01638295 -0.16917993 0.03312911 -0.2259078
0000b0 c9 03 d7 bd 76 58 95 be d8 42 a7 bd 71 8f 09 bd
       -0.10498769 -0.29169053 -0.08167046 -0.033584062
0000c0 f5 29 03 3c 37 ca 09 3e 08 d7 f0 bd d4 ea 2f 3e
       0.008005609 0.13456045 -0.11759764 0.17179424
0000d0 25 69 4d bc 5a 22 51 be c3 ca 08 be 64 92 25 3e
       -0.012537275 -0.2042326 -0.13358597 0.16169125
0000e0 b6 f4 00 3e b5 a7 b6 3d 5d ad c6 3e e1 e8 77 3e
       0.1259335 0.08918706 0.3880414 0.2420993
0000f0 d3 7b 0e 3e c7 38 75 3e d3 f8 df 3d 0b a0 57 bc
       0.13914423 0.2394744 0.10936131 -0.013160716
000100 2c 72 e7 bd a7 1c 85 be ba 0d 75 bd ad 2e 54 be
       -0.113010734 -0.25998423 -0.059827544 -0.2072093
000110 d6 09 c0 bd ee 42 c6 bc 8f ce c6 3d b9 b0 55 3e
       -0.09376876 -0.024201836 0.09707367 0.20868196
000120 45 ff a5 bd 4a e0 b0 be 09 f1 71 be 2e 23 41 bb
       -0.081053294 -0.3454612 -0.23627104 -0.0029470432
000130 f0 f8 2d 3e 8c 74 40 3e bc fb 39 be 21 7d ab 3d
       0.16989493 0.18794459 -0.18162435 0.08373476
000140 0b c8 dd bd 23 b5 13 be aa b0 49 be 2c 37 da be
       -0.10829171 -0.14424567 -0.19696298 -0.42620218
000150 0b bc a4 3d 08 83 5d 3d 8f 24 76 bd 07 4e f1 3d
       0.08043679 0.05408004 -0.06009346 0.11782461
000160 33 fc eb 3d a1 ce 6b 3b 5d 67 9c be 8c b3 10 bd
       0.115227126 0.0035981315 -0.3054761 -0.03532748
000170 f5 d4 a3 be be 8e aa 3d 40 f9 52 3e bc fb 4e be
       -0.3199841 0.08328007 0.20602894 -0.20213217
000180 7f ac ef 3d 4c a7 a5 3e 62 a6 25 be 4a 85 50 be
       0.11702823 0.323542 -0.16176751 -0.20363346
000190 0b d2 bf 3c 2c da b5 3d d9 76 ac 3e a5 24 6c be
       0.023415586 0.088795036 0.33684424 -0.23060854
0001a0 01 3b 07 be 8e 48 cd 3d 7c 11 93 be 34 9c 7e bc
       -0.13206102 0.10023604 -0.28724277 -0.015540171
0001b0 3e 05 5b be 8b e6 28 3e 18 86 20 3e d1 74 47 3e
       -0.21388718 0.16494195 0.15676153 0.19478156
0001c0 4e 4b d3 3e 6c 63 42 3d 4b ae 73 3d e3 ed 33 bd
       0.4126839 0.047458097 0.05949239 -0.04392804
0001d0 f1 fb 86 bd 09 c9 e9 3c a2 88 15 be a6 9d 29 3e
       -0.06591023 0.028538244 -0.14602903 0.16564044
0001e0 2d e6 a9 be ab 2f d1 3d f9 63 2a be 1e f4 0b 3d
       -0.33183423 0.1021417 -0.16639699 0.034168355
0001f0 20 2c 53 3e 4d 03 f8 bd 15 e6 2b be 95 9c d6 be
       0.20622301 -0.121100046 -0.16786988 -0.41916338
000200 8e 7e 54 3d 27 5f a5 be 35 01 0e 3e 81 05 3c be
       0.051878504 -0.32299158 0.13867648 -0.18361475
000210 e7 63 15 be b8 83 31 bd 0f f0 65 bd 25 d9 92 3d
       -0.14588891 -0.043338507 -0.05613714 0.07170323
000220 c2 d2 6c 3e 8d 5d 07 3d 82 bc 16 3e 93 ec cb be
       0.23127273 0.0330482 0.14720348 -0.3982893
000230 c7 6a 84 be 5b 0c 84 3d 15 47 83 3d ee 58 86 3e
       -0.25862715 0.06447669 0.06410042 0.26239723
000240 f2 1f a9 bd d1 d2 9a bc a8 7e 71 3d 2d 5d 78 3e
       -0.08258046 -0.018899353 0.05895868 0.24254294
000250 8c aa bd 3e 60 c0 39 3e ea e4 46 be 7b 41 3d be
       0.3704418 0.18139791 -0.19423261 -0.1848201
000260 29 02 33 bd 5b 11 8f 3d 93 91 0c 3d b5 3d 95 3d
       -0.043703232 0.06985732 0.034318518 0.0728716
000270 42 09 88 3d 08 1a 6e be 7e 18 5f 3e 48 6c 12 be
       0.06642391 -0.23252118 0.21786687 -0.14299119
000280 a3 4b d8 bd 56 03 32 be be 7a 25 bd 08 d7 1f 3d
       -0.105613016 -0.17384085 -0.04040026 0.03902343
000290 ea 3c 92 be 0b 2c 5d 3e fe cb c3 bd e9 2c 41 3c
       -0.285621 0.21598832 -0.09560393 0.011790493
0002a0 53 1a 7f be 36 8e 15 bf d3 44 82 bc 5b 4b 6d 3e
       -0.24912386 -0.5842012 -0.015901959 0.23173277
0002b0 20 90 b1 bc 6e c7 13 be 8d b0 01 be 6a b9 41 be
       -0.02167517 -0.14431545 -0.12665005 -0.18918386
0002c0 03 a1 04 3d bb bf ff bd 2c 69 46 bd 8b ac a9 3c
       0.032380115 -0.124877416 -0.048440143 0.020712158
0002d0 43 a4 8e 3e fe cc a5 3d ca bf 0e 3d 7a c4 89 3e
       0.27859697 0.0809574 0.034850873 0.26907712
0002e0 2d 5f 8d bd ae 7a 4c be 91 ba 7a be 55 8d 01 bd
       -0.06902919 -0.19968674 -0.24485232 -0.031628925
0002f0 17 f1 5e 3e 38 f9 81 be bc db c1 3c ae 36 07 bd
       0.21771656 -0.2538545 0.023664348 -0.03301113
000300 21 30 1c 3e d9 4a 54 3e 7c cb 0c be ac f8 25 3e
       0.15252735 0.20731677 -0.13749498 0.16208142
000310 52 be 9e be b8 d0 11 bd f6 33 91 be ab ea 96 bd
       -0.31004578 -0.03559944 -0.28359956 -0.07368978
000320 74 97 37 3d 5f 1a ed bd 3c 6d 6e 3d a8 e1 cb be
       0.04482217 -0.115772955 0.058209643 -0.398206
000330 37 0f d5 bd 37 78 04 bf 58 93 7c be 38 9e b6 3c
       -0.104032926 -0.51745933 -0.24665582 0.022292241
000340 80 23 a8 be f2 5d 40 be 79 1d f0 bd 22 0c ff bc
       -0.32839584 -0.18785837 -0.117243715 -0.031133715
000350 2c b0 51 3e 86 cd a5 3d 2d 6c b1 3d f3 1f 20 be
       0.2047736 0.08095841 0.08663211 -0.15637188
000360 2f ff 11 bd 13 45 30 3e f1 a7 5c 3c 57 cc a5 3d
       -0.035643753 0.1721385 0.013467775 0.08095615
000370 bb 5f 46 be d0 72 df bc cb bc 37 3e f3 c3 88 3d
       -0.19372456 -0.027276427 0.17943113 0.06677999
000380 ca 0a 58 3e 2d 67 24 bd 96 b5 b1 bd 4c 13 c5 3d
       0.21097866 -0.04013746 -0.08677213 0.09622821
000390 7e 28 61 be 56 53 65 be fd aa 4f be 34 97 c7 bd
       -0.21988103 -0.22395071 -0.2028007 -0.097456366
0003a0 82 dc 90 be 80 22 64 be 77 ac ca bd 92 12 86 be
       -0.28293234 -0.22278786 -0.09896176 -0.26186043
0003b0 f2 72 7a bd b9 6d ba be 74 ea 6f be 4e 2b 9c 3a
       -0.061144777 -0.36411837 -0.2342928 0.0011914761
0003c0 32 bb 80 bd 38 fb 1c be cb 9c 9e bd e6 1c 32 3d
       -0.06285705 -0.15330207 -0.0774475 0.04348459
0003d0 25 64 0a 3e 58 60 85 3d 8e af 75 bd 7d 14 8f 3c
       0.13514765 0.06512517 -0.059981875 0.017465824
0003e0 eb ec 23 3e 2c 9e 44 bd 63 7e 1a 3e 0e 26 af 3d
       0.16008346 -0.048002407 0.15087275 0.0855218
0003f0 3b b6 23 3e c9 62 ec bd 17 ce 4f 3c 5b c5 91 bc
       0.15987484 -0.11542279 0.012683413 -0.017794302

conv_blocks.3.bias f4 [4]
000000 51 56 c7 3e 37 47 01 3e 4f 2d 1e 3d 25 8e 58 3f
       0.38933042 0.12624823 0.03861743 0.84591895

conv_blocks.6.weight f4 [1, 4, 3, 3]
000000 c9 5c 91 be 41 3e e2 bd 04 7c dc be 1a f4 d6 be
       -0.28391102 -0.1104703 -0.43063366 -0.4198311
000010 bd 70 ca bd 4c 27 df be 25 d7 a3 be e6 20 a6 be
       -0.09884784 -0.4358467 -0.3200008 -0.32446975
000020 77 96 11 be 33 58 16 bf 62 25 2d bf 3b 32 54 3b
       -0.14217554 -0.5872833 -0.67635167 0.0032378573
000030 24 7a 72 bf 69 c6 fe be d9 b6 13 b9 3c b6 39 be
       -0.9471762 -0.4976075 -0.00014087129 -0.18135923
000040 1d 19 e5 bd 74 43 ee bd ec d4 0b 3e 29 56 aa 3d
       -0.111864306 -0.116339594 0.13655442 0.08317215
000050 f6 84 a7 3e fe f4 18 3e 13 b8 0f bf f9 32 14 bf
       0.3271863 0.14937207 -0.5614025 -0.5789028
000060 ea 1e be bd 60 37 87 bf 2c 78 60 be be 20 13 3d
       -0.0928324 -1.0563774 -0.21920842 0.035919897
000070 f9 e4 6e 3e 08 9b 7c bb 13 15 a1 3d 9a 04 ed 3e
       0.23329534 -0.0038544554 0.07865348 0.46292573
000080 04 5c 90 3d e5 f8 05 bd c3 ed 6a 3e 73 c6 28 be
       0.070488006 -0.032708067 0.22942261 -0.16481952
