mnist_gan/MNIST_GAN_CNN/save/G--50.ckpt (torch_old, 945929 bytes, 9 tensors)

l1.0.weight f4 [256, 128]
00000000: 8302 933d 2105 153e dc97 2e3c 24ac 273c
00000010: 2f7a e13c c579 ed3d 33c8 abbd ea2f e9bd
00000020: f905 3c3d 3d74 f3bc 1df9 e4bc ba4f bbba
00000030: 814c f7bc 6079 1cbd 0b63 90bd f81e 37bc
00000040: 5675 d93c 45e1 bebd 9311 a43d c383 d839
00000050: beed cdbc c072 483b 3671 e4bd 07ff ba3d
00000060: 6791 053e 0205 a23d 6577 223d f12d f6bc
00000070: 3d32 59bd 7bb5 6d3d 3b39 9a3d e72b 0d3d
00000080: f3e4 4e3c 7a62 4dba 440b e93c 23b1 a2bc
00000090: bece a33d 5581 9bbb fa34 39bc c08d 093c
000000a0: ffee 1b3d 07e1 22ba 7ce3 5f3e 1214 53bd
000000b0: 72cc afbc 9cff 9ebc 97ae 5a3d 72e5 dcbd
000000c0: 7387 e53c 36ec 953d d5a2 89bd e2ec f4bc
000000d0: 60f2 2b3d 026a d1bd ce18 2cbd bbb8 c3bc
000000e0: 7e9b 823d b9d3 b33c 3b93 76bd c602 753d
000000f0: 51c3 87bd c7e6 593d 0778 89bc 9512 97bd
00000100: 0394 383d 5db6 f03c 13d1 f93d 5b0b 103d
00000110: 7257 2ebe 0f60 ebbd b566 013d 87f2 10bd
00000120: fea0 e13c 676a 77bd 2db3 ec3c 3b37 f3bd
00000130: 2a79 8d3d 2310 a03d 645d 633d 7cce 0f3e
00000140: 11e7 74bd cd87 5ebd 80aa 863d af87 c93d
00000150: 9ad5 313d 48c4 19be f6d1 46bc 9037 a4bc
00000160: 982e 31be 7582 ef3d c84b 4e3d a852 273a
00000170: 9652 e23d f7c2 97bd dcbd c63d 538a 003d
00000180: e905 643d 31b3 c7bd f905 6cbc 48f1 6abc
00000190: e86f 74bd b7ad e73c 7126 f23d 3647 d8bc
000001a0: d2ca 1c3c 20cd 593d 8588 963c 824e c5bd
000001b0: 28df 003d a913 23be 91e5 ca3c 19e2 4bbd
000001c0: c2c2 cebc 18b1 073d db42 13bd 4a9c 903d
000001d0: b565 be3d c33d 1b3d a1e3 29bc 49a0 643d
000001e0: 8200 2abd 41b2 f33c dd61 56bd bf77 05bc
000001f0: d6e2 593d f14a efbc 74a0 903c 35ae b3bd
00000200: 475c 263c daa5 813d e6c4 293d 2129 b43c
00000210: 757f 21bd 2306 83bc 0cba b63c f3d3 f4bd
00000220: 70d1 1d3d 4e9e f93c f58d a1bb 0aaa 81bd
00000230: d039 143d 3f1b 9dbd 4600 bebd 959d 7fbc
00000240: 8e4f 133e e1bf a5bd 79fe 5dbd 092b c03d
00000250: d2fd 2a3d 7cbb 993d dd21 9bbd b1e7 d63d
00000260: 8c70 f13d e35b bcbc 3f29 563d 55a9 80bc
00000270: 98c2 e63d 34e8 e53d 99cc 40bd 4eef 9e3d
00000280: 100f a2bd 1a80 f0bb 6405 27bc bf7d c93d
00000290: 825f c9b8 09d0 dcbd 361b 96bd 0726 6fbd
000002a0: e829 833c 47db 1fbe 4c07 c9bd 02c4 82bb
000002b0: 3212 46bb 5339 8cbd aa44 0a3c 0e2b 2e3d
000002c0: af6f 3c3d 1304 903d c1b1 a4bd 1c7f 243b
000002d0: 9b02 c0bd 7eef 1cbe c1fc 9fbd 8d4b 0c3d
000002e0: d5ae af3c 0d23 8cbd dc7c 173d dc2a a13d
000002f0: d047 12be c278 153b 9c88 1ebd 1176 ffbb
00000300: d0dc 0e3e c299 403d 1344 b3bc d6d2 2a3d
00000310: fdb9 243d 7df1 823d 7547 e1bd 5b1a 4e3c
00000320: a6e2 38bc dbf4 493d a2e0 d13a 7fde 24bd
00000330: 735b eabd b146 cfbd f832 e6bc d3ea 5ebd
00000340: 3be5 ae3d 4ea0 f1bc 45dd 883d fb49 be3d
00000350: b53c 933d dd97 4a3d 9f8c b93d fcbf 813d
00000360: f639 473d 9efd 98bc ecb8 383d 1e6d aabc
00000370: 7d6f 143c a52e febc 37c4 e0bc 0cbe b43d
00000380: 3d20 5dbd 746b 61bd 777f 1dbd 9d78 833d
00000390: 2a9a 32bd aa43 0c3e 003a 2e3d face 9f3d
000003a0: 0666 1e3d 9108 103c a99e 243e b61b 1abe
000003b0: 293d cabd 08c0 39bd 52af 09bb 0daa a6ba
000003c0: 9e34 84bc 125f 9bbc bf95 dd3b 6266 f83d
000003d0: 3f0a 0bbd f768 a7bd 9435 99bc 97af 003c
000003e0: 5f82 3f3c 2069 c1bd 6106 2cbd a2d3 d43c
000003f0: 33da c3ba 4205 233d 79ec 0bbd 5bf7 18be
0.071782134 0.14552738 0.010656323 0.010233913 0.027524082 0.11595491 -0.08387794 -0.11386092
0.045904133 -0.029718513 -0.027950818 -0.0014290728 -0.030187847 -0.03820169 -0.07050141 -0.011176817
0.026545208 -0.093203105 0.080111645 0.000412969 -0.025137778 0.0030585974 -0.11154406 0.09130674
0.13043748 0.079111114 0.039664645 -0.030051203 -0.053026427 0.0580344 0.07530447 0.034465697
0.012627828 -0.00078348035 0.028447755 -0.019859856 0.07998417 -0.004745642 -0.0113041345 0.008395612
0.03806972 -0.0006213341 0.21864122 -0.051532812 -0.021459792 -0.019408993 0.053389158 -0.10785951
0.028018689 0.07320444 -0.06720511 -0.02989811 0.041979194 -0.102252975 -0.042015843 -0.023891797
0.06377314 0.021951543 -0.060199004 0.059817098 -0.066290505 0.053198602 -0.016780866 -0.07376591
0.04506303 0.029383833 0.12198081 0.03516708 -0.17025545 -0.11492931 0.03159209 -0.035387542
0.027542587 -0.060404208 0.028894031 -0.11875769 0.06907876 0.07815578 0.055508986 0.14043611
-0.059790675 -0.05432873 0.06575489 0.09840333 0.043416597 -0.15016282 -0.0121350195 -0.020046026
-0.1730293 0.116948046 0.05036524 0.0006382861 0.11050908 -0.074102335 0.097041816 0.031381916
0.0556697 -0.09750975 -0.014405721 -0.0143397525 -0.059677035 0.028281076 0.11823738 -0.026401144
0.0095698405 0.053174138 0.018375644 -0.09634115 0.03146282 -0.15925469 0.024767669 -0.04977617
-0.025239352 0.033127874 -0.03595243 0.0706106 0.09296743 0.037900697 -0.010369212 0.055816922
-0.04150439 0.029748084 -0.052339423 -0.0081462255 0.053194843 -0.02921054 0.017654635 -0.08773462
0.010153837 0.06330462 0.041447543 0.021992268 -0.039428193 -0.015994137 0.022305511 -0.119544886
0.038529813 0.030470993 -0.0049302527 -0.063312605 0.036187947 -0.076712124 -0.09277396 -0.015601535
0.14385816 -0.080932386 -0.054197762 0.09383208 0.04174597 0.07506463 -0.07574818 0.104934104
0.11789045 -0.022993034 0.05228543 -0.015705744 0.112675846 0.1122593 -0.04707012 0.077604875
-0.07913029 -0.0073394896 -0.010194156 0.09838437 -9.6022166e-05 -0.10781867 -0.07329409 -0.058385875
0.016011193 -0.15610991 -0.09815845 -0.003990651 -0.0030223248 -0.06846871 0.008439222 0.04252153
0.046004947 0.07032027 -0.08041716 0.0025100177 -0.09375497 -0.15325734 -0.07811881 0.03425174
0.021445671 -0.06842623 0.03698431 0.07869503 -0.14285207 0.0022807573 -0.0387045 -0.007796057
0.13951421 0.047021635 -0.021883046 0.041704975 0.040216435 0.063937165 -0.109999575 0.012579526
-0.011284506 0.049305778 0.001601238 -0.04025125 -0.11443224 -0.10120905 -0.028100476 -0.054423165
0.08539816 -0.029495385 0.06682829 0.092914544 0.07189313 0.049461234 0.090600245 0.06335446
0.04863926 -0.018675622 0.04509823 -0.020803984 0.009059784 -0.031028101 -0.027437313 0.08825311
-0.053985823 -0.055034116 -0.038451638 0.064194895 -0.043604054 0.13697687 0.04253578 0.078031495
0.038671516 0.008791105 0.16076149 -0.15049633 -0.098749466 -0.04534915 -0.002100904 -0.0012715474
-0.016138371 -0.018966231 0.006762236 0.12128903 -0.03394532 -0.08174317 -0.018702306 0.007854364
0.011688798 -0.09443879 -0.04199827 0.02597982 -0.0014942348 0.039799936 -0.034161065 -0.14938109

l1.0.bias f4 [256]
00000000: e634 013f 6171 dd3e ac1f 503e 0b33 b93e
00000010: 05ec 53be 67c8 53be 74da 2fbd dc55 1fbe
00000020: 4cf3 d6bd 8105 673e 56a3 80be ab7d dabe
00000030: a288 71be 750a 1f3e 2ac4 7d3e 904c fdbe
00000040: 5ed9 7abe df37 2bbe a727 da3d 3fd5 c1be
00000050: 55d1 97bd 73a3 aa3e 558d 19be 666b cb3e
00000060: 2384 a6be bc72 95be c142 ec3d bd45 3a3e
00000070: f686 1bbe bc55 cdbe f1d3 44be 707e efbd
00000080: c0b7 c03e 72b9 643d a824 2bbe 6cdc 55be
00000090: e3be e4be 6aea a23e 54f6 79bd 6c4b 45be
000000a0: 5c42 a03e 24a0 01bf 5d24 bdbe f8c0 9c3d
000000b0: eaba 92be 8667 5fbe db13 713e 45ba aabe
000000c0: e14c bb3e 4def b13e bddf a43e 793a b8bc
000000d0: 8714 803e 5d42 b6bc c2b0 cebe 5178 95be
000000e0: 0a84 adbe 06a5 e33e 644a d23e 01bf 02bf
000000f0: 62eb 223e d581 8c3e 49d9 8d3e 23d7 ac3e
00000100: 1b2c b7be 5bf0 f7be 1cb5 0bbe e998 81be
00000110: 0334 813e 1703 d23e 7a72 843e 0cd0 07bf
00000120: ccda 00be cf7a ec3d e95b ec3e cd30 d5bd
00000130: e4dc 41be 40b7 9fbe 64bc 513e eb9e e7bd
00000140: 5dba 96be efe9 5f3c e14b 01bf 2d65 85be
00000150: 3162 c53e 32e1 513e 4239 bd3e 71b3 b33e
00000160: 6e5b 383e baf6 803e 1f75 95be 71a4 aa3e
00000170: c4a9 68bd c957 153f 3cca 6cbe fc2d 6d3e
00000180: 6735 bcbe dc4f 993d 823a d4be 55fd ad3e
00000190: 97a5 b6be 4d49 eb3e a9f4 3fbe 6f29 b93e
000001a0: f086 8f3e b1a1 c5be 8bce 05be 5b13 183f
000001b0: 58c1 873d 8adf 95be 2eb0 5bbe f52f b43e
000001c0: ec53 8dbe d032 843e ad66 cebe 8bbd 063f
000001d0: 31ed aa3e e3d7 52be c1e9 623e 7f0b 62bd
000001e0: 5070 d4be 397c f2bd f4c1 043f 9ccf 493e
000001f0: 3833 adbe a119 7fbe 9d59 f23d 571f 923d
00000200: c23e 273e 7a2c c0be 535f e83e 372a 5fbe
00000210: a793 97be 7c96 a8be 6b76 c3be 18a1 ecbd
00000220: a326 d8be 7e01 e33e 6dba 83be cf15 00bf
00000230: eec6 b43d 92f4 243e aeb3 6a3c 7013 1fbe
00000240: 0312 c2be 8c5e dfbc 2dd2 863e 98d1 2dbe
00000250: 98a9 a2be 188d 853d 10bd 8ebe 8256 c83e
00000260: 4c3c 83bb 8ec9 003f 5128 f23d dfd0 9a3e
00000270: 697d 66be 9ef0 043d b93b c83d 9d1c 2f3e
00000280: 30af d6be a026 0fbc ce1a f8bd 84ce 6f3e
00000290: cc56 e7be 7ba3 5c3e 6025 c6be b5c3 9f3e
000002a0: fde0 c3be 3bc0 aa3e 83fe a53e 1503 cb3d
000002b0: 205b a8be aaaf 6c3b f563 2fbe 9ceb 923e
000002c0: 7959 0dbe 8e09 20be 8289 823e e281 a8be
000002d0: 83cf 0abf 5cc3 debc 6c49 6a3d 7ea0 a4be
000002e0: 4e6e 7dbe 9471 8dbe d05f 0e3e 8faa 8b3e
000002f0: 2d2a 2bbe 08e0 3cbe 9809 9dbe 746e 19be
00000300: 68e7 a33e a90e 933d 2e40 e53e 9d97 0abe
00000310: 0802 03bf 478d e2be 6de6 993c 5677 d8be
00000320: fd51 213e 350c d7be 557f 9cbd aa5e ebbd
00000330: ea8c 043e 96fe 98be d20c b13e 6149 cb3d
00000340: 1c76 cdbe ba71 e63e db57 d2be 19e5 71bd
00000350: fd1b 80be 4516 463e e077 8dbe 5935 3e3d
00000360: 52e2 d3bc 93ee 8fbe 87b8 96be 1d1c 6ebd
00000370: 5554 653e e758 a53d dbc6 9b3e 2e9d b43e
00000380: 273d 99bd 0cbd 03bf 7a9a b4be 431f ab3e
00000390: e43a e13d c81f 083f 14e9 ac3e b79b 903e
000003a0: 559c 1ebe aec9 053f 2b00 123e 6843 cfbe
000003b0: 4354 efbe 178f e73e d1e5 abbe b58c 543e
000003c0: a75b 80be 9795 143f f66a d8be d36c a4be
000003d0: fcb2 0cbf 99ee bebe bcf1 683e 3c3a d7be
000003e0: 1039 c5be 004c 0a3e 1877 c4be a64c ae3e
000003f0: 1058 17bf a479 cabe ff1e d43e c1be d83d
0.5047134 0.43250564 0.20324582 0.36171755 -0.20695503 -0.20681916 -0.042932943 -0.15560097
-0.10495624 0.22560693 -0.25124615 -0.42674002 -0.23587278 0.15531333 0.24781862 -0.49472475
-0.24496982 -0.16720532 0.10652094 -0.37858006 -0.07412974 0.33327827 -0.1499532 0.39730376
-0.32522687 -0.29189098 0.1153617 0.18190666 -0.15188202 -0.40104473 -0.19221474 -0.11694038
0.3764019 0.055840917 -0.16713202 -0.20884866 -0.44676885 0.3181947 -0.061025932 -0.19267052
0.31300628 -0.5063498 -0.36941805 0.07653993 -0.2865823 -0.21816835 0.2354273 -0.33345237
0.3658209 0.34752885 0.3220195 -0.02248882 0.2501566 -0.022248441 -0.4036923 -0.29193357
-0.338898 0.4446184 0.4107238 -0.510727 0.15910104 0.27442804 0.27704838 0.33757886
-0.35775837 -0.48425564 -0.13643306 -0.25311974 0.25234994 0.41017982 0.2586859 -0.5305183
-0.12583464 0.115468614 0.46163872 -0.10409699 -0.1893192 -0.31194496 0.20482022 -0.11309608
-0.2943906 0.013666614 -0.5050641 -0.26053753 0.38551477 0.20496061 0.36957747 0.3509784
0.18003628 0.25188237 -0.2919092 0.33328584 -0.056802526 0.58337075 -0.23124021 0.23162073
-0.36759493 0.07485935 -0.41450888 0.3398234 -0.3567321 0.45954362 -0.18745674 0.36164424
0.28032637 -0.38599923 -0.13067071 0.59404534 0.06628674 -0.2927211 -0.21453926 0.35192838
-0.2760309 0.25820017 -0.4031271 0.5263297 0.33384088 -0.20590167 0.22159483 -0.055186745
-0.41491938 -0.118401 0.5185845 0.19708103 -0.3382814 -0.2491212 0.118334986 0.07134884
0.16332534 -0.37533933 0.45385227 -0.21793447 -0.29604837 -0.3292731 -0.38176283 -0.11554164
-0.42216977 0.44337076 -0.2572817 -0.5003328 0.08827005 0.16108921 0.014325066 -0.15534759
-0.37904367 -0.027266763 0.26332226 -0.16974485 -0.31770015 0.06521052 -0.27878618 0.391285
-0.0040049907 0.5030755 0.11824096 0.3023748 -0.22508778 0.032456033 0.09777016 0.17100759
-0.41930532 -0.008737236 -0.121144876 0.23418623 -0.45183408 0.21546738 -0.3870039 0.31204
-0.3825759 0.33349785 0.3242074 0.09912697 -0.32882023 0.0036115446 -0.17127974 0.2869538
-0.13803662 -0.15628645 0.25495535 -0.32911593 -0.5422289 -0.027192764 0.057198927 -0.32153696
-0.24749109 -0.27625716 0.13903737 0.27278563 -0.16715308 -0.18444836 -0.30671382 -0.14983541
0.32012486 0.071805306 0.44775528 -0.13534398 -0.51174974 -0.4424841 0.018786633 -0.42278546
0.15753932 -0.420015 -0.07641474 -0.11492665 0.1294438 -0.29881734 0.34580094 0.09926105
-0.40129173 0.4500864 -0.41082653 -0.059056375 -0.25021353 0.19344433 -0.2763052 0.046437595
-0.025864754 -0.28111705 -0.29437658 -0.05813228 0.22395451 0.080735974 0.30425152 0.3527617
-0.07482367 -0.5146034 -0.35274106 0.33422288 0.109975606 0.53173494 0.33771574 0.282438
-0.15489323 0.52260864 0.14257877 -0.40481114 -0.46743974 0.45226356 -0.33573774 0.207568
-0.25069925 0.58040756 -0.42269105 -0.32114276 -0.5496061 -0.3729141 0.22748464 -0.42036617
-0.38520098 0.13505554 -0.3837211 0.34042853 -0.5911875 -0.3954593 0.41429898 0.105832584

l1.1.weight f4 [784, 256]
00000000: 35f5 dc3c 0b82 1bbe e5f6 1a3e da59 20bd
00000010: 9d5f f73c 61b5 06bd 082b 3b3c 00e4 333e
00000020: dadc d83d 544f 45bd 5460 243c ba5e 143e
00000030: 3a6b 6ebd 58ab 923c ca78 ba3c f2f5 7ebd
00000040: dc4a 7ebc 6483 67bd 390e 813c 29d9 a23d
00000050: edaa a03d 2c3f 7d3c 44f3 4f3d ac8b 0fbe
00000060: c5f4 98bc e10e ee3d 693b 0ebd 8ca4 063d
00000070: 7cda 853d c8d5 c13b d279 3abd 213f aabd
00000080: 17a3 13be 8de1 57bd cf07 00bd d318 f83c
00000090: 8c10 973d 20bf be3d b760 3c3d 0760 e13d
000000a0: d353 cdbd 6596 953d 107d 683d 1330 67bd
000000b0: 71e3 9cbc 392e c53d d006 0f3d 4151 c33c
000000c0: b0b6 a03d 5b98 a7bd 440c 7b3b 0de9 febd
000000d0: 9c41 dbbd f27f 873d 40ee 903d 84c2 123d
000000e0: d870 6f3d 9141 35be ab2b 4ebe 5ee8 9b3d
000000f0: 9ec8 0e3e 462c cdbd a9b0 14be ce18 b93d
00000100: 3f3c d43d d1dc 273e c29e 993d 1920 aa3c
00000110: 6dba 473c 74ab 40bd 0906 65be 57c6 3c3e
00000120: 8834 8dbd 851f fc3c f903 483b c484 893d
00000130: 42cb 48bd 4f3b 213e 8903 aabc 51c6 4b3d
00000140: a783 1b3d d3fc 45bc c22e ed3d 0773 113c
00000150: fb7f 58bd 9b64 3a3d 0b55 25bd 2c38 5fbd
00000160: bd7a e13d 193a a53d 31ca 113e 48b7 303d
00000170: ffbc 4cbb c6aa a1bd c8fc 473c dbb6 83bd
00000180: 5824 323d 5647 eb3c 35bf 053e b1e8 883c
00000190: 713e ad3d 6ac7 c7bd 64a3 e03d 1f9c 57bd
000001a0: 52d0 0ebe 0c0f e7bc 7e64 41be f4ee c2bd
000001b0: e008 27bd 0e3b bbbc 0364 aa3b 0396 2cbd
000001c0: 54a0 ab3d ec7b 8fbd fbd0 d63c 45f2 8d3c
000001d0: 38d2 433d 6576 8c3d ac7d febd e0d7 b43c
000001e0: da60 0c3d db94 3dbe 5c9d debd ca4e 7d3c
000001f0: 9743 2d3e 92e8 e63d a99d 323d c92c bbbd
00000200: 4968 25be 6f7b fe3d ab79 48be 6c67 103c
00000210: d598 173e 580c b1bc 7414 9c3d 00a6 c53d
00000220: a3bf c33d 4a30 4dbd 20d6 3cbd 4620 433c
00000230: 1f35 ddbd 0b75 97bd 23d5 29bd f7c4 0a3d
00000240: c031 093d ab0e 543d c9e6 f73c 5679 753c
00000250: 3e67 1f3e 089a f43d 345b 44ba 3a3e 02be
00000260: a481 8b3c 0436 2ebe 58c3 303e 337c dabd
00000270: 70c7 bc3d 25ab 8f3d b8b1 03be 75d4 903d
00000280: 637e 8e3d abe2 a13d 5348 8a3c fbf7 bfbb
00000290: 867d 1a3d fcf8 11be 710b 0d3e 9e3c 8abd
000002a0: 1b6a ff3d 238b 7b3c 9fc5 1ebd 90a6 de3c
000002b0: 05c5 19bd 9e09 1b3e 6beb d83d 42dd a4bc
000002c0: c988 eb3d 773c b53c 42c0 643c e8ac b73d
000002d0: 68d4 0f3e d5b7 a03d 4690 a53c 1579 db3c
000002e0: edb2 063e aa4d 2b3e 5fe6 9e3c ea2c 113c
000002f0: 20bc 97bd df6d e1bd 0411 abbd 77b8 edbc
00000300: cef0 c5bd 957d 10bd 9876 8abd 5475 0dbd
00000310: d4b7 353e 9b45 0fbd 0723 db3c b7ba 89bd
00000320: cab7 b0bc 4955 353d 0a34 3f3d fa22 003e
00000330: ed4f 9d3b 2f1e 953d 72e7 3cbb 3bd1 683d
00000340: a1a6 3e3d ec51 333c 68e1 483c cab6 c13c
00000350: e153 f3bc 4742 58bd f587 0f3d 4dac 1ebd
00000360: 77bb c43c e5ef 5dbd 83a8 7a3d ed63 f13c
00000370: fd73 19be 7653 adbc bb57 ea3d 427d d8b9
00000380: b64a a7bd b10a 3a3e a52e 953d a721 05bd
00000390: ce52 76bd 3e26 23be 8105 00be 7c45 6cbd
000003a0: 7392 40bd c0e8 41be dd9d 00bd 366d f33d
000003b0: 509e 0dbc 3808 51be 98c6 153e d069 e8bb
000003c0: aa31 26bd a0a9 aebd 6003 7a3d 0fbc 9e3d
000003d0: d169 4a3e 062b 39bd ab4c 18bb 4f98 403e
000003e0: fa16 ab3d efb4 1fbc 0245 d83d 49a2 ccbc
000003f0: 332f ea3c 58a4 423d ed26 7bbc da29 753d
0.026972393 -0.15186326 0.15133245 -0.03914819 0.03019696 -0.03288782 0.011423834 0.17567444
0.10588999 -0.048171356 0.010032732 0.1448926 -0.058207728 0.017903969 0.022762675 -0.06224627
-0.015520778 -0.05652179 0.015753852 0.07951576 0.078451015 0.015456956 0.050769106 -0.14018124
-0.018671403 0.11623932 -0.034724627 0.032871768 0.06535813 0.0059153773 -0.045526333 -0.08312822
-0.14417683 -0.052705336 -0.031257447 0.030285275 0.07376203 0.09313798 0.045990672 0.11004644
-0.10025754 0.07304076 0.056759894 -0.05644233 -0.019151421 0.09627957 0.034918606 0.023842456
0.07847345 -0.081833564 0.0038306871 -0.12446795 -0.10705873 0.066162005 0.070766926 0.035830036
0.058457226 -0.17700793 -0.20133846 0.0761268 0.13943717 -0.1001821 -0.14520516 0.09037934
0.103630535 0.16392829 0.07500984 0.020767258 0.012190443 -0.04703851 -0.22365583 0.18435036
-0.06894785 0.030776748 0.0030519946 0.06714776 -0.049021967 0.1574528 -0.020753639 0.049749676
0.03796735 -0.012084204 0.11581184 0.008877522 -0.052856427 0.0455061 -0.040364306 -0.05449693
0.110097386 0.08067722 0.14237286 0.04314354 -0.003124058 -0.078939006 0.012206264 -0.06431361
0.04349169 0.028720539 0.13061221 0.016712518 0.084591754 -0.09754832 0.10968664 -0.052639123
-0.13946655 -0.028205417 -0.18885991 -0.09518233 -0.04077995 -0.022855308 0.0051999106 -0.04213525
0.083801895 -0.07006058 0.026222697 0.017327437 0.047807902 0.068585195 -0.12426314 0.022075593
0.034272052 -0.18513815 -0.10869858 0.015460679 0.16920315 0.11274828 0.043607388 -0.091394015
-0.16153063 0.12425887 -0.19577663 0.00881372 0.14804395 -0.021612331 0.076210886 0.096508026
0.09558036 -0.05009488 -0.046102643 0.01190955 -0.10801148 -0.07395371 -0.04146303 0.033879247
0.03349471 0.0517718 0.030261414 0.014982542 0.15566728 0.11943442 -0.0007490397 -0.1271905
0.01702959 -0.17012793 0.17262018 -0.1066822 0.09217727 0.07015065 -0.12860763 0.07071773
0.069577 0.079045616 0.01688019 -0.005858419 0.037717365 -0.14255136 0.13773896 -0.06749843
0.1247141 0.015352997 -0.038762685 0.027179033 -0.037541408 0.15140387 0.105917774 -0.020125035
0.11500699 0.022123558 0.013961853 0.08968526 0.1404587 0.07847563 0.020210396 0.026791135
0.13154192 0.16728845 0.019396959 0.008860806 -0.07408929 -0.110072844 -0.08352855 -0.029018624
-0.096650705 -0.035276014 -0.06760901 -0.03453572 0.17745906 -0.03497849 0.0267501 -0.06725066
-0.021572012 0.044270787 0.046680488 0.12513342 0.0048007877 0.07281148 -0.0028824476 0.056840163
0.04654563 0.010944825 0.012260772 0.02364673 -0.029703083 -0.052797582 0.035041768 -0.038738538
0.024015171 -0.05418386 0.06119586 0.029466594 -0.14985652 -0.021157961 0.114425145 -0.00041292055
-0.08168547 0.18168141 0.07284287 -0.032502797 -0.060137562 -0.15932557 -0.125021 -0.057683453
-0.047014665 -0.18936443 -0.03140055 0.11886065 -0.008643702 -0.20413291 0.14626539 -0.007092692
-0.040574707 -0.08528447 0.061038375 0.07750713 0.19766928 -0.045207046 -0.0023239057 0.18808101
0.08353992 -0.009747728 0.10560037 -0.024979727 0.02858696 0.04752001 -0.015329105 0.059854366

l1.1.bias f4 [784]
00000000: ae79 5cbd 6966 c1bd 7840 a3bd 73ef 283d
00000010: bf8e f53d 0482 cabc 3a86 053d c12f 483d
00000020: 3828 423c e1a5 9a3d 1660 f53c a154 733e
00000030: a510 963d 1528 1c3d 0bb7 20bc 2074 983c
00000040: 5b77 e63c 2836 f93c c50b 9d3d 9964 0e3c
00000050: 8816 1c3c c8f9 ba3d 7bf8 323c a3cb f33b
00000060: 6c08 ec3d f4a0 ebbd 6d70 383e 77de be3d
00000070: 0a33 ba3d e246 323d 278b 583d 22b1 7a3d
00000080: 512d b1bd a3b9 c4bc 9d73 3b3d 0d4f 083d
00000090: 2c99 f9bd 6c53 173d a825 9d3d b03b 42bd
000000a0: 00f3 bfbd ad1d 62be e5cd 7e3e 2395 193d
000000b0: 8dc5 0ebd cf9d babc 4728 08bc 9451 c43c
000000c0: 6fd1 3abd dfec 2d3e f96d 653e 7128 283e
000000d0: 33a9 37bd 1416 d63b c53e a1bc c691 fd3d
000000e0: 75d1 163e b5fb 60bc f3e2 cabc 7a5c 42be
000000f0: e5f0 60be e080 ddbd 1ab8 bdbd 705e 033e
00000100: 0814 a03c bef8 263d fa64 35be 77db 15be
00000110: 4f42 28bd 0da5 563d 529b 553e be57 8a3c
00000120: db24 20bd d10c 17bd bb2d a5bd 554d 153b
00000130: 221d b53d 14af 413d 4114 f5bd 8bcc 3739
00000140: 6643 1a3c 88b3 5fbd ff15 8f3d 0cb6 2f3d
00000150: a377 0c3e a27f 223d 372a 713c 94e7 bf3d
00000160: 14bf dabc 167f 5a3e 0067 673e c4a9 693e
00000170: eab9 053e 75a1 973d 8eb9 4d3e 6379 653e
00000180: 9331 773e d03d 80bb fad2 40bd e275 2dbd
00000190: d4c4 fab9 1b06 8dbd 3795 83be 730a 46be
000001a0: c8c9 123c a5dc 343c 7cf7 5c3c 7b93 0bbd
000001b0: 8410 a93d 7f78 85bd b652 24be 1d53 e2bc
000001c0: 3bd2 ba3c 4d5b 743c 48e3 213d a945 ebbb
000001d0: 1825 babd c7d9 51bd 3182 6c3c c944 993d
000001e0: 1365 913d 8f08 d93d 1788 193d 9f4a 30bd
000001f0: 21c3 30be 29ff 94bd 8e76 313d fe45 cf3d
00000200: a10a bc3d 2c39 9e3d 49e3 69bc 370d 95bd
00000210: b626 48bb f6f8 d83c b4e9 1d3e 2dca 6e3d
00000220: ec7d 513e f852 133e 0c72 a7bd 3bbb e33c
00000230: d646 d6bd 4dee 9fbb 67b7 993c c211 3dbc
00000240: 2e88 e5bd bf90 323c cbf3 6b3d 2ddb c9bd
00000250: fec1 b8bd 1564 c3bb 0c72 c53c 5002 debd
00000260: 2c94 94bd 2809 5e3d 663b 79bd 38f5 363e
00000270: 862e 773e 4955 143e dc96 92bc f74b 8d3d
00000280: 06a5 2a3d 6d35 f83c a106 003e bd91 0a3e
00000290: 2722 8abc e983 1fbd 3197 83bd fb24 a93d
000002a0: e146 ed3d 7567 1c3e 142a d63d dae3 9c3d
000002b0: 0d9b e8bd c4eb e63c 675d 3e3d e65b c7bc
000002c0: 8399 38bc 5780 9a3c 35be 86bc 4c02 873d
000002d0: e5cd 253d 66b0 453d 5bcd ba3d b9f0 363e
000002e0: 4a41 bf3d 7814 8e3c 5b34 49be 3ada 283d
000002f0: bd9b 2b3e a94a aebd 025f ff3d af71 11bd
00000300: e39b b6bd ff8e a7bd 88a7 523d 754a cb3d
00000310: 248a 66bc ce04 2bbe 09e7 bdbd d854 4ebe
00000320: 15c7 f4bd 055e 01be 7ad1 88bb 8cce 80bd
00000330: df5d 12be 3475 6d3d f7f2 8c3d 79b7 de3d
00000340: 5ef3 bebd e5ba 87bb 939e 6ebd 1572 bd3c
00000350: 8111 f93c ff1c 18bd da9f 403b 7745 a93d
00000360: 91e1 28bb de02 e6bc 1ca3 e53d 27dc 9cbb
00000370: 0452 84bc b4e4 db3b a56e b9bc 46aa 023e
00000380: f570 7cbd 27b3 0bbe 8697 0fbe 0482 afbd
00000390: 6d76 0abb 02a9 d33c 826f 953d fc0d a9bb
000003a0: 46b0 0f3e 6eed 8f3d 0192 803d b139 a73d
000003b0: 951d acbd beed 033d 4b1d a6bd 5366 223d
000003c0: 9bd8 b93d 4184 4a3e 6658 17bd 4ec5 12bd
000003d0: f9a1 babc 2419 ef3d 3219 2d3e 4747 26be
000003e0: e81a 69be 7775 13bd cf1f b7bb ca77 053e
000003f0: 6700 323d be33 25be c928 b1bd 3c0b a8bc
-0.05382698 -0.09443361 -0.07971281 0.04124398 0.11990117 -0.0247202 0.03259871 0.048873667
0.011850409 0.0755117 0.029953044 0.23762752 0.073273934 0.038124163 -0.009809266 0.01861006
0.028133085 0.030421332 0.076682605 0.008690977 0.009526856 0.09129673 0.0109235 0.007440047
0.11525044 -0.11505309 0.18011637 0.093197756 0.09091766 0.04352463 0.05286708 0.061204083
-0.086512215 -0.0240143 0.045764554 0.033278514 -0.12187418 0.03694479 0.07673198 -0.047420204
-0.093725204 -0.22081633 0.2488323 0.037495743 -0.034856368 -0.022780327 -0.008310384 0.02396468
-0.045609888 0.1698489 0.22405232 0.16421677 -0.044839095 0.0065333936 -0.019683251 0.1238132
0.14728339 -0.013731887 -0.024766421 -0.1898059 -0.21966894 -0.108155966 -0.0926363 0.12828994
0.019540802 0.040764563 -0.17714301 -0.146345 -0.04107886 0.0524035 0.20860031 0.016887542
-0.039097648 -0.036877457 -0.08065363 0.002278169 0.08843447 0.047286108 -0.11966754 0.00017528438
0.009415483 -0.054614574 0.06986617 0.042898223 0.13717513 0.0396725 0.014719537 0.09370342
-0.026702441 0.21337542 0.22597885 0.22818667 0.13059202 0.07403842 0.20090315 0.22409587
0.24140005 -0.0039136186 -0.047076203 -0.04234875 -0.00047830364 -0.0688593 -0.2569978 -0.19339924
0.008959241 0.011038934 0.013486739 -0.034076195 0.08255103 -0.065171234 -0.16047177 -0.027627522
0.022805324 0.014914346 0.039523393 -0.007179935 -0.09089106 -0.05123308 0.014435337 0.07483823
0.070993565 0.105973355 0.0374833 -0.043039914 -0.17261936 -0.072752304 0.043325953 0.10120772
0.09181715 0.077257484 -0.01427538 -0.07277911 -0.0030540652 0.026485901 0.15421182 0.05829828
0.20458192 0.14387119 -0.081760496 0.02779924 -0.1046273 -0.0048807026 0.01876421 -0.011539878
-0.11207615 0.010898768 0.057605546 -0.098562576 -0.09021376 -0.0059628584 0.024102233 -0.10840285
-0.07254824 0.05420795 -0.060847662 0.17866981 0.24138841 0.14485659 -0.017894201 0.06899255
0.041661285 0.030298913 0.12502529 0.13532157 -0.016861988 -0.03894416 -0.06425322 0.082590066
0.11585785 0.1527384 0.104572445 0.07660647 -0.113576986 0.028188594 0.046475794 -0.024335813
-0.011267069 0.018860025 -0.01644812 0.06592235 0.04047956 0.04826393 0.091212 0.17865266
0.09338625 0.017343745 -0.19648878 0.041223742 0.16758628 -0.08510334 0.12469293 -0.035508808
-0.08916452 -0.08181571 0.0514293 0.09926311 -0.014071021 -0.16701052 -0.09272582 -0.20149553
-0.119520344 -0.12633522 -0.004175362 -0.06289396 -0.14293621 0.0579731 0.06882279 0.108748384
-0.09323762 -0.0041421526 -0.058256697 0.023125688 0.030403854 -0.037137028 0.0029392154 0.082652025
-0.0025769214 -0.028077539 0.11212751 -0.0047869864 -0.01615239 0.006710613 -0.022635767 0.12760267
-0.06163116 -0.1364256 -0.14022645 -0.085697204 -0.0021127716 0.025837425 0.07296659 -0.005159138
0.14032087 0.07027708 0.06277848 0.08165301 -0.0840408 0.03220915 -0.08111056 0.039648365
0.09074517 0.19777013 -0.036949538 -0.035832696 -0.022782313 0.11674717 0.16904142 -0.16238128
-0.2276417 -0.036000695 -0.0055885087 0.13033977 0.043457415 -0.1613302 -0.08650357 -0.02051317

conv_blocks.0.weight f4 [8, 16, 3, 3]
00000000: 1577 f4bd 0a1f c2bd 6e07 12be 585d 65bd
00000010: 6383 05be 9e96 463d 6a25 57bd a71d 723d
00000020: b993 bc3c 0dc8 26be 8f9e 05be ede9 a03c
00000030: 1529 233d f67a c6bc 919a 603b 88bc 3e3e
00000040: fb02 f2bc 3f42 47bc bda7 35be d35d dfbd
00000050: 81fe 133d 94ee 45be d410 1bbe aca5 5fbe
00000060: a656 91be 8f6e 4b3e b323 00be 3e1e 983d
00000070: 0fcd 843d e361 d63d 66dc 2ebe f985 d53d
00000080: e51d 8ebc 5fea dbbd cc96 153d d8af 943b
00000090: 6a82 5d3d e418 4bbd 2b31 26bd 3e97 863c
000000a0: 1f50 12be 5182 02bd ef6e 013d f37b 6f3e
000000b0: 1ab1 bfbb 8706 24be 5a3d 86bb e81c 1cbd
000000c0: 1e78 23be 628f 9ebd c074 a8bc 358b ca3d
000000d0: 3b3d 13be 1e96 293d 2d26 0cbd 766b 033e
000000e0: f217 4e3e 5f93 9f3d f752 d83d e666 88bd
000000f0: b44e 903e 0501 c83d 8278 b2bc e44e 8ebd
00000100: 3f7b dcbc 800c a5bd 9fb5 4dbe 713c 4f3d
00000110: e6d2 583d 446c bcbd ece0 f13c 6ac4 46bd
00000120: cd70 6dbc 3c6b 8e3e 7459 19be f0f1 a03d
00000130: 14c7 2a3e 993e 8c3d 6af3 80bd 3805 163e
00000140: 015c 1dbe 38dd 0b3d e276 1fb9 143b b6bc
00000150: f547 523d 9739 f6bc 0ebd a6bd 75c1 1f3e
00000160: bea3 8f3d b025 4ebd 3760 923e f84c f73c
00000170: 82cb b8bc f8eb 33be aded d03d 60f6 b2bd
00000180: 0497 db3d b309 32bd 3bc4 2e3e f673 2d3d
00000190: 072c d5bd b615 4dbc c20a 6dbe 8b12 61be
000001a0: 3d2b 6bbd a70b 8b3d ec89 b43d 7cff 09bb
000001b0: 2eeb 18be 35f0 23be 1230 04bd c63c 2c3e
000001c0: bee7 86bd 6bdd 6dbc d099 4cbd d8f4 b03c
000001d0: c298 00be 45e3 38bd c3c2 eebd dc7a 143c
000001e0: f17c 90be 3c92 abbd e20b 38be a49c 56be
000001f0: e5f2 59be 0f3d 923d 4755 1dbd af0e 153e
00000200: 1001 39bd f6b1 623e 6469 813d 5eb7 213c
00000210: b541 9a3d 7282 43bd 1540 cc3b 69be 173e
00000220: 4747 12be f145 403d ef4b 003e 4551 2fbe
00000230: 51fb 16be bc4d e1bc 5f31 aabd d68d f6bb
00000240: bff0 8cbd d8a5 0bbe 9e95 9e3d 3b68 933d
00000250: 5d52 493e 5b8a f2bd 90f4 0fbd 4b9d 7a3c
00000260: 5de6 3a3d c8a6 923d a91d 143e e5cc e43d
00000270: 0b33 6dbd 3345 8c3e 9c22 3dbd b47a 17bd
00000280: 477d 043e 5eee 9abe 02e9 08be 1f40 943c
00000290: eb2f db3c ff34 103e 343c 19be c7c6 64bd
000002a0: 6534 c3bc 22cb 973d f1b6 063c 02b3 873d
000002b0: 4344 6c3d a01e 573a 7a75 d5bd 49f1 5f3c
000002c0: e18f dfbd 2628 8d3d e34e 62be 7b15 96bc
000002d0: 0e1f 433e 2a55 bcbd a531 bcbd 57bf 60be
000002e0: 708a 29bd bf4e 0abd 699d c6bd 6105 64bd
000002f0: a831 7ebc fe3c 173e f84a 803e 96f6 8e3d
00000300: 2497 0cbd 8d4f f73c c78f 7e3d 5fa9 3d3d
00000310: a1b4 16be 6acb 493e 3f37 073e 6ff4 4a3d
00000320: 3376 6fbd cf09 4b3b 651e c9bd 410b 10be
00000330: d7fd 4e3e fe5f 85bd cf0d c0bd 8f1d f9bc
00000340: 89ef 2ebd 7182 2bbc 0c13 f7bd dd00 a53e
00000350: 5e55 fa3d ee5d bb3d b271 733e 229e ed3d
00000360: 1e67 e1bb 5f45 34bd e8d7 94bd c2ba 0a3e
00000370: 3cb0 b83e 0003 0f3e 3c47 453d 44e6 e03d
00000380: f254 9fbd fa8c 003d 617a b6bd 26cf 4cbe
00000390: b37e 22bd 572e 523e 731a 1fbe b94c 0c3d
000003a0: 5f2f 473d 3a8e c73d bc7c 14bd e15b 003d
000003b0: 9a9d 263e e614 35be b6d7 cdbb c888 c33d
000003c0: 7c98 f6bd f221 023e 4c4f 503e 83a2 19be
000003d0: cd19 b23d ef18 2f3c 4115 7b3c f791 61bd
000003e0: 09db 1b3e 1edb 873d 442c 28bd 499a 5e3e
000003f0: da60 ce3d a1b3 eb3d b7d8 8f3b 607f cfbd
-0.119367756 -0.094785765 -0.14260647 -0.055997223 -0.13038401 0.048483483 -0.052525915 0.05911031
0.023019658 -0.16287251 -0.13048767 0.019642795 0.0398341 -0.024228554 0.0034271816 0.18626606
-0.029542437 -0.01216179 -0.17739768 -0.109065674 0.036131386 -0.19329292 -0.15143138 -0.21840543
-0.2838642 0.19866394 -0.12513618 0.07427643 0.06484424 0.10467889 -0.17076263 0.10425944
-0.01734824 -0.10738062 0.036520764 0.004537564 0.05407945 -0.049584284 -0.040574234 0.01642954
-0.14288376 -0.03186256 0.031599935 0.23387127 -0.0058499696 -0.16018115 -0.004096669 -0.038113505
-0.1596379 -0.07742192 -0.020563483 0.09889833 -0.14378826 0.04140293 -0.034216095 0.12833962
0.20126322 0.07791781 0.10562699 -0.06660251 0.28185046 0.097658195 -0.021785978 -0.06948641
-0.026914237 -0.08059025 -0.20088814 0.05059475 0.052935503 -0.092003375 0.029526196 -0.04852716
-0.014492226 0.27816188 -0.1497553 0.07858646 0.16677505 0.06847877 -0.062964275 0.14650428
-0.15367128 0.034146518 -0.00015207709 -0.022244968 0.051338155 -0.030056758 -0.08141528 0.15601142
0.07013653 -0.05032891 0.2858903 0.030188069 -0.022557978 -0.17570484 0.10201583 -0.087383986
0.10722163 -0.04346628 0.17067043 0.042346917 -0.10408788 -0.012517383 -0.23148635 -0.2197973
-0.057414282 0.06789332 0.08815369 -0.0021056822 -0.14933464 -0.160096 -0.032272406 0.16820058
-0.0658717 -0.014518122 -0.049951375 0.021601126 -0.12558272 -0.045138616 -0.116582416 0.009062495
-0.28220323 -0.08377501 -0.17973283 -0.20958191 -0.21284063 0.07140552 -0.038411405 0.14556383
-0.04516703 0.22138199 0.0631893 0.009870378 0.07532064 -0.047731824 0.006233225 0.1481873
-0.14285003 0.0469417 0.12528966 -0.17120846 -0.14744307 -0.027502887 -0.08310198 -0.0075242324
-0.06881856 -0.13637483 0.07743381 0.07197615 0.19660325 -0.118427955 -0.035145342 0.015296291
0.045629848 0.07160717 0.1446444 0.11171893 -0.057910006 0.27396545 -0.046175584 -0.036982253
0.12938415 -0.30259985 -0.13370135 0.018096982 0.026756248 0.14082716 -0.14964372 -0.05585363
-0.023828695 0.074117914 0.008222328 0.0662594 0.057682287 0.00082061626 -0.104227975 0.013668367
-0.109161146 0.06892423 -0.22100405 -0.01832079 0.19054815 -0.09195931 -0.091891564 -0.2194799
-0.04139179 -0.033766504 -0.09697992 -0.055669192 -0.015514769 0.1476936 0.25057197 0.06980626
-0.034323826 0.0301893 0.062148836 0.046304103 -0.14717342 0.19706503 0.13204668 0.049549516
-0.058462333 0.0030981188 -0.098202504 -0.14066793 0.2021402 -0.0651245 -0.09377634 -0.030409602
-0.042708907 -0.010468111 -0.1206418 0.3222722 0.12223314 0.09148775 0.2377384 0.11602427
-0.0068787476 -0.04401147 -0.07267743 0.13547805 0.36071956 0.13965988 0.048163638 0.1098142
-0.07779874 0.031384446 -0.08910061 -0.20000896 -0.03967161 0.2052549 -0.15537433 0.034252856
0.04862916 0.097439244 -0.03625177 0.031337623 0.16271058 -0.17683753 -0.0062818183 0.09547573
-0.12040803 0.12708262 0.2034275 -0.150034 0.08696327 0.010687097 0.015324892 -0.055070844
0.15220274 0.0663359 -0.04105784 0.21738543 0.10077067 0.11508871 0.004389848 -0.10131717

conv_blocks.0.bias f4 [8]
00000000: 7a99 4b3e 36db d0bc 04b5 f3bd e17f 2e3e
00000010: 1423 6f3e 10c1 613d 7915 c33c b1dd 85bd
0.19882765 -0.025495153 -0.1189976 0.1704097 0.23353225 0.05511576 0.02381395 -0.06536425

conv_blocks.3.weight f4 [4, 8, 3, 3]
00000000: 38b7 92bd ee82 1ebe 3473 48bc aa6e d2bc
00000010: 091a 3a3e 9158 183e f709 46be ce0b 9d3c
00000020: 525f ffbd ddd4 513d 51f7 ef3d deaf 06bd
00000030: 3928 713e d553 c93d dc04 8b3e 15b1 0b3e
00000040: 7c64 703e bec4 423e 7083 0f3e 19e7 413e
00000050: 5655 933c 0ea1 133e cddb 693e 318f 933d
00000060: 653f da3d fb85 0b3e c10a 293d 88b7 68bd
00000070: 72b4 8bbd 1d39 35be 1261 cb3d f6fe 44bd
00000080: aada 12be 7c09 003d f185 97be e398 60be
00000090: de6e 003d b438 6c3e 6120 363d 6400 d53d
000000a0: 97be 433c 2577 58be 627c 3b3c 8755 6abe
000000b0: 9920 c4bd 25a6 93be 9227 0ebe a5e2 463c
000000c0: a4e2 403c a434 033e 4276 c6bd 5fe4 033e
000000d0: f2e7 b2bc e09a 41be 1910 01be b729 0e3e
000000e0: 58a0 1c3e 5fea e93d 4234 a83e 82b8 7b3e
000000f0: 756d 243e d93b 463e 8c9e 913d 2095 78bd
00000100: c9d8 06be 2eef 84be 43b4 85bd 2383 82be
00000110: 1442 c9bd 7a52 eb3c 2aab b33d fd44 493e
00000120: b5e4 a7bd 8c4f a9be 075f 3dbe 56d2 8d3d
00000130: 0b87 1a3e a75d 733e eff1 53be adea 933d
00000140: d31e 27be 1b24 4fbe 668c 45be 19d4 f7be
00000150: 2c41 ef3d 78c3 3d3d 84d9 703c 92a9 c83d
00000160: 647a 9e3d 29b6 26bc 66a3 adbe d995 513b
00000170: bd8f 92be f973 b33c 05fd 513e 22f2 51be
00000180: dcb4 e63c caa7 843e 692b 48be 89ae 7cbe
00000190: c3bb 003e 413f f53d 4c5e 863e 4324 4abe
000001a0: fd10 89bd ba5c 0b3d 78e1 76be a1c6 ed3c
000001b0: b623 6abe 3210 033e c4d9 383e d8d2 243e
000001c0: 736c be3e fccc ac3d 73b3 823d 79b3 53bd
000001d0: dd48 9abb f657 02bc 3c49 19be 24b2 403e
000001e0: 25ca a1be e6e8 113d 6f6f 11be c26a 583d
000001f0: 0327 0d3e 1d24 0abe ce29 71bd 6516 bcbe
00000200: a4e4 e23d 1a2a 99be 9110 1f3d fa84 52be
00000210: 2c42 2ebe 307e c2bd c030 8ebd d7e2 c53d
00000220: 320f 5c3e 39b1 d23d f242 2f3e 87a2 c6be
00000230: 1d7e 79be 3ed8 0d3d 23ce e03d 03c6 7a3e
00000240: b7cf 04be e627 ddbc af1a 573c 7802 873e
00000250: 790a c93e 3f2d 353e a175 38be 64e8 51be
00000260: 2afd 29bd 85b2 033e 9f63 a63d 80e3 103d
00000270: 6255 5e3d 8afc 7abe b8f1 2e3e a867 1cbe
00000280: 478b 5ebd 1227 27be 3101 91bd bf4d ce3c
00000290: 8b8b 97be c26c 9b3e d47f aa3b f75a 143c
000002a0: b212 20be 1c31 1bbf f0eb eabc aa41 843e
000002b0: 684e cbbb 3ab7 52be df83 1ebe e031 77be
000002c0: 9d25 b23c 6e29 11be f615 bcbd 2b8e 473c
000002d0: 914b 623e b1d7 e23d a236 463d 2321 7d3e
000002e0: 15cd ebbd fcc4 7fbe abde 73be cd9f 8abd
000002f0: 1c2e 4e3e fb9c 84be 95f0 973b e365 02bd
00000300: ed4a 353e 5130 913e a6b2 37be e983 cf3d
00000310: 7fdd 8abe ef8b d0bc a22c 55be 31fd d8bd
00000320: 9940 6a3e ce4b 94bd b9bc 693d 66d7 d8be
00000330: c6d8 38be 8b54 f9be 082f 47be 44bc 443d
00000340: a60a 75be 6e68 77be 1c39 e3bd 8b71 14bd
00000350: d2b1 2d3e 180c 233e c64c 173e 8301 13be
00000360: 4a78 813b 58e1 273e ee1e 06bb f5f7 e73c
00000370: ec4c e6bd 24c2 4ebd daec 193e 3d73 7e3d
00000380: 350b 423e 0ca7 eebc c4c9 c9bd c555 a23d
00000390: 5c1b 95be 5538 8fbe 7f85 93be 2e06 29be
000003a0: 761e 27be 79b8 39be 44e2 30be 9094 72be
000003b0: 3151 76bd 085b c3be 8fcd 95be 18ca 9cba
000003c0: f49e 1cbe 7d51 b5bd c9f0 33bd b95e 1a3e
000003d0: bd31 af3d 927e f83d d3b0 1fbd ec82 5c3b
000003e0: 7e6c 1b3e c05b adbd d3df 023e 5651 953d
000003f0: fd1c 073e 7a38 e0bd e005 fabb 613e 35bd
-0.071638525 -0.15479633 -0.012234498 -0.025687534 0.18173994 0.14877535 -0.19339739 0.019170668
-0.12469353 0.051228393 0.11717094 -0.032882564 0.235505 0.09830443 0.27152145 0.1364177
0.23475832 0.19020364 0.14014983 0.18935813 0.017985027 0.14416906 0.22837754 0.07205046
0.10656623 0.13625328 0.04127002 -0.056815654 -0.068215266 -0.17697568 0.09930624 -0.048094712
-0.14341226 0.031259045 -0.29594377 -0.21933322 0.03135573 0.23068506 0.044464473 0.10400465
0.011947296 -0.211392 0.011443229 -0.22884189 -0.0957653 -0.28837696 -0.13882282 0.012138997
0.011772785 0.1281305 -0.09690525 0.12880085 -0.021839116 -0.18906736 -0.12603797 0.138831
0.15295541 0.11421656 0.3285237 0.24582103 0.1605738 0.19358768 0.071103185 -0.06068909
-0.13168634 -0.2596373 -0.06528523 -0.25490674 -0.098270565 0.028725851 0.08772881 0.19655223
-0.08197919 -0.33068502 -0.18493281 0.06924884 0.15090577 0.23766194 -0.20697759 0.07222495
-0.16320352 -0.20228617 -0.19291839 -0.48404005 0.116823524 0.04632899 0.014700297 0.09797968
0.07738188 -0.010175266 -0.33913726 0.0031980185 -0.2862529 0.021905886 0.20506676 -0.20502523
0.028162412 0.25909263 -0.1954781 -0.24675955 0.12571625 0.11974955 0.26243818 -0.19740395
-0.066926934 0.034023978 -0.24109447 0.029025378 -0.22865185 0.12799147 0.18051821 0.16096056
0.37192115 0.08437535 0.063818835 -0.05168483 -0.004708393 -0.007955542 -0.14969343 0.18817955
-0.31599537 0.0356225 -0.14202665 0.052836187 0.13784413 -0.13490339 -0.05887776 -0.36735836
0.11078766 -0.29914933 0.03883416 -0.20558539 -0.1701743 -0.094967246 -0.06942892 0.09662407
0.21490172 0.10287709 0.17115381 -0.38795874 -0.24364515 0.034630053 0.109768175 0.24489598
-0.12969862 -0.026996564 0.01312892 0.2636907 0.39265803 0.17693041 -0.18013622 -0.20498806
-0.0415012 0.12861069 0.0812447 0.03537321 0.054280646 -0.24510399 0.17084396 -0.15273917
-0.054332044 -0.16323498 -0.07080305 0.025183557 -0.2959865 0.30356413 0.0052032266 0.009054891
-0.15632132 -0.6062181 -0.028676957 0.25831348 -0.006204415 -0.20577708 -0.15479992 -0.2414012
0.021746451 -0.1417596 -0.09183876 0.012179892 0.22099139 0.11076296 0.048391946 0.24719672
-0.11513726 -0.24977487 -0.2381541 -0.06768761 0.20134777 -0.25901017 0.004636834 -0.031835448
0.17704363 0.28357175 -0.17939243 0.10132582 -0.27122113 -0.02545735 -0.20817807 -0.105951674
0.22876205 -0.07241021 0.057064746 -0.42351836 -0.18051443 -0.48697314 -0.19451535 0.048031107
-0.23929843 -0.2416093 -0.11094877 -0.036241096 0.16962364 0.15922582 0.1477538 -0.14356045
0.003951107 0.16394556 -0.0020465213 0.028316477 -0.112451404 -0.050478116 0.15031758 0.06212162
0.18949588 -0.029132389 -0.09852937 0.079265155 -0.29122436 -0.27972665 -0.28812787 -0.16506264
-0.16320214 -0.18136777 -0.17273813 -0.23689485 -0.060136024 -0.3815539 -0.2925839 -0.0011962084
-0.15295011 -0.08853433 -0.043930802 0.15075196 0.08554409 0.12133516 -0.038986992 0.0033647371
0.15178105 -0.084647655 0.12780695 0.07290904 0.13194652 -0.10948272 -0.007630095 -0.044248942

conv_blocks.3.bias f4 [4]
00000000: 6e1e fb3e d7dd 043e 3b3d dd3c 8452 8c3f
0.49046654 0.1297525 0.027006736 1.0962682

conv_blocks.6.weight f4 [1, 4, 3, 3]
00000000: 56a5 9cbe 9288 51be 986c b2be bd4a a2be
00000010: 34c9 12be 9aea d0be a743 97be 3f7d a3be
00000020: dcf2 20be 36f0 21bf b968 28bf 5da8 203d
00000030: 1608 20bf ce8c a2be 3828 003d 6f11 93bc
00000040: 5516 93bc 64b2 23bc 653f a83d 856e 203e
00000050: de80 8d3e e047 4e3e 9a75 e3be 5d9f 5abf
00000060: bf45 03bd 589e 89bf 9210 f1bd af83 86bc
00000070: a6b4 443e 0b50 8b3c 2156 733d 104c fe3e
00000080: 9ca2 c33d ae5e bfbd 2fb0 543e 9016 49be
-0.3059489 -0.20462254 -0.34848475 -0.31697646 -0.14334565 -0.40803987 -0.29543802 -0.31931493
-0.15717643 -0.6325716 -0.65784794 0.039223064 -0.6251234 -0.3174805 0.031288356 -0.017952649
-0.017954985 -0.009991262 0.082152165 0.1566716 0.2763738 0.20144606 -0.4442566 -0.8539942
-0.032048937 -1.0751448 -0.11770739 -0.016420214 0.19209537 0.01700594 0.05940831 0.49667406
0.095525 -0.093442306 0.20770334 -0.19637513
