mnist_gan/MNIST_GAN_CNN/G.ckpt (torch_old, 447334 bytes, 6 tensors)

0.weight f4 [64, 32]
-0.05123056 0.036727812 -0.1731312 0.088831246 -0.088984504 0.13531476 0.091708235 0.016776443
0.05561756 -0.24629879 -0.052086957 0.0028936102 0.019718649 0.05334018 -0.1769971 -0.16324788
-0.16037636 0.011022989 -0.023693463 -0.26841912 -0.23367639 0.0017285713 -0.08124799 -0.22038075
0.057611234 -0.086617395 -0.10605863 0.0009097683 -0.07550849 -0.10125523 0.07145458 0.053820804
-0.040941432 0.15899149 -0.062420055 -0.065074176 -0.12034194 0.004830882 -0.031131495 0.09335636
-0.10977568 0.16295066 -0.015018518 -0.11050956 0.06499592 0.007607503 0.05491614 0.093031034
-0.006851694 0.030381437 0.010822369 -0.09986498 0.034706283 -0.09653089 -0.04064566 -0.0077004205
-0.027622841 -0.018951913 0.059105814 -0.06060871 0.00011847344 0.04982535 -0.032009523 -0.1497697
0.0010165652 0.0015430225 0.0006043926 0.00105618 -0.003053406 0.0014508517 -0.0017883986 -0.0027908662
0.0009281062 0.0019539846 0.00016704945 -3.1663945e-05 -0.00030133285 -0.00045581156 -0.0018557569 0.0011246465
-0.0013901697 -0.0033299078 2.4532725e-05 -0.001871821 0.00055053283 0.0013253108 0.0019437505 0.0025887368
-0.0033632314 0.003100381 0.0046326555 -0.0012481913 -0.00022132951 0.00070945703 0.0006117191 -0.0016368328
-0.10310418 0.017684164 -0.074649066 0.14457607 -0.028125165 -0.10843651 0.07040149 -0.048590664
-0.18645178 0.021428134 0.014089613 -0.085372776 -0.04514965 -0.022520626 0.058114555 0.0033031052
0.006735955 -0.09332679 -0.11680261 0.08285812 0.078169584 -0.09504733 -0.15583041 0.04177029
-0.004983322 0.051827528 0.0027895495 0.050101366 0.1074343 -0.090468906 -0.015598083 -0.13828532
0.0002630168 -0.000869514 -0.00069863134 0.0024619678 -0.00044558785 0.0036482378 0.0025124473 -0.003823834
-0.0008146941 0.0026107829 0.0049292324 0.0076511023 -0.0008143417 0.0037380701 0.0015702422 -0.0049512065
0.0026925292 -0.005862597 -0.0045940443 0.0019811818 0.007631934 0.00023461289 -0.0029509724 -8.078455e-05
0.0013535687 0.002480535 -0.0010523035 0.0039044204 0.0005305091 0.0030657572 -0.0042906753 -0.0062076678
-0.006584025 -0.0797059 0.057599664 0.07948289 0.19825715 0.07053279 -0.071209826 -0.10548671
-0.083323695 -0.03158272 0.12444471 0.112323985 -0.22057658 -0.030227525 0.11710066 0.041064713
0.093887165 -0.1089761 0.11409153 -0.03946106 0.16511664 -0.10834387 -0.10194463 0.09956143
0.060170017 -0.1493089 -0.09131099 0.0159489 0.073629156 -0.004444817 0.037593327 0.08096591
-0.024560547 0.06955743 -0.123317294 -0.005601122 -0.10022965 -0.004354173 0.142651 0.04484251
0.010048159 -0.1503124 -0.10223594 -0.04120829 -0.059242345 0.051070146 -0.09690215 -0.040541403
-0.14246906 0.0037409524 0.004588793 -0.16573285 -0.10668851 0.030297868 -0.04439721 -0.16775663
0.12490661 -0.070698716 -0.10093535 0.016409615 -0.056171678 -0.00819261 0.013382245 -0.04846076
0.14925408 -0.07408584 -0.00689968 -0.06680645 -0.016913647 0.16623136 0.060693298 -0.021769151
-0.03347251 -0.06165984 0.075589254 0.21655382 -0.101380326 -0.04474111 0.030623453 -0.1804694
-0.19387409 -0.055750974 0.09446892 0.013958329 -0.05235174 -0.057202604 -0.030021382 -0.00615011
0.07897001 -0.015766496 0.031018121 -0.07444774 0.08437418 0.0079003 0.013520112 0.06627595
00000000: 23d7 51bd e76f 163d 4e49 31be 28ed b53d
00000010: 823d b6bd f48f 0a3e 87d1 bb3d c06e 893c
00000020: 3dcf 633d c035 7cbe 2259 55bd b9a2 3d3b
00000030: 0189 a13c 3c7b 5a3d ba3e 35be 742a 27be
00000040: b339 24be c499 343c cb18 c2bc 3b6e 89be
00000050: dd48 6fbe 3a91 e23a 5965 a6bd 7eab 61be
00000060: c2f9 6b3d 7664 b1bd 4435 d9bd 847d 6e3a
00000070: 32a4 9abd e75e cfbd c756 923d 3473 5c3d
00000080: 34b2 27bd aace 223e 2cac 7fbd 9c45 85bd
00000090: d675 f6bd 604c 9e3b 7a07 ffbc 9f31 bf3d
000000a0: 12d2 e0bd 8adc 263e 3b10 76bc d652 e2bd
000000b0: 951c 853d 5c48 f93b bfef 603d 0e87 be3d
000000c0: 2d84 e0bb 7ee2 f83c 4e50 313c 0386 ccbd
000000d0: 2d28 0e3d fdb1 c5bd 107c 26bd cf53 fcbb
000000e0: 4c49 e2bc 0b41 9bbc f018 723d d740 78bd
000000f0: f274 f838 ab15 4c3d 6b1c 03bd 3a5d 19be
00000100: 453e 853a 3e3f ca3a 1a70 1e3a 856f 8a3a
00000110: a71b 48bb 812a be3a b368 eaba f7e6 36bb
00000120: 274c 733a 6c0e 003b ff29 2f39 e7ce 04b8
00000130: 36fc 9db9 fef9 eeb9 de3c f3ba e068 933a
00000140: 5b36 b6ba 953a 5abb a0cb cd37 e457 f5ba
00000150: a251 103a 0db6 ad3a 72c5 fe3a cca7 293b
00000160: a969 5cbb c32f 4b3b 88cd 973b 5a9a a3ba
00000170: b014 68b9 dbfa 393a c65b 203a ff8a d6ba
00000180: 4928 d3bd 61de 903c 9ce1 98bd c00b 143e
00000190: bf66 e6bc f613 debd a82e 903d 0107 47bd
000001a0: 37ed 3ebe 0e8a af3c 1fd8 663c ecd7 aebd
000001b0: d7ee 38bd 2d7d b8bc 8709 6e3d e978 583b
000001c0: 49b9 dc3b 1e22 bfbd 3536 efbd 85b1 a93d
000001d0: 6017 a03d 2da8 c2bd 0292 1fbe 5317 2b3d
000001e0: 234b a3bb 1a49 543d e0d0 363b 1737 4d3d
000001f0: 8406 dc3d c347 b9bd 1a8f 7fbc ab9a 0dbe
00000200: 84e5 8939 19f0 63ba 5b24 37ba f758 213b
00000210: ca9d e9b9 4617 6f3b dfa7 243b 4a99 7abb
00000220: 3291 55ba ab19 2b3b 6685 a13b 19b6 fa3b
00000230: 8c79 55ba 69fa 743b 96d0 cd3a bb3d a2bb
00000240: 2575 303b 071b c0bb a389 96bb b7d6 013b
00000250: 4d15 fa3b 6b02 7639 1a65 41bb e06a a9b8
00000260: 3b6a b13a 7990 223b 72ed 89ba 4ee1 7f3b
00000270: dd11 0b3a dfea 483b cb98 8cbb b169 cbbb
00000280: cebe d7bb d93c a3bd a0ed 6b3d edc7 a23d
00000290: ec03 4b3e 7f73 903d 75d6 91bd 6b09 d8bd
000002a0: 9da5 aabd e25c 01bd dedc fe3d 1e0a e63d
000002b0: d4de 61be b79f f7bc 79d2 ef3d 7933 283d
000002c0: ea47 c03d dd2e dfbd d2a8 e93d eca1 21bd
000002d0: 5614 293e 64e3 ddbd 59c8 d0bd dde6 cb3d
000002e0: d674 763d 6fe4 18be 4201 bbbd 44a7 823c
000002f0: e2ca 963d d4a5 91bb 76fb 193d 74d1 a53d
00000300: 3333 c9bc 2074 8e3d c78d fcbd 9e89 b7bb
00000310: 3445 cdbd 73ad 8ebb 1b13 123e c8ac 373d
00000320: 09a1 243c 7eeb 19be 1461 d1bd 06ca 28bd
00000330: 1aa8 72bd ee2e 513d a274 c6bd be0e 26bd
00000340: 69e3 11be c42a 753b 965d 963b dfb5 29be
00000350: 817f dabd 3c33 f83c d9d9 35bd 65c8 2bbe
00000360: 09cf ff3d 7dca 90bd 31b7 cebd 756d 863c
00000370: 4614 66bd 4c3a 06bc 3441 5b3c ca7e 46bd
00000380: 10d6 183e 51ba 97bd b616 e2bb d2d1 88bd
00000390: 7d8e 8abc 8e38 2a3e 8999 783d 3855 b2bc
000003a0: 781a 09bd 078f 7cbd 8ace 9a3d 49c0 5d3e
000003b0: 7da0 cfbd 7442 37bd 09de fa3c f8cc 38be
000003c0: ee86 46be 225b 64bd ec78 c13d 7ab1 643c
000003d0: c76e 56bd 474d 6abd 67ef f5bc dd86 c9bb
000003e0: 07bb a13d bd28 81bc b719 fe3c 0f78 98bd
000003f0: 5fcc ac3d 4370 013c 7683 5d3c afbb 873d

0.bias f4 [64]
-0.25868115 -0.04292267 -0.060113665 -0.37148026 -0.103236265 -0.1908281 -0.14619964 -0.23162204
-0.148071 -0.29847375 -0.3334213 -0.099877924 -0.14448918 -0.1460802 -0.2741807 -0.269638
-0.17676759 -0.1865699 -0.118984245 -0.16623324 -0.16863005 -0.11169242 -0.1049912 -0.21909297
-0.25967816 -0.1354236 -0.4007073 -0.18840055 -0.26437965 -0.22093226 -0.23612696 -0.029747523
-0.22833225 -0.1002946 -0.13736013 -0.07401848 -0.07787729 -0.2507341 -0.3316587 -0.18242611
-0.24449606 -0.33999676 -0.19345461 -0.09699209 -0.24804306 -0.1329292 -0.26908898 -0.28897908
-0.023921665 -0.05461732 -0.16827935 -0.20591983 -0.17593123 -0.17837541 -0.013316807 -0.23473734
-0.19272761 0.003169463 -0.18066366 -0.4031294 -0.15256828 -0.038964916 -0.06726476 -0.21963426
00000000: db71 84be aecf 2fbd bf39 76bd a932 bebe
00000010: 896d d3bd 7168 43be 5cb5 15be 542e 6dbe
00000020: ed9f 17be 8dd1 98be 32b6 aabe cc8c ccbd
00000030: f9f4 13be 0c96 15be 6a61 8cbe fe0d 8abe
00000040: 9002 35be 2e0c 3fbe 03ae f3bd 0c39 2abe
00000050: 5bad 2cbe ffbe e4bd a005 d7bd e859 60be
00000060: 89f4 84be 7cac 0abe 8229 cdbe 13ec 40be
00000070: c55c 87be 113c 62be 44cb 71be 14b1 f3bc
00000080: eecf 69be 4167 cdbd 22a8 0cbe 0097 97bd
00000090: 217e 9fbd 3860 80be 2bcf a9be e9cd 3abe
000000a0: 2d5d 7abe 0e14 aebe f718 46be caa3 c6bd
000000b0: 00ff 7dbe 981e 08be 08c6 89be 11f5 93be
000000c0: 5ef7 c3bc 69b6 5fbd 6c51 2cbe a6dc 52be
000000d0: 5127 34be 0ba8 36be bd2e 5abc fc5e 70be
000000e0: 635a 45be c4b6 4f3b e5ff 38be fa66 cebe
000000f0: dc3a 1cbe ad99 1fbd 1bc2 89bd cee7 60be

2.weight f4 [128, 64]
-0.13746563 -0.81494343 0.11260249 -0.45309472 0.22246489 -0.52897364 0.25045687 -0.057256754
0.3568739 -0.0052721472 -0.38145813 -0.22436404 0.11475125 0.28418732 0.16604835 -0.123599485
0.3233033 0.16358632 0.43454236 0.26824227 0.03743298 0.30996567 0.44209456 0.055441704
0.12895297 0.33448145 0.65539604 0.018371683 0.05604069 -0.06674483 -0.6254345 -0.06711431
0.18772666 -0.54851675 -0.47458702 0.67994285 -0.049589362 -0.16401255 -0.40735382 -0.23772228
-0.20931764 -0.078761056 -0.34975252 0.6847703 0.09590653 0.073834 0.49920228 0.14324279
-0.034413353 -0.07979754 0.2367666 -0.6309328 -0.17061275 0.36163646 0.030430447 0.11105622
0.011480968 -0.28382838 0.13115682 -0.27501962 0.22425494 -0.22256415 0.12867369 -0.83058697
0.022666475 -0.07170374 -0.05192179 -0.3487184 0.074222915 -0.14949971 0.05011974 -0.14243338
-0.06988988 -0.06925275 0.014147029 -0.1331296 0.03785774 0.124985665 -0.030521292 0.26447353
0.077239774 -0.07934445 -0.35066754 -0.38591987 0.13912512 0.19827153 -0.47648448 0.08027442
-0.2891162 0.24348894 0.558185 -0.040579494 0.11125413 0.1753948 -0.25168842 0.045426194
0.24227145 -0.018633395 0.36412236 -0.31168705 -0.2408564 -0.21577929 0.115550786 0.13111338
0.041001134 -0.45354223 -0.2775854 0.043499593 -0.26682672 -0.01475832 -0.48135877 -0.12831369
-0.022663582 0.018565921 -0.119729 -0.527619 -0.03595336 -0.06531541 -0.33634436 0.18155384
0.21579073 0.04616656 0.07672595 -0.20970848 0.007541323 -0.3138259 0.027249485 -0.05912077
-0.2602353 0.24995081 0.12606384 0.28376883 0.21793206 0.4579782 -0.23564668 -0.46397883
0.022263005 0.035639275 -0.3185346 -0.47655052 -0.12621556 -0.1545855 0.0061267507 -0.10447265
-0.395218 -0.2438983 -0.15570623 -0.15526277 -0.091564424 -0.18777938 0.003317006 -0.07274614
-0.33683532 0.14135806 -0.7043656 -0.014129546 -0.17100254 -0.1430109 -0.15660273 0.050637472
0.014462538 0.0772897 -0.2735256 -0.17695712 -0.031692427 0.1436744 -0.25566885 0.15015133
-0.24438187 -0.4180505 -0.28908217 0.020972708 0.20295115 -0.0041734087 -0.4345788 0.29017323
-0.1211406 0.20569752 0.083029404 -0.051037993 -0.15148295 0.0150572825 0.13211547 0.11282231
-0.32320312 0.34283504 -0.097694114 0.26079175 0.06298939 0.16871108 -0.010179305 -0.20659372
-0.09455111 0.23352475 -0.11132357 -0.127444 -0.074285045 0.15955639 0.11622458 -0.50402856
0.5677244 -0.23048773 -0.31065318 0.028006082 -0.019613951 -0.25929853 -0.087629266 -0.068261795
-0.23971508 -0.021639815 -0.059346825 -0.03773804 0.14156671 -0.34769762 0.2069208 -0.071260564
-0.32145113 0.16559689 -0.041615732 -0.09047675 -0.08688053 -0.027910873 0.28600636 0.059804007
-0.3322088 -0.18780777 -0.384988 -0.33549252 -0.23824798 -0.031820524 0.06289383 -0.014493323
-0.3620281 -0.2509304 -0.4645937 -0.030974349 -0.057156704 -0.012542718 -0.044833805 0.30336016
-0.23720579 0.26419467 -0.19768277 0.14124896 -0.25876793 0.29815182 0.20119967 0.026150497
0.25276566 -0.15605736 -0.11917515 -0.05341754 0.049038373 -0.006278896 -0.01948215 -0.11704046
00000000: cac3 0cbe 22a0 50bf 229c e63d 08fc e7be
00000010: d6cd 633e d16a 07bf e23b 803e 0f86 6abd
00000020: 2db8 b63e fac1 acbb 7b4e c3be b0bf 65be
00000030: b402 eb3d 0081 913e 9408 2a3e ba21 fdbd
00000040: 0388 a53e 2c83 273e 567c de3e 0d57 893e
00000050: 5353 193d d2b3 9e3e 385a e23e d716 633d
00000060: 3f0c 043e 2741 ab3e 09c8 273f 3680 963c
00000070: ec8a 653d 83b1 88bd 7a1c 20bf 3a73 89bd
00000080: 6b3b 403e 986b 0cbf 12fd f2be bc10 2e3f
00000090: 371e 4bbd e8f2 27be ae90 d0be 786d 73be
000000a0: 5d57 56be 7a4d a1bd c312 b3be 1b4d 2f3f
000000b0: a56a c43d 4836 973d 7197 ff3e 3dae 123e
000000c0: 04f5 0cbd e56c a3bd f272 723e d084 21bf
000000d0: 1cb5 2ebe 6a28 b93e 4649 f93c 7271 e33d
000000e0: ac1a 3c3c f451 91be f94d 063e 5fcf 8cbe
000000f0: 16a3 653e dbe7 63be 09c3 033e 59a1 54bf
00000100: 0baf b93c 69d9 92bd f1ab 54bd 388b b2be
00000110: 2f02 983d 7416 19be 5b4a 4d3d 0eda 11be
00000120: 6d22 8fbd 63d4 8dbd f1c8 673c 2053 08be
00000130: b810 1b3d 7cf8 ff3d ca07 fabc 1369 873e
00000140: e32f 9e3d 587f a2bd b28a b3be 4a97 c5be
00000150: d176 0e3e b107 4b3e c6f5 f3be ea66 a43d
00000160: 0a07 94be 2a55 793e 36e5 0e3f af36 26bd
00000170: 35d9 e33d b29a 333e 4edd 80be d110 3a3d
00000180: 0216 783e 10a5 98bc 3f6e ba3e 7295 9fbe
00000190: 0fa3 76be 3ff5 5cbe e4a5 ec3d 9642 063e
000001a0: cef0 273d b036 e8be ac1f 8ebe a12c 323d
000001b0: 839d 88be e1cc 71bc a874 f6be aa64 03be
000001c0: faa8 b9bc 8f17 983c 7a34 f5bd 0a12 07bf
000001d0: d543 13bd 16c4 85bd 5435 acbe 40e9 393e
000001e0: 3ff8 5c3e 2619 3d3d 7f22 9d3d d2bd 56be
000001f0: 341d f73b caad a0be 503a df3c 9f28 72bd
00000200: 903d 85be 1bf3 7f3e e116 013e 264a 913e
00000210: 9529 5f3e 1e7c ea3e 5d4d 71be a28e edbe
00000220: e860 b63c 7dfa 113d f816 a3be 6efe f3be
00000230: a73e 01be a94b 1ebe e9c2 c83b c2f5 d5bd
00000240: 045a cabe 7ac0 79be 7471 1fbe 34fd 1ebe
00000250: 2186 bbbd 3d49 40be 2062 593b eefb 94bd
00000260: ae75 acbe 2bc0 103e 4e51 34bf 9c7f 67bc
00000270: 4a1b 2fbe 7371 12be 775c 20be 3d69 4f3d
00000280: 48f4 6c3c 104a 9e3d 8c0b 8cbe 3f34 35be
00000290: ebcf 01bd 621f 133e 07e7 82be 45c1 193e
000002a0: 3e3f 7abe b70a d6be 9402 94be f5ce ab3c
000002b0: 6dd2 4f3e 17c1 88bb 1d81 debe 9691 943e
000002c0: 9018 f8bd 5fa2 523e 520b aa3d 370d 51bd
000002d0: 591e 1bbe d2b2 763c 4749 073e 620f e73d
000002e0: e17a a5be 1388 af3e da13 c8bd 7f86 853e
000002f0: 9500 813d 99c2 2c3e 1ac7 26bc 4e8d 53be
00000300: 03a4 c1bd 1d21 6f3e 9dfd e3bd ae80 02be
00000310: c222 98bd c062 233e 2707 ee3d 0408 01bf
00000320: 6356 113f fa04 6cbe ef0d 9fbe 036d e53c
00000330: 70ad a0bc c7c2 84be f976 b3bd d7cc 8bbd
00000340: df77 75be fb45 b1bc a815 73bd 3493 1abd
00000350: ddf6 103e 6c05 b2be 0ce3 533e 0ff1 91bd
00000360: 3e95 a4be 3b92 293e 4275 2abd e04b b9bd
00000370: 6bee b1bd 58a5 e4bc 6d6f 923e 0cf5 743d
00000380: 4617 aabe ae50 40be 261d c5be adc5 abbe
00000390: 47f7 73be 3d56 02bd 7bce 803d 6775 6dbc
000003a0: bf5b b9be f379 80be 3adf edbe ebbd fdbc
000003b0: 261d 6abd f97f 4dbc a7a3 37bd 0652 9b3e
000003c0: 13e6 72be 8644 873e 5a6d 4abe 91a3 103e
000003d0: 3b7d 84be 5ba7 983e 4907 4e3e 9139 d63c
000003e0: 806a 813e 80cd 1fbe 1a12 f4bd 5acc 5abd
000003f0: 76dc 483d 32bf cdbb 0899 9fbc e9b2 efbd

2.bias f4 [128]
0.39091802 -0.20264426 -0.0992158 -0.1549038 -0.10383312 -0.15117465 -0.07617175 -0.124459654
0.07236443 0.21405151 -0.033114888 0.19713885 -0.12104259 0.022876812 0.3868415 -0.012589264
-0.05936615 -0.15990366 -0.20707363 0.1511334 -0.2846756 0.23209739 -0.2639969 0.016255235
-0.12648019 0.08280562 -0.020028403 -0.108719505 -0.112319544 -0.08470741 -0.2015717 0.4134297
-0.2388793 -0.008889186 -0.06463096 0.1912194 -0.10721026 0.2995955 -0.10276302 0.098459914
-0.23845705 -0.25079113 -0.20947231 0.41094056 0.21371895 -0.24229312 -0.36511335 -0.11878129
-0.08472518 -0.25635746 -0.079361856 -0.077039905 -0.24812154 -0.10992991 -0.1121094 -0.26562056
0.2952251 0.076694995 0.1448105 0.29955497 -0.03864684 -0.07441284 -0.12731923 0.09010475
-0.037619017 -0.15732059 -0.0219045 -0.3180894 -0.086317696 -0.14145555 -0.2515501 -0.006249478
-0.15108933 0.29189447 0.01637018 -0.04210774 -0.05781107 -0.21940832 0.08198084 -0.23573105
-0.08426985 -0.03920651 0.11648545 -0.17073217 -0.004589209 -0.013657399 0.4505957 0.247009
-0.11078161 -0.030520717 -0.14609209 0.032378882 -0.14016591 -0.19300066 -0.018254299 -0.11250423
0.28929844 -0.29251122 0.0410136 -0.09049732 -0.09703917 0.1669105 0.052897952 -0.13018918
-0.052643392 -0.4133351 -0.061861303 -0.20560813 -0.025930192 -0.10199471 -0.23052886 -0.0970446
-0.07282136 -0.03696962 -0.15548228 -0.18174714 -0.28093183 -0.18338129 -0.06028048 -0.12565254
-0.03714833 -0.321253 -0.1102445 0.08424544 0.14683753 -0.24191666 -0.11281105 0.20361994
00000000: 6826 c83e fa81 4fbe a731 cbbd 1a9f 1ebe
00000010: 75a6 d4bd 87cd 1abe efff 9bbd b4e4 febd
00000020: cd33 943d 5230 5b3e 7aa3 07bd c4de 493e
00000030: 2de5 f7bd 2768 bb3c 1710 c63e 3343 4ebc
00000040: ec29 73bd c9bd 23be 1c0b 54be b7c2 1a3e
00000050: 00c1 91be f0aa 6d3e 9a2a 87be b329 853c
00000060: 0684 01be fe95 a93d 9b12 a4bc 55a8 debd
00000070: ca07 e6bd 147b adbd d068 4ebe 0fad d33e
00000080: c69c 74be f3a3 11bc 3d5d 84bd 05cf 433e
00000090: 0e91 dbbd 9564 993e 6b75 d2bd 5aa5 c93d
000000a0: 162e 74be b267 80be e97f 56be cd66 d23e
000000b0: 24d9 5a3e b01b 78be 23f0 babe 9b43 f3bd
000000c0: 6584 adbd 4941 83be 7888 a2bd 19c7 9dbd
000000d0: 9313 7ebe ef22 e1bd 9d99 e5bd 6bff 87be
000000e0: bf27 973e 4412 9d3d 3449 143e 455f 993e
000000f0: 264c 1ebd c265 98bd f95f 02be d788 b83d
00000100: 6616 1abd a618 21be 1171 b3bc 9ddc a2be
00000110: 55c7 b0bd b9d9 10be 2dcb 80be 6cc8 ccbb
00000120: 29b7 1abe 3173 953e c11a 863c 2a79 2cbd
00000130: 4dcb 6cbd 93ac 60be 92e5 a73d 7b63 71be
00000140: ac95 acbd 0197 20bd ec8f ee3d 6ad4 2ebe
00000150: 1361 96bb 49c3 5fbc 7bb4 e63e edef 7c3e
00000160: 78e1 e2bd 9506 fabc 2a99 15be b89f 043d
00000170: a787 0fbe f7a1 45be 0a8a 95bc 9e68 e6bd
00000180: ed1e 943e 08c4 95be e0fd 273d a956 b9bd
00000190: 79bc c6bd 96ea 2a3e 86ab 583d 5050 05be
000001a0: 99a0 57bd a9a0 d3be 4762 7dbd f08a 52be
000001b0: 8e6b d4bc 9ae2 d0bd c20f 6cbe 52bf c6bd
000001c0: 5d23 95bd 756d 17bd bf36 1fbe ec1b 3abe
000001d0: 4cd6 8fbe 4ec8 3bbe aae8 76bd 0fab 00be
000001e0: d928 18bd 467b a4be dec7 e1bd e088 ac3d
000001f0: 945c 163e 00b9 77be 7b09 e7bd bf81 503e

4.weight f4 [784, 128]
-0.29037613 -0.2518399 -0.16236064 0.27821782 -0.63315207 -0.14120975 -0.008071075 -0.5121642
0.21903384 0.016260259 -0.14001822 0.010056115 -0.3496692 -0.11678546 -0.28330845 0.027716698
0.30093068 0.31176496 -0.07203918 -0.3292083 -0.47145495 -0.47850832 0.14027067 0.06352675
0.04801293 -0.16791643 -0.45856798 0.17398633 -0.45817986 0.15435946 -0.20239411 0.10167614
-0.38460186 0.11772835 -0.540914 0.3533195 -0.53521436 -0.5337326 -0.2656149 0.038100284
-0.1883578 0.27854747 -0.16103566 -0.052989163 -0.24419686 -0.059111584 0.17542261 -0.3354768
0.076657295 -0.5303922 0.23360763 -0.1846579 -0.119480886 0.012482211 -0.62408215 0.05752669
0.02427135 -0.5231124 0.12989458 0.052097406 -0.16162801 -0.17912349 -0.5811427 -0.1948469
-0.6998502 0.16848327 -0.26267424 0.061587628 -0.41823548 -0.6646241 -0.21754766 -0.017387629
-0.34986466 -0.7299613 -0.12206603 -0.19812745 -0.30348226 -0.103661165 -0.54027355 -0.29399243
-0.15951662 0.14063284 -0.56882405 -0.18989074 -0.1978567 -0.4730194 -0.07103642 -0.16233048
0.24723905 -0.38050264 0.1749466 -0.07723232 -0.38911396 -0.109814934 -0.40154716 -0.3658308
-0.23085046 -0.07683203 -0.009770469 -0.12955323 -0.04687175 -0.51195955 0.04348514 0.41478544
-0.109051265 0.1526851 -0.3821518 -0.22969331 0.10417466 0.01856785 -0.45015272 -0.36684203
-0.28416553 -0.2606129 -0.017161526 -0.4158718 0.2575811 -0.10385547 0.022416536 -0.1654003
-0.12591904 -0.35286364 -0.20937805 -0.39910927 -0.49854845 -0.081021056 -0.23770061 -0.41761452
-0.40188825 -0.48260185 0.34109703 0.083796635 0.045722887 -0.32344633 -0.1491105 0.14651895
0.1958997 -0.44809836 0.17491795 0.24956629 -0.59904927 -0.15328364 -0.14052284 -0.54731095
-0.0642398 0.18971089 -0.23270561 -0.060871374 0.08934586 -0.01351141 0.079798244 0.20547538
-0.752201 -0.35117686 -0.33908132 -0.53693175 -0.46467534 -0.38511577 -0.60543394 -0.32246837
-0.27297106 0.40267503 -0.8227942 -0.101375826 0.0028992104 -0.4825761 -0.57688934 -0.2534789
0.09311372 -0.41154462 -0.29610217 -0.097157106 -0.53235555 -0.37852857 -0.6920699 0.009920365
-0.28839907 -0.17730403 0.05181751 0.38274318 -0.44714057 0.32633373 -0.40619165 -0.068222366
-0.057990212 -0.06825779 -0.4551387 0.09594301 -0.043488238 0.48755488 0.5491466 -0.07377037
0.21092284 0.55390817 0.29346725 -0.123682 0.109972365 -0.6976389 0.1789947 -0.5467996
-0.4575646 -0.36519876 -0.5312724 0.30497658 -0.102392904 0.3043494 0.10766494 0.26959237
0.23619659 -0.21798481 -0.6296315 -0.43109778 0.20204625 -0.18943697 -0.06337432 0.00047162242
0.21280515 -0.3820554 0.14509736 -0.13918488 -0.3503693 -0.2798117 -0.43181905 0.04216112
-0.4500942 -0.033073075 -0.27021027 -0.39664632 0.15817504 -0.28904918 -0.20607081 -0.43445605
0.09640251 0.054000773 0.79638374 -0.2940495 -0.17044236 -0.0060848757 0.73359525 -0.5550071
-0.31246173 0.14456668 -0.1292917 -0.338765 0.4986176 -0.5286192 -0.10517048 -0.08563439
0.117928386 -0.038121108 -0.31245458 -0.16390096 -0.5280888 -0.47554228 -0.25335205 -0.08206997
00000000: 2eac 94be 29f1 80be de41 26be 9172 8e3e
00000010: 4116 22bf 4a99 10be 8b3c 04bc 311d 03bf
00000020: 684a 603e 3c34 853c f060 0fbe 67c2 243c
00000030: d707 b3be 372d efbd ce0d 91be 210e e33c
00000040: 9613 9a3e a89f 9f3e 4789 93bd fe8d a8be
00000050: 8b62 f1be 0bff f4be 1da3 0f3e 501a 823d
00000060: 35a9 443d 49f2 2bbe 6cc9 eabe 7929 323e
00000070: 8d96 eabe 6810 1e3e 6740 4fbe 953b d03d
00000080: 89ea c4be 901b f13d 5779 0abf 4be6 b43e
00000090: cf03 09bf b3a2 08bf adfe 87be 0b0f 1c3d
000000a0: dee0 40be c69d 8e3e 88e6 24be 2a0b 59bd
000000b0: be0e 7abe fd1e 72bd fca1 333e 9dc3 abbe
000000c0: 80fe 9c3d c9c7 07bf d736 6f3e f616 3dbe
000000d0: 65b2 f4bd 3082 4c3c d9c3 1fbf 1ba1 6b3d
000000e0: b6d4 c63c b2ea 05bf 1603 053e 1764 553d
000000f0: d081 25be 266c 37be c5c5 14bf f285 47be
00000100: 6229 33bf e186 2c3e 3d7d 86be 4f43 7c3d
00000110: f622 d6be ce24 2abf d0c4 5ebe 8070 8ebc
00000120: 7621 b3be bede 3abf c1fd f9bd ece1 4abe
00000130: 0762 9bbe 4e4c d4bd 5e4f 0abf 2d86 96be
00000140: 5358 23be 0e02 103e 749e 11bf b872 42be
00000150: f29a 4abe 992f f2be 8b7b 91bd f639 26be
00000160: 3c2c 7d3e 3ed1 c2be 3425 333e fb2b 9ebd
00000170: f239 c7be a7e6 e0bd 9797 cdbe 2d4e bbbe
00000180: 1064 6cbe 1d5a 9dbd 5114 20bc 9aa9 04be
00000190: 98fc 3fbd c80f 03bf 791d 323d c25e d43e
000001a0: 4556 dfbd 7c59 1c3e 67a9 c3be b934 6bbe
000001b0: 8659 d53d 9b1b 983c 6b7a e6be b8d2 bbbe
000001c0: 257e 91be 0e6f 85be 5496 8cbc 26ed d4be
000001d0: ace1 833e 2db2 d4bd e2a2 b73c b25e 29be
000001e0: ecf0 00be 8baa b4be 3367 56be 0d58 ccbe
000001f0: be41 ffbe 5eee a5bd ca67 73be 92d1 d5be
00000200: 4cc4 cdbe 9717 f7be 45a4 ae3e 929d ab3d
00000210: ec47 3b3d c29a a5be 6cb0 18be 1009 163e
00000220: ee99 483e 266d e5be b11d 333e 4e8e 7f3e
00000230: 4b5b 19bf 63f6 1cbe 38e5 0fbe 921c 0cbf
00000240: 2890 83bd 9243 423e 614a 6ebe 4354 79bd
00000250: f6fa b63d f65e 5dbc 436d a33d 2368 523e
00000260: 3f90 40bf 74cd b3be 119c adbe 5c74 09bf
00000270: ede9 edbe e52d c5be b8fd 1abf 931a a5be
00000280: ddc2 8bbe 6c2b ce3e a4a2 52bf 219e cfbd
00000290: ae00 3e3b 3714 f7be 05af 13bf fdc7 81be
000002a0: 68b2 be3d fab5 d2be b49a 97be 4efa c6bd
000002b0: 7448 08bf 7fce c1be 7e2b 31bf 0789 223c
000002c0: 0ba9 93be 308f 35be 993e 543d eaf6 c33e
000002d0: 9cef e4be 3715 a73e 5af8 cfbe 2bb8 8bbd
000002e0: 2587 6dbd bdca 8bbd f107 e9be c57d c43d
000002f0: b920 32bd cba0 f93e df94 0c3f eb14 97bd
00000300: 28fc 573e edcc 0d3f 5741 963e fd4c fdbd
00000310: 3139 e13d 7798 32bf 634a 373e 0ffb 0bbf
00000320: e845 eabe 55fb babe 7801 08bf e425 9c3e
00000330: 5fb3 d1bd afd3 9b3e 707f dc3d 0308 8a3e
00000340: 85dd 713e 6937 5fbe 882f 21bf d9b8 dcbe
00000350: 36e5 4e3e c4fb 41be 65ca 81bd 1744 f739
00000360: 98e9 593e c49c c3be 6794 143e 7b86 0ebe
00000370: 9b63 b3be 7b43 8fbe 6317 ddbe 23b1 2c3d
00000380: bf72 e6be a277 07bd 0059 8abe 3a15 cbbe
00000390: a3f8 213e 41fe 93be 3a04 53be 0671 debe
000003a0: ae6e c53d ea2f 5d3d cedf 4b3f a88d 96be
000003b0: 7188 2ebe a363 c7bb e6cc 3b3f f214 0ebf
000003c0: fcfa 9fbe 4a09 143e 0b65 04be 9b72 adbe
000003d0: ce4a ff3e 9753 07bf 9f63 d7bd 1561 afbd
000003e0: 7084 f13d e124 1cbd 0cfa 9fbe a7d5 27be
000003f0: d430 07bf 477a f3be 5cb7 81be 4d14 a8bd

4.bias f4 [784]
-0.5447791 -0.42250755 -0.23432273 -0.3272936 -0.33191735 -0.5055067 -0.4585407 -0.49529094
-0.5796366 -0.43144011 -0.38294482 -0.5365134 -0.527749 -0.42633757 -0.35923666 -0.54088765
-0.3536471 -0.30577615 -0.4555804 -0.47368902 -0.5030257 -0.5637908 -0.501725 -0.41181847
-0.47808442 -0.35128593 -0.4881521 -0.3105942 -0.42564058 -0.44169435 -0.61858463 -0.38935077
-0.39453238 -0.43990704 -0.41469568 -0.19768307 -0.45595497 -0.42859352 -0.48731944 -0.5050143
-0.41856965 -0.34081164 -0.4246272 -0.5745474 -0.32985878 -0.52201474 -0.52324146 -0.55317646
-0.40116432 -0.42051405 -0.48956695 -0.41059095 -0.2987571 -0.47423372 -0.4605981 -0.4436554
-0.39084744 -0.57264906 -0.5508646 -0.55943924 -0.29999518 -0.25781342 -0.50846505 -0.3963607
-0.37133262 -0.23910108 -0.4939941 -0.4713575 -0.40596986 -0.4840906 -0.45505226 -0.3255883
-0.332762 -0.46837103 -0.33624864 -0.18184617 -0.40174788 -0.27845812 -0.40838826 -0.33400464
-0.53263104 -0.4632515 -0.44013047 -0.4610747 -0.22327727 -0.32631543 -0.43990752 -0.40011224
-0.45689788 -0.38279584 -0.2937734 -0.6405918 -0.4568368 -0.5030151 -0.4698369 -0.5497693
-0.51180553 -0.42308575 -0.43782574 -0.5079967 -0.30390596 -0.27612197 -0.39639685 -0.289609
-0.47916156 -0.41651526 -0.52480745 -0.6803682 -0.4999066 -0.5341538 -0.44817153 -0.5578868
-0.30612442 -0.3534002 -0.40526897 -0.30064276 -0.5334051 -0.61004335 -0.3524225 -0.53025216
-0.49301106 -0.43024614 -0.5175717 -0.39409113 -0.43246987 -0.26579797 -0.22057354 -0.1997378
-0.034242082 -0.20889948 -0.44398445 -0.37231502 -0.41712108 -0.41437328 -0.45577383 -0.42360702
-0.40164694 -0.4121642 -0.47788703 -0.6340791 -0.18208726 -0.34799755 -0.2906441 -0.38547188
-0.42201215 -0.38094196 -0.3995415 -0.30714518 -0.5003639 -0.3096548 -0.47572452 -0.12221124
-0.23995303 -0.15907654 -0.1156281 -0.102827504 -0.08834918 -0.25131038 -0.23804447 -0.10316839
-0.28945222 -0.4467909 -0.47500274 -0.51918656 -0.37655595 -0.57655364 -0.31659853 -0.516516
-0.51817775 -0.45947304 -0.39756483 -0.36419216 -0.48733684 -0.59445065 -0.40320206 -0.4978697
-0.3657222 -0.3653412 -0.27562857 -0.21612069 -0.12214146 -0.02198753 0.041564167 0.06995067
0.084745936 0.068537876 -0.11046485 -0.21735187 -0.20771834 -0.45675066 -0.30995637 -0.4523449
-0.35239565 -0.43042067 -0.41300893 -0.49361733 -0.39080474 -0.31695953 -0.55170727 -0.5003736
-0.5987993 -0.39846596 -0.4436655 -0.5798316 -0.5726596 -0.31104514 -0.1398398 -0.020642307
0.0069543985 0.05428666 0.047831263 0.14439772 0.031658117 -0.07679275 -0.026979713 -0.044811133
-0.15470847 -0.1908598 -0.23981592 -0.6270789 -0.58183604 -0.5093859 -0.36556986 -0.42928863
-0.27574578 -0.55400467 -0.44084916 -0.36619443 -0.36137572 -0.47704923 -0.45479107 -0.4539216
-0.30651942 -0.22928281 0.07010755 0.02806899 0.1672883 0.066286355 0.055902053 -0.034946166
-0.13193889 -0.07808083 0.038933687 -0.12874088 -0.11486211 -0.25175282 -0.29501048 -0.44790423
-0.6155858 -0.5066772 -0.41096938 -0.39305803 -0.553685 -0.35128278 -0.39988026 -0.37574604
00000000: a576 0bbf e952 d8be 4cf2 6fbe 0793 a7be
00000010: 12f1 a9be e368 01bf d9c5 eabe c696 fdbe
00000020: 1063 14bf b8e5 dcbe 5811 c4be f158 09bf
00000030: 8f1a 07bf eb48 dabe deed b7be 9d77 0abf
00000040: 3c11 b5be b18e 9cbe d641 e9be 5e87 f2be
00000050: 4bc6 00bf 9854 10bf 0d71 00bf dfd9 d2be
00000060: 7bc7 f4be c0db b3be 12ef f9be 3406 9fbe
00000070: 90ed d9be c325 e2be 905b 1ebf fc58 c7be
00000080: 2600 cabe 7f3b e1be fe52 d4be 6e6d 4abe
00000090: ee72 e9be 9c70 dbbe ef81 f9be 9e48 01bf
000000a0: c34e d6be dd7e aebe bd68 d9be 8a15 13bf
000000b0: 40e3 a8be c2a2 05bf 27f3 05bf f99c 0dbf
000000c0: 6965 cdbe 9e4d d7be 85a8 fabe fa38 d2be
000000d0: b1f6 98be c3ce f2be 84d3 ebbe cd26 e3be
000000e0: 281d c8be 2199 12bf 7605 0dbf 6937 0fbf
000000f0: f898 99be 1f00 84be c42a 02bf caef cabe
00000100: 4f1f bebe ead6 74be cbec fcbe c555 f1be
00000110: 48db cfbe b9da f7be 9cfc e8be 82b3 a6be
00000120: c85f aabe 54ce efbe c828 acbe e235 3abe
00000130: e6b1 cdbe 1092 8ebe 4418 d1be a802 abbe
00000140: 825a 08bf 4d2f edbe c858 e1be fc11 ecbe
00000150: cca2 64be d112 a7be 8f3b e1be 83db ccbe
00000160: 85ee e9be d1fd c3be 7869 96be d3fd 23bf
00000170: 83e6 e9be 99c5 00bf 768e f0be aebd 0cbf
00000180: b005 03bf b29e d8be b22a e0be 120c 02bf
00000190: 9099 9bbe dc5f 8dbe 87f4 cabe a147 94be
000001a0: aa54 f5be 7d41 d5be c859 06bf 9c2c 2ebf
000001b0: c2f3 ffbe 4ebe 08bf bd76 e5be abd1 0ebf
000001c0: 57bc 9cbe dff0 b4be 6a7f cfbe d9ed 99be
000001d0: 3d8d 08bf cd2b 1cbf b970 b4be 9bbe 07bf
000001e0: f26b fcbe 3949 dcbe 947f 04bf 50c6 c9be
000001f0: b16c ddbe ac16 88be 08de 61be 1188 4cbe
00000200: 6d41 0cbd bfe9 55be ee51 e3be 13a0 bebe
00000210: e590 d5be bc28 d4be 305b e9be 05e3 d8be
00000220: aba4 cdbe 3007 d3be 9cad f4be 0253 22bf
00000230: 1575 3abe bc2c b2be 4ecf 94be 925c c5be
00000240: fa11 d8be d30a c3be b490 ccbe 2242 9dbe
00000250: d917 00bf 138b 9ebe 2a92 f3be e349 fabd
00000260: 3fb6 75be f6e4 22be 6dce ecbd 3a97 d2bd
00000270: 6af0 b4bd c1ab 80be eec1 73be f349 d3bd
00000280: 1533 94be c7c1 e4be 8f33 f3be 69e9 04bf
00000290: f1cb c0be 0599 13bf 3419 a2be 643a 04bf
000002a0: 4ca7 04bf 0d40 ebbe 9e8d cbbe 6577 babe
000002b0: 3784 f9be eb2d 18bf 8070 cebe c7e8 febe
000002c0: f13f bbbe 000e bbbe 301f 8dbe be4e 5dbe
000002d0: 4d25 fabd 311f b4bc 303f 2a3d 4c42 8f3d
000002e0: 478f ad3d 965d 8c3d 653b e2bd 7d91 5ebe
000002f0: 1eb4 54be 39db e9be 9ab2 9ebe c099 e7be
00000300: 346d b4be 1960 dcbe e875 d3be 69bb fcbe
00000310: 8f17 c8be 8548 a2be b03c 0dbf 7c18 00bf
00000320: e94a 19bf bb03 ccbe 2028 e3be d86f 14bf
00000330: d299 12bf 4f41 9fbe 2a32 0fbe 0e1a a9bc
00000340: b9e1 e33b b05b 5e3d b7ea 433d ffdc 133e
00000350: f1ab 013d 8445 9dbd 8f04 ddbc e18b 37bd
00000360: e66b 1ebe c070 43be 4e92 75be 3e88 20bf
00000370: 35f3 14bf 1d67 02bf f92b bbbe b8cb dbbe
00000380: 8d2e 8dbe 40d3 0dbf fbb6 e1be d67d bbbe
00000390: 3d06 b9be cc3f f4be 60da e8be 6968 e8be
000003a0: 1df0 9cbe 1dc9 6abe 8c94 8f3d f0f0 e53c
000003b0: a04d 2b3e 24c1 873d 8df9 643d b623 0fbd
000003c0: fd1a 07be d8e8 9fbd ee78 1f3d a6d4 03be
000003d0: d33c ebbd bfe5 80be 9d0b 97be b453 e5be
000003e0: 0897 1dbf 99b5 01bf 946a d2be e73e c9be
000003f0: 4dbe 0dbf 56db b3be 1bbd ccbe c961 c0be
